demo/tianshou/continuous/log/Pendulum-v1/ppo/policy.pth (torch, 42942 bytes, 20 tensors)

actor.preprocess.model.model.0.weight f4 [64, 3]
000000 f0 fd 01 be f5 5f 99 3e 19 7b 44 bd f7 ac 01 3e
       -0.12694526 0.29956022 -0.047968958 0.12663637
000010 67 5c 30 bd bf 2e e7 3d cf 8c be 3d ef 40 14 3e
       -0.04305687 0.11288213 0.09304201 0.14477895
000020 3e ea b9 3e b1 2f 24 3d e6 f4 c8 bc 24 0b b7 3d
       0.36311525 0.040084545 -0.02453084 0.08937672
000030 d5 4e 30 bd fc 09 9f 3d 27 13 2b be c0 3a 5a 3d
       -0.04304393 0.07765576 -0.16706525 0.053278685
000040 a2 43 04 3e c3 3a e4 bc 8c 99 74 bd 23 8b 31 be
       0.12916425 -0.027860051 -0.059716746 -0.17338233
000050 b2 30 04 bd 4d 2f 6e 3e 8c 57 e7 3d 7c d7 db 3d
       -0.032273002 0.23260231 0.11295995 0.1073446
000060 28 15 ca bd da 51 3b 3e c3 ca 80 be bb 7d 85 3e
       -0.098673165 0.18292943 -0.25154695 0.26072487
000070 2a 23 15 be f3 d2 1e be ca d1 50 3c 9b a9 43 3e
       -0.14564195 -0.15510158 0.01274533 0.19107668
000080 59 73 d2 3c aa 81 13 bc 66 bf 3b be b7 78 31 3e
       0.025689768 -0.009003082 -0.18334731 0.17331205
000090 ae b5 2f bc b0 19 0a be 46 2d 2e 3e 08 8c af bb
       -0.010724468 -0.13486362 0.17009458 -0.005357269
0000a0 72 6d 25 bd 68 c6 82 3d f2 0b 17 be 5a a5 81 3d
       -0.04038758 0.06385499 -0.1475065 0.063303664
0000b0 61 60 03 3e 9a f4 00 be c7 45 3e 3e 8a 3f 12 3e
       0.12829734 -0.12593308 0.18581305 0.1428205
0000c0 25 49 3d 3e 08 89 81 3d 2a ff ec bc f5 de dc bd
       0.18484934 0.06324965 -0.028930265 -0.10784713
0000d0 a2 84 0a 3e 26 47 25 3e 1b 63 66 bd f8 5e 29 bd
       0.13527158 0.16140422 -0.056246858 -0.041350335
0000e0 0e 51 f5 3d 75 2d 54 3d 0f d8 78 3e 3e f4 e5 bd
       0.119783506 0.051801164 0.2430117 -0.11228226
0000f0 74 da 0e 3e d6 68 20 3e e9 79 c6 bd e7 15 f0 3c
       0.13950521 0.15664992 -0.09691221 0.029307319
000100 fe 64 22 3e 0d 67 1b be b0 8b 0a be ae 0f 47 bd
       0.15858838 -0.1517603 -0.13529849 -0.048598938
000110 7b c1 23 be 03 bb 01 3d 72 b7 67 bd 7d b5 a9 3d
       -0.15991776 0.03167249 -0.05657143 0.08286569
000120 96 bc ed bd fc 28 32 bc 44 e0 56 bd f3 99 b2 3b
       -0.116082355 -0.010874029 -0.05245997 0.005450481
000130 5d 40 cf bd 47 f8 2c 3e 29 cd 90 bd ba b4 1b 3e
       -0.10119698 0.16891585 -0.07070381 0.1520566
000140 b9 aa 52 bc f4 6c b9 3d c6 0c 75 3e 17 8a 86 3e
       -0.012858086 0.09053984 0.23930654 0.2627723
000150 0a ea ac bd 6c bc e5 bd e1 cb 79 bd 70 c1 c4 3d
       -0.08443077 -0.11217579 -0.06098545 0.09607208
000160 1f 89 0a bd cd 14 a3 be 02 5a a6 3c ac c2 6d be
       -0.033822175 -0.31851807 0.020306591 -0.23218793
000170 d0 2b a1 bd 3d 4d 8b be 68 4c 55 3c c6 a4 13 3d
       -0.07869685 -0.27207366 0.013018705 0.036045812
000180 f1 0c 11 3e 10 5a 2b 3b 70 68 11 3d 5c 6b ac 3d
       0.14165093 0.002614621 0.03549999 0.08418915
000190 b3 8c 64 be b4 d8 e6 bc d3 8a a2 3d 8c 6b 43 3d
       -0.22319297 -0.028179504 0.07936635 0.047709987
0001a0 0f 1f 85 3d d3 0c 2b be bb e0 b3 bd 51 b3 1b bd
       0.065000646 -0.16704111 -0.08783098 -0.038012806
0001b0 78 48 16 bd ad 69 d8 3d c7 c8 98 bd 5b 81 38 be
       -0.036690205 0.10567031 -0.0746017 -0.18018095
0001c0 56 06 88 be 50 de 0f 3d e4 0f b2 3d 14 a2 af bc
       -0.26567334 0.035124123 0.08694437 -0.02143959
0001d0 b6 67 3a bd c6 98 30 3d 44 1c 13 bb eb a5 09 be
       -0.045509063 0.043114446 -0.0022447268 -0.13442199
0001e0 5a a7 2c 3e eb 66 b3 bc b3 90 36 bd 89 18 93 bc
       0.16860715 -0.021899661 -0.04457159 -0.017956035
0001f0 e7 67 84 3d 10 25 8d be 40 73 c7 bc 12 19 17 3e
       0.0646513 -0.2756734 -0.024346948 0.14755657
000200 f1 8a 4c bc 91 f8 25 be 60 b8 df 3d 71 01 49 bd
       -0.012484298 -0.16208102 0.109238386 -0.04907364
000210 e0 8a fa bc e5 98 2d be ab d4 42 bd b1 35 1e 3e
       -0.030583799 -0.16952856 -0.047566097 0.15450169
000220 3c b1 29 3c dc eb 8c 3c 77 b9 00 bd 10 0b 13 bc
       0.010357197 0.01720231 -0.031426873 -0.0089748055
000230 1e 88 36 3e 2f 01 3e 3e ec 4e 06 3c 8b 26 10 3e
       0.17825362 0.18555139 0.008197527 0.14077203
000240 01 fc 58 bd 67 1b f3 3d b1 0b a6 3d 8d 0a ee bd
       -0.052974705 0.11870461 0.08107699 -0.11623106
000250 eb 76 36 be af 59 88 3d 5a 87 e9 bd 9e db 49 3d
       -0.17818801 0.06657731 -0.114027694 0.04928171
000260 24 5d a8 3d 95 0b 23 3e 30 48 11 3c 2c e6 c4 3c
       0.0822089 0.15922387 0.0088673085 0.024035536
000270 40 b5 1d be bc a8 d2 bd f7 76 55 3d 59 96 dd 3d
       -0.15401173 -0.1028609 0.052115407 0.10819692
000280 a5 f5 97 bc 2b 9b 48 3c fd c0 f8 3d e9 51 11 be
       -0.01854975 0.012244026 0.121461846 -0.14191402
000290 4c 55 a8 3d 2d af 25 be 51 85 2a 3d c8 9b e8 3d
       0.08219394 -0.16180106 0.041631047 0.11357838
0002a0 e3 91 54 be 78 47 99 3b f4 f6 d6 bd 78 d9 22 be
       -0.20758776 0.004677709 -0.10496321 -0.1590327
0002b0 16 ac 55 3d 41 c7 45 3e 43 fd 0a 3d 8c 4d 98 3d
       0.052166067 0.1931429 0.033932935 0.07436666
0002c0 f9 96 88 3d d8 01 d2 bd f2 44 2f be b4 7a 60 bc
       0.06669421 -0.10254258 -0.17116144 -0.01370113
0002d0 05 d9 3d 3e f6 80 ce 3c c9 e7 c1 bd a4 0e 0e be
       0.18539818 0.025207978 -0.09468038 -0.13872772
0002e0 18 54 c5 3d 33 d8 d2 bc cf 95 5e be a1 ef 4e 3d
       0.0963518 -0.025737857 -0.21736835 0.050521497
0002f0 7a 19 d8 bd bb 91 48 3e ee aa da 3c 2a 39 4b bc
       -0.10551734 0.19586842 0.026692834 -0.012403766

actor.preprocess.model.model.0.bias f4 [64]
000000 00 00 00 00 00 00 00 00 00 00 00 00 00 00 00 00
       0.0 0.0 0.0 0.0
000010 00 00 00 00 00 00 00 00 00 00 00 00 00 00 00 00
       0.0 0.0 0.0 0.0
000020 00 00 00 00 00 00 00 00 00 00 00 00 00 00 00 00
       0.0 0.0 0.0 0.0
000030 00 00 00 00 00 00 00 00 00 00 00 00 00 00 00 00
       0.0 0.0 0.0 0.0
000040 00 00 00 00 00 00 00 00 00 00 00 00 00 00 00 00
       0.0 0.0 0.0 0.0
000050 00 00 00 00 00 00 00 00 00 00 00 00 00 00 00 00
       0.0 0.0 0.0 0.0
000060 00 00 00 00 00 00 00 00 00 00 00 00 00 00 00 00
       0.0 0.0 0.0 0.0
000070 00 00 00 00 00 00 00 00 00 00 00 00 00 00 00 00
       0.0 0.0 0.0 0.0
000080 00 00 00 00 00 00 00 00 00 00 00 00 00 00 00 00
       0.0 0.0 0.0 0.0
000090 00 00 00 00 00 00 00 00 00 00 00 00 00 00 00 00
       0.0 0.0 0.0 0.0
0000a0 00 00 00 00 00 00 00 00 00 00 00 00 00 00 00 00
       0.0 0.0 0.0 0.0
0000b0 00 00 00 00 00 00 00 00 00 00 00 00 00 00 00 00
       0.0 0.0 0.0 0.0
0000c0 00 00 00 00 00 00 00 00 00 00 00 00 00 00 00 00
       0.0 0.0 0.0 0.0
0000d0 00 00 00 00 00 00 00 00 00 00 00 00 00 00 00 00
       0.0 0.0 0.0 0.0
0000e0 00 00 00 00 00 00 00 00 00 00 00 00 00 00 00 00
       0.0 0.0 0.0 0.0
0000f0 00 00 00 00 00 00 00 00 00 00 00 00 00 00 00 00
       0.0 0.0 0.0 0.0

actor.preprocess.model.model.2.weight f4 [64, 64]
000000 00 b8 9e 3d 9c b3 f8 bd 40 27 9e bc 50 fb 8e bd
       0.07749939 -0.12143633 -0.019305825 -0.06981528
000010 54 04 44 be 14 00 8e bd bc 7e 43 be 0e 18 eb bd
       -0.19142276 -0.06933609 -0.19091314 -0.114791974
000020 f8 95 80 bd fc 0b 67 3c 89 ee 2d 3e ba 1c f6 3d
       -0.06278604 0.014101978 0.16985525 0.12017198
000030 3b 37 de 3d b9 5d cf 3d e4 b9 17 bd 44 89 e7 3d
       0.10850378 0.10125298 -0.037042513 0.11305478
000040 3b 36 92 bd 0d 0f bd 3d 26 93 a8 3e ea 9f dc 3d
       -0.0713925 0.09231386 0.32924765 0.10772689
000050 19 70 91 bd aa 71 90 3d c8 60 eb bc ea 1b fd bd
       -0.07101459 0.0705293 -0.028732672 -0.1235884
000060 54 fd 77 bc ee b3 81 bd 6c 2f be bd 42 74 f9 bd
       -0.015136082 -0.06333147 -0.09286389 -0.121803775
000070 c8 cb 75 bd a0 97 5e bb 80 34 8b 39 7a 02 d8 3d
       -0.060008794 -0.0033964887 0.00026551262 0.10547347
000080 7f 12 94 be 6e 5e ca 3b b7 a1 1e 3d 0d 1e 70 bd
       -0.2892036 0.0061758077 0.038728442 -0.05862241
000090 6c f7 f2 3d 98 be 4b 3d a8 87 05 bd 49 57 0f be
       0.11863598 0.04974231 -0.032600075 -0.1399814
0000a0 fe 5f 6a be 58 cd 70 3d 7a e2 ac be 62 6d 5d 3d
       -0.2288818 0.05878958 -0.33766538 0.054059394
0000b0 6c d7 13 3c fa 04 17 be 5a 76 7a 3e c0 3c 83 ba
       0.009023529 -0.14747992 0.2445921 -0.0010012612
0000c0 a4 ee 20 3d c0 8a 81 3e 75 6c 35 bc 78 00 f1 bd
       0.039290085 0.2530117 -0.011073221 -0.117676675
0000d0 c2 22 94 bd 81 71 df bd aa f6 0c be 02 cd ae bd
       -0.07233192 -0.10910321 -0.1376597 -0.08535196
0000e0 37 47 4a bd 89 1b 12 3e 8c 26 e5 3d c4 df e4 bc
       -0.049384322 0.14268316 0.11188993 -0.027938731
0000f0 b0 0c 4c bc f3 c4 57 be f7 fd 11 bd cf cb e0 3d
       -0.012454197 -0.21071224 -0.03564259 0.109763734
000100 9f 04 81 3e 00 51 37 3e a0 11 6b 3e bf bd 8c 3d
       0.25198838 0.17901993 0.22955942 0.06872129
000110 52 91 8c 3d ee c1 08 be 7c 5e bb 3d 65 a0 de 3d
       0.06863655 -0.13355228 0.09148881 0.108704366
000120 58 df 87 3e 7b fb 88 bd 33 6c 1c 3e 88 bf 06 bb
       0.26537585 -0.06688591 0.1527565 -0.002056094
000130 98 32 a9 3c ec d3 3b be be 8c 13 be ad 2d a5 bd
       0.020654008 -0.1834256 -0.14409158 -0.080653526
000140 c6 15 df bc 3c 3e de bd a8 b6 f7 3d b0 77 1b 3e
       -0.027232062 -0.10851714 0.12095386 0.15182376
000150 18 50 97 3e 66 40 2f bd 59 1c d2 bd 19 75 16 be
       0.29553294 -0.042786025 -0.10259313 -0.14693107
000160 85 45 89 3d 49 60 04 3e 58 5b 5b be 54 e3 68 3d
       0.06702713 0.12927355 -0.21421564 0.056857422
000170 24 1b b5 3d 80 12 f3 3d 66 d9 2b 3d 26 fc 4f 3d
       0.08843067 0.11868763 0.041955374 0.050777577
000180 f5 67 b8 3d 98 55 d3 bd cf 0d 99 3d f5 ec 52 bd
       0.09004203 -0.1031906 0.07473337 -0.05149551
000190 40 72 03 bd 16 d2 d7 bc 60 0a 37 3e d4 d5 c1 bc
       -0.03209138 -0.026345294 0.17875051 -0.023661532
0001a0 21 66 0e be 04 1d 11 bd 3f 4e 99 be 48 67 a4 bd
       -0.13906147 -0.035428062 -0.2994251 -0.08027512
0001b0 62 9a b8 3c a4 35 14 3e 5d 40 8a bd 73 2f d7 3d
       0.022534553 0.14473587 -0.067505576 0.10507097
0001c0 de 96 c6 3b 4e 74 da bd 29 d7 2c 3d 6e 89 46 3c
       0.0060604652 -0.106667146 0.04219738 0.012117727
0001d0 a3 7f b3 bd f7 2d 1c be 2d 29 60 3d 30 b1 49 3d
       -0.08764579 -0.15251909 0.05472677 0.049241245
0001e0 a0 96 62 bd f2 95 1b 3d c8 77 98 3c 8a 9f 66 3c
       -0.05531943 0.037984796 0.018611804 0.014076123
0001f0 5a 73 36 3e 0c a7 6e 3e 15 ac d6 3d 83 b4 cb 3d
       0.1781744 0.23305911 0.10482041 0.09946539
000200 17 4e c2 3d 07 b7 58 3d 40 28 5f bd 0d 18 ff 3d
       0.09487551 0.052908923 -0.054481745 0.12455759
000210 88 a4 60 be 26 42 89 bd 5e bf da be 4a 61 f7 3b
       -0.21937764 -0.0670207 -0.42724127 0.0075494396
000220 ad 37 fe bd ff 32 12 be 3f 1b 30 3e 9f 14 4d 3d
       -0.12412963 -0.14277266 0.17197894 0.050068494
000230 d4 a7 c5 3d f5 03 18 3e d9 f1 cc 3b cc bd 4d bb
       0.09651151 0.1484526 0.0062544164 -0.0031393645
000240 f7 c1 bf 3d 8a 0f 02 be 94 75 8c bd d7 08 54 3e
       0.09363168 -0.1270124 -0.06858364 0.20706497
000250 68 89 2a be fc d9 ee 3b de 96 87 bd df 71 b0 3c
       -0.16653979 0.0072891694 -0.066205725 0.021538673
000260 5e 11 2b 3e 70 09 d2 3d 1c e9 95 bd 13 14 fd 3d
       0.16705844 0.10255706 -0.07319853 0.123573445
000270 54 ae 34 bc 7a 6f 23 bc 69 b2 2c 3e ba 2e 12 bd
       -0.011027891 -0.009975309 0.16864933 -0.035689093
000280 2f 47 15 bd 89 d7 bd 3d c3 10 9f be 53 35 65 be
       -0.03644484 0.09269626 -0.31067476 -0.22383623
000290 02 8f dc 3c 42 35 88 3c ac 2e 99 bd 6d 95 12 bd
       0.02692366 0.016626958 -0.07479605 -0.035787035
0002a0 c7 3b 34 bd e0 54 85 3d 90 89 db 3a bf 96 cf bb
       -0.04400232 0.06510329 0.0016749371 -0.006335109
0002b0 07 18 f3 bd 61 6e 01 3e 74 e3 86 be 9a 24 0e be
       -0.11869817 0.12639762 -0.26345408 -0.1388115
0002c0 b0 ff dd 3c 0b a7 ea bd 67 d3 ce 3d e8 0e d8 3c
       0.02709946 -0.11457642 0.100989155 0.026374295
0002d0 05 4d 3c 3d b6 c0 32 bb 3d 4f 2b 3e 60 2b 14 3d
       0.04597189 -0.002727551 0.16729446 0.036174178
0002e0 ff 44 2b 3e 34 2f d4 bd 90 2c 37 be 19 e9 d6 3d
       0.16725539 -0.10360566 -0.17888093 0.104936786
0002f0 c9 2c 9d bd 16 d6 0b 3d 37 77 94 3d ac c4 20 3d
       -0.07674558 0.034139715 0.07249301 0.03925006
000300 09 a7 ae be 7f 0e 51 3d a6 f4 46 be b0 f3 f7 bd
       -0.34111813 0.051039215 -0.19429263 -0.121070266
000310 53 bc 6f 3e 4c d2 05 be 3a 79 fb 3c e9 a2 5c bd
       0.23411684 -0.13068503 0.030697454 -0.0538663
000320 c9 3b 44 be f7 7a 81 3d 68 65 b6 bd 0f 3c 02 3e
       -0.19163431 0.06322282 -0.089060605 0.12718223
000330 d5 dd 53 3d 96 a3 e8 bd 7b 64 89 bd 3e e4 0e 3e
       0.051725227 -0.113593265 -0.06708618 0.13954255
000340 50 f7 47 3d 14 79 00 3d 02 50 1a 3e 4c 86 a3 3d
       0.04881984 0.03136547 0.15069583 0.079845995
000350 65 69 ae bd ca 33 56 3d 2c 42 9a bd e8 18 11 be
       -0.08516196 0.052295484 -0.075321525 -0.14169657
000360 48 db cb 3d f0 35 6b bd dd 55 ce 3d 12 f3 fc 3c
       0.09953934 -0.057424486 0.10074971 0.030877624
000370 f2 85 39 bd d2 ea 0e 3d 22 20 0f 3e 66 e0 dc bd
       -0.045293756 0.03489191 0.13977101 -0.10784988
000380 1c f2 7f bd d8 86 11 be 64 88 9d bc 9c d0 1c 3e
       -0.062486753 -0.14211595 -0.019230075 0.15313953
000390 63 b8 b2 bd 64 41 2b 3d 2e de 93 bd 90 ea 5f be
       -0.08726575 0.04181041 -0.07220112 -0.21866822
0003a0 b0 8e d8 bd b0 b6 09 3e 00 90 c5 3b 84 ee 1b bd
       -0.105740905 0.13448596 0.006029129 -0.038069263
0003b0 16 d4 95 bd 34 bf 7d 3e f9 9f c4 bd b8 11 18 3e
       -0.07315843 0.2477997 -0.09600825 0.14850509
0003c0 54 3d 92 bd f6 d9 43 bd 9e 03 6a 3e 07 43 4a 3e
       -0.07140604 -0.047815286 0.22852942 0.19752131
0003d0 6b 44 3c be 76 db ce bd 3c 22 25 3c 2d 14 36 be
       -0.18385474 -0.101004526 0.010078963 -0.17781134
0003e0 50 c9 ea bc 16 1d 7b bd b0 75 0f be 4f a0 18 be
       -0.028660446 -0.061307035 -0.14009738 -0.14904903
0003f0 3f 8d 65 3e 4f c6 86 3d ef 83 ab bd b0 ac 2c bc
       0.22417162 0.06580793 -0.08374774 -0.010539219

actor.preprocess.model.model.2.bias f4 [64]
000000 00 00 00 00 00 00 00 00 00 00 00 00 00 00 00 00
       0.0 0.0 0.0 0.0
000010 00 00 00 00 00 00 00 00 00 00 00 00 00 00 00 00
       0.0 0.0 0.0 0.0
000020 00 00 00 00 00 00 00 00 00 00 00 00 00 00 00 00
       0.0 0.0 0.0 0.0
000030 00 00 00 00 00 00 00 00 00 00 00 00 00 00 00 00
       0.0 0.0 0.0 0.0
000040 00 00 00 00 00 00 00 00 00 00 00 00 00 00 00 00
       0.0 0.0 0.0 0.0
000050 00 00 00 00 00 00 00 00 00 00 00 00 00 00 00 00
       0.0 0.0 0.0 0.0
000060 00 00 00 00 00 00 00 00 00 00 00 00 00 00 00 00
       0.0 0.0 0.0 0.0
000070 00 00 00 00 00 00 00 00 00 00 00 00 00 00 00 00
       0.0 0.0 0.0 0.0
000080 00 00 00 00 00 00 00 00 00 00 00 00 00 00 00 00
       0.0 0.0 0.0 0.0
000090 00 00 00 00 00 00 00 00 00 00 00 00 00 00 00 00
       0.0 0.0 0.0 0.0
0000a0 00 00 00 00 00 00 00 00 00 00 00 00 00 00 00 00
       0.0 0.0 0.0 0.0
0000b0 00 00 00 00 00 00 00 00 00 00 00 00 00 00 00 00
       0.0 0.0 0.0 0.0
0000c0 00 00 00 00 00 00 00 00 00 00 00 00 00 00 00 00
       0.0 0.0 0.0 0.0
0000d0 00 00 00 00 00 00 00 00 00 00 00 00 00 00 00 00
       0.0 0.0 0.0 0.0
0000e0 00 00 00 00 00 00 00 00 00 00 00 00 00 00 00 00
       0.0 0.0 0.0 0.0
0000f0 00 00 00 00 00 00 00 00 00 00 00 00 00 00 00 00
       0.0 0.0 0.0 0.0

actor.mu.model.0.weight f4 [1, 64]
000000 f0 47 58 be ee 21 49 3d a5 53 5f 3c 89 85 62 bc
       -0.21121192 0.049104623 0.013630782 -0.013825783
000010 6d bc 67 be df a6 42 3e 3e 01 bb 3d 49 f6 8b bb
       -0.22630472 0.19008969 0.09131096 -0.004271303
000020 44 0d f3 bd 75 70 0a be d8 c7 cc 3e a6 b4 4f bd
       -0.118677646 -0.13519461 0.3999622 -0.05070939
000030 6f 18 f9 bd 9a 92 c7 bd 01 7a f2 bb c8 5d f2 bc
       -0.121628635 -0.09744759 -0.007399798 -0.029585734
000040 f4 65 41 3d eb 07 dc bc da 2d 11 3e f2 a2 43 3d
       0.04721637 -0.026859244 0.14177647 0.04776282
000050 0f 9f 55 3d a6 6f 08 3d e0 da 2c 3b d7 3d 82 be
       0.052153643 0.0333096 0.0026375577 -0.25437805
000060 1c 4f cb bd 52 61 bc bd bb 7f 1c be ff 92 77 bd
       -0.09927198 -0.0919825 -0.152831 -0.06044292
000070 d3 82 9c bd 83 39 84 3d cc 82 a6 bb 87 dc 6b 3d
       -0.0764214 0.06456282 -0.00508151 0.05758336
000080 f5 73 8e be b6 6e 3b 3e d9 e4 1c 3d 99 3c 81 bd
       -0.27822843 0.18303952 0.038304184 -0.06310386
000090 8f 57 6e be 25 1f 0c 3c 92 e6 b1 3c 7b e6 d5 3d
       -0.23275588 0.008552347 0.02171639 0.10444351
0000a0 dc dc d8 bd 4a 76 32 3e aa d9 10 3e fe c7 35 bd
       -0.105890006 0.17427936 0.14145532 -0.04438018
0000b0 a8 24 25 3e cc ab c2 3b f4 32 ad bd 3e f7 e7 bd
       0.16127264 0.00594089 -0.08456984 -0.113264546
0000c0 51 d3 97 3d c0 b9 e8 bd b5 39 f5 3d b9 2b 17 3e
       0.07413352 -0.11363554 0.11973897 0.14762773
0000d0 cc 93 2c bd b2 0c 1e 3e f0 3f 14 be cc 6f c8 3d
       -0.042133138 0.1543453 -0.14477515 0.097869486
0000e0 b4 d1 b8 bd 89 98 0c be 02 51 a7 3d 85 6f e3 bd
       -0.09024373 -0.13730063 0.08169748 -0.11105255
0000f0 de 37 f3 3d 76 ef 29 3c 6e f8 16 3e cc 64 62 3b
       0.1187589 0.010372033 0.14743206 0.0034544943

critic.preprocess.model.model.0.weight f4 [64, 3]
000000 60 ed 29 bd 80 77 b3 3d 85 ee 99 3d 7d 17 e4 bd
       -0.041486144 0.08763027 0.07516197 -0.111372925
000010 98 b9 c3 bc 78 74 54 3e 35 19 8e 3e 14 5a 8f 3d
       -0.023892209 0.20747554 0.27753606 0.06999603
000020 2a b5 03 be 0a 07 b3 bd 0a 20 13 bd 96 78 7b be
       -0.12862077 -0.08741577 -0.035919227 -0.24557719
000030 c7 3b 68 be 03 ae 4f bd 3e ed 10 be 90 b2 7f 3d
       -0.22679053 -0.05070306 -0.14153 0.06242615
000040 fd 34 69 be 34 26 b5 3b 7d 6f 9b bd 5a 37 4a 3c
       -0.2277412 0.005528236 -0.07589624 0.012342298
000050 4c 16 05 3d eb 60 81 3e ad a0 07 be 0a 01 fa bb
       0.032491967 0.25269255 -0.13244887 -0.0076295184
000060 19 76 26 be 53 b1 d3 3d 71 8d 3d be 1d df 95 3c
       -0.16255988 0.10336556 -0.18510987 0.018294865
000070 61 99 9b 3e 1d 94 8c bd 38 9d 35 bc 47 09 a1 3e
       0.30390456 -0.06864188 -0.011084847 0.3145239
000080 2d a3 f9 3c 7d 41 07 3e 46 13 1d 3e 4e fe ed bd
       0.030473316 0.13208576 0.15339383 -0.116207704
000090 79 b7 1a 3e 9c 80 89 3e 9b 3d 80 3d 8c 89 30 be
       0.15109052 0.26855934 0.0626175 -0.1723997
0000a0 27 a6 9a 3c d8 7d 97 3d e1 0c 68 3c 22 8f 94 3c
       0.018878056 0.0739705 0.014163227 0.018134657
0000b0 ea 21 9b 3c 76 20 1b bc 99 5a 8a 3c 66 8d 9d 3c
       0.01893707 -0.0094681885 0.016888903 0.019232463
0000c0 14 89 13 3e 75 de a1 bd 89 fc 85 be a5 ef b0 bd
       0.1440776 -0.079037584 -0.26169232 -0.086394586
0000d0 1e 4f 15 3d 15 f8 7d be e7 9b f6 bd a1 f2 d6 3d
       0.036452405 -0.24801667 -0.12041455 0.104954965
0000e0 fb 9b 37 3d 33 c6 46 3d 98 1a 6c 3e 30 29 09 3e
       0.04482649 0.04852886 0.2305702 0.13394618
0000f0 72 6a d2 bd a4 84 8e 3d 23 d7 ee bd 9a d2 81 bd
       -0.10274209 0.06958893 -0.11662128 -0.06338997
000100 bc 84 54 3d 28 ab fc 3d 52 6b 49 3e 4e da 5d 3d
       0.051884398 0.12337333 0.19669846 0.05416327
000110 2c d8 96 3d a3 cd 93 bd 5a 7b 26 be 6d 0a 2b be
       0.0736545 -0.072169565 -0.16257992 -0.16703196
000120 0a 88 10 3e 79 91 9f 3e 8c 08 31 3d 7c 73 10 3c
       0.14114395 0.31165674 0.04322104 0.008816596
000130 bf 3a 44 3e 91 2a 32 bd ad 25 55 3e 29 db eb bd
       0.19163035 -0.043497626 0.20815153 -0.11516411
000140 2e d8 5c bd 98 16 06 3e f7 ac d0 bd 1c eb 21 bd
       -0.053917103 0.13094556 -0.101892404 -0.03953086
000150 54 7b c0 bc e0 f0 2d 3e 02 5f 1f bc 11 8e 87 3d
       -0.023496307 0.16986418 -0.0097272415 0.06618894
000160 aa 32 35 3d 2e 20 87 bd 99 87 ea bc 90 09 35 be
       0.04423777 -0.06597935 -0.028629111 -0.17679429
000170 e1 da 28 3d 37 7b f5 bd 17 12 d3 3d 56 b9 e9 bd
       0.041224364 -0.11986392 0.10306185 -0.11412303
000180 1f 57 80 be b6 00 4a 3d c6 8b 3a 3e bf f0 40 3d
       -0.25066468 0.049317084 0.18217382 0.047104593
000190 e3 0c 1a be 3a a6 ca 3d 5a fd a8 bd a6 62 6d bc
       -0.15043978 0.098949865 -0.08251448 -0.014488852
0001a0 14 3a 71 be 3e c9 b3 bd 06 57 c7 3d e9 0d 0c be
       -0.23557311 -0.08778618 0.09733395 -0.13677181
0001b0 31 47 69 bc 4e 7f 1c 3e 05 0f 85 be b8 c8 14 3e
       -0.014238165 0.15282938 -0.25988021 0.14529693
0001c0 7a 70 f7 bc 37 ca b8 3d f2 eb ee 3d e4 94 0b 3e
       -0.030205 0.090229444 0.11666097 0.13631016
0001d0 cf 5a b6 bd 02 f5 fb bd 94 92 64 3d 9e ae 84 3d
       -0.08904039 -0.12302591 0.05580385 0.06478618
0001e0 39 dd 80 bd e1 36 94 bc 2e 7f dc bd 0d 52 2d be
       -0.06292195 -0.018092575 -0.10766445 -0.16925831
0001f0 7c 69 22 bc 99 b3 89 3e b1 bf 4e 3d 71 c1 4e 3d
       -0.009912845 0.26894835 0.05047578 0.05047745
000200 23 20 ac 3c fb 4e 0b be cc 33 e5 3d 68 17 a5 bb
       0.021011418 -0.13604347 0.1119152 -0.0050381906
000210 8d 33 92 bd c0 12 66 bc 79 c2 e4 3d 54 47 4d 3e
       -0.07138739 -0.014042556 0.11169905 0.20046741
000220 e4 b6 30 3e 72 53 22 3d 26 30 a4 3d e1 10 f2 3d
       0.17257267 0.03963036 0.08016996 0.11819626
000230 28 43 f0 bd 8d a1 aa bd 96 b0 8c 3d 14 d1 2a be
       -0.11731559 -0.083315946 0.068696186 -0.1668132
000240 d1 39 25 bd 3e 9b d2 bb b5 b7 8d bc 84 a4 ab 3d
       -0.04033834 -0.0064271977 -0.017299512 0.08380988
000250 ee ad 03 3b 7e e8 b4 3c 31 b2 73 be d2 8b b6 bd
       0.0020092684 0.022083517 -0.23798443 -0.08913387
000260 13 30 21 be 05 d7 51 be 82 f7 c3 3d 13 99 87 3e
       -0.15740995 -0.2049218 0.09568693 0.26483974
000270 1e 59 18 bd aa fe 54 bd b0 c1 52 39 62 57 5e bd
       -0.037194364 -0.05200068 0.00020099315 -0.054282553
000280 95 fd 21 be 0a 1f 4f be 39 b2 89 3e 99 32 2a be
       -0.1581939 -0.20226684 0.26893786 -0.16620864
000290 5a 61 e4 3c 25 61 c6 bd b0 bf 49 bd 6c ba 87 3d
       0.027878452 -0.096864976 -0.049255073 0.06627354
0002a0 6e 23 e1 bd be 77 df bc d2 65 34 be 6d 6e 60 3c
       -0.10993086 -0.027278777 -0.17616966 0.013698203
0002b0 01 15 10 bd b0 d9 b8 3c fc 9b 64 3d fd ee 09 be
       -0.03517628 0.022564739 0.05581282 -0.13470073
0002c0 b5 24 0f 3e f2 49 c6 ba 49 75 f8 bd 71 1d 8c bc
       0.13978846 -0.0015128239 -0.12131745 -0.017103883
0002d0 ce bb 31 3c e8 02 43 bc 87 d1 21 3d dc b5 a8 3d
       0.010847999 -0.011902548 0.03950646 0.08237812
0002e0 37 2c 83 bd 32 f5 49 3d 70 00 ea 3d 28 02 79 3b
       -0.06404918 0.049306102 0.11425865 0.003799567
0002f0 7b aa 82 3d e9 e4 86 bd ba dc 05 be a5 bc 81 3d
       0.06380173 -0.0658663 -0.13072482 0.06334809

critic.preprocess.model.model.0.bias f4 [64]
000000 00 00 00 00 00 00 00 00 00 00 00 00 00 00 00 00
       0.0 0.0 0.0 0.0
000010 00 00 00 00 00 00 00 00 00 00 00 00 00 00 00 00
       0.0 0.0 0.0 0.0
000020 00 00 00 00 00 00 00 00 00 00 00 00 00 00 00 00
       0.0 0.0 0.0 0.0
000030 00 00 00 00 00 00 00 00 00 00 00 00 00 00 00 00
       0.0 0.0 0.0 0.0
000040 00 00 00 00 00 00 00 00 00 00 00 00 00 00 00 00
       0.0 0.0 0.0 0.0
000050 00 00 00 00 00 00 00 00 00 00 00 00 00 00 00 00
       0.0 0.0 0.0 0.0
000060 00 00 00 00 00 00 00 00 00 00 00 00 00 00 00 00
       0.0 0.0 0.0 0.0
000070 00 00 00 00 00 00 00 00 00 00 00 00 00 00 00 00
       0.0 0.0 0.0 0.0
000080 00 00 00 00 00 00 00 00 00 00 00 00 00 00 00 00
       0.0 0.0 0.0 0.0
000090 00 00 00 00 00 00 00 00 00 00 00 00 00 00 00 00
       0.0 0.0 0.0 0.0
0000a0 00 00 00 00 00 00 00 00 00 00 00 00 00 00 00 00
       0.0 0.0 0.0 0.0
0000b0 00 00 00 00 00 00 00 00 00 00 00 00 00 00 00 00
       0.0 0.0 0.0 0.0
0000c0 00 00 00 00 00 00 00 00 00 00 00 00 00 00 00 00
       0.0 0.0 0.0 0.0
0000d0 00 00 00 00 00 00 00 00 00 00 00 00 00 00 00 00
       0.0 0.0 0.0 0.0
0000e0 00 00 00 00 00 00 00 00 00 00 00 00 00 00 00 00
       0.0 0.0 0.0 0.0
0000f0 00 00 00 00 00 00 00 00 00 00 00 00 00 00 00 00
       0.0 0.0 0.0 0.0

critic.preprocess.model.model.2.weight f4 [64, 64]
000000 c0 68 1a 3d 15 0a fe 3d e3 56 37 be 54 b7 59 3d
       0.037697554 0.12404267 -0.17904238 0.05315335
000010 2f 30 ae 3d 3f e0 11 be 5f 2d 17 be bc 8e 9d bd
       0.08505284 -0.142457 -0.14763401 -0.0769324
000020 c2 e5 9f be c8 43 83 3d 86 1f 27 bd 20 7a de bb
       -0.3122998 0.064094126 -0.040801547 -0.006789461
000030 a8 30 35 3c 44 ca fd 3d 94 85 2d bd 84 43 10 3e
       0.011058964 0.12392095 -0.04236372 0.14088255
000040 c9 b2 84 3d e6 5a 9a 3d 71 f3 97 3e eb bf 09 be
       0.06479413 0.07536869 0.2967792 -0.13452117
000050 5e 2c 14 be dc 8b 07 be ab 0e 0c 3d 10 60 89 3b
       -0.1447005 -0.13236946 0.034193676 0.0041923597
000060 16 89 d3 bd 80 e9 3d ba e8 a2 3d bc e6 81 83 bd
       -0.103288814 -0.0007244572 -0.011574484 -0.064212605
000070 b4 ea b8 bd 60 79 61 3e a3 4f 21 be 58 40 37 bc
       -0.09029141 0.22018957 -0.15753035 -0.011184774
000080 99 0c 2c 3d e7 15 9e 3d a5 d3 42 3e 58 32 5e 3e
       0.0420042 0.07719021 0.19026048 0.21698892
000090 55 94 11 be b0 98 65 bc 75 6c 14 3d 84 0b 82 3c
       -0.1421674 -0.014013454 0.036236245 0.015874632
0000a0 e4 f5 85 3e fd 30 14 3d 67 4e 6b bd 34 a2 15 bd
       0.26164162 0.03617953 -0.057447817 -0.036531642
0000b0 c0 d7 88 bb 6e c6 89 3e e2 b8 32 bc 88 71 02 3e
       -0.00417611 0.26909202 -0.010908337 0.12738621
0000c0 12 70 af 3d 58 e4 a8 bc 4c bd ae 3b de 4f 0e 3e
       0.085662976 -0.020616695 0.0053326245 0.13897654
0000d0 38 29 3d be 66 80 bc bd b6 f3 07 3d 00 46 b9 3a
       -0.18472755 -0.092041776 0.033191405 0.0014135242
0000e0 4e 3f d3 bd 67 7e ec 3c 33 97 6f 3e bd 79 92 bd
       -0.10314809 0.028868867 0.23397522 -0.07152126
0000f0 cc a1 b7 bc c7 53 0e 3e f9 73 c5 bc e2 5b 7e 3e
       -0.022416018 0.13899146 -0.024103152 0.24839738
000100 d7 69 66 be 60 f3 0a be e8 0e 3c 3e 56 cd b8 3c
       -0.22501312 -0.13569403 0.18365061 0.02255885
000110 5c fd 33 be 9b 5a c0 bc d8 47 8c bd b8 75 41 3c
       -0.17577118 -0.023480704 -0.068496406 0.0118078515
000120 74 ec 63 be 31 d7 93 3e 3c 88 bb 3d 11 b9 ab bc
       -0.22258168 0.28875116 0.09156844 -0.02096227
000130 68 b1 08 3d f3 ba 21 3d 56 1a 05 bc 4c c4 40 3e
       0.033372313 0.03948493 -0.008123955 0.18824881
000140 27 2d b6 3d 8c b9 f9 bd 34 e5 90 bc c3 80 ac 3e
       0.08895331 -0.121935934 -0.017687418 0.33691987
000150 d0 da c8 bd e4 b0 3b bd 1f bf 9f 3d 28 d6 1f be
       -0.0980736 -0.045822993 0.07800125 -0.15609038
000160 60 b0 59 bd 3d a7 27 bd a2 30 99 bd d4 39 28 3e
       -0.05314672 -0.040930975 -0.07479979 0.1642831
000170 6b 91 0b 3e 29 6e 18 3d 4d 46 1f be 9b b5 44 be
       0.13629691 0.037214432 -0.15554161 -0.19209902
000180 68 f6 e9 bc b0 f1 50 be 1a 9c 80 bd ef ca 4d 3e
       -0.028559878 -0.20404696 -0.06279774 0.20096944
000190 a5 11 e5 3c 05 4d 79 3b 63 06 9a 3e f1 c7 56 be
       0.027962515 0.0038040292 0.30082998 -0.20974709
0001a0 18 6f 74 bc a7 5b 10 3c a8 be 07 bd a6 33 32 3c
       -0.014919065 0.008810914 -0.03314081 0.010876572
0001b0 59 6a 11 be a6 94 b1 bc d2 9e 03 bd da 3a 00 3c
       -0.14200725 -0.021677326 -0.032133885 0.007826531
0001c0 b4 30 bd 3d c3 1d 5a bd cb ca 95 bd 30 29 bd bd
       0.09237805 -0.05325104 -0.0731407 -0.092363715
0001d0 6a 85 11 3e 70 5a 0c 3c 62 cd d4 3b 45 44 15 be
       0.1421105 0.008566484 0.00649421 -0.14576824
0001e0 bc 5d ec 3d 0f ed df bd 00 1d 69 b9 c9 19 81 3d
       0.11541316 -0.10933887 -0.00022231415 0.06303746
0001f0 44 0c 71 3b 3e e5 21 3e 1b 95 80 bd be fa eb bd
       0.0036780993 0.15810105 -0.062784396 -0.11522435
000200 cf 35 e4 3d bb 31 84 bd c0 7a eb bd a6 70 bc 3d
       0.11143076 -0.06454798 -0.11498022 0.092011735
000210 18 ea a7 3b 66 c2 87 bd 31 62 d9 bd 83 0f 32 be
       0.0051243417 -0.066288754 -0.10614432 -0.1738873
000220 e2 93 79 bd 1a d8 0f bc db 7a 3e 3d a9 de 76 bd
       -0.060932048 -0.00877955 0.046503883 -0.06027094
000230 4c fe fb bc a2 cb 01 3e 59 a5 97 3d c2 a1 9f 3d
       -0.030760907 0.12675336 0.074045844 0.07794525
000240 11 aa 25 3e bf 8a fa 3d 47 a6 47 be b4 f8 7a 3d
       0.16178156 0.12233495 -0.19497024 0.061272338
000250 c1 0f d7 bd d2 52 38 3d 92 55 11 be 83 10 c0 bd
       -0.10501052 0.04500086 -0.14192799 -0.09378149
000260 b8 29 67 3b 5c a2 f4 3d cd 91 0f 3e 1e 93 a5 3d
       0.003527267 0.1194503 0.14020462 0.08084701
000270 5e f4 95 bd 04 d0 d8 bd b6 1f 10 3e 6c 42 7d bd
       -0.07322 -0.10586551 0.14074597 -0.061830923
000280 87 b3 23 be 40 26 ef 3d ac da e7 bd 2a d2 70 be
       -0.15986453 0.116772175 -0.11321005 -0.23517671
000290 0c cc 28 be c0 2e 4f bd 35 7d ab bd ce 4c 10 3d
       -0.16484088 -0.050581694 -0.08373491 0.035229497
0002a0 8c 1f d7 3c db 35 c8 bd 30 20 05 be e4 01 0b 3e
       0.02626016 -0.09775897 -0.1300056 0.1357494
0002b0 7b e9 ea bc d7 e7 9f bd eb 00 2e 3e c7 8b 4d be
       -0.028675785 -0.07807892 0.16992538 -0.20072852
0002c0 dc a9 11 bb 59 4f 83 bd 37 6c 27 be 68 45 47 bd
       -0.0022226488 -0.06411619 -0.16349874 -0.048650175
0002d0 50 a9 7e 3c 69 e6 45 be 46 1a b3 3d 04 ed d9 bd
       0.015543297 -0.19326176 0.08745246 -0.1064091
0002e0 0e a6 4b be 91 4c 9b 3d ed 74 66 bd d9 d9 6e 3d
       -0.19887564 0.07582963 -0.056263853 0.058313224
0002f0 1d 59 9b be 2d 26 c8 3e 19 28 0b be ee 05 39 bc
       -0.30341426 0.39091626 -0.13589515 -0.011292918
000300 1c 57 f8 3d 73 35 a9 bd fd a9 57 3e d0 56 96 bd
       0.1212599 -0.08262148 0.21060939 -0.07340777
000310 c5 75 94 bd 15 d6 39 be de ef 29 be 3e af 79 be
       -0.07249025 -0.18148072 -0.16595408 -0.24383256
000320 e8 f6 80 3d 40 dc 23 3d 72 56 0b 3e df 9b 04 bd
       0.06297094 0.04000497 0.13607195 -0.032375213
000330 73 a6 00 be 9d f6 21 be 40 04 8d bd f8 4a d3 bd
       -0.12563495 -0.15816732 -0.06885576 -0.103170335
000340 6c 37 d1 bd 2d 43 fa bd ab ab 6f 3d 80 86 04 be
       -0.10215649 -0.12219844 0.058513325 -0.12941933
000350 4c 88 75 bd 40 6a 6e bc 4d a6 99 bd 33 74 12 3e
       -0.059944436 -0.014551699 -0.075024225 0.14302139
000360 6e 81 77 3d 93 6d e7 bd fa ad a1 3d 0d 7e 82 3d
       0.06042617 -0.113001965 0.078945115 0.063716985
000370 96 2d e4 3d 20 e6 3f 3a 01 64 a0 bc 2e 2f 26 be
       0.11141507 0.0007320363 -0.019578936 -0.16228935
000380 92 b5 09 be 53 e6 43 3e b7 a5 b2 bd 19 b8 44 3e
       -0.1344817 0.1913083 -0.08723014 0.19210853
000390 63 80 11 3e 9a 3f c9 bd 00 d7 71 be a8 87 9b 39
       0.14209132 -0.09826584 -0.23617172 0.00029664976
0003a0 12 01 2a 3d c9 95 c2 3d 18 a9 ef 3d ce ee b6 3c
       0.041504927 0.095012255 0.11702174 0.022330668
0003b0 f8 7c 41 bd b4 4a 26 be ea 3b 49 be e1 77 9c 3e
       -0.04723832 -0.16239434 -0.19651762 0.3056021
0003c0 e5 0d d0 3d 2f 79 0d be 8d f3 a8 bd 2e 2f a0 bd
       0.101589 -0.13815759 -0.082495786 -0.07821499
0003d0 28 98 0c be cb 59 29 3e 52 28 2e 3e ae 4a 65 3d
       -0.13729918 0.1653816 0.17007568 0.055979423
0003e0 8b 4a 2b 3d 43 f2 26 3d a2 f1 a5 bd 0d 43 1d be
       0.041819137 0.040758383 -0.081027284 -0.15357609
0003f0 3d 02 4b be 4e 9f e1 3d 17 e2 73 bd ad b0 1a bd
       -0.19825073 0.11016713 -0.059541788 -0.037766147

critic.preprocess.model.model.2.bias f4 [64]
000000 00 00 00 00 00 00 00 00 00 00 00 00 00 00 00 00
       0.0 0.0 0.0 0.0
000010 00 00 00 00 00 00 00 00 00 00 00 00 00 00 00 00
       0.0 0.0 0.0 0.0
000020 00 00 00 00 00 00 00 00 00 00 00 00 00 00 00 00
       0.0 0.0 0.0 0.0
000030 00 00 00 00 00 00 00 00 00 00 00 00 00 00 00 00
       0.0 0.0 0.0 0.0
000040 00 00 00 00 00 00 00 00 00 00 00 00 00 00 00 00
       0.0 0.0 0.0 0.0
000050 00 00 00 00 00 00 00 00 00 00 00 00 00 00 00 00
       0.0 0.0 0.0 0.0
000060 00 00 00 00 00 00 00 00 00 00 00 00 00 00 00 00
       0.0 0.0 0.0 0.0
000070 00 00 00 00 00 00 00 00 00 00 00 00 00 00 00 00
       0.0 0.0 0.0 0.0
000080 00 00 00 00 00 00 00 00 00 00 00 00 00 00 00 00
       0.0 0.0 0.0 0.0
000090 00 00 00 00 00 00 00 00 00 00 00 00 00 00 00 00
       0.0 0.0 0.0 0.0
0000a0 00 00 00 00 00 00 00 00 00 00 00 00 00 00 00 00
       0.0 0.0 0.0 0.0
0000b0 00 00 00 00 00 00 00 00 00 00 00 00 00 00 00 00
       0.0 0.0 0.0 0.0
0000c0 00 00 00 00 00 00 00 00 00 00 00 00 00 00 00 00
       0.0 0.0 0.0 0.0
0000d0 00 00 00 00 00 00 00 00 00 00 00 00 00 00 00 00
       0.0 0.0 0.0 0.0
0000e0 00 00 00 00 00 00 00 00 00 00 00 00 00 00 00 00
       0.0 0.0 0.0 0.0
0000f0 00 00 00 00 00 00 00 00 00 00 00 00 00 00 00 00
       0.0 0.0 0.0 0.0

critic.last.model.0.weight f4 [1, 64]
000000 c8 41 32 be 97 1f a1 3d 40 28 bd 3b 13 30 ed bd
       -0.17407906 0.078673534 0.0057726204 -0.11581435
000010 73 ba f2 bd f1 f2 ca 3d da 91 a6 be 5a 91 4e be
       -0.118519686 0.09909619 -0.3253315 -0.20172635
000020 7c 94 ad 3b cf 21 c5 3d 89 c8 11 3e 24 e7 72 3e
       0.0052972417 0.09625589 0.14236654 0.23720986
000030 a4 d6 57 3d 35 5e 90 3d 1c 08 52 be f8 4e 6f bc
       0.05269493 0.070492186 -0.20510906 -0.01460623
000040 04 39 20 3e 14 94 40 3d 6e a2 5b bd e1 be 51 3d
       0.1564675 0.04701622 -0.053621702 0.051207427
000050 89 39 7d 3d ff b7 ac 3c ff 0f de 3d af 48 82 3c
       0.061822448 0.02108383 0.10842895 0.015903799
000060 ff 48 e6 bd 96 44 2a bd b3 a9 0b 3d c0 3c 85 bc
       -0.11244392 -0.041569315 0.034097385 -0.01626432
000070 99 3e 69 bd 6c 96 2c bd 60 9d c6 3d 3c b8 55 bd
       -0.056944463 -0.04213564 0.09697986 -0.052177653
000080 e0 7c 21 be 36 94 0a be ac 55 fd 3d 59 21 09 3e
       -0.15770292 -0.135331 0.12369856 0.13391627
000090 06 0a 05 be b8 41 32 3d bb 39 71 3e b1 10 2b be
       -0.12992105 0.043519706 0.23557179 -0.16705586
0000a0 22 5e b0 bc e3 82 d9 bc a7 63 e6 bd c7 56 e2 3d
       -0.021529261 -0.02655167 -0.11249476 0.11051708
0000b0 d6 78 9d bd 14 a3 90 3e 85 d3 d0 bd fc 44 31 be
       -0.07689063 0.2824942 -0.10196594 -0.17311472
0000c0 77 d2 92 bc ce 9e c8 bd 82 72 89 3e c1 74 07 3c
       -0.017922623 -0.097959146 0.26845175 0.008267582
0000d0 e5 0f aa bd d7 26 bd 3d 31 49 a4 bd b4 c4 b2 3d
       -0.08303813 0.09235924 -0.08021773 0.087289244
0000e0 95 00 d8 3d 1b 22 39 3e 09 40 08 3e 90 20 ab 3d
       0.10546986 0.18079416 0.13305677 0.0835582
0000f0 07 e5 90 3b ed 9a 33 3e 54 ca ff 3d 31 9c 94 bd
       0.0044218334 0.17539568 0.12489763 -0.07256354

_actor_critic.actor.preprocess.model.model.0.weight f4 [64, 3]
000000 f0 fd 01 be f5 5f 99 3e 19 7b 44 bd f7 ac 01 3e
       -0.12694526 0.29956022 -0.047968958 0.12663637
000010 67 5c 30 bd bf 2e e7 3d cf 8c be 3d ef 40 14 3e
       -0.04305687 0.11288213 0.09304201 0.14477895
000020 3e ea b9 3e b1 2f 24 3d e6 f4 c8 bc 24 0b b7 3d
       0.36311525 0.040084545 -0.02453084 0.08937672
000030 d5 4e 30 bd fc 09 9f 3d 27 13 2b be c0 3a 5a 3d
       -0.04304393 0.07765576 -0.16706525 0.053278685
000040 a2 43 04 3e c3 3a e4 bc 8c 99 74 bd 23 8b 31 be
       0.12916425 -0.027860051 -0.059716746 -0.17338233
000050 b2 30 04 bd 4d 2f 6e 3e 8c 57 e7 3d 7c d7 db 3d
       -0.032273002 0.23260231 0.11295995 0.1073446
000060 28 15 ca bd da 51 3b 3e c3 ca 80 be bb 7d 85 3e
       -0.098673165 0.18292943 -0.25154695 0.26072487
000070 2a 23 15 be f3 d2 1e be ca d1 50 3c 9b a9 43 3e
       -0.14564195 -0.15510158 0.01274533 0.19107668
000080 59 73 d2 3c aa 81 13 bc 66 bf 3b be b7 78 31 3e
       0.025689768 -0.009003082 -0.18334731 0.17331205
000090 ae b5 2f bc b0 19 0a be 46 2d 2e 3e 08 8c af bb
       -0.010724468 -0.13486362 0.17009458 -0.005357269
0000a0 72 6d 25 bd 68 c6 82 3d f2 0b 17 be 5a a5 81 3d
       -0.04038758 0.06385499 -0.1475065 0.063303664
0000b0 61 60 03 3e 9a f4 00 be c7 45 3e 3e 8a 3f 12 3e
       0.12829734 -0.12593308 0.18581305 0.1428205
0000c0 25 49 3d 3e 08 89 81 3d 2a ff ec bc f5 de dc bd
       0.18484934 0.06324965 -0.028930265 -0.10784713
0000d0 a2 84 0a 3e 26 47 25 3e 1b 63 66 bd f8 5e 29 bd
       0.13527158 0.16140422 -0.056246858 -0.041350335
0000e0 0e 51 f5 3d 75 2d 54 3d 0f d8 78 3e 3e f4 e5 bd
       0.119783506 0.051801164 0.2430117 -0.11228226
0000f0 74 da 0e 3e d6 68 20 3e e9 79 c6 bd e7 15 f0 3c
       0.13950521 0.15664992 -0.09691221 0.029307319
000100 fe 64 22 3e 0d 67 1b be b0 8b 0a be ae 0f 47 bd
       0.15858838 -0.1517603 -0.13529849 -0.048598938
000110 7b c1 23 be 03 bb 01 3d 72 b7 67 bd 7d b5 a9 3d
       -0.15991776 0.03167249 -0.05657143 0.08286569
000120 96 bc ed bd fc 28 32 bc 44 e0 56 bd f3 99 b2 3b
       -0.116082355 -0.010874029 -0.05245997 0.005450481
000130 5d 40 cf bd 47 f8 2c 3e 29 cd 90 bd ba b4 1b 3e
       -0.10119698 0.16891585 -0.07070381 0.1520566
000140 b9 aa 52 bc f4 6c b9 3d c6 0c 75 3e 17 8a 86 3e
       -0.012858086 0.09053984 0.23930654 0.2627723
000150 0a ea ac bd 6c bc e5 bd e1 cb 79 bd 70 c1 c4 3d
       -0.08443077 -0.11217579 -0.06098545 0.09607208
000160 1f 89 0a bd cd 14 a3 be 02 5a a6 3c ac c2 6d be
       -0.033822175 -0.31851807 0.020306591 -0.23218793
000170 d0 2b a1 bd 3d 4d 8b be 68 4c 55 3c c6 a4 13 3d
       -0.07869685 -0.27207366 0.013018705 0.036045812
000180 f1 0c 11 3e 10 5a 2b 3b 70 68 11 3d 5c 6b ac 3d
       0.14165093 0.002614621 0.03549999 0.08418915
000190 b3 8c 64 be b4 d8 e6 bc d3 8a a2 3d 8c 6b 43 3d
       -0.22319297 -0.028179504 0.07936635 0.047709987
0001a0 0f 1f 85 3d d3 0c 2b be bb e0 b3 bd 51 b3 1b bd
       0.065000646 -0.16704111 -0.08783098 -0.038012806
0001b0 78 48 16 bd ad 69 d8 3d c7 c8 98 bd 5b 81 38 be
       -0.036690205 0.10567031 -0.0746017 -0.18018095
0001c0 56 06 88 be 50 de 0f 3d e4 0f b2 3d 14 a2 af bc
       -0.26567334 0.035124123 0.08694437 -0.02143959
0001d0 b6 67 3a bd c6 98 30 3d 44 1c 13 bb eb a5 09 be
       -0.045509063 0.043114446 -0.0022447268 -0.13442199
0001e0 5a a7 2c 3e eb 66 b3 bc b3 90 36 bd 89 18 93 bc
       0.16860715 -0.021899661 -0.04457159 -0.017956035
0001f0 e7 67 84 3d 10 25 8d be 40 73 c7 bc 12 19 17 3e
       0.0646513 -0.2756734 -0.024346948 0.14755657
000200 f1 8a 4c bc 91 f8 25 be 60 b8 df 3d 71 01 49 bd
       -0.012484298 -0.16208102 0.109238386 -0.04907364
000210 e0 8a fa bc e5 98 2d be ab d4 42 bd b1 35 1e 3e
       -0.030583799 -0.16952856 -0.047566097 0.15450169
000220 3c b1 29 3c dc eb 8c 3c 77 b9 00 bd 10 0b 13 bc
       0.010357197 0.01720231 -0.031426873 -0.0089748055
000230 1e 88 36 3e 2f 01 3e 3e ec 4e 06 3c 8b 26 10 3e
       0.17825362 0.18555139 0.008197527 0.14077203
000240 01 fc 58 bd 67 1b f3 3d b1 0b a6 3d 8d 0a ee bd
       -0.052974705 0.11870461 0.08107699 -0.11623106
000250 eb 76 36 be af 59 88 3d 5a 87 e9 bd 9e db 49 3d
       -0.17818801 0.06657731 -0.114027694 0.04928171
000260 24 5d a8 3d 95 0b 23 3e 30 48 11 3c 2c e6 c4 3c
       0.0822089 0.15922387 0.0088673085 0.024035536
000270 40 b5 1d be bc a8 d2 bd f7 76 55 3d 59 96 dd 3d
       -0.15401173 -0.1028609 0.052115407 0.10819692
000280 a5 f5 97 bc 2b 9b 48 3c fd c0 f8 3d e9 51 11 be
       -0.01854975 0.012244026 0.121461846 -0.14191402
000290 4c 55 a8 3d 2d af 25 be 51 85 2a 3d c8 9b e8 3d
       0.08219394 -0.16180106 0.041631047 0.11357838
0002a0 e3 91 54 be 78 47 99 3b f4 f6 d6 bd 78 d9 22 be
       -0.20758776 0.004677709 -0.10496321 -0.1590327
0002b0 16 ac 55 3d 41 c7 45 3e 43 fd 0a 3d 8c 4d 98 3d
       0.052166067 0.1931429 0.033932935 0.07436666
0002c0 f9 96 88 3d d8 01 d2 bd f2 44 2f be b4 7a 60 bc
       0.06669421 -0.10254258 -0.17116144 -0.01370113
0002d0 05 d9 3d 3e f6 80 ce 3c c9 e7 c1 bd a4 0e 0e be
       0.18539818 0.025207978 -0.09468038 -0.13872772
0002e0 18 54 c5 3d 33 d8 d2 bc cf 95 5e be a1 ef 4e 3d
       0.0963518 -0.025737857 -0.21736835 0.050521497
0002f0 7a 19 d8 bd bb 91 48 3e ee aa da 3c 2a 39 4b bc
       -0.10551734 0.19586842 0.026692834 -0.012403766

_actor_critic.actor.preprocess.model.model.0.bias f4 [64]
000000 00 00 00 00 00 00 00 00 00 00 00 00 00 00 00 00
       0.0 0.0 0.0 0.0
000010 00 00 00 00 00 00 00 00 00 00 00 00 00 00 00 00
       0.0 0.0 0.0 0.0
000020 00 00 00 00 00 00 00 00 00 00 00 00 00 00 00 00
       0.0 0.0 0.0 0.0
000030 00 00 00 00 00 00 00 00 00 00 00 00 00 00 00 00
       0.0 0.0 0.0 0.0
000040 00 00 00 00 00 00 00 00 00 00 00 00 00 00 00 00
       0.0 0.0 0.0 0.0
000050 00 00 00 00 00 00 00 00 00 00 00 00 00 00 00 00
       0.0 0.0 0.0 0.0
000060 00 00 00 00 00 00 00 00 00 00 00 00 00 00 00 00
       0.0 0.0 0.0 0.0
000070 00 00 00 00 00 00 00 00 00 00 00 00 00 00 00 00
       0.0 0.0 0.0 0.0
000080 00 00 00 00 00 00 00 00 00 00 00 00 00 00 00 00
       0.0 0.0 0.0 0.0
000090 00 00 00 00 00 00 00 00 00 00 00 00 00 00 00 00
       0.0 0.0 0.0 0.0
0000a0 00 00 00 00 00 00 00 00 00 00 00 00 00 00 00 00
       0.0 0.0 0.0 0.0
0000b0 00 00 00 00 00 00 00 00 00 00 00 00 00 00 00 00
       0.0 0.0 0.0 0.0
0000c0 00 00 00 00 00 00 00 00 00 00 00 00 00 00 00 00
       0.0 0.0 0.0 0.0
0000d0 00 00 00 00 00 00 00 00 00 00 00 00 00 00 00 00
       0.0 0.0 0.0 0.0
0000e0 00 00 00 00 00 00 00 00 00 00 00 00 00 00 00 00
       0.0 0.0 0.0 0.0
0000f0 00 00 00 00 00 00 00 00 00 00 00 00 00 00 00 00
       0.0 0.0 0.0 0.0

_actor_critic.actor.preprocess.model.model.2.weight f4 [64, 64]
000000 00 b8 9e 3d 9c b3 f8 bd 40 27 9e bc 50 fb 8e bd
       0.07749939 -0.12143633 -0.019305825 -0.06981528
000010 54 04 44 be 14 00 8e bd bc 7e 43 be 0e 18 eb bd
       -0.19142276 -0.06933609 -0.19091314 -0.114791974
000020 f8 95 80 bd fc 0b 67 3c 89 ee 2d 3e ba 1c f6 3d
       -0.06278604 0.014101978 0.16985525 0.12017198
000030 3b 37 de 3d b9 5d cf 3d e4 b9 17 bd 44 89 e7 3d
       0.10850378 0.10125298 -0.037042513 0.11305478
000040 3b 36 92 bd 0d 0f bd 3d 26 93 a8 3e ea 9f dc 3d
       -0.0713925 0.09231386 0.32924765 0.10772689
000050 19 70 91 bd aa 71 90 3d c8 60 eb bc ea 1b fd bd
       -0.07101459 0.0705293 -0.028732672 -0.1235884
000060 54 fd 77 bc ee b3 81 bd 6c 2f be bd 42 74 f9 bd
       -0.015136082 -0.06333147 -0.09286389 -0.121803775
000070 c8 cb 75 bd a0 97 5e bb 80 34 8b 39 7a 02 d8 3d
       -0.060008794 -0.0033964887 0.00026551262 0.10547347
000080 7f 12 94 be 6e 5e ca 3b b7 a1 1e 3d 0d 1e 70 bd
       -0.2892036 0.0061758077 0.038728442 -0.05862241
000090 6c f7 f2 3d 98 be 4b 3d a8 87 05 bd 49 57 0f be
       0.11863598 0.04974231 -0.032600075 -0.1399814
0000a0 fe 5f 6a be 58 cd 70 3d 7a e2 ac be 62 6d 5d 3d
       -0.2288818 0.05878958 -0.33766538 0.054059394
0000b0 6c d7 13 3c fa 04 17 be 5a 76 7a 3e c0 3c 83 ba
       0.009023529 -0.14747992 0.2445921 -0.0010012612
0000c0 a4 ee 20 3d c0 8a 81 3e 75 6c 35 bc 78 00 f1 bd
       0.039290085 0.2530117 -0.011073221 -0.117676675
0000d0 c2 22 94 bd 81 71 df bd aa f6 0c be 02 cd ae bd
       -0.07233192 -0.10910321 -0.1376597 -0.08535196
0000e0 37 47 4a bd 89 1b 12 3e 8c 26 e5 3d c4 df e4 bc
       -0.049384322 0.14268316 0.11188993 -0.027938731
0000f0 b0 0c 4c bc f3 c4 57 be f7 fd 11 bd cf cb e0 3d
       -0.012454197 -0.21071224 -0.03564259 0.109763734
000100 9f 04 81 3e 00 51 37 3e a0 11 6b 3e bf bd 8c 3d
       0.25198838 0.17901993 0.22955942 0.06872129
000110 52 91 8c 3d ee c1 08 be 7c 5e bb 3d 65 a0 de 3d
       0.06863655 -0.13355228 0.09148881 0.108704366
000120 58 df 87 3e 7b fb 88 bd 33 6c 1c 3e 88 bf 06 bb
       0.26537585 -0.06688591 0.1527565 -0.002056094
000130 98 32 a9 3c ec d3 3b be be 8c 13 be ad 2d a5 bd
       0.020654008 -0.1834256 -0.14409158 -0.080653526
000140 c6 15 df bc 3c 3e de bd a8 b6 f7 3d b0 77 1b 3e
       -0.027232062 -0.10851714 0.12095386 0.15182376
000150 18 50 97 3e 66 40 2f bd 59 1c d2 bd 19 75 16 be
       0.29553294 -0.042786025 -0.10259313 -0.14693107
000160 85 45 89 3d 49 60 04 3e 58 5b 5b be 54 e3 68 3d
       0.06702713 0.12927355 -0.21421564 0.056857422
000170 24 1b b5 3d 80 12 f3 3d 66 d9 2b 3d 26 fc 4f 3d
       0.08843067 0.11868763 0.041955374 0.050777577
000180 f5 67 b8 3d 98 55 d3 bd cf 0d 99 3d f5 ec 52 bd
       0.09004203 -0.1031906 0.07473337 -0.05149551
000190 40 72 03 bd 16 d2 d7 bc 60 0a 37 3e d4 d5 c1 bc
       -0.03209138 -0.026345294 0.17875051 -0.023661532
0001a0 21 66 0e be 04 1d 11 bd 3f 4e 99 be 48 67 a4 bd
       -0.13906147 -0.035428062 -0.2994251 -0.08027512
0001b0 62 9a b8 3c a4 35 14 3e 5d 40 8a bd 73 2f d7 3d
       0.022534553 0.14473587 -0.067505576 0.10507097
0001c0 de 96 c6 3b 4e 74 da bd 29 d7 2c 3d 6e 89 46 3c
       0.0060604652 -0.106667146 0.04219738 0.012117727
0001d0 a3 7f b3 bd f7 2d 1c be 2d 29 60 3d 30 b1 49 3d
       -0.08764579 -0.15251909 0.05472677 0.049241245
0001e0 a0 96 62 bd f2 95 1b 3d c8 77 98 3c 8a 9f 66 3c
       -0.05531943 0.037984796 0.018611804 0.014076123
0001f0 5a 73 36 3e 0c a7 6e 3e 15 ac d6 3d 83 b4 cb 3d
       0.1781744 0.23305911 0.10482041 0.09946539
000200 17 4e c2 3d 07 b7 58 3d 40 28 5f bd 0d 18 ff 3d
       0.09487551 0.052908923 -0.054481745 0.12455759
000210 88 a4 60 be 26 42 89 bd 5e bf da be 4a 61 f7 3b
       -0.21937764 -0.0670207 -0.42724127 0.0075494396
000220 ad 37 fe bd ff 32 12 be 3f 1b 30 3e 9f 14 4d 3d
       -0.12412963 -0.14277266 0.17197894 0.050068494
000230 d4 a7 c5 3d f5 03 18 3e d9 f1 cc 3b cc bd 4d bb
       0.09651151 0.1484526 0.0062544164 -0.0031393645
000240 f7 c1 bf 3d 8a 0f 02 be 94 75 8c bd d7 08 54 3e
       0.09363168 -0.1270124 -0.06858364 0.20706497
000250 68 89 2a be fc d9 ee 3b de 96 87 bd df 71 b0 3c
       -0.16653979 0.0072891694 -0.066205725 0.021538673
000260 5e 11 2b 3e 70 09 d2 3d 1c e9 95 bd 13 14 fd 3d
       0.16705844 0.10255706 -0.07319853 0.123573445
000270 54 ae 34 bc 7a 6f 23 bc 69 b2 2c 3e ba 2e 12 bd
       -0.011027891 -0.009975309 0.16864933 -0.035689093
000280 2f 47 15 bd 89 d7 bd 3d c3 10 9f be 53 35 65 be
       -0.03644484 0.09269626 -0.31067476 -0.22383623
000290 02 8f dc 3c 42 35 88 3c ac 2e 99 bd 6d 95 12 bd
       0.02692366 0.016626958 -0.07479605 -0.035787035
0002a0 c7 3b 34 bd e0 54 85 3d 90 89 db 3a bf 96 cf bb
       -0.04400232 0.06510329 0.0016749371 -0.006335109
0002b0 07 18 f3 bd 61 6e 01 3e 74 e3 86 be 9a 24 0e be
       -0.11869817 0.12639762 -0.26345408 -0.1388115
0002c0 b0 ff dd 3c 0b a7 ea bd 67 d3 ce 3d e8 0e d8 3c
       0.02709946 -0.11457642 0.100989155 0.026374295
0002d0 05 4d 3c 3d b6 c0 32 bb 3d 4f 2b 3e 60 2b 14 3d
       0.04597189 -0.002727551 0.16729446 0.036174178
0002e0 ff 44 2b 3e 34 2f d4 bd 90 2c 37 be 19 e9 d6 3d
       0.16725539 -0.10360566 -0.17888093 0.104936786
0002f0 c9 2c 9d bd 16 d6 0b 3d 37 77 94 3d ac c4 20 3d
       -0.07674558 0.034139715 0.07249301 0.03925006
000300 09 a7 ae be 7f 0e 51 3d a6 f4 46 be b0 f3 f7 bd
       -0.34111813 0.051039215 -0.19429263 -0.121070266
000310 53 bc 6f 3e 4c d2 05 be 3a 79 fb 3c e9 a2 5c bd
       0.23411684 -0.13068503 0.030697454 -0.0538663
000320 c9 3b 44 be f7 7a 81 3d 68 65 b6 bd 0f 3c 02 3e
       -0.19163431 0.06322282 -0.089060605 0.12718223
000330 d5 dd 53 3d 96 a3 e8 bd 7b 64 89 bd 3e e4 0e 3e
       0.051725227 -0.113593265 -0.06708618 0.13954255
000340 50 f7 47 3d 14 79 00 3d 02 50 1a 3e 4c 86 a3 3d
       0.04881984 0.03136547 0.15069583 0.079845995
000350 65 69 ae bd ca 33 56 3d 2c 42 9a bd e8 18 11 be
       -0.08516196 0.052295484 -0.075321525 -0.14169657
000360 48 db cb 3d f0 35 6b bd dd 55 ce 3d 12 f3 fc 3c
       0.09953934 -0.057424486 0.10074971 0.030877624
000370 f2 85 39 bd d2 ea 0e 3d 22 20 0f 3e 66 e0 dc bd
       -0.045293756 0.03489191 0.13977101 -0.10784988
000380 1c f2 7f bd d8 86 11 be 64 88 9d bc 9c d0 1c 3e
       -0.062486753 -0.14211595 -0.019230075 0.15313953
000390 63 b8 b2 bd 64 41 2b 3d 2e de 93 bd 90 ea 5f be
       -0.08726575 0.04181041 -0.07220112 -0.21866822
0003a0 b0 8e d8 bd b0 b6 09 3e 00 90 c5 3b 84 ee 1b bd
       -0.105740905 0.13448596 0.006029129 -0.038069263
0003b0 16 d4 95 bd 34 bf 7d 3e f9 9f c4 bd b8 11 18 3e
       -0.07315843 0.2477997 -0.09600825 0.14850509
0003c0 54 3d 92 bd f6 d9 43 bd 9e 03 6a 3e 07 43 4a 3e
       -0.07140604 -0.047815286 0.22852942 0.19752131
0003d0 6b 44 3c be 76 db ce bd 3c 22 25 3c 2d 14 36 be
       -0.18385474 -0.101004526 0.010078963 -0.17781134
0003e0 50 c9 ea bc 16 1d 7b bd b0 75 0f be 4f a0 18 be
       -0.028660446 -0.061307035 -0.14009738 -0.14904903
0003f0 3f 8d 65 3e 4f c6 86 3d ef 83 ab bd b0 ac 2c bc
       0.22417162 0.06580793 -0.08374774 -0.010539219

_actor_critic.actor.preprocess.model.model.2.bias f4 [64]
000000 00 00 00 00 00 00 00 00 00 00 00 00 00 00 00 00
       0.0 0.0 0.0 0.0
000010 00 00 00 00 00 00 00 00 00 00 00 00 00 00 00 00
       0.0 0.0 0.0 0.0
000020 00 00 00 00 00 00 00 00 00 00 00 00 00 00 00 00
       0.0 0.0 0.0 0.0
000030 00 00 00 00 00 00 00 00 00 00 00 00 00 00 00 00
       0.0 0.0 0.0 0.0
000040 00 00 00 00 00 00 00 00 00 00 00 00 00 00 00 00
       0.0 0.0 0.0 0.0
000050 00 00 00 00 00 00 00 00 00 00 00 00 00 00 00 00
       0.0 0.0 0.0 0.0
000060 00 00 00 00 00 00 00 00 00 00 00 00 00 00 00 00
       0.0 0.0 0.0 0.0
000070 00 00 00 00 00 00 00 00 00 00 00 00 00 00 00 00
       0.0 0.0 0.0 0.0
000080 00 00 00 00 00 00 00 00 00 00 00 00 00 00 00 00
       0.0 0.0 0.0 0.0
000090 00 00 00 00 00 00 00 00 00 00 00 00 00 00 00 00
       0.0 0.0 0.0 0.0
0000a0 00 00 00 00 00 00 00 00 00 00 00 00 00 00 00 00
       0.0 0.0 0.0 0.0
0000b0 00 00 00 00 00 00 00 00 00 00 00 00 00 00 00 00
       0.0 0.0 0.0 0.0
0000c0 00 00 00 00 00 00 00 00 00 00 00 00 00 00 00 00
       0.0 0.0 0.0 0.0
0000d0 00 00 00 00 00 00 00 00 00 00 00 00 00 00 00 00
       0.0 0.0 0.0 0.0
0000e0 00 00 00 00 00 00 00 00 00 00 00 00 00 00 00 00
       0.0 0.0 0.0 0.0
0000f0 00 00 00 00 00 00 00 00 00 00 00 00 00 00 00 00
       0.0 0.0 0.0 0.0

_actor_critic.actor.mu.model.0.weight f4 [1, 64]
000000 f0 47 58 be ee 21 49 3d a5 53 5f 3c 89 85 62 bc
       -0.21121192 0.049104623 0.013630782 -0.013825783
000010 6d bc 67 be df a6 42 3e 3e 01 bb 3d 49 f6 8b bb
       -0.22630472 0.19008969 0.09131096 -0.004271303
000020 44 0d f3 bd 75 70 0a be d8 c7 cc 3e a6 b4 4f bd
       -0.118677646 -0.13519461 0.3999622 -0.05070939
000030 6f 18 f9 bd 9a 92 c7 bd 01 7a f2 bb c8 5d f2 bc
       -0.121628635 -0.09744759 -0.007399798 -0.029585734
000040 f4 65 41 3d eb 07 dc bc da 2d 11 3e f2 a2 43 3d
       0.04721637 -0.026859244 0.14177647 0.04776282
000050 0f 9f 55 3d a6 6f 08 3d e0 da 2c 3b d7 3d 82 be
       0.052153643 0.0333096 0.0026375577 -0.25437805
000060 1c 4f cb bd 52 61 bc bd bb 7f 1c be ff 92 77 bd
       -0.09927198 -0.0919825 -0.152831 -0.06044292
000070 d3 82 9c bd 83 39 84 3d cc 82 a6 bb 87 dc 6b 3d
       -0.0764214 0.06456282 -0.00508151 0.05758336
000080 f5 73 8e be b6 6e 3b 3e d9 e4 1c 3d 99 3c 81 bd
       -0.27822843 0.18303952 0.038304184 -0.06310386
000090 8f 57 6e be 25 1f 0c 3c 92 e6 b1 3c 7b e6 d5 3d
       -0.23275588 0.008552347 0.02171639 0.10444351
0000a0 dc dc d8 bd 4a 76 32 3e aa d9 10 3e fe c7 35 bd
       -0.105890006 0.17427936 0.14145532 -0.04438018
0000b0 a8 24 25 3e cc ab c2 3b f4 32 ad bd 3e f7 e7 bd
       0.16127264 0.00594089 -0.08456984 -0.113264546
0000c0 51 d3 97 3d c0 b9 e8 bd b5 39 f5 3d b9 2b 17 3e
       0.07413352 -0.11363554 0.11973897 0.14762773
0000d0 cc 93 2c bd b2 0c 1e 3e f0 3f 14 be cc 6f c8 3d
       -0.042133138 0.1543453 -0.14477515 0.097869486
0000e0 b4 d1 b8 bd 89 98 0c be 02 51 a7 3d 85 6f e3 bd
       -0.09024373 -0.13730063 0.08169748 -0.11105255
0000f0 de 37 f3 3d 76 ef 29 3c 6e f8 16 3e cc 64 62 3b
       0.1187589 0.010372033 0.14743206 0.0034544943
