demo/tianshou/continuous/log/Pendulum-v1/td3/policy.pth (torch, 427385 bytes, 30 tensors)

actor.preprocess.model.model.0.weight f4 [128, 3]
00000000: 589d 823e dab1 babe 0562 5fbe f419 983e
00000010: b0cf 06bf f211 b63e 24ca 24be cb7e 893e
00000020: 13d1 6e3d 5e78 b7bd 1b13 273e 1fb1 c63c
00000030: c140 863e 1200 9dbe 51ba e1bd 20e6 54bd
00000040: 3862 ab3d 0027 17bb 178e db3e 649d 723e
00000050: 1eae 90be b84e bbbe 624a edbd bf7f 6abe
00000060: d619 16be f78a 813d d245 b63e eef6 8a3e
00000070: 1593 13bf 51e8 be3e a72b 573e 8b39 153f
00000080: dfbf c73e 2b33 0abf ea8b 13bf 23dd 86be
00000090: aee3 063f 6395 9abd b0ee 843e 9a38 94be
000000a0: 2643 0c3f b920 9bbe 993b d43e 877a 39bd
000000b0: 7b08 94be 967a 813e 2790 b0be b0c6 123e
000000c0: a438 7bbe c503 03bd 501b 14bf 832b 8cbe
000000d0: 9e22 9d3e 5a7a 0abe c46d 103f 2fbf 053f
000000e0: 2313 3e3d 1b72 d8be b48f de3e 08b4 333e
000000f0: 7763 bebe c7cc d53e 6dab b73e 561d 043f
00000100: 90e3 dbbe 37b9 36be 3641 06be a7dd c83d
00000110: bad6 fabe e6c4 eabe e16f ab3e cdbc 5fbe
00000120: 0f90 9e3e 8b58 5e3d 8e17 583e b4df 283e
00000130: 1e01 853e bbb7 933e 53ee 0ebf ed6c 7d3e
00000140: 7208 cbbe e5bb eebe ece4 d63b f4d7 91bd
00000150: c4a2 b23e 8a74 ccbe bc29 fabe 93e8 f33e
00000160: a30b f1bc 7aa1 a63e 3853 063e 1850 fabe
00000170: c771 cd3d cc71 373e a87a d2be f4a3 79be
00000180: 9a04 193e f88e 803d 8d28 a2be 1cae 4bbe
00000190: bf4d 053f 6a18 0bbe 9c7d 8f3e a47a 453e
000001a0: 6269 dcbe 7d3c 09bf ada5 093f 8423 303d
000001b0: 6c8a d23e f520 4f3e f50c 6e3e a201 c83e
000001c0: 6a9f 1c3f c1d0 d6be 4472 d03d 2d10 e03e
000001d0: c6fa d03e e867 c33e 077d f1be 6f88 bdbe
000001e0: 22d0 97be 7a4a e43d 9ce1 113f 7990 d1be
000001f0: 0e63 913e dfcc b9be f48a 14bf 77cc 01be
00000200: c18f b63e 5a36 113f cdae c6be 86fa c23d
00000210: e3b9 0a3f 05e3 cb3e d079 b33e 2847 df3e
00000220: 3b9d cf3e 6b1e 263e 4ab1 cebe a831 04bf
00000230: 5f78 74be c4df e3bd 1842 b7be 81a5 623e
00000240: 1c96 3f3e dd35 e2bd ab81 6c3e 921a 5c3e
00000250: 6d45 bb3e 6af3 c93e 1e10 42be 36b1 163f
00000260: 2d64 bcbd c2d6 2b3d a482 18bf 6eda b6be
00000270: e5a6 b1be 1cac 3ebe ded1 eb3e 5d31 59be
00000280: e093 dfbe 4685 733e dd79 2c3e ec76 e23e
00000290: a352 a2be 9b4a 0d3e b801 78be a0e6 f0bd
000002a0: 8928 fbbe b2c5 a0be 8c8a 43be d98f 803e
000002b0: f440 173e 2027 1b3e 387d 193f 5789 143f
000002c0: c736 c73e ba3e 27bc 27dd b0be b678 ed3e
000002d0: 4703 40be d5ca 8dbd 81be 02bf 82a1 96bd
000002e0: 9072 b5be 7035 0b3f 5e9a 01bf 3037 eebe
000002f0: 8e44 363d cf7d a9be 6e7c 313e c699 71be
00000300: 1f05 82be b485 ca3d 9f6f d43e 6668 d8be
00000310: 462a ad3e 7725 bc3e 2b71 123f c472 e1be
00000320: 45fd f53d 7534 dbbe f011 003f 9baa 79be
00000330: 3552 b93e bcc4 413d 861b 2ebd 2cf8 523c
00000340: e1a2 093e 8b35 8f3e a884 873d 532d 0e3e
00000350: 972f 04bf 2218 d63e bfde fd3e 3a1c f03e
00000360: cba1 ec3e 0764 00bf fa48 90be 13a0 073f
00000370: be38 cfbe d510 093f 7ef6 e6be 1898 e1be
00000380: ccb4 a23e 802b c2be 30cd d4bd 8a1a db3e
00000390: 4d2c b43e 8208 1e3f da26 f7bd c199 05bf
000003a0: b156 073f 07ae 66be 2907 7fbe b710 2d3e
000003b0: 0565 e9be ed94 933e 4c7e bf3e 0597 01bf
000003c0: 5f6d edbe 2cef 48bd 251f 8c3e 07ec 72bb
000003d0: 93e7 aebe e7e4 4f3d 610e 0dbf 1755 c8be
000003e0: a46f cdbe e988 c93e 188d 013f 7233 86be
000003f0: b6ad 733d c57b 983e d094 4e3d c1f6 8cbe
0.2551067 -0.36463815 -0.21814735 0.297073 -0.52660656 0.35560566 -0.16092736 0.26854548
0.058304857 -0.08958505 0.16315882 0.02425438 0.26221278 -0.30664116 -0.11021865 -0.051977277
0.08368343 -0.0023064017 0.42881843 0.23692852 -0.2825784 -0.36583495 -0.11586453 -0.22900294
-0.14658293 0.063253336 0.35600144 0.27141517 -0.57646304 0.37286618 0.21012746 0.5829093
0.39013574 -0.53984326 -0.57635367 -0.2634059 0.5269116 -0.075480245 0.25963354 -0.28949434
0.5478996 -0.30298403 0.4145172 -0.045282867 -0.2891272 0.25288838 -0.3448498 0.14333606
-0.24533325 -0.031986017 -0.57854176 -0.27376947 0.30690473 -0.13523236 0.5641749 0.5224485
0.04640497 -0.42274556 0.43469012 0.17549145 -0.3718526 0.41757795 0.35872975 0.51607263
-0.42947054 -0.17844091 -0.13110813 0.09807902 -0.48991948 -0.45853347 0.33483794 -0.21849366
0.30969283 0.05428366 0.21102735 0.16491586 0.25977415 0.28851113 -0.55832404 0.24748583
-0.3965488 -0.46627727 0.0065580513 -0.07121268 0.34889805 -0.39932662 -0.48859966 0.47638378
-0.029424494 0.32545072 0.13117683 -0.48889232 0.10031467 0.17914504 -0.41109204 -0.2437895
0.14943162 0.06277269 -0.31671563 -0.19890636 0.52071756 -0.13583532 0.2802552 0.19285065
-0.4304915 -0.5360792 0.53768426 0.04300262 0.41121233 0.20227416 0.2324713 0.39063746
0.61180747 -0.41956142 0.101780444 0.4376234 0.40816325 0.38165212 -0.471657 -0.37018153
-0.2965098 0.11147018 0.5698488 -0.40930536 0.28395885 -0.36289117 -0.58024526 -0.12675653
0.3565655 0.5672356 -0.38805237 0.0952044 0.5418989 0.3982164 0.35053873 0.43608975
0.40549645 0.16222541 -0.40369636 -0.5163827 -0.23874043 -0.11126664 -0.35792613 0.22133447
0.18709606 -0.1104543 0.2309634 0.21494511 0.36576405 0.39443523 -0.1895146 0.5886415
-0.091987945 0.041952856 -0.5957434 -0.35713524 -0.34697643 -0.18620342 0.46058553 -0.21210237
-0.43667507 0.23781309 0.16843362 0.44231355 -0.31703672 0.13797991 -0.24219406 -0.11762738
-0.49054363 -0.3140083 -0.1909582 0.25109747 0.14770871 0.15151644 0.59956694 0.58022064
0.3890898 -0.010207826 -0.34543726 0.46381158 -0.1875125 -0.06923453 -0.51071936 -0.07355024
-0.35438967 0.54378414 -0.5062617 -0.4652648 0.044498973 -0.33103797 0.17332622 -0.23593816
-0.25394532 0.09888783 0.4149141 -0.4226715 0.33821315 0.36747333 0.5720393 -0.44032872
0.12011198 -0.4281346 0.5002737 -0.24381487 0.3619553 0.04730676 -0.042506717 0.012876552
0.1344104 0.27970538 0.06617099 0.13884477 -0.51635116 0.41815287 0.49584004 0.46896535
0.46217188 -0.5015263 -0.28180677 0.5297863 -0.40472978 0.5354131 -0.45109934 -0.4406135
0.31778562 -0.37923813 -0.10390699 0.42793685 0.3519005 0.6173173 -0.12067957 -0.52187735
0.52866656 -0.22527324 -0.24905075 0.16900907 -0.45584884 0.2882456 0.37401044 -0.5062106
-0.46372506 -0.049056217 0.2736751 -0.0037066953 -0.34161052 0.050755408 -0.55100065 -0.39127418
-0.40124238 0.39362267 0.50605917 -0.26211125 0.059491836 0.2978193 0.050434887 -0.27532008

actor.preprocess.model.model.0.bias f4 [128]
00000000: 0434 89be 4683 c13e 4044 6b3e 99b6 1e3e
00000010: f25d f7bc 7e7f 38be 1c4e 2f3e 0cc4 ed3e
00000020: 0ced 913d 6776 75be b383 0d3f bce6 fc3c
00000030: 2372 ec3e f8c6 083e 2fa0 0c3f 28a0 c83e
00000040: 32ad 8fbe 7bfb ce3e 62dc 043d e76d dabe
00000050: 6e7d bdbd 61fc e5be 873e 6abe 85fc bebe
00000060: 1da0 b63e c4bd 00be 0bfa b3bd 1572 9c3e
00000070: 1712 7a3e 83ec c0be c599 813e 853b 793e
00000080: a799 bfbe 79dc 023f 7d52 a1be d53d 3fbe
00000090: df8b e0be 9faa 0c3f 95ed c43d 4022 003f
000000a0: 93cf acbb 1f89 a63e 7810 20be a961 e3be
000000b0: 0dc3 ae3d a867 32bd 9d9a 52bd 25b5 86be
000000c0: 88ab 223d 56fa 303e 7ca2 5d3e 1766 f3be
000000d0: 02d7 923e 0380 973d 088e cf3e d5c4 cd3e
000000e0: 57f1 d6be 4af1 0d3f 59b8 13bf 6755 b63e
000000f0: c123 2b3d 42e1 833e 45dc 98be 95d5 b33e
00000100: 4fc8 90be c9d9 fbbe e85b 3d3e 4e79 9e3e
00000110: 85c8 103f 7473 84bd b5b2 123f 5589 c03e
00000120: ea83 44be 3b8e dcbe 5858 a33e 145f a9be
00000130: e954 c13e ed0c dfbe 3210 d53e 956f 6d3e
00000140: 9b92 babd 1bca 843e 47a3 d5be 3d56 e8bd
00000150: e43a 67bb cfa9 a5be ff71 17be d710 5bbe
00000160: 1cb2 0c3f 9e1f fa3e 8ad9 013f 39a1 f73e
00000170: a7e0 05bf b8cc 573e 5467 943e 0a7c d6be
00000180: 2c72 753e 50e5 a0be 056e dd3d 03ab 543e
00000190: 1014 013f 124c 7bbe 2996 d3be 10d7 173f
000001a0: 97e4 6f3e 7436 863e 6e4e 933e 76b3 1dbe
000001b0: d0cc af3e 69fd c9be 6173 b83d c2e3 8d3e
000001c0: 251b ca3e 89cf 9abe f073 bebe e01d 6d3e
000001d0: 90ca c5be ba3a c6be 8f5d 0bbf 879e 6bbe
000001e0: 3741 9abd fc6e 9fbe 6aa6 78be e46a f9be
000001f0: 713d b93e 2fcb f0bd 498a ccbe 606a 213e
-0.26797497 0.37795466 0.22975254 0.15499343 -0.030196164 -0.18017384 0.1711964 0.46438634
0.07125291 -0.23970948 0.5527908 0.030871741 0.4618083 0.1335715 0.5493192 0.3918469
-0.28061825 0.4042624 0.032436736 -0.42661974 -0.092524394 -0.44919112 -0.22875415 -0.37302032
0.35669032 -0.1257239 -0.08787926 0.30555788 0.24420963 -0.37680444 0.2531263 0.24339111
-0.37421915 0.51117665 -0.31508246 -0.18675931 -0.43856713 0.5494785 0.09615628 0.5005226
-0.005273768 0.3252649 -0.15631282 -0.44410446 0.08533297 -0.043555886 -0.051416982 -0.26310077
0.039714366 0.17282996 0.21644014 -0.47538826 0.28679663 0.07397463 0.4053805 0.40189233
-0.41981003 0.554463 -0.5770317 0.35612032 0.041782144 0.25757796 -0.29855552 0.35123888
-0.28277823 -0.49189594 0.1849209 0.30951923 0.5655597 -0.064673334 0.57303935 0.37604776
-0.19190946 -0.43077263 0.31903338 -0.3308035 0.37760094 -0.4356455 0.4161392 0.23187096
-0.09109994 0.25935444 -0.41726133 -0.11344574 -0.0035282904 -0.32356116 -0.1478958 -0.21393143
0.54959273 0.48852247 0.50722563 0.4836519 -0.5229592 0.21074188 0.28985083 -0.4189151
0.23969334 -0.31424952 0.10812 0.20768361 0.5042124 -0.24540737 -0.413255 0.59312534
0.23427044 0.2621342 0.28770775 -0.1540049 0.34335947 -0.3945115 0.09006382 0.27712828
0.39473835 -0.30236462 -0.37197828 0.23155928 -0.38631105 -0.3871668 -0.54439634 -0.23009692
-0.0753197 -0.31139362 -0.24282232 -0.48714364 0.3617969 -0.11757504 -0.39949253 0.15763235

actor.preprocess.model.model.2.weight f4 [128, 128]
00000000: e044 e03b 4b74 5e3d 67e4 553d 74ec adbd
00000010: ec02 16bb 44b8 6ebd b967 34bd adaa e63c
00000020: cc41 b8bd 45fb 93bd d9d6 073d 9840 82bc
00000030: 563e 42bd 1507 a4bd d918 1d3d a091 633b
00000040: 160b 8cbd d38e 33bd 8a0a 6fbc 1399 c63c
00000050: f987 133d 9e07 6d3d 8518 6abd 500d 22be
00000060: ae2b 3d3d 61af 55bc 1263 6dbd f7d2 be3d
00000070: 36c0 603d 8be7 a8bd 310c 2bbd a356 0cbc
00000080: 776f 58bd 93f3 373d e8e6 6abd 8698 d53d
00000090: a07a 84bd e6f6 d23c a7ad 06bc 2a36 a3bc
000000a0: 7fc3 623d ee79 5cbd cb49 20bd fe6f de3b
000000b0: a195 5a3d 73a2 88bd eae1 25bd ba70 86bd
000000c0: b2a7 51bd 1c3f 31bd ce1d a0bc 3fcb b9bc
000000d0: af2f 073d ace4 c03b e623 99bd 83d5 00bd
000000e0: 355b a63c 3dbc 53bb 439f 1b3d 3618 7abc
000000f0: 7630 9abd c799 89bd c900 7ebc c82f aebb
00000100: acc0 cd3a 859a dfbc 8897 033d 1c7c 98bc
00000110: 65e0 863d 0a5c 203c 009c a9bc f074 843d
00000120: cc7d ab3d b84a 8bbd a4f0 2abd 6568 493d
00000130: 6c60 da3b 5989 82bc 9ba6 f63b ffce 133d
00000140: bb59 5a3d cc69 2a3d 7e1a c0bc 455c 983d
00000150: ded3 4dba dacc 01bd d18b 37bc da85 9d3d
00000160: 00f9 723d 778b ba3b f83a ae3d 43b3 673d
00000170: 291b d3bd d54f a5bd 8951 3e3d c979 973d
00000180: 7ea5 45bd 72a0 f43c f826 a83c f2d6 81ba
00000190: 4adc a3bc 0916 a2bc d720 f33c dbd0 873d
000001a0: 3fcf 203d 873a 423d dbe8 473d 3bbc 1c3c
000001b0: 906b b53c 7c06 813d 1802 553d 0e96 f13c
000001c0: 79bc 873d a411 bd3d 331f a3bd 9c28 a53d
000001d0: 00ee 9bbc 29c6 0e3e d605 5f3d 5f32 2dbd
000001e0: 8efd ac3b 2140 b0bd f4d4 bdbc 538b d1bc
000001f0: 5dbb c239 5382 28bd faf0 e8bd f9a6 27bd
00000200: 7d43 96bd d6c4 75bd 2838 8c3d b7d5 9c3d
00000210: 93fc b23b 4a3b 203d 601c ddbd afdb b23d
00000220: 72a1 ebbd 1cd6 f3bc e6c0 b2bd 287f 0f3d
00000230: d8ae 96bd 8583 03bd 3dfb 33bd 444a b6bd
00000240: 5708 b3bc 8e27 be3d 105b 333c c04f 8d3b
00000250: ff4d f2bd ea51 323d a73a 403b 8949 3abd
00000260: 0fe1 3c3d e1a9 e1bc e633 b73d 4277 67bd
00000270: de57 93bd ebad 84bd cf68 233c c294 bbbb
00000280: 57da 23be a5df c33c 9ddc 9fbd 45b6 ec3c
00000290: 6d29 38bd e585 31bd 4d1b 513d 6041 15bd
000002a0: 744f f53c 41d7 a23d 60ff e2bd 16ea 26bd
000002b0: fa35 5e3c 4595 8dbd dbe0 fd3c 06c7 25bd
000002c0: 0793 1dbd c6d0 9bbd 6607 4e3d 4555 b2bd
000002d0: 700a d4bd ee91 57bd 84aa 0dbd a6fc abbd
000002e0: e47e 3c3d 107f 43bd e62c 983d 0dab 303c
000002f0: 4135 34bd d972 c8bd 64d0 14bd 8ac3 6e3d
00000300: ecc4 2cbc a672 2dbd 3a20 243d 40e6 ba3d
00000310: 38d0 8f3d 176c 99bd 5d47 0fbc cab9 bdbc
00000320: d6df 673c 02c0 3ebd d51c 6ebd 01de 49bc
00000330: 1c76 153c 64b3 8d3d b403 993c de14 f1bc
00000340: 2e80 ed3c c231 4d3d c5a2 f13c fa30 f0bd
00000350: e76e 583d 5bab 413d fed9 af3c 39ad 06bd
00000360: 6d1a 95bc 99b3 d6bc f211 9d3d a436 bb3d
00000370: 5d53 7a3c 8c6f d9bd 399e 263d 88d5 253d
00000380: e84d 4e3d 4c06 a7bd 4859 0f3d 5b63 02bd
00000390: 2d84 a1bd 17ee 0cbd 5230 ee3c 6208 3f3d
000003a0: bb56 c2bd 0655 0b3d 2391 d93d c0b3 a63d
000003b0: 060e 763d 7d13 98bd c4d8 5e3d 1e5d 953d
000003c0: 4f53 363d 878f acbd ad78 ebbb 0df4 993d
000003d0: a541 bd3b 2ac6 33bc b091 0bbd fbec 13bd
000003e0: 6906 f6bd db49 63bd a72c 0f3d 77e7 95bd
000003f0: 086e 42bd 243e 913c cf2e b3bd 20ea df3c
0.006844148 0.054310124 0.052219775 -0.084923655 -0.0022889925 -0.0582812 -0.04404423 0.028157556
-0.08996925 -0.0722566 0.03316388 -0.015899941 -0.04742273 -0.08009163 0.038353775 0.003472425
-0.06838052 -0.04383738 -0.014589915 0.024242913 0.036018346 0.057868592 -0.05715229 -0.15825391
0.046184234 -0.013042302 -0.05795581 0.09317582 0.054870807 -0.08247288 -0.041759674 -0.008565578
-0.052840676 0.044910025 -0.057349116 0.10429482 -0.06468701 0.025752496 -0.008220113 -0.019923288
0.05536222 -0.05382722 -0.039132874 0.006788253 0.053365353 -0.0667161 -0.04049865 -0.0656447
-0.051185317 -0.043273076 -0.019545462 -0.022679923 0.03300446 0.005886635 -0.0747755 -0.03145362
0.020307163 -0.0032308244 0.03799368 -0.015264561 -0.075287744 -0.06718784 -0.015503117 -0.0053157546
0.001569768 -0.02729536 0.032126933 -0.018613867 0.065857686 0.009787569 -0.02070427 0.064676166
0.08373603 -0.06801361 -0.0417334 0.049171824 0.0066643264 -0.015934633 0.007527185 0.03608608
0.05330823 0.041604802 -0.023450132 0.07439474 -0.00078517 -0.031689502 -0.011202768 0.07691546
0.059319496 0.005692895 0.08507341 0.05656744 -0.10307915 -0.080718674 0.046464477 0.073962756
-0.04825353 0.029861663 0.020526394 -0.0009905978 -0.020002503 -0.019785898 0.029678745 0.06631633
0.039260145 0.047419097 0.048806053 0.009566362 0.022146016 0.06300065 0.05200395 0.029490497
0.06627745 0.0923188 -0.07964935 0.08064386 -0.019034386 0.1394278 0.054448925 -0.042284366
0.0052792495 -0.086059816 -0.023172833 -0.02557913 0.0003714216 -0.04113991 -0.11374088 -0.040930722
-0.07337091 -0.06000217 0.068466485 0.0765795 0.005462238 0.039119042 -0.10796428 0.087333076
-0.115054026 -0.029765181 -0.08728199 0.035033375 -0.073575675 -0.03210785 -0.04394077 -0.08900884
-0.021854563 0.09284888 0.010947004 0.0043124855 -0.11831283 0.04353515 0.0029331835 -0.045480285
0.04611307 -0.027546825 0.08945446 -0.056510217 -0.07194494 -0.06478485 0.009973719 -0.0057245204
-0.16001259 0.023910353 -0.078057505 0.028895507 -0.04496138 -0.043340582 0.051051427 -0.0364393
0.029945113 0.07951213 -0.11083865 -0.040750585 0.013562674 -0.069132365 0.030991009 -0.040473007
-0.038470294 -0.0760818 0.050300024 -0.0870767 -0.10353553 -0.052629404 -0.034586444 -0.08397798
0.04601945 -0.047728598 0.07430439 0.010782969 -0.0439961 -0.097875305 -0.03633155 0.05829195
-0.010544997 -0.042345665 0.040069796 0.09125948 0.070221364 -0.074913196 -0.008745042 -0.02315988
0.014152488 -0.04656983 -0.058132965 -0.012320996 0.009122398 0.06918982 0.018678524 -0.029428896
0.028991785 0.05009628 0.02949656 -0.117280915 0.05284014 0.047282558 0.021466251 -0.03288004
-0.018201077 -0.026208686 0.076694384 0.09141281 0.015278664 -0.10616979 0.040678237 0.040486842
0.050367266 -0.08155498 0.034997255 -0.031833034 -0.07886539 -0.034406748 0.029075775 0.046638854
-0.09489199 0.03401663 0.10623386 0.08139753 0.060071968 -0.07425592 0.054405943 0.07293151
0.044513043 -0.08425813 -0.0071860165 0.07517252 0.0057756477 -0.010972539 -0.034074485 -0.036114674
-0.120129414 -0.055490356 0.034954693 -0.07319539 -0.047468215 0.017729826 -0.087491624 0.02733332

actor.preprocess.model.model.2.bias f4 [128]
00000000: f13a c13d 69eb 3c3c ee54 ffbc 3a9e afbd
00000010: 91f6 c1bb cc77 f33c 6dc9 aebb 2ede edbc
00000020: 2241 2cbd 7cae b93d be37 d53c f0ca 7dbd
00000030: ab02 0e3c 5e54 a53d c476 c53b a0ec 06bc
00000040: 412e 48bc b2e8 c73b 1081 9bbc 3253 0b3c
00000050: e8b0 b53c 6bab 7e3d e85d bebc 460f a53d
00000060: 790d c73d 9c84 35bd 3f07 14bd 2504 493d
00000070: 179a d63c 4097 813a 6110 4ebd 103c 023b
00000080: ee6f 00ba a8aa 243d b4ae 973d 8e42 273d
00000090: 4531 eebc 4956 333b 32d1 f0bc 10af 31bc
000000a0: af17 423d 29ec a7bd 85bc 13bd fd31 29bc
000000b0: 1ca5 88bc 01f0 e2bc 7156 9fbb cbd9 39bd
000000c0: 632b a73c df68 bb3c bdcb a93d 93cd 003d
000000d0: 2a96 d2bc 7037 cc3d e252 723a 6a0d 203d
000000e0: c9b7 7bbc 3662 96bc bc4e a4bd 0315 9a3d
000000f0: 2ef5 6ebd 9dac a33c cf97 2abd 02bf 2e3d
00000100: 766a 593d 38be ae3b d7f5 1cbc 71f0 ec3d
00000110: 7bde d2bc afa4 d0bc 921a 08bc f45b 693c
00000120: 0bf9 61bd 92c9 38bb 4b01 d6bb 248a 903d
00000130: 14ae babc ea03 b23d 4af3 243d d247 c03d
00000140: 4d47 a7bd 2075 e03c 67e7 7cbd d09f 63bd
00000150: 4e49 643a 64c5 81bd 58a8 da3b 0c1d a8bd
00000160: 77b4 57bc dc3f 80bd 9cbc 97bd d16d 22bd
00000170: 4fbf 053d 2d77 80bd ef44 8eba 892c 3b3d
00000180: 485c 833d 39f9 bb3d 5c9f 493d 2e62 f53c
00000190: 0359 3abd 62ae 34bd 36d8 e738 349b 8bbb
000001a0: fefd bb3d a7b1 203d 62bf acbd 1894 20bd
000001b0: 2a4c 82bd 144c 18bc 9ced a0bd 98c8 52bc
000001c0: 2c72 343c 4c71 e33b 69af 843d 7f8b 48bc
000001d0: 4e10 01bd 85c2 7e3d cf20 283d ba1c ed3c
000001e0: e758 c23c f5b4 b13a b82d a73d 3d86 b7bc
000001f0: bb9c c83d d2c3 4e3c 4f50 58bc 77ff 35bd
0.0943507 0.0115307355 -0.031168427 -0.08575101 -0.0059192856 0.02972021 -0.0053340704 -0.029036608
-0.042054303 0.090664834 0.026027557 -0.061961114 0.008667628 0.080727324 0.006026121 -0.008235127
-0.012218059 0.0061007375 -0.01898244 0.008503722 0.022179082 0.062175196 -0.023238137 0.08059554
0.097193666 -0.04431592 -0.036139723 0.04907622 0.026196523 0.0009886995 -0.05030859 0.0019872226
-0.00048994913 0.040201813 0.07406369 0.040834956 -0.029076228 0.0027364662 -0.029396627 -0.010844961
0.047385868 -0.08199341 -0.036068458 -0.01032686 -0.016680293 -0.027702333 -0.0048625995 -0.04537372
0.02040643 0.022877155 0.08290813 0.03144605 -0.02570637 0.09971511 0.0009243918 0.039075293
-0.015363642 -0.018357377 -0.0802283 0.07523539 -0.05833929 0.01997977 -0.041648682 0.042662628
0.053080045 0.0053327344 -0.009580097 0.11569298 -0.025740853 -0.025469152 -0.008307116 0.014243115
-0.055169147 -0.0028196317 -0.006530916 0.07057598 -0.022788085 0.08692153 0.04027108 0.09388699
-0.081678964 0.0273996 -0.06174412 -0.05557233 0.0008708433 -0.063364774 0.0066729 -0.08208665
-0.013165585 -0.0626218 -0.07409021 -0.03965551 0.03265315 -0.06272731 -0.0010854284 0.04569677
0.064140856 0.09178395 0.049224243 0.029954042 -0.045495044 -0.044111617 0.00011055211 -0.004260445
0.091793045 0.039231922 -0.08434941 -0.039203733 -0.063621834 -0.009295482 -0.078578204 -0.012865208
0.011013549 0.0069409963 0.06478769 -0.01224029 -0.03150969 0.062197227 0.041046914 0.028944362
0.023724033 0.0013557958 0.08163017 -0.022402877 0.09795519 0.012619929 -0.013202741 -0.044433083

actor.last.model.0.weight f4 [1, 128]
00000000: 9d29 343d da5c c9bd f371 2abd 3a3c b2bd
00000010: 229f 32bd 9df9 3e3d d4ab 1fbd cdf8 7b3d
00000020: 587e 243d a3bc 5d3d 8808 39bc 4f6f 00be
00000030: 1004 693d 977f cd3d c797 473d a8d0 5abc
00000040: d6f1 8e3d 6584 9dbd bae9 01be 48f8 1dbd
00000050: 61a9 f03d 2eb2 113d f388 85bd fa3e 543d
00000060: 0e23 b43d 48fc 223d 070e 5b3d 6932 7cbd
00000070: 5de6 133d f826 f63c fb40 cdbd 0bc9 63bd
00000080: d1da d73c 47ec 733d 81dc 8cbd 3962 10bc
00000090: f429 f8bd bd45 8b3d 47cd 7ebd 18a6 953d
000000a0: e937 9c3d f154 8dbd 398b 8fbd 40d8 6fbd
000000b0: 4b43 0ebe 0780 be3d 1e37 88bd 2f08 7d3d
000000c0: 41af 8c3d 7d2c 13bd 8b78 b83d 0bef c53c
000000d0: 61c2 9f3d 8be6 033d ac16 a33d 8003 943d
000000e0: 7bfb 12bd 5121 9f3d 000f e839 381a 96bd
000000f0: 7080 5e3d 9eaa 6cbd acab 0fbd 619b bc3d
00000100: 460f eebc 5aab 9dbd 17e5 c43d d466 de3d
00000110: 6e15 b83d 4f6a bb3d 752b aebd 19b6 403d
00000120: 4aa9 1ebe fa9c 063d 2044 d2bd a70e cb3d
00000130: 58ed a53d e3ca b33c 9676 8bbd f394 873d
00000140: 4c32 8f3d c8b5 0bbc f915 de3d a7d9 e73c
00000150: 3487 7ebd 76db 993d 7a47 babd f798 76bd
00000160: db91 983d a05c 913d c81e a33d 739c efbd
00000170: c49c fa3c 6127 033d 9a30 273d 2958 1bbe
00000180: 28f1 ed3c 0c73 3d3d 6cce 8abd b65b 06bd
00000190: 70ab b6bd d50e 9a3d b26d 8dbd a85c 56bd
000001a0: 6bbc dc3d e718 c3bd b702 9d3c 7fcd 8dbd
000001b0: 17bd b1bc 307f cc3c 704d 18bc 3bee 833d
000001c0: 6d41 ef3d 6ace d23c a425 cebc d88c 1fbd
000001d0: e6b8 3dbd 044c 3bbb 4200 0c3d 4ef7 8e3d
000001e0: 22e4 adbd 78b1 bdbd 7a81 2abd 03c0 7f3d
000001f0: 0297 8f3d 8bd0 63bd 49ef 5f3d 96b1 403d
0.043984998 -0.09832163 -0.041612577 -0.087028936 -0.043608792 0.04662477 -0.038982227 0.06151657
0.040159553 0.054134976 -0.011293538 -0.12542461 0.05688864 0.100341015 0.04872873 -0.013355412
0.0697972 -0.07691268 -0.12686816 -0.038566858 0.117510565 0.035570316 -0.065202616 0.05181787
0.08795749 0.039791375 0.053480174 -0.061571512 0.036108363 0.030047879 -0.1002216 -0.05561165
0.026349457 0.059551504 -0.06877995 -0.008812481 -0.12117377 0.06800411 -0.062207486 0.073070705
0.076278515 -0.06900967 -0.070089765 -0.05855584 -0.13892858 0.09301763 -0.06651138 0.061775383
0.068693645 -0.0359311 0.09007367 0.024161836 0.07800747 0.032202285 0.07963309 0.0722723
-0.03588436 0.077700265 0.00044261664 -0.073292196 0.054321706 -0.0577799 -0.03507583 0.09209324
-0.029060017 -0.07698698 0.09614008 0.10859457 0.089884624 0.09151136 -0.085043825 0.04704866
-0.15494266 0.03286455 -0.102669 0.09914904 0.0810191 0.02194733 -0.06809728 0.06620207
0.06992015 -0.008527227 0.10844035 0.028302027 -0.06214066 0.07512562 -0.09095664 -0.060204472
0.07449695 0.07097745 0.079648554 -0.11699762 0.03059233 0.032019977 0.040817834 -0.15170349
0.029045656 0.046252295 -0.06777653 -0.032802306 -0.08919418 0.0752236 -0.06905688 -0.052334458
0.107781254 -0.09526234 0.019166334 -0.06923961 -0.02169661 0.024962991 -0.009295806 0.06441923
0.11682401 0.025733192 -0.025164433 -0.03895268 -0.04631891 -0.0028579244 0.034179933 0.069807634
-0.084907785 -0.09262365 -0.041627385 0.062438976 0.07011224 -0.055618804 0.05467156 0.04704436

actor_old.preprocess.model.model.0.weight f4 [128, 3]
00000000: 1d1d 883e 7e68 b5be b1aa 49be c463 953e
00000010: 6319 06bf 17cf b53e 646d 1cbe 5322 8c3e
00000020: 7284 7f3d a40b b4bd f1ba 1f3e 7e26 cb3c
00000030: faa3 7f3e c588 9dbe c231 d0bd 20e6 54bd
00000040: 3862 ab3d 0027 17bb d059 dd3e f63c 6c3e
00000050: 3161 87be 7524 bbbe 0bcd f9bd 816f 6ebe
00000060: 1354 1abe 59ff 783d 63df b53e f9d0 913e
00000070: 018d 11bf a952 bd3e b87a 4a3e 0eb6 143f
00000080: 650d c73e bc73 0abf ec1a 14bf 2716 88be
00000090: b39d 053f 33d0 92bd fc29 843e dcbb 91be
000000a0: b764 0e3f 6e12 98be 10ab d33e 8ee9 3fbd
000000b0: bf37 94be 9f54 7c3e cbb7 b4be 1483 143e
000000c0: 2b08 62be 2827 cfbc 0a93 13bf 6020 8cbe
000000d0: 7df5 a03e d5aa 0fbe e1fc 103f e06c 043f
000000e0: 5e67 043d 02a9 d1be bfeb d23e 02f4 353e
000000f0: bc60 b7be 2512 d43e 3f9a b73e e2ed 053f
00000100: 4254 d5be b9a4 2abe 8b38 cdbd 6b18 d73d
00000110: 50fa f7be be55 e8be 1ab1 b23e 0112 54be
00000120: 7cd5 9a3e e955 593d 93d7 4e3e dff0 213e
00000130: e716 833e 99cd 933e e822 0ebf 8bd0 823e
00000140: 816f ccbe c145 eebe c11a 9839 2511 9dbd
00000150: c681 ae3e 618c cdbe 1aa6 f9be 7bcc ed3e
00000160: 2ab7 2dbd 7dfc a53e 18fe 053e e530 f9be
00000170: bd41 cf3d 1188 2f3e 8a3e d4be 6b9f 7abe
00000180: da2a 213e a282 913d 84f1 96be 517f 46be
00000190: 701b 063f 6818 0cbe 2ea4 983e 26e7 513e
000001a0: 0af1 d0be 5763 06bf 88b4 083f be89 113d
000001b0: afde d53e 7ada 433e 6077 683e c8b3 c93e
000001c0: dd28 1e3f ae94 d3be 95d9 b43d c3bb df3e
000001d0: c9d5 d13e 8688 be3e dd16 f2be 03e4 bebe
000001e0: cb56 9abe 0aee d93d 4bcc 113f 4cf3 cbbe
000001f0: 9256 953e 94f3 b7be 42a5 15bf a92c 14be
00000200: 4a22 af3e 6f6e 103f 2978 c0be 44cd cc3d
00000210: 8442 073f 74c5 ca3e 5b94 b33e 14b1 da3e
00000220: 4f4b cf3e efaf 233e 0b05 cebe 4cd1 03bf
00000230: 88f4 7abe 7dd5 c0bd 8c19 b4be 4380 613e
00000240: 3e4b 3b3e df8f debd e443 6b3e 1e3e 503e
00000250: 8901 bc3e 1b2e ca3e 7302 41be bcce 183f
00000260: 904e b4bd edf8 8f3c 4f1c 1bbf 54cf b6be
00000270: b580 b6be eae9 54be 9842 e13e f0fb 60be
00000280: 4913 e7be e10b 683e f7b6 273e 4006 e53e
00000290: 6939 9fbe 8eed 0b3e db9a 7dbe 114f f0bd
000002a0: fc87 f9be 3945 9abe 9f3b 3abe 91ed 823e
000002b0: 941a 113e 8bff 183e 703b 183f 2407 113f
000002c0: 47da c63e 8b0f 05bb e789 b8be 8c8d e73e
000002d0: a78a 33be 7d8b 76bd 6491 02bf f7d5 a3bd
000002e0: 375d b4be bbfa 0a3f e9b5 01bf dd71 efbe
000002f0: 6916 2b3d 0c18 a7be 649d 3a3e 15b8 75be
00000300: c02f 7ebe 6a67 b63d ff71 d43e f13f d5be
00000310: 72bb a73e 7b91 bc3e 26db 0f3f 6404 e4be
00000320: 3a8b fc3d 7a62 d8be 88fb 023f ccd6 78be
00000330: 8cfb b93e fb69 4d3d 9878 33bd 49ed 673c
00000340: cacd 0a3e 28e9 8e3e 4419 913d 9766 0e3e
00000350: 95bd 03bf c047 d23e cba3 fb3e 5c68 f03e
00000360: 5179 ed3e 57ee fdbe 3106 87be 9853 063f
00000370: f87c d0be dcdf 083f 8c19 ebbe fda5 e7be
00000380: 3fda 9c3e d155 c5be 6078 d8bd 1622 db3e
00000390: dead b73e 68f4 1c3f 91a0 f8bd f4b0 03bf
000003a0: e0bf 0b3f 70f1 5bbe f9c3 7abe f6fa 343e
000003b0: fbef e7be 7df4 9c3e c4da c23e ef47 00bf
000003c0: 5c8c f1be b594 8dbd f5ab 833e 7c6d 97bb
000003d0: b3e3 b0be c5b7 363d 9c62 0abf 44d0 c3be
000003e0: d890 cbbe bc94 d03e 6101 023f 8535 7cbe
000003f0: 1595 523d 8ab1 993e dd26 423d 3e32 8cbe
0.26584712 -0.35431284 -0.1969402 0.29177678 -0.5238249 0.3550956 -0.15276104 0.27369937
0.06238217 -0.08791283 0.15598656 0.024798628 0.24964896 -0.3076841 -0.101657405 -0.051977277
0.08368343 -0.0023064017 0.43232584 0.2307013 -0.2644134 -0.36551252 -0.12197312 -0.23284723
-0.15071134 0.060790394 0.35521993 0.28479746 -0.5685578 0.36977127 0.19773376 0.58090293
0.38877407 -0.54082847 -0.5785358 -0.265794 0.52193755 -0.07168617 0.25813282 -0.28463638
0.5562243 -0.2970156 0.41341448 -0.046853594 -0.2894878 0.24641655 -0.35296473 0.14503127
-0.22073428 -0.025287226 -0.5764624 -0.2736845 0.31437293 -0.14030011 0.5663586 0.5172863
0.03232514 -0.40949255 0.41195485 0.17768863 -0.3581599 0.41420093 0.35859868 0.52316105
-0.41665846 -0.16664399 -0.1002055 0.10502704 -0.4843316 -0.45377916 0.34900743 -0.20709993
0.30241 0.053060446 0.20199423 0.15814541 0.2560341 0.28867796 -0.5552201 0.2554973
-0.3992882 -0.46537593 0.00029011632 -0.07669286 0.34083384 -0.40146163 -0.48759538 0.4644507
-0.042411007 0.32419196 0.1308521 -0.48670116 0.101199605 0.17141749 -0.41453964 -0.24474876
0.15739003 0.07104994 -0.29481137 -0.19384505 0.52385616 -0.13681185 0.2981276 0.20498332
-0.40808898 -0.5249533 0.5340047 0.03553175 0.41771457 0.19126311 0.22701788 0.39394975
0.617811 -0.4132437 0.08830563 0.43697938 0.40983418 0.37213534 -0.47283068 -0.37283334
-0.30144343 0.106411055 0.5695235 -0.39834058 0.2916761 -0.35928023 -0.5845529 -0.14470161
0.34205848 0.5641851 -0.37591675 0.10000089 0.5283587 0.3960377 0.35074124 0.42713225
0.40487143 0.15985082 -0.40238222 -0.51491237 -0.24507344 -0.0941572 -0.3517574 0.22021584
0.18290421 -0.10867285 0.22975117 0.20336196 0.3671992 0.394883 -0.1884859 0.5969045
-0.08804047 0.017574752 -0.6059007 -0.35705054 -0.3564507 -0.20792356 0.4399612 -0.21971107
-0.451319 0.22660781 0.1637839 0.4473133 -0.31098488 0.13664839 -0.24766104 -0.11733831
-0.4873656 -0.30130938 -0.18186806 0.25571874 0.14170295 0.14941232 0.59465694 0.5665152
0.38838407 -0.0020303454 -0.3604271 0.4522518 -0.1753336 -0.06019162 -0.510031 -0.07999795
-0.35227367 0.54288834 -0.506682 -0.46766558 0.04176942 -0.32635534 0.18224102 -0.23996003
-0.24822903 0.089064434 0.41493222 -0.41650346 0.32760197 0.36829743 0.5619377 -0.445346
0.12331243 -0.42262632 0.51165056 -0.24300689 0.36324728 0.0501499 -0.04381618 0.014155694
0.13555065 0.2791226 0.07084897 0.13906322 -0.51461154 0.41070366 0.49148402 0.4695462
0.4638162 -0.495959 -0.2637191 0.52471304 -0.40720344 0.5346658 -0.45917928 -0.45243827
0.3063526 -0.38542035 -0.10569835 0.42799443 0.35874838 0.61310434 -0.121400006 -0.51441884
0.54589653 -0.2147882 -0.2448882 0.17673859 -0.45300278 0.3065528 0.3805753 -0.5010976
-0.47177398 -0.06913129 0.2571713 -0.004621206 -0.3454872 0.04460885 -0.54056716 -0.38244832
-0.39758945 0.40738475 0.50783354 -0.24629791 0.051411707 0.30018264 0.047400344 -0.27382082

actor_old.preprocess.model.model.0.bias f4 [128]
00000000: fa46 93be 80f5 bf3e 57b7 633e 37e9 1e3e
00000010: 3f64 11bd 7e7f 38be 8eb9 293e c259 ed3e
00000020: 6e79 9a3d 3ba9 7dbe e214 0f3f 2d27 fb3c
00000030: 8f7f eb3e 89f0 0e3e d4de 0b3f 7592 c63e
00000040: 69c1 91be eead ce3e 0fac 0b3d c54a e0be
00000050: 6b20 d9bd e0ed eabe 2ace 79be ca7e c0be
00000060: 2165 bb3e f054 01be 290f afbd 0af6 9a3e
00000070: e330 7e3e d0af c4be 17ea 803e 5e73 783e
00000080: fafe cdbe 6571 023f 7d41 a7be 4b5f 4bbe
00000090: bad5 e0be a3ef 0c3f 7134 c33d a792 fe3e
000000a0: 30c4 34b9 b308 a83e 9aea 1dbe adec e4be
000000b0: 20d7 a53d 0702 35bd 7284 52bd 2e61 89be
000000c0: 8b39 e73c acbb 2a3e 2c90 5d3e bc61 eebe
000000d0: 054c 963e a4cc a03d d780 d23e fb98 cf3e
000000e0: 25f1 d9be 69fc 0d3f 5a70 14bf 4766 b33e
000000f0: 3c53 3d3d dd65 843e 9c14 99be 5072 b33e
00000100: d63e 91be 8452 ffbe 8a4c 3f3e 38cb 9e3e
00000110: 61e3 103f 8f19 78bd c2b0 123f 834c be3e
00000120: 45d9 52be 8398 ddbe 23fc a53e 7a1c a5be
00000130: 86a1 be3e db23 e1be 5876 d53e 47e5 5d3e
00000140: eff5 adbd 5425 863e e924 d6be 13c2 ecbd
00000150: 3e98 c639 3c56 a6be 8aff 15be ccf8 68be
00000160: 5ade 0d3f 0418 fb3e 6b25 013f da1b f83e
00000170: a83b 08bf 9d7d 633e 603d 8f3e 48d7 d3be
00000180: 49d5 743e a8da 9ebe 1085 ce3d eead 553e
00000190: 2a0f 003f ece6 82be 4545 dabe c8cb 153f
000001a0: 3fff 753e 066c 8a3e 2a19 8f3e d72f 2abe
000001b0: b22b b03e 080f d2be 343c a43d ba61 8c3e
000001c0: e92d ca3e 6e52 95be f9b6 bdbe d5fe 6d3e
000001d0: 2ee3 d0be 7bc6 d3be a72d 09bf 8ab9 73be
000001e0: 5738 96bd c832 9ebe e839 6ebe b3d1 fdbe
000001f0: 245b bc3e 7e3c f0bd f61c c2be fe09 213e
-0.28765088 0.3749199 0.22237907 0.15518652 -0.035495993 -0.18017384 0.1657469 0.46357542
0.07542692 -0.24771588 0.5589124 0.030658329 0.45995757 0.13958944 0.54636884 0.38783613
-0.28467873 0.40367073 0.034099635 -0.43807045 -0.10601886 -0.4588461 -0.24395052 -0.37596732
0.36600593 -0.12630057 -0.085478134 0.30265838 0.24823336 -0.38415384 0.25178596 0.24262759
-0.40233594 0.50954276 -0.3266715 -0.1986057 -0.4391306 0.55053157 0.09531487 0.49721262
-0.00017239223 0.32819137 -0.15421525 -0.4471182 0.080976725 -0.044191387 -0.05139584 -0.26831955
0.02822568 0.16673154 0.21637028 -0.4655894 0.29354873 0.07851532 0.41113922 0.40546402
-0.4256679 0.5546327 -0.57983935 0.3503897 0.046221957 0.25858966 -0.29898536 0.3504815
-0.28368253 -0.49867642 0.18681541 0.3101442 0.5659695 -0.06057125 0.5730096 0.3716775
-0.20590694 -0.4328042 0.32418928 -0.32248288 0.37232608 -0.43972668 0.41691852 0.21669494
-0.08494174 0.26200354 -0.41825035 -0.11560454 0.00037878932 -0.32487667 -0.14648262 -0.22751158
0.55417407 0.4904176 0.5044772 0.4845875 -0.5321603 0.22215886 0.27976513 -0.41375184
0.23909487 -0.31026196 0.100839734 0.2086713 0.5002314 -0.25566804 -0.42630973 0.5851407
0.2402315 0.2703554 0.27948886 -0.16619812 0.34408337 -0.41027093 0.08019295 0.2741831
0.39488152 -0.2916445 -0.3705366 0.23241742 -0.40798324 -0.41362366 -0.53585285 -0.23801246
-0.07334965 -0.30898118 -0.23264277 -0.4957405 0.36788285 -0.11730288 -0.3791272 0.15726468

actor_old.preprocess.model.model.2.weight f4 [128, 128]
00000000: 8577 d1bb a398 633d 3173 4a3d 4653 b2bd
00000010: 8609 58bc 44b8 6ebd c0ed 4bbd 3ff1 ed3c
00000020: b887 bbbd a171 94bd 6cfe 063d c68e 1dbc
00000030: 9737 3abd 3383 aabd 773a 203d 7f52 8d3b
00000040: eac1 7bbd be2c 3bbd ba17 45bc 66c8 b23c
00000050: 2836 0d3d b0fc 593d 3e27 57bd a418 16be
00000060: a9c8 423d aace 50bc 14d9 5ebd f4e0 bf3d
00000070: 54dd 693d 85ce a7bd b152 25bd 7635 e1bb
00000080: 349e 75bd a50c 2c3d 435e 8bbd 3eac c03d
00000090: 83c8 7cbd ea3f d73c 0360 fdbb d1b0 9abc
000000a0: c261 5e3d ca57 63bd a20b 2cbd 574f c93b
000000b0: e96f 643d 6a60 7dbd b804 09bd 61bb 82bd
000000c0: a36d 4bbd e933 2cbd 3695 dbbc e207 c2bc
000000d0: 1115 f83c 9f21 a93b 4317 9abd b246 fcbc
000000e0: 0b77 0c3d 55dc 8dbb f9b9 253d 1bb1 87bc
000000f0: 33ac 94bd 3fc4 8cbd c21d 1dbc 4d24 d3bb
00000100: cce1 223b 8c05 dabc 7596 013d 7b39 b4bc
00000110: c383 833d 4be0 273c cc3b a7bc 1948 883d
00000120: dd12 943d a43a 8cbd ddd5 2ebd aae9 4c3d
00000130: bde8 c73b 5c7d f9bb 67fb dc3b 3b4f 173d
00000140: 42f4 4d3d 91f4 2f3d 12ed 3ebc deb9 8e3d
00000150: 1448 37b9 490a 00bd 0a1a 2cbc 2c38 9e3d
00000160: b080 733d 717d 533b c58f ab3d 8eb3 643d
00000170: 189d b1bd 91fd a7bd 6d17 323d 0fb2 9a3d
00000180: b4bf 4abd ea02 f53c 1879 c43c 49fd c43a
00000190: 45dc a3bc 1114 d6bb 82c7 bc3c c54a 843d
000001a0: ecfd 173d fcc3 383d e508 483d c349 983c
000001b0: 4907 c43c e5cc 553d a33d 5a3d 64df f93c
000001c0: 8125 873d bd8f b63d 4017 99bd f9f9 a83d
000001d0: c1d0 a0bc a802 043e 1074 623d 3e2d 44bd
000001e0: d521 843b ae53 abbd b6ab c8bc 2bf1 c0bc
000001f0: cc08 58b9 7bd9 25bd ae6d e8bd 16a2 31bd
00000200: a802 3fbd 041c 4ebd 25a0 853d 6034 933d
00000210: 1804 c33c 4a3b 203d 53bd b3bd 1a66 a43d
00000220: 511d cbbd 15d1 f3bc fba7 9bbd b64b df3c
00000230: 1d0c 98bd 887b 1cbd 91bf 55bd c769 b6bd
00000240: 9e70 eebc 8f9f b13d 817b 8c3a 85aa 933c
00000250: 3763 d3bd 3cfc 733d d3f2 12bb 00f8 5abd
00000260: 1a58 543d 50f5 c6bc 2499 a83d 8c47 81bd
00000270: cf69 a0bd c1af 84bd 9a0e bc3b 77f1 52bc
00000280: 6d22 03be eb05 943c 65d7 46bd 9f78 fb3c
00000290: 6d29 38bd 8ad1 4dbd 3734 683d a1a6 34bd
000002a0: 687a 333d e190 943d 7017 c0bd 1fea 26bd
000002b0: 79c3 563c cece 99bd a345 bd3c 4dbc 25bd
000002c0: 91da 1dbd aecc 91bd 4e00 3c3d e7dc 96bd
000002d0: b903 bfbd 1be7 4dbd f8af 29bd d04a bbbd
000002e0: fe06 183d cdf2 35bd eff2 8d3d 8573 f63c
000002f0: 2449 55bd 5f03 a3bd d810 37bd 22de 523d
00000300: 2a78 f8bb a1bb 16bd 616f 1e3d 547b ae3d
00000310: bf33 823d eb02 91bd 2228 86bc 13e5 9bbc
00000320: d817 1d3d d7bd 3ebd 8cc0 7dbd 82ff 05bc
00000330: b635 9e3b c116 803d 14c0 3a3c c666 12bd
00000340: 5ec4 283d dbd2 303d 10b6 b03c 26b9 d1bd
00000350: 48c9 563d 3101 5d3d edcb b73c e3af 06bd
00000360: 94d4 83bc 8a6f 06bd 2e6b 9e3d fa6d ac3d
00000370: c6cb d93b b531 b9bd b356 4d3d 4910 263d
00000380: 5f8c 393d 6128 96bd bb0d e33c e910 22bd
00000390: 04b4 acbd a316 30bd a007 223d bf7c 1b3d
000003a0: c3b2 bcbd 0c52 163d be4e cb3d 61b2 9b3d
000003b0: 5317 553d d2e9 4ebd 7983 6c3d 5d7c 873d
000003c0: d7c8 1b3d 08a5 95bd 43e7 50bc cf15 8a3d
000003d0: d2fd 053d d8f6 8e3c efee 09bd 48e6 19bd
000003e0: 3b4f d4bd 2b0d 3bbd b4f6 2d3d ade6 95bd
000003f0: 7f17 2cbd 4428 923c 58ad 91bd c39a b03c
-0.0063924217 0.055565488 0.04942626 -0.087072894 -0.013185864 -0.0582812 -0.049787283 0.0290457
-0.09156746 -0.072482355 0.03295748 -0.009616559 -0.04546317 -0.083258055 0.039118256 0.004312813
-0.061464228 -0.045696966 -0.012029583 0.021824073 0.034475476 0.053219497 -0.05252766 -0.14657837
0.047554646 -0.012744585 -0.05440624 0.09369078 0.05709584 -0.08193687 -0.040362064 -0.006872828
-0.059965327 0.042004246 -0.06805088 0.094078526 -0.06171466 0.026275594 -0.0077323928 -0.01888314
0.054292448 -0.055503644 -0.04200328 0.0061434912 0.05577079 -0.061859526 -0.033451766 -0.06383396
-0.049665105 -0.042041693 -0.026804548 -0.0236854 0.030283483 0.0051614786 -0.07523968 -0.030795429
0.034293216 -0.004329244 0.04046056 -0.016563943 -0.07259407 -0.068733685 -0.009589614 -0.0064435364
0.0024853824 -0.026613973 0.031637628 -0.022000065 0.06421616 0.010246347 -0.020414256 0.066543765
0.072301604 -0.06847122 -0.042684425 0.050027527 0.0061007426 -0.007613821 0.0067438367 0.036940794
0.05028177 0.042957846 -0.011653202 0.06969045 -0.00017479091 -0.03125981 -0.010504255 0.07725558
0.059448898 0.0032270814 0.08377031 0.0558353 -0.086725414 -0.08202661 0.04347937 0.07553493
-0.04949923 0.029908616 0.023983523 0.0015029098 -0.020002494 -0.006533154 0.023044351 0.06459574
0.037107393 0.04510878 0.048836607 0.01858986 0.023929255 0.052197356 0.053281438 0.030502029
0.0659895 0.08914135 -0.07475138 0.082508035 -0.019630792 0.12891638 0.055286467 -0.04789471
0.0040323534 -0.0836557 -0.02449594 -0.023552498 -0.00020602642 -0.04049061 -0.11349045 -0.043367468
-0.046633393 -0.050319687 0.06524686 0.07187724 0.023805663 0.039119042 -0.08776345 0.08027287
-0.09917701 -0.029762784 -0.07600399 0.027257781 -0.074241854 -0.038203746 -0.052184645 -0.08906894
-0.029106434 0.086730115 0.0010717959 0.018025646 -0.10321658 0.05956672 -0.0022422567 -0.053459167
0.051841833 -0.024286896 0.08232334 -0.063124746 -0.078326814 -0.06478835 0.0057390453 -0.0128749525
-0.12806101 0.018069228 -0.04854526 0.030697165 -0.04496138 -0.05024866 0.05669042 -0.044104222
0.043817908 0.07254196 -0.0937947 -0.04075062 0.013108128 -0.07510148 0.023104494 -0.04046278
-0.03853852 -0.07119118 0.045898728 -0.073663525 -0.09326882 -0.050269227 -0.041427583 -0.09145129
0.037116043 -0.044421006 0.069311015 0.03008438 -0.052071705 -0.07959627 -0.044693798 0.051481374
-0.007582684 -0.03680003 0.038680438 0.08519617 0.06357526 -0.07080635 -0.016376559 -0.01903013
0.038352817 -0.046567764 -0.061951205 -0.008178594 0.00482818 0.0625434 0.011398334 -0.035742544
0.041202895 0.043169837 0.02157119 -0.102403924 0.05243805 0.053956214 0.022436107 -0.032882582
-0.016092576 -0.032821216 0.07735287 0.08419414 0.006646606 -0.09042684 0.05013151 0.040542874
0.045299884 -0.073319204 0.027716508 -0.039566908 -0.08432773 -0.042990338 0.039558053 0.037960764
-0.092137836 0.03669934 0.09927128 0.076023825 0.052024197 -0.050515957 0.05774257 0.06615517
0.038033333 -0.07306868 -0.01275045 0.06742441 0.032712765 0.017451689 -0.03367513 -0.03757313
-0.103666745 -0.045666855 0.042471603 -0.073193885 -0.042014595 0.017841466 -0.07113141 0.021558171

actor_old.preprocess.model.model.2.bias f4 [128]
00000000: a99f bf3d 50e1 a73b 1da0 fdbc 5ab6 aebd
00000010: fdf7 d4bb 0dd9 f33c eb2d b6bb 964b febc
00000020: 3ddf 2dbd e963 bd3d b246 d53c 81a9 85bd
00000030: 678c 663c 4845 a63d ba68 9a3b a0ec 06bc
00000040: 436b 50bc 6870 053c d46e a2bc 4251 103c
00000050: 1872 aa3c 31e5 7b3d e85d bebc 5611 a53d
00000060: c212 c63d bb7e 35bd fb50 22bd dd01 4a3d
00000070: 0a7a d23c 4097 813a 1ab4 54bd 29af eab8
00000080: 0d01 41bb 9aff 1e3d edac 943d 30ac 293d
00000090: 108c d6bc dd47 073b 9f37 efbc 2cb4 81bc
000000a0: 34dc 403d 3988 a1bd aa44 10bd 5af7 26bc
000000b0: bf68 89bc af4b e2bc deb3 acbb 01e3 42bd
000000c0: c0a6 983c 8a35 bc3c a030 a73d 44fa f63c
000000d0: 5032 e6bc 5f45 c63d c5f2 bb3a b78b 203d
000000e0: 04dc 84bc 033d 9abc bc4e a4bd d31d 9a3d
000000f0: 5f34 82bd 3721 a73c 7fb7 2cbd a552 2d3d
00000100: 9367 4f3d c10a af3b cc75 f2bb 26ff ea3d
00000110: b7f9 d3bc 507a f7bc 02f1 03bc 8295 6e3c
00000120: 41bf 63bd da94 60bb d952 eeba f0a1 8f3d
00000130: 1d9b babc f464 b13d 7753 123d 9d81 be3d
00000140: 86a4 a5bd 2075 e03c 5082 81bd c19b 67bd
00000150: d2c7 ce3a 31af 81bd 69b2 a83b 8719 a8bd
00000160: dabc 76bc a4f8 88bd 8777 9ebd 8eb2 21bd
00000170: 7979 013d fc59 7ebd 9d68 dbba ea8a 353d
00000180: 9ee6 823d c91f bb3d 6c3d 483d ec9f f73c
00000190: 17b7 4abd f9a5 34bd a926 a5b9 53e0 d5bb
000001a0: 4f5e bd3d 4602 553d 427d aabd 67a0 27bd
000001b0: 7540 83bd 6bb6 0cbc 9ced a0bd 9ac8 52bc
000001c0: 0bb2 f83b 395d 133c b3be 8b3d b023 49bc
000001d0: 8209 fcbc 88ea 7c3d a36a 263d 2fed ea3c
000001e0: f668 c23c 9e16 d33a 1c4f a73d 435a b7bc
000001f0: 1398 bf3d d064 533c 5f35 54bc 77ff 35bd
0.09356625 0.005123295 -0.030960137 -0.085308746 -0.006499289 0.029766584 -0.005559673 -0.031041902
-0.042449225 0.09247572 0.026034687 -0.06526471 0.01407156 0.08118683 0.0047121914 -0.008235127
-0.012720886 0.0081444755 -0.019828238 0.008808436 0.020806357 0.06149787 -0.023238137 0.08059947
0.096715465 -0.044310313 -0.03962801 0.049318183 0.025692958 0.0009886995 -0.05192957 -0.000111906156
-0.002945009 0.03881798 0.072595455 0.041423976 -0.026189834 0.00206422 -0.029201327 -0.015832983
0.047085002 -0.078873105 -0.035221733 -0.010190809 -0.01677358 -0.02762398 -0.0052704653 -0.04757977
0.0186342 0.022974748 0.08163571 0.030148633 -0.028100163 0.096812 0.0014339319 0.039195742
-0.016218193 -0.01882792 -0.0802283 0.0752522 -0.06357645 0.02040158 -0.042167183 0.042315144
0.050635885 0.005341858 -0.0073992964 0.11474447 -0.02587591 -0.03020969 -0.008053066 0.014562013
-0.055602316 -0.003426841 -0.001818265 0.07013309 -0.022779042 0.086618334 0.03572413 0.093020655
-0.08088021 0.0273996 -0.06323683 -0.056545023 0.0015776104 -0.06332243 0.0051482213 -0.08207994
-0.015059674 -0.066880494 -0.07737642 -0.039476924 0.031609986 -0.062097535 -0.0016739551 0.044321932
0.06391643 0.09136922 0.0488867 0.030227624 -0.049491014 -0.044103596 -0.00031500057 -0.0065269857
0.092465036 0.05200412 -0.08324672 -0.040924456 -0.064087786 -0.008588414 -0.078578204 -0.01286521
0.0075895838 0.008994394 0.06823482 -0.012276575 -0.030766252 0.061747104 0.04062904 0.028677551
0.02373169 0.0016104763 0.08169386 -0.022381907 0.09355178 0.012902454 -0.012952178 -0.044433083

actor_old.last.model.0.weight f4 [1, 128]
00000000: c3a5 2e3d c73c 99bd ade2 24bd 974a adbd
00000010: b171 32bd ca11 3f3d 913a 08bd ee1b 663d
00000020: a360 203d 38d5 553d 061b 39bc 058e efbd
00000030: 1001 303d 03fe c43d 2d59 303d a8d0 5abc
00000040: 8450 8c3d f9b3 98bd b2ef fcbd f497 1ebd
00000050: ef05 e73d 94cc 053d f388 85bd d642 543d
00000060: 1b0c b73d c801 233d d2a1 163d 44a3 66bd
00000070: 4b52 fd3c f826 f63c 9c69 babd 14d3 58bd
00000080: b89f a43c fdcf 693d e1d5 5fbd 67b0 09bc
00000090: 577d f1bd 7496 7b3d d8cc 76bd aa2c 913d
000000a0: cc7b 8e3d b74b 8dbd 7001 8dbd 6cf0 6fbd
000000b0: 6716 0bbe 7dbc b93d 65b0 55bd a9d8 7c3d
000000c0: 6df8 853d 64a6 0bbd 2757 a53d 54cd c63c
000000d0: e462 9f3d 4d3c 013d f471 9b3d f909 943d
000000e0: 5907 09bd 68e3 973d 000f e839 1621 96bd
000000f0: cbe7 493d 06cd 6cbd 09af 08bd 4197 ba3d
00000100: f321 d1bc 60af 9dbd 3c67 af3d 0d56 cf3d
00000110: 72f6 b03d 9c4b a73d 5f53 b0bd 14e2 3c3d
00000120: 884b 16be 695d ed3c 6854 c5bd 8717 bd3d
00000130: 8ef1 a53d 6787 a03c 6ab0 6bbd f31b 823d
00000140: ccdd 8f3d c8b5 0bbc 8b7f ce3d ace2 cf3c
00000150: 8001 6bbd 00df 993d 3fc5 b2bd 2e9e 76bd
00000160: 317f 933d ad59 7a3d c877 813d d82d eabd
00000170: 0c20 f03c bbbd fa3c 2714 1d3d 4d75 14be
00000180: 2741 eb3c 0294 343d b232 88bd 1290 06bd
00000190: b42d b0bd b911 9a3d 096f 84bd 1b94 4ebd
000001a0: ce53 d43d 1395 a7bd 2374 5f3c caac 86bd
000001b0: 2ab9 c3bc 3703 ae3c 704d 18bc 3bee 833d
000001c0: 90b6 e13d a508 cf3c 37a6 cdbc 933b 22bd
000001d0: d61b 30bd abd8 9bba e14f 063d b8b9 8c3d
000001e0: 2fe9 adbd 1421 bbbd 0648 24bd 61d5 7f3d
000001f0: e127 803d 0dd0 5dbd 5f42 5b3d 96b1 403d
0.04263855 -0.074822955 -0.040255237 -0.084614925 -0.043565456 0.046647824 -0.03325898 0.05617898
0.03915466 0.052205294 -0.011297947 -0.1169701 0.042969763 0.096187614 0.043053795 -0.013355412
0.06851295 -0.07456202 -0.12350406 -0.038719133 0.112804286 0.032665804 -0.065202616 0.051821552
0.08937856 0.03979662 0.036775418 -0.056308046 0.03092303 0.030047879 -0.09102175 -0.052935675
0.020095691 0.05708312 -0.05464733 -0.008403874 -0.11791485 0.06142278 -0.060253948 0.07088597
0.06957206 -0.06899207 -0.0688504 -0.058578894 -0.13582765 0.090691544 -0.052170176 0.06173006
0.06541524 -0.03409423 0.080732636 0.02426783 0.07782534 0.031551648 0.07590094 0.07228465
-0.033454273 0.07416421 0.00044261664 -0.073305294 0.04929332 -0.057812713 -0.03337005 0.09110881
-0.025528884 -0.07699466 0.08564612 0.10123835 0.08640756 0.08168718 -0.08609652 0.046114042
-0.1467725 0.028975205 -0.0963524 0.09233003 0.081027135 0.019595815 -0.05754129 0.06352987
0.07024726 -0.008527227 0.10082921 0.02537664 -0.057374477 0.07513237 -0.08729028 -0.060209446
0.07201994 0.061120678 0.063216746 -0.11434525 0.029312156 0.030608049 0.038349297 -0.14497872
0.02871759 0.044086464 -0.06650294 -0.03285224 -0.08602467 0.075229116 -0.06466491 -0.050434213
0.10367547 -0.081827305 0.013638529 -0.06575926 -0.023892004 0.021241767 -0.009295806 0.06441923
0.11021149 0.025272677 -0.025103671 -0.039607596 -0.042995296 -0.0011890134 0.032791022 0.068713605
-0.08491742 -0.091371685 -0.04010775 0.062459353 0.06257606 -0.05415349 0.053530093 0.04704436

critic1.preprocess.model.model.0.weight f4 [128, 4]
00000000: 4e20 dc3e 1e1f 4e3f 7241 b23d 9d29 15bf
00000010: a6fe 8b3d 1314 df3e 221d fb3e 91db a83e
00000020: 3e56 d9bd 3c71 193f 3756 333e ec39 ec3e
00000030: 913d ae3e c50f 4c3f 463a 8d3e c19b 4d3e
00000040: 0c6b 0c3f 4cde a13e fa56 3e3e c123 4a3a
00000050: a6ba 49be f65f dabe dd96 723e d8f1 33be
00000060: 1fcb 0cbe 11aa eb3e 311f 7d3d 11df 86be
00000070: af84 823e e15a d6bc c46e 703b 8733 483e
00000080: 43ef 57be f99d 90bc 71d7 e0be 5dfb 1d3e
00000090: c15b 1b3f a255 9ebd 7711 043f b92c f13c
000000a0: 6522 11be b4b4 1fbf 3437 6abe a506 62be
000000b0: 567d e1be bad4 a13e a34f f5be d2ee 30be
000000c0: 696f 31bf d4c7 9abe 9cf5 84bd 0fc1 57be
000000d0: 4ea1 b93e 1adf 383e 4e8f 933e 6549 a23e
000000e0: e93f 8ebe e644 b5be 3bc7 f8bd 1c05 1d3d
000000f0: 48a2 79bd e3ce 07bf 6abc 62be f296 01bf
00000100: d3ea e5be 08b4 37be 5dd2 d63e 2359 0d3f
00000110: d195 08bf 24ec f13d f160 493e c4c9 c43d
00000120: eab3 babe 74d8 42bf 64f1 babe 4023 53be
00000130: 23b7 a43e 75a5 4bbe 7ad4 9f3e 111b 70bd
00000140: d3d2 11bf bb02 8b3c 6335 483e aafb 8abe
00000150: 1501 45bf f75f 2b3e c012 9f3e a28e 70be
00000160: 1064 5fbf 6d87 9abe 7e76 003d 0fa9 adbd
00000170: f4eb 5d3e 8e3f 293f 1db1 d13e 4644 5fbe
00000180: e8bc b7be 5016 633f c1ea 2e3e fceb 703e
00000190: 7b0b 9a3b 292f cebe 1f6b bc3e 2612 05bc
000001a0: 9317 44be ccb0 73bf 9c69 82be 221d 03bd
000001b0: a063 bfbe 1a1d c2be 171f 813e a8fd 5cbe
000001c0: 8bf6 19bf 6c64 2e3f 57d1 823e dbd1 773e
000001d0: d4ce 04bf e1f5 83bc c7cf 3dbe cd07 1c3e
000001e0: 9c20 51be 3020 49bf ee7f b0be adc6 aabe
000001f0: 1fe9 38bf 3438 d03e deaa 833e 3d8d 4e3e
00000200: 2de9 2c3e 3c92 40be 7c65 bf3e 4c71 c73c
00000210: 7d0e 863e 1256 44bf 2fca c1be 8d3d da3e
00000220: da5d 8b3f 45b1 36bf 5185 95be 5aae 67be
00000230: d647 123e d614 5b3f 758b 9dbe 775b bfbd
00000240: e66f b53e 7fd7 aebe c182 60bd 409e ad3e
00000250: b724 a93e 8448 e13e 6b18 f43e ca90 533e
00000260: 6b6e 2bbf 4dc3 72bf 84c0 34be cf00 96be
00000270: 2c71 713e f4e0 5e3e 7aa8 fd3e f6af e83d
00000280: 8a1c a839 805d 983e a985 103f 3ffb ba3e
00000290: 7f74 dabe 2539 e6be f5bc 1abe c90b 37be
000002a0: ed33 0dbf a54b 6e3f 3a27 c73e 89b4 01bf
000002b0: faa1 fe3e da33 88bf 388d dfbe a082 a43e
000002c0: f252 4a3f a770 fbbe 9ccb 65bd d88c 8fbe
000002d0: d49d edbe 0e6c 8a3d d787 2fbe 187f 09bd
000002e0: b1b0 1ebf 19ec 46bd 7ed9 cabd 2120 84be
000002f0: 1eda 19bf 9be5 23bf 7418 72be 2609 0a3f
00000300: 81cb 853b de94 0e3e bd4d c2be 3b9b 933e
00000310: 93ff cbbe 71d4 873f 6265 713e 1a64 b23e
00000320: d6e2 d93e bda9 2bbf 0322 1abf 86d9 96bd
00000330: 63d3 04bf 72c2 313f 3253 3b3e 66ba 863e
00000340: 3871 0bbf 95c9 3c3f 8a35 633e 5208 aa3e
00000350: 2df8 2fbf c7dc dabe d9d7 77bd c28b 13be
00000360: fa18 003f 0ef3 7dbe 65f6 af3e eecc 233e
00000370: ad64 483d 5587 763f 0294 513e 3e70 e1bd
00000380: fe4c 1f3f 33df d33e cc9a ccbe c5b1 1e3e
00000390: c635 26be 9879 2e3f 07a5 8ebc 64a6 58be
000003a0: 4c4c 83be d222 b23e 5d05 22bf 284e cabe
000003b0: 3535 943d 5996 313f 1b1c 66be 5d21 b6be
000003c0: ea88 33bd e292 69be 97c6 27bf 233f 92bd
000003d0: f5dc e0be 526a d4be 3bfb 21be 5bdd 233e
000003e0: 8b5c febe 9078 56bf 1240 0a3e dee2 8d3c
000003f0: 88f3 edbe 6c4d d9be eca4 c4be 8b4b 603e
0.42993397 0.8051623 0.08703889 -0.5826662 0.0683568 0.43570003 0.49045664 0.32980016
-0.106121525 0.59938407 0.17513357 0.4613794 0.34031346 0.7971156 0.27583522 0.20078947
0.5485084 0.31614912 0.18587866 0.0007711016 -0.19700107 -0.42651337 0.23690362 -0.17572725
-0.1374936 0.46028188 0.061797325 -0.2634206 0.25491855 -0.026166381 0.0036687115 0.19550906
-0.21087365 -0.017653452 -0.4391437 0.15427919 0.6068688 -0.07731177 0.5158915 0.02944027
-0.14173277 -0.62385106 -0.22872621 -0.22072847 -0.44040936 0.3160761 -0.4791232 -0.17278603
-0.69310623 -0.30230582 -0.06492159 -0.2106974 0.36255878 0.18053856 0.2882027 0.3169662
-0.27783135 -0.35404128 -0.12147375 0.03833495 -0.06094578 -0.5305006 -0.22142187 -0.5062095
-0.4490572 -0.1793977 0.4195737 0.55214137 -0.533536 0.118126184 0.19665886 0.09608796
-0.3646539 -0.7611153 -0.3651229 -0.20618916 0.32170972 -0.19887336 0.31216794 -0.058619563
-0.5696232 0.016969075 0.19551615 -0.2714513 -0.76954776 0.16735826 0.31068993 -0.2349191
-0.8726206 -0.30181447 0.031363003 -0.08479511 0.2167204 0.661126 0.4095544 -0.21803388
-0.35886312 0.8870592 0.17081739 0.23527521 0.0047010756 -0.40270355 0.36800477 -0.008122003
-0.19149618 -0.95191646 -0.254712 -0.032010205 -0.37380695 -0.37912828 0.25219032 -0.21581137
-0.6014182 0.6812198 0.2555034 0.24201147 -0.51878095 -0.016108455 -0.18536292 0.15237351
-0.20422596 -0.7856474 -0.34472603 -0.33354703 -0.72230715 0.4066788 0.257163 0.20171066
0.16885825 -0.18805784 0.37382114 0.024346016 0.2618293 -0.7669383 -0.37849566 0.42625085
1.0888016 -0.7136424 -0.29203275 -0.22625104 0.14285216 0.8557867 -0.3077046 -0.093436174
0.35436934 -0.34148785 -0.054812197 0.33909798 0.33035824 0.44000638 0.4767488 0.20660701
-0.6696536 -0.94829255 -0.17651564 -0.29297492 0.23578328 0.217655 0.495426 0.11361687
0.0003206472 0.29758835 0.5645395 0.3651981 -0.42667004 -0.44965473 -0.15111144 -0.1787559
-0.5515736 0.93084174 0.38897115 -0.506661 0.49732953 -1.0640824 -0.4366243 0.3213091
0.79032815 -0.49109384 -0.05610238 -0.28037143 -0.46409476 0.06758891 -0.17141663 -0.03356847
-0.6198836 -0.048565004 -0.099047646 -0.25805762 -0.60098445 -0.64022225 -0.2364214 0.5392021
0.0040830974 0.13923976 -0.37949935 0.2882937 -0.39843425 1.0611707 0.2357383 0.34841996
0.42555875 -0.67055875 -0.6020815 -0.07365708 -0.5188505 0.69437325 0.18293455 0.26314086
-0.54469633 0.7374509 0.22188392 0.33209473 -0.6873806 -0.42746565 -0.060508583 -0.14408782
0.5003811 -0.2479975 0.34367672 0.15996143 0.048924137 0.9630025 0.20466617 -0.110077366
0.62226856 0.41381225 -0.3996185 0.15497501 -0.1623145 0.6815429 -0.017412676 -0.21157223
-0.25644147 0.3479219 -0.63289434 -0.39512753 0.07236711 0.6937004 -0.22471659 -0.3557233
-0.043831743 -0.22809938 -0.655374 -0.071409486 -0.43918577 -0.41487366 -0.15818493 0.16002409
-0.4967998 -0.83777714 0.13501003 0.017320093 -0.46474862 -0.4244188 -0.38407075 0.21903817
