demo/tianshou/discrete/log/CartPole-v0/discrete_sac/policy.pth (torch, 103243 bytes, 30 tensors)

actor.preprocess.model.model.0.weight f4 [64, 4]
00000000: 350e b7bb add8 893e 44f1 d3be 928a bdbe
00000010: 95fa a5be 50f2 243e 1704 a93e 1670 043f
00000020: 6ea0 dc3c e254 313e 4935 bfbe 81ce 7abe
00000030: 16b5 1bbf e0ed c2be a5d5 713d 2a81 fa3d
00000040: 927c 8f3e 4aba 9f3e 29e9 12bf 9337 b5be
00000050: 1dfe 62bd e4fc dd3e 5ef0 fd3d 10a1 d33e
00000060: 89ac 793c bc66 8fbc 0a59 0d3e cc50 18bf
00000070: 3f4a cbbe 7ace 82bd 88d8 8f3d 44ef 003f
00000080: 90a9 3dbe 505e 9bbe af1f 36bf 908f 1abf
00000090: 752c 7dbe 3284 203f 4a3b f13e f316 843e
000000a0: 47f9 023e 369a aebe 1c48 93be 5c5e 14bf
000000b0: fc2e eabe babb 4cbe 80ed 1b3f bf2f be3e
000000c0: 89b8 a1be 9525 4d3d f6d0 213f 82d5 183f
000000d0: 54f4 923e cf52 32bd 59ac 103c 57ad a8be
000000e0: a443 073e 37cd 09bf 49ab 1abf 0ebc 76be
000000f0: d86b 853e 42b1 963e edb3 20be 8bda 6a3e
00000100: 6e89 8c3e 203f 81bd 4064 9c3c 0044 ed3d
00000110: 1412 da3e 34e2 ae3e efb1 27bf 297e 6abe
00000120: 6e2e 8f3e ed33 063f 5050 063f fa7d dd3e
00000130: 2adc 863d 695a 0dbf ab53 4abe afa4 b9be
00000140: 2f6e 00bf ffd0 df3e fc2c c63e bde7 12bf
00000150: af5e b53d 6acd b6bd c502 9ebd c124 65be
00000160: 6aa7 493d dca7 a9be 6568 db3e 7418 bb3e
00000170: e892 e73e 6122 d139 a78d 5bbf c5c8 c2be
00000180: 38f0 983e e085 a8bd 29c6 42bf 95fc acbe
00000190: f3e8 0a3f 2a2a c43e bf4e acbe ef41 4abe
000001a0: a3af eabe deff ef3c 279b 1bbf 33b6 0bbf
000001b0: 531f 19be e9c1 bc3d 97ab d13d b3fa d23e
000001c0: 4e54 d8be 8756 c13e 2b70 de3e 6937 d1be
000001d0: 4dc8 4ebe cd93 ab3d 6a16 ac3e f54d 3d3e
000001e0: 0377 e43d 0f84 46ba 624f 02bd 0a97 b53e
000001f0: a826 b5be 16a7 c2be ed9b f1be a91e b0be
00000200: 77d4 96be f359 debe f2c6 0d3e e970 613e
00000210: 7433 b7be fdb7 bb3d e5dd 2f3f a6c9 7f3d
00000220: d31c 14be e5c5 0abe 0736 b73e db8e ec3e
00000230: bb12 b83e a6f4 0b3f cc5f 333f f145 3c3d
00000240: 152b 1bbf b666 78be 4f4d 2a3f 7580 f83d
00000250: f624 03be 122b eebe 4b86 4fbf c954 0ebf
00000260: 1aec 18bd ff7f 723e 254b f93c 202c 16bf
00000270: 97b7 973e 00d1 10bf 0d48 d2be c84d 2ebe
00000280: a104 1c3c 06c1 34be 6a37 52bf 1cd3 0fbf
00000290: 70b0 58be 7536 9abd 868b 49bc 389f 9a3e
000002a0: 61c3 c9be 1ecf 11bd b36d bd3e 50d8 82be
000002b0: 3496 ad3e 10f8 3f3e 7a6a 58be e08c df3e
000002c0: f888 4dbc c607 80be 5ce6 603d e4c6 17bf
000002d0: 5ae4 14bd 9ed6 1abd 420d 273f c620 613e
000002e0: 2862 9e3e 61f5 553e 3940 96be ea0d 61be
000002f0: 01fd 01bf 1cfc a03e b32c 3f3f 8ea6 e43e
00000300: 2810 86be 2fe9 d9bd 4666 2bbf 25bf bebe
00000310: 49fd b2be e880 063e 3ddf 82be a9c6 a8bc
00000320: 4b0b c33d 6a82 303e 2d24 34bf 6a38 dfbe
00000330: bd93 c6be 4d73 e03e c055 173e 68af 063f
00000340: caf2 2b3e 652e 73bd d1b4 b7be 7a30 0dbe
00000350: 57d6 b7bd 82a9 10be f893 933e 23b6 413e
00000360: 0395 d8be c711 94be 6031 d13e 47c1 f2be
00000370: 400c e2bd b233 193f 7aa1 9f3e e2e5 78bd
00000380: 13d4 b5be 4fc9 313e 6489 26bf b445 79be
00000390: fe60 8cbe ad0d a0bd 859a 793e e1a5 e93e
000003a0: 7e6e a03c f35c eb3e 2706 403e 3388 dabe
000003b0: 5796 e03d 6a9f b4be 95ad 103d c312 873e
000003c0: b4d0 273e 9854 cb3e d88a 75be 9372 95bd
000003d0: 19c7 c23e 544e 10bf 9d78 f2bb cda3 0fbf
000003e0: b069 a73d 6b08 eabd 28db bcbe 61e3 e53d
000003f0: fcd9 a53e 72ae 97be 75ed 2dbf b039 adbe
-0.0055864104 0.26923123 -0.4139501 -0.37019783 -0.3241774 0.1610806 0.33010933 0.5173353
0.026931968 0.17317536 -0.3734534 -0.24492837 -0.6082319 -0.3807211 0.059041638 0.12231667
0.28024727 0.31196815 -0.57387024 -0.35393962 -0.055418123 0.43357003 0.12399362 0.41333818
0.0152388895 -0.017505042 0.13803497 -0.59498286 -0.39705083 -0.063870385 0.07023722 0.5036509
-0.18521714 -0.30345392 -0.71142095 -0.6037531 -0.2472399 0.62701714 0.47115546 0.2579876
0.12790404 -0.3410203 -0.28765953 -0.5795648 -0.4573897 -0.19993487 0.6090927 0.37145802
-0.31586102 0.05008467 0.63209474 0.5970079 0.28702033 -0.043536004 0.008830153 -0.32944748
0.13209397 -0.5382876 -0.6041761 -0.24095175 0.2605884 0.29432112 -0.15693636 0.2293493
0.274486 -0.06310868 0.019090772 0.115852356 0.42591918 0.34156954 -0.6550588 -0.22899689
0.2796511 0.5242298 0.524663 0.43260175 0.06584962 -0.5521608 -0.1975848 -0.36258456
-0.50168127 0.4371414 0.38706195 -0.57384855 0.0885595 -0.089258984 -0.07715372 -0.22377302
0.049231924 -0.3313588 0.42853084 0.36542094 0.45229268 0.000398892 -0.8576302 -0.380438
0.29870772 -0.0822866 -0.7608362 -0.33786455 0.542617 0.3831342 -0.33653829 -0.19751714
-0.45837125 0.029296812 -0.6078362 -0.5457489 -0.14953355 0.09216673 0.10237806 0.41206893
-0.4225182 0.37761328 0.43444952 -0.40862587 -0.20193596 0.083778 0.3361085 0.1848677
0.11155512 -0.0007572779 -0.031813987 0.35466796 -0.35381055 -0.380181 -0.47189274 -0.34398392
-0.29458973 -0.43428 0.13845423 0.22015728 -0.35781443 0.09165952 0.6869796 0.062448166
-0.1446412 -0.13552053 0.35783407 0.4620274 0.3595179 0.5467018 0.7006805 0.04596514
-0.6061261 -0.24257931 0.66524214 0.12133876 -0.12807068 -0.46517235 -0.8106429 -0.5559812
-0.03733454 0.23681639 0.03043134 -0.5866108 0.29632255 -0.5656891 -0.41070595 -0.17021859
0.009522588 -0.17651758 -0.82115805 -0.561815 -0.21161056 -0.07529918 -0.012301331 0.301996
-0.39406875 -0.035597913 0.36997756 -0.25555658 0.33903658 0.18746972 -0.21134368 0.43662167
-0.012544863 -0.2500593 0.054907188 -0.5928786 -0.036350586 -0.03780233 0.65254605 0.21985158
0.30934262 0.20894386 -0.29345873 -0.21977964 -0.5077668 0.31442344 0.7467758 0.4465832
-0.261842 -0.10640179 -0.6695293 -0.37255207 -0.34958866 0.13135111 -0.25560942 -0.020602541
0.09523638 0.17237249 -0.703677 -0.43597728 -0.3878459 0.43837968 0.14778805 0.526114
0.16791835 -0.059370417 -0.3588014 -0.13788024 -0.08976429 -0.14127162 0.2882383 0.18917136
-0.42301187 -0.28919813 0.40857983 -0.47413084 -0.11037493 0.59844506 0.31177884 -0.06076611
-0.35513362 0.1736195 -0.6505339 -0.24342996 -0.2741775 -0.078151084 0.24375351 0.45634368
0.019583937 0.45969352 0.18752347 -0.42682037 0.10966175 -0.35277873 0.03532179 0.26381502
0.16388208 0.39712977 -0.23978746 -0.07297244 0.38042524 -0.5636952 -0.007399632 -0.56109315
0.08174455 -0.11427387 -0.36885953 0.1122501 0.3239287 -0.2962528 -0.67940456 -0.33833075

actor.preprocess.model.model.0.bias f4 [64]
00000000: 123d fcbe 279f 983e ba80 e2bd 00a1 7abe
00000010: fb03 28be 66f9 ca3e 18b4 893e b1d1 ef3e
00000020: aefe 623e b624 dc3d e7e0 143d 2a19 743e
00000030: 98a8 f93e f0b5 273e 1777 6ebd 6fdb 2abe
00000040: 420a f2be e108 5e3e dd09 58be 6e34 a6be
00000050: 12b6 e13e b9df a8be 6130 503d 1897 653e
00000060: 561a f83d 501f 7dbe fa48 92be 7c7d 053f
00000070: a46d 143e 0d78 013f db4d 62bd 73cd 513e
00000080: cda7 39bd 81d9 d43d a961 26be 56bd 5a3e
00000090: 3961 8c3e 511a b13d 36d9 63bd 5f14 afbd
000000a0: d07c ba3e 8c76 85be 848e 823e 9b12 3dbd
000000b0: 0460 45bd 5e7b 343e ea4f 1fbe d126 813e
000000c0: d30e e53d 45a5 a7be aa28 063e 3d8c 933e
000000d0: dcca 773e cd63 3d3d 932a a4be 3a5c 693d
000000e0: 624f 473e e9f7 a8bd 8073 663e b503 e83e
000000f0: df9e 67be f74a b53d dc65 963e 2dd7 013e
-0.49265343 0.29808924 -0.11059709 -0.24475479 -0.16407768 0.396434 0.26895213 0.4683967
0.22167465 0.107491896 0.036347296 0.23837724 0.4876144 0.16377997 -0.05821904 -0.1668527
-0.4727345 0.21683075 -0.21097513 -0.32461876 0.4408422 -0.32983187 0.050827388 0.22420919
0.12114398 -0.24718976 -0.28571302 0.521446 0.1449495 0.5057381 -0.05525003 0.20488529
-0.045326043 0.10393048 -0.16248192 0.21361288 0.27417925 0.086475976 -0.05562707 -0.08548807
0.3642335 -0.26067007 0.25499356 -0.04616032 -0.04818727 0.17625186 -0.15557829 0.25224927
0.11184468 -0.32743278 0.1310145 0.2881793 0.24198478 0.046237756 -0.32063732 0.05697272
0.19463876 -0.0825041 0.22504997 0.45315328 -0.22619198 0.08852189 0.29374588 0.1267974

actor.preprocess.model.model.2.weight f4 [64, 64]
00000000: c71e f63c e9b4 8cbd 3753 abbc 8fbd 09bd
00000010: bdb9 0f3e 3332 2f3d 9159 bf3d 9564 16bd
00000020: 8b70 1c3e 3322 9dbe 8a52 9d3d 8319 30be
00000030: 6ca4 5b3d b443 043e bb95 8a3d f67b 90bc
00000040: aa52 c13d f630 1f3e 588b b53c fbeb 7b3e
00000050: 092f 70bd 5a8e 23bd 9b87 723d dd06 3a3e
00000060: 447c 973d 6ece 0b3e 262d d13d 8c30 4c3c
00000070: 6f14 f6bd 4ce9 90bc 0e81 b8bd f39c 233e
00000080: 3bcc 68bd df38 f3bd 4ffe 2ebd 6aea d8bb
00000090: aabb ddbd 4555 633e 38b6 9dbd 881b 573e
000000a0: da06 2dbc c840 34be 3a7a debd afb2 1a3d
000000b0: 2cce 4d3e f98c 073d ccb2 193e 8732 7fbe
000000c0: 15bf 25bb f555 a7bd db2c d5bc 1994 d9bc
000000d0: 4502 49bd ef41 01be 86df d7bd eacb 2bbe
000000e0: 8e24 f63d 998c 393d 25bc 963d 023b 8f3d
000000f0: ff96 c93d 482e 2e3e e915 3d3d 058a a03e
00000100: 0283 fd3c 2725 803e f6cb 623c 5529 3c3e
00000110: 5dea b1bd 17e2 2f3e 43d9 f03b a260 8b3d
00000120: 50e1 22be 833e 223e 067c 8fbe 08fb 463e
00000130: 3de8 4e3e 0412 59bd f3b7 4dbe 4019 2b3e
00000140: 8cb5 a33d 4e69 9fba 26e8 643d 843f 223b
00000150: 579b d83d 0857 c9bd 884b 503e bb0a 60bc
00000160: 0b15 4fbe efcd a63d 78ff 93bd c3b9 a23d
00000170: ba0e 323e 5f45 d53d 4f0d 063c 8845 85bd
00000180: 0beb 403d cffe 403e ed21 ec3d 8ba4 523e
00000190: b8f5 fa3d 30a4 68be fb04 453a 8a82 d8bd
000001a0: feec 5fbb 6121 acba b228 de3c 430d ac3c
000001b0: 2dec 1dbe 87f7 2e3e 9e04 c3bd 5c22 5f3e
000001c0: 9b89 f23c 4b99 b53d 5898 0dbe 58bc d63d
000001d0: 1dfc eb3b f7d9 9c3c 4a76 be3d 878e b4ba
000001e0: 7b2c eabd 3e05 bfbc 1080 2b3c 5ec0 1d3e
000001f0: a37c 93bd d72e bfbd ce4a ee3b 3d32 29be
00000200: 46c6 4b3d 5efa 4abe 6d63 5f3e ef1e 1e3d
00000210: 153a 633e 8860 7e3c e7cb cbbc 4250 c83d
00000220: 1b68 113e 51d3 34be 5794 f43d a431 9dbd
00000230: cd1b 33be 15c3 313d 6f5a 4c3e 2530 1dbe
00000240: 1035 233d e0a4 fe3d 8810 ccbd c37c 0b3d
00000250: c445 dcbd c15b 06bd 3340 ba3d fefd 913e
00000260: 2d91 8e3e 4dd0 e93c 3cd6 c53d a4f1 00be
00000270: 9f2f 16be ffa2 763d 1a11 6d3c 96a6 2e3e
00000280: caa5 62bd 8ac5 5abe 414b 2cbe 8b45 893c
00000290: 7c89 e8bc 0c99 903e bc90 f33d e74c 903e
000002a0: 0eee 033e 8c9d c7bd 1e6a 82bb ed70 26bc
000002b0: 4b82 503e 7fa5 27be f99d 393e 6b70 3ebe
000002c0: 9cad 673c 9019 19be f966 573e 5a2d 87bc
000002d0: a504 a3bc 9295 a83d 2322 3b3d 59c2 70bc
000002e0: 0385 173e 2316 16be 09c4 303d d0b8 e63d
000002f0: 3084 14bd 41a7 8f3e 1213 273d 6303 a83e
00000300: dfbe 083d 12c1 11be 275c 223e 9d07 983c
00000310: a8fd 7a3d c7c7 19bd 99e8 0f3e 879d e1bc
00000320: be0f 3c3e c98c 87be ae04 923e 7532 0bbe
00000330: 6299 0abe 2428 2e3d 3117 993e 5df4 a5bd
00000340: 00f0 b2b9 62d6 7c3c f7ee c73c bb13 753e
00000350: 5f9b c1bd 05b4 bfbd 45f8 4bbd e38b 353e
00000360: 2208 473e 44bf 80bc ba61 c63c 620c 833c
00000370: 8555 b1bd 79bc e43c 4c0a 983d b52e 523d
00000380: 61db 813d eec2 89bd e629 13be 2820 06bd
00000390: 7d72 92bd e340 a53e 694f 62bd 319c c53d
000003a0: 8f6a 833e 072d 0dbe 87fa 4b3d 7a5c bfbc
000003b0: b5db 053e b6f2 e1bd d114 303e d6ee 39be
000003c0: 2cb6 593c d53c 1fbe 7b93 9c3d 064a 9dbd
000003d0: e514 ad3c 6e5d f53d ceda 3fbd 1083 b5bd
000003e0: d2aa 193e b890 2dbc 0e2e ff3d a3b9 023e
000003f0: d296 8bbc d179 293e 05d5 853d ae7b bb3e
0.030043973 -0.068704434 -0.020913703 -0.033628043 0.14035697 0.042772483 0.09343255 -0.036717016
0.15277307 -0.30690154 0.07681759 -0.17197232 0.0536236 0.12916452 0.0676684 -0.017637234
0.09439595 0.15546021 0.02216117 0.24601738 -0.058638606 -0.03993068 0.059211355 0.1816668
0.07396749 0.13652965 0.102136895 0.012462746 -0.12015616 -0.01768937 -0.0900899 0.1597784
-0.056835394 -0.11876082 -0.042722996 -0.006619741 -0.1082681 0.22200496 -0.07700771 0.21006596
-0.010560716 -0.17602837 -0.108631566 0.037768062 0.2009818 0.033093426 0.15009612 -0.24921618
-0.0025290896 -0.08170692 -0.026022365 -0.026559876 -0.04907443 -0.12622808 -0.105406806 -0.16777006
0.12018691 0.0453001 0.073601045 0.06993677 0.09843253 0.17009842 0.046163473 0.313553
0.030946258 0.25028345 0.013842573 0.18375142 -0.086872794 0.1717609 0.0073501184 0.068055406
-0.15906262 0.15844159 -0.2802431 0.19431698 0.2020578 -0.052995697 -0.20089702 0.16708851
0.07993612 -0.001216212 0.055885457 0.0024757097 0.10576504 -0.09831053 0.20341313 -0.013674433
-0.20222871 0.081447475 -0.07226461 0.079455875 0.1738843 0.10413622 0.008181884 -0.06507403
0.047099154 0.18847202 0.11529908 0.2057058 0.122538984 -0.22718883 0.0007515696 -0.10571773
-0.0034168358 -0.0013132506 0.027119014 0.021002417 -0.15422125 0.17086612 -0.09522365 0.21790451
0.029606631 0.08867129 -0.13827646 0.104851425 0.007201685 0.019146902 0.092999056 -0.0013775387
-0.11434265 -0.02331793 0.010467544 0.15405414 -0.07201507 -0.09335106 0.007272101 -0.1652307
0.049749635 -0.1982207 0.21815272 0.03860372 0.22190125 0.0155259445 -0.024877502 0.09780933
0.1419987 -0.17658736 0.11942356 -0.07675484 -0.17491074 0.043398935 0.19956373 -0.15350397
0.039845526 0.12433791 -0.099640906 0.03405453 -0.10755494 -0.032802347 0.09094276 0.28514093
0.27845135 0.028541708 0.096600026 -0.12592179 -0.14666604 0.06021404 0.014469409 0.17055735
-0.05533389 -0.21364418 -0.16825582 0.016756793 -0.02838587 0.28241765 0.1189284 0.28183672
0.1288378 -0.097468466 -0.0039799353 -0.01015876 0.20362203 -0.16371725 0.18126668 -0.18597572
0.014140513 -0.14951158 0.21035375 -0.016501117 -0.019899676 0.08231653 0.045686852 -0.014694774
0.14796834 -0.14656882 0.043155704 0.11265719 -0.036258876 0.28057292 0.04078967 0.32815084
0.033385154 -0.14233807 0.15855466 0.018558318 0.06127706 -0.03754404 0.14053573 -0.027540935
0.1836538 -0.26474598 0.28519195 -0.13593467 -0.13535073 0.04251875 0.29900506 -0.08103249
-0.0003412962 0.015431972 0.02440594 0.23933308 -0.09453463 -0.09360508 -0.049797315 0.17729144
0.19436696 -0.015716203 0.024216522 0.015997116 -0.0865889 0.027921902 0.07423839 0.051314075
0.06340671 -0.06726633 -0.14371452 -0.03274551 -0.07150743 0.32276067 -0.055251513 0.09648932
0.25667235 -0.13786708 0.04979947 -0.023359526 0.13072093 -0.110326216 0.17195441 -0.18157515
0.013288062 -0.1555055 0.07645317 -0.076801345 0.021128127 0.11980711 -0.046839528 -0.08862889
0.15006569 -0.010593586 0.12459956 0.12766127 -0.01703969 0.16550376 0.06534771 0.36617798

actor.preprocess.model.model.2.bias f4 [64]
00000000: 6679 893d 3516 2f3e 208a d63a fc5f 11bd
00000010: ee67 9a3d 18f0 b0bd 9f5e 883d f95a 03be
00000020: fca6 593d 86ca 00be 4d57 88bd 291c ce3d
00000030: 887d bfbd 242b fb3c 1a9f 463e 416f 073e
00000040: 6bb6 2c3e a0f9 a93b fda3 c13d 9dcc 02bc
00000050: 4368 00bd 3ac9 0fbc 709a 453d bb55 cc3d
00000060: 73fa 073d 3ac5 ae3d 8602 26b9 f5e7 4abc
00000070: 9db8 aa3d 4e9c 163d d91a b3bd 470a 733d
00000080: 7fb6 66bd 3716 90bd c9e4 2f3e f438 ea3c
00000090: ca61 a43d 64e2 72bd 2675 803d bef5 0b3e
000000a0: 1761 773c 0e48 183e f6c7 cdbd 1ba3 293e
000000b0: 742a 043d 176b be3d 199b 013e 8c49 833c
000000c0: ba99 9d3d 4f7d 283e d061 2f3e 613a bfbd
000000d0: b5b5 363e 5d83 123e 3281 c03c ed5a b5bd
000000e0: b1c3 813c a682 493c 86e5 ac3d 6df4 0bbd
000000f0: 1754 cb3d 802a c0ba 3a87 1a3c f3b6 d83d
0.06712608 0.17098315 0.0016368069 -0.03549193 0.07539354 -0.08639544 0.066586725 -0.12827672
0.053137764 -0.12577257 -0.06657276 0.10063965 -0.09350115 0.03066022 0.1939663 0.13226034
0.16866462 0.0051872283 0.094551064 -0.007983354 -0.03134943 -0.0087760035 0.048242986 0.09977289
0.03319783 0.08533712 -0.00015831934 -0.012384404 0.083359934 0.036770158 -0.08745355 0.059335973
-0.056326386 -0.07035487 0.17177118 0.02859161 0.08026464 -0.059297934 0.06272344 0.13667962
0.015098832 0.14871237 -0.10047905 0.16566126 0.03226705 0.092977695 0.12656821 0.01602628
0.07695337 0.16454051 0.17127156 -0.09337307 0.17842753 0.14307924 0.023499105 -0.08855233
0.015840383 0.012299215 0.084422156 -0.03416865 0.09928148 -0.0014661103 0.009431655 0.1058177

actor.last.model.0.weight f4 [2, 64]
00000000: 45da 9d3d 5bab 72be fead f73d 5050 153e
00000010: 67e5 1bbe 71a4 463e 0248 3bbe a69b 1ebd
00000020: a74d e73d e7dc ecbd 1c2f 813e 86f9 ff3d
00000030: de21 b23d 5f82 c33d 3380 0ebe d84b 593e
00000040: 04c3 4ebe 5beb 903e cb62 dcbc 2800 bfbc
00000050: 4538 473e b978 b13d 7d1b 8f3e 8d2a 413e
00000060: 18ca 3b3e 94b7 933d b6d5 623e 4a21 283d
00000070: c727 8a3e e9ce 543e 9f0b 803e 73a2 a23e
00000080: f1f7 53bc b8ac dabd 5857 51bd fbab 1a3e
00000090: b2b8 73be 0697 9d3d e916 843e af9c 453e
000000a0: b66d f33d d4c7 2fbe 3a1c 833e 38e8 7cbd
000000b0: 2fa0 1e3e f1f3 893e ca53 5abe c3f7 713e
000000c0: 9979 9abe 8a42 953e e1fb 8cbe 667a f9bd
000000d0: 748d 84be 2d08 843e 3429 223e 282b f63d
000000e0: f895 eb3c 5845 043e 9125 e43d caa6 94be
000000f0: a656 6ebe b286 9dbd 6337 023e aea9 8f3e
00000100: 3b6e 36be cf90 4a3e 48db 92be 4b99 7dbe
00000110: b593 423e ec71 febd e42d 863e a5a3 2ebc
00000120: a978 d8bd e1d7 6bbd e72b 25be 6ad8 6ebe
00000130: 0cb8 c8bd e735 5fbd 7676 1f3e 08a0 83be
00000140: 5c30 753d 9b79 d5bd d2c0 5c3e 534a 11bd
00000150: 7592 81be 1de9 10be 628c 06be 30de c5bd
00000160: b226 06be 5378 97be d49b 0cbe 9bb2 b7bc
00000170: 905e 0cbe d8c1 77be a966 bebd cf02 3bbe
00000180: 09df 98bc 4685 dbbd 201f 943e 9b7d 4cbe
00000190: 7e43 833e b46b 84bd bcb2 9ebe 9c40 8dbe
000001a0: d958 43be 8d0f dd3d 7eee 22be edf7 773e
000001b0: 4872 48be 4765 02be 1e85 813e 106b 56be
000001c0: e8c8 ec3d b20f 5cbe 8e75 393e 20cd 553d
000001d0: 0d58 c73d 750e 65be f739 51be ba98 76be
000001e0: 5476 0f3d bdbd 8abe 0e6f 56be 7ac4 513e
000001f0: 95e0 983e 6a9e e33d 46f3 5bbe 0a7c 97bd
0.07707647 -0.2369818 0.12093733 0.14581418 -0.15224229 0.19398667 -0.18289188 -0.038722657
0.11294108 -0.11565571 0.25231254 0.12498765 0.08697866 0.09546351 -0.13916092 0.21220338
-0.2019158 0.28304562 -0.026902577 -0.023315504 0.19455059 0.08665604 0.2795066 0.18863888
0.18338811 0.07212749 0.22151837 0.041047372 0.26983473 0.20782055 0.25008866 0.31764564
-0.012937532 -0.10677475 -0.051108688 0.15104668 -0.23800924 0.07694821 0.2579873 0.19298051
0.1188616 -0.17166072 0.25607473 -0.0617449 0.15490793 0.26943925 -0.21321025 0.2362967
-0.30170897 0.29152328 -0.27535918 -0.12181549 -0.2588917 0.25787488 0.1583603 0.1201995
0.028758034 0.12917078 0.11139978 -0.290335 -0.23275241 -0.07691707 0.12716441 0.28059143
-0.17815487 0.19781803 -0.28682923 -0.24765508 0.19001658 -0.124240726 0.26206887 -0.010659133
-0.10569889 -0.057578925 -0.16130029 -0.23324743 -0.09800729 -0.054494765 0.15572533 -0.25708032
0.059860572 -0.10423585 0.2155793 -0.03547127 -0.2530705 -0.14151426 -0.1313949 -0.096615195
-0.13100699 -0.29583988 -0.13731319 -0.022424033 -0.13707948 -0.2419504 -0.092969246 -0.1826279
-0.018661039 -0.10718779 0.28929996 -0.1996979 0.2563743 -0.06465855 -0.30995739 -0.27588356
-0.19076861 0.10793982 -0.1591129 0.2421567 -0.19574845 -0.12733947 0.25296873 -0.20939279
0.11561757 -0.21490362 0.1811125 0.052197576 0.09733591 -0.22368796 -0.20432268 -0.24081698
0.035024956 -0.27097884 -0.20940802 0.20485106 0.29858842 0.111141995 -0.2147952 -0.073967054

actor.last.model.0.bias f4 [2]
00000000: daaa 6b3d 8c25 1f3e
0.057535984 0.15541667

critic1.preprocess.model.model.0.weight f4 [64, 4]
00000000: 51c5 423e 430d a53e 0f20 99be 2b50 ccbe
00000010: f28b 10ba d592 5fbd f869 1dbf 19ce 18be
00000020: e669 4f3f 77ab 963e 5b43 703e 1109 f7bd
00000030: f812 5e3e e7bc 0d3f 143f 013d b705 3cbc
00000040: 2cc5 07be 4dd7 453e 7606 d8be bc37 a13e
00000050: 96b6 5b3f ed93 a43e 1842 563e 14f7 243e
00000060: 0ec1 0ebd 5a4b fabe 86f4 d5bd e86c 8d3e
00000070: 0339 353d 066f 103d 6e4e cb3e 8c0a 023e
00000080: 103f 0e3f 5646 fe3c 9942 24be 0cda 46be
00000090: cae7 173d 498a 96be c4ab 753e 8c89 c93e
000000a0: 8834 843d 1159 32be beeb f33c d6fc c2be
000000b0: faa2 94be 4b9b bdbe c46b 753d 0a54 383e
000000c0: 5aab 18bf ab85 c43e 25c9 623f 3400 d23e
000000d0: f661 8fbe 1b57 76be 8600 aebe 2268 36bc
000000e0: 32d1 8e3e 87b4 62be 2b72 8ebe 3c4f 52be
000000f0: 4423 eabc 28de cdbe ada7 8cbf 78f5 0fbf
00000100: 758b c3be 1cae 003f 3492 b83e 85d7 1abe
00000110: 6e05 4c3d 5b3b 96be e746 8cbf b62c c2be
00000120: 4cf3 3d3e 6e98 ddbe 853b 25bf bd92 15be
00000130: a48e c8bd 19a8 8b3e 60d4 4b3e 3ba1 83bd
00000140: aad2 d73d 375f 05be bcb1 b1bf cf4e 12be
00000150: b846 bebc bc4f 1ebf 601d 54be 96bd afbe
00000160: fdd4 ea3c f59e e3be 103a 31bf 1bfa 0abf
00000170: c705 0a3f ec49 113e 885b 0cbf 3248 ad3e
00000180: e7ac 08bf c287 9dbe 7058 563f ffef df3e
00000190: 1315 01bf c24b 073d 5c1f 2ebe 7411 a0be
000001a0: 4a97 abbe 0294 acbd 418e c53e d8b3 813e
000001b0: 2fca 86be 77f6 a0bd 6056 303e 6236 97be
000001c0: de2d 673d cbfe a9bb 0da3 e53f 5f9e a73e
000001d0: 7447 ac3d 71df d3be 7101 c2bd 011d d23d
000001e0: 59ff 88be 16b8 8ebe d11d f6be 7305 90be
000001f0: ac9d 91be 7d23 053f c823 4a3e 295b 953d
00000200: bb5d 853e 881e fdbe 3cfc a5bf f561 a8be
00000210: 6072 673e b27a ce3e ec3a 15bf e9d0 743d
00000220: b006 063e bba4 76be 6c2c adbe cfb4 75be
00000230: 4f7b b0be 9ec9 e73d 8ed1 233f aa2b 4ebe
00000240: de54 f03d 4da2 5a3c d14a d4be 66de 323e
00000250: 1c3a 3f3f 2a86 dcbb 3de4 69be ceb3 b23e
00000260: 778e 5c3f 0342 03bf 2dde b6bf e8af 26bf
00000270: a7d2 be3e ffea e33e 1b76 f0bb c6c8 9f3e
00000280: a4d6 8cbe cb16 7dbe a58d a63f 8f1c bc3e
00000290: a7e9 063e dab3 113d a1d1 843c 2e03 863e
000002a0: 3adb 353f 7202 1ebb 9e4a cd3d 61cd 16be
000002b0: bedd b33e 18d7 d7be 2c9c 48bf fcc1 b43e
000002c0: 43ea c1ba 417e 373e 126a 523f 48c2 823e
000002d0: e840 2e3e 9ca1 503e 2819 8abe e076 dbbc
000002e0: 4cc8 aebe a594 483d e8ad 393f 2c58 933e
000002f0: 111b d6bb 1678 2b3d f7e5 ef3f f54f a83e
00000300: ccc1 593e d8b4 45be 4c69 d1be cc8b 3ebe
00000310: 2baf 263d c746 4fbe 3eff f03e b4d5 96be
00000320: b711 f0be 3322 bdbe 1ad1 f03e 3c6f 5bbe
00000330: 00d0 0d3f d989 cb3e 4d8b 313e 8423 c03e
00000340: 0673 8d3e 2e60 a6be 6193 4cbe 54a8 eb3e
00000350: 55dc bb3e 9aac abbe 4628 d3be 7606 493e
00000360: a300 4c3e d91c 05be 9688 97be 7a83 97be
00000370: 4741 a73d c26e 6cbd 17cb a3bf 4005 16bf
00000380: 97d6 8abe 039c 0e3f c476 823c 66ee dbbe
00000390: 8754 b63e 5519 1f3f 2586 65be 24e1 b5be
000003a0: faba 51be 1a67 ca3e b30e 39be 8b68 cc3c
000003b0: 309e 4e3f 73f8 b2be f148 93bf 9071 afbe
000003c0: 5c4e d83e 2c04 163f 5501 dd3d cae2 2f3e
000003d0: 8d80 07bf 4030 343e 062a 973f 7b4f d73e
000003e0: 0079 533e 076e e9be 6b8d fdbe 2b79 233e
000003f0: f8d1 e73e 0349 96be d56a 25bf 73f7 b0be
0.19020583 0.3223668 -0.2990727 -0.39904913 -0.00055140175 -0.05458339 -0.6148982 -0.1492237
0.81020963 0.29427692 0.23463194 -0.12062276 0.21686924 0.5536637 0.031554297 -0.011475972
-0.13258809 0.19320412 -0.4219243 0.31487834 0.8582548 0.32144108 0.2092365 0.16109878
-0.03485208 -0.48885614 -0.1044703 0.2762215 0.044243824 0.03526213 0.39708275 0.12699336
0.55564976 0.031039398 -0.1604103 -0.19419116 0.037086286 -0.29402378 0.23991305 0.39362752
0.06455332 -0.17416789 0.029775497 -0.38083524 -0.2903059 -0.37032542 0.059917226 0.18000808
-0.5963646 0.3838323 0.8858817 0.4101578 -0.28004426 -0.24056666 -0.33984774 -0.011133226
0.27893978 -0.22139178 -0.27821478 -0.20538038 -0.02858127 -0.40208554 -1.098867 -0.5623393
-0.38192335 0.5026567 0.36049044 -0.15121277 0.049809866 -0.2934216 -1.0959138 -0.37924737
0.18549842 -0.43280357 -0.64543945 -0.14606757 -0.097928315 0.27276686 0.19905233 -0.06427237
0.10538228 -0.13024603 -1.3882365 -0.14287876 -0.02322708 -0.61840415 -0.2071433 -0.3432433
0.028666014 -0.44457212 -0.6922922 -0.5428788 0.53915066 0.14188355 -0.54827166 0.33844143
-0.5338883 -0.30767637 0.83728695 0.4373779 -0.5042278 0.033031233 -0.1700415 -0.31263316
-0.33513862 -0.08426668 0.38585094 0.25332522 -0.2632613 -0.078595094 0.1722045 -0.29533678
0.056440227 -0.0051878444 1.7940384 0.32738015 0.08412066 -0.4138141 -0.09472931 0.10259438
-0.26757315 -0.2787482 -0.48069623 -0.28129157 -0.28440607 0.52007276 0.19740212 0.07292778
0.26048073 -0.49437356 -1.2967601 -0.32887235 0.22602224 0.40327984 -0.5829303 0.059769545
0.13088489 -0.24086277 -0.33822954 -0.23994754 -0.34469077 0.11317752 0.6399163 -0.20133844
0.11734937 0.01334436 -0.4146333 0.17467651 0.7469804 -0.006729861 -0.22840972 0.34902805
0.86154884 -0.512726 -1.4286553 -0.6511216 0.3727009 0.44515225 -0.007338298 0.31207865
-0.27507508 -0.24715726 1.3011976 0.36740538 0.13175069 0.03557191 0.01621324 0.261743
0.7103764 -0.0024110344 0.10023998 -0.14726783 0.35130113 -0.4215629 -0.783633 0.35304248
-0.0014794547 0.17919256 0.821931 0.2553885 0.17016947 0.20374149 -0.26972318 -0.026790082
-0.3413719 0.048969883 0.72530985 0.28778207 -0.0065339883 0.04186257 1.8742055 0.32873502
0.21265334 -0.19307268 -0.40900648 -0.18608016 0.040694397 -0.20241843 0.47069734 -0.29459918
-0.46888515 -0.36940154 0.47034532 -0.21429151 0.5539551 0.39753607 0.17338295 0.37527096
0.27626818 -0.32495254 -0.19978096 0.46026862 0.36691537 -0.33530122 -0.41241664 0.19631371
0.19922118 -0.12999286 -0.29596394 -0.29592496 0.081667475 -0.057722814 -1.2796353 -0.5860176
-0.27116844 0.55706805 0.015925772 -0.4295532 0.35611364 0.6214803 -0.22414453 -0.3552333
-0.20481482 0.39531785 -0.18072014 0.024952194 0.80710125 -0.34955177 -1.1506635 -0.3426633
0.42247283 0.58600116 0.1079127 0.17176357 -0.5293053 0.17596531 1.18097 0.42052826
0.20651627 -0.45591757 -0.49521956 0.1596419 0.4527738 -0.2935258 -0.6461614 -0.3456379

critic1.preprocess.model.model.0.bias f4 [64]
00000000: fa66 edbe f6fe b13e 648c e03e a8ae 333e
00000010: cd01 c43e 368a bb3e c353 053f 3934 0a3f
00000020: 7929 c83e f656 b93e fbd5 023f 0384 1abf
00000030: bf40 b7be 7499 ad3e 9128 9b3e 0295 efbe
00000040: 87b4 78be 1902 debe 0eec 213f ef86 0c3f
00000050: 86ae 54be e767 913e 8c56 75be b67e 0c3f
00000060: 151c fdbe d1fe 33bf b4cf 2bbf 01ae fa3e
00000070: 383b c3bd a805 093f 8cc4 c83e 1027 78be
00000080: 0e8e 3ebd bf06 79be 51ee e03e c48b 533e
00000090: 42d4 bf3e 482a 123e c5ce a4be eec9 dabe
000000a0: 5029 34be 7e24 063f 9761 6f3e a2a4 fb3d
000000b0: 6901 5abe 8ea5 fdbe a960 1bbd 6fb3 32be
000000c0: 48a2 febe 9f96 00bf 2840 48bd 753c fdbe
000000d0: 531d d33e cded d83e 6d6c e03e 22d9 b6be
000000e0: f536 063f 91dc 7b3e 8852 e03e c732 973d
000000f0: f8ef a83e 3824 c0be fedc bb3e 7ad7 193f
-0.46367627 0.34764832 0.4385711 0.17547095 0.38282624 0.36628884 0.52080935 0.53985935
0.3909414 0.36199158 0.5110776 -0.60357684 -0.35791585 0.33906138 0.30304387 -0.4679337
-0.24287616 -0.43360975 0.63250816 0.5489339 -0.207697 0.28399584 -0.23958796 0.54880846
-0.49435487 -0.70310694 -0.67113805 0.4896088 -0.095327795 0.53524256 0.39212453 -0.24233651
-0.046522193 -0.2431898 0.4393182 0.20658785 0.37466627 0.14273942 -0.32189003 -0.42732185
-0.17593884 0.5239943 0.23377071 0.122872606 -0.212896 -0.4954037 -0.03793398 -0.17451261
-0.49733186 -0.5022983 -0.04888931 -0.49460188 0.4123331 0.42368928 0.43832722 -0.35712534
0.5242761 0.24595858 0.43812966 0.07382732 0.32995582 -0.37527633 0.3669204 0.60094416

critic1.preprocess.model.model.2.weight f4 [64, 64]
00000000: 243a 573d 144f f1bd 62a7 6dbd 4480 1dbd
00000010: 4f57 2e3d 56d5 8fbd 6d47 a2bb c9d4 88bd
00000020: 4941 2fbd 6b3b d0bc c6f3 c1bd 1cb0 b1bd
00000030: 6560 a43d 5f23 a83d 5e2d dabc ee95 dd3d
00000040: 1a45 c53d ea3f a1bd 6aae 94bd 55cb debd
00000050: d888 253d 402d 4f3b a86d 8cbc e11b 8f3d
00000060: 19ed 92bd 421b 8cbd fafb b5bd 8030 b1bd
00000070: bdc7 c73d 186d abbd e4e0 0cbd 08c4 663d
00000080: ce9d c4bd a461 9bbd 1a7f 8e3d c05f 44bd
00000090: 12cd b3bd 1c2a 20bd 78e9 91bc c023 bb3c
000000a0: aa97 bb3c 9b59 f4bd 43af b93d 2c2c 11be
000000b0: 1868 2d3d cc76 10bd 9510 9bbd 3f82 c03d
000000c0: fab1 f6bd c0de 0b3c 760a a43d ccdc e43d
000000d0: b4b1 03be 31f0 00bc 3954 ce3d 6ac2 fabd
000000e0: 8136 f93b f466 a0bd 89e6 2cbb d892 e7bd
000000f0: 2ffb 1d3d 677f 4fbd 4213 543d dc35 cbbc
00000100: e8f5 91bc c591 7abd 7667 eabd 447a 59bd
00000110: c883 dabc b20d c6bd 8287 a13d a09f e5bd
00000120: 9c78 47bd 95bd 42bd 2c41 07be e950 02bd
00000130: 3061 babd 83b5 0abe 1360 e3bc 5680 a33d
00000140: c828 fc3c 1406 943d 5947 03bd 40b5 32bd
00000150: 4453 ce3d fe75 c7bd 02fb 15be 901d e03c
00000160: 3de5 003d 2428 d8bd 4ac2 573c b2f5 99bd
00000170: a07d 78bc 5fa3 6fbd 10c9 6bbd 3c4c d0bd
00000180: 351e 49b9 acad 06bd e39c 843d 1038 23bc
00000190: 6a3e 08be cac0 c2bd fa6a 85bd 642f 753d
000001a0: a36b e4bd 983d b4bd 20e8 b93c 379e f0bd
000001b0: 2c1f 7cbd 1223 e83d 807a c6bd 7c95 2abd
000001c0: 6217 b73d 5076 e53c 4ccc 893d 8e88 e1bd
000001d0: 9da6 013d eb94 4cbd 8321 e3bd ac49 5bbd
000001e0: 489f f7bd 2e18 b13d 807c c4bc f604 fbbd
000001f0: 7aef da3d f85c 4d3d 00dd aa3c 856d bb3d
00000200: 7b04 d63c e559 903e d492 573e 46e5 613e
00000210: 5bf8 f13d 669e 903d d747 ce3d 0837 b53d
00000220: 5703 2e3e d726 553d 25ec 393e 2eaf 70be
00000230: 323c 26bf 91dc 523e b7b6 813e 2290 18bf
00000240: f847 b0bd fb00 34bf de3c 263e 213a 0c3e
00000250: 393e 08bf 9948 273e 1c87 3dbe 43bd 1d3d
00000260: 23f1 13be d0f4 adbe 895f b5be 31ec 0e3d
00000270: 54a6 d5be e6ed 433d 842d 0c3e eca5 30be
00000280: 515b efbe 7a42 6cbe 8e88 973e 02e9 b93e
00000290: 851a 353e 355b 123e 4b04 2abf 5680 b1be
000002a0: 0c1f 1dbe 74d0 533e 9b71 f53d 17db 0d3d
000002b0: d4b9 8ebe 5084 02bd ac7e bebe 6a32 0fbf
000002c0: 0007 8bbb 6363 c6bd 3168 623d 2659 50be
000002d0: d6e6 2d3e 1fd9 363d bb47 1f3e 2391 a8be
000002e0: 3169 3f3e f442 1ebd ee50 d33d f2d1 9ebe
000002f0: 8555 013e 5c31 03bf 0f38 553d e5aa a83d
00000300: c3c0 3b3e cd2c 0d3e 8432 013d d7cb 18be
00000310: 5670 5dbd b8b2 dbbd e7df 09be c1e8 8dbe
00000320: aefb da3d 788a 0fbe 0413 213d db2f 863e
00000330: 37e4 e93e 7d11 67bc e435 a83c 955a 103f
00000340: 1e0b 333e de9a 353f ce0b 86bd 9725 1fbe
00000350: 1ffc 353f 4b4a 1c3d a8e6 873e 607f 533d
00000360: 6bed 8c3e 3242 303e 8009 2b3f 6ade 383c
00000370: 88d3 febc ca60 3dbe a239 0c3e 5a3f 883c
00000380: 6024 a43e 4b5b 9d3e 2caf a73c 2bdd a3bd
00000390: 2074 2cbe 2e38 9cbd 1757 f43e 64eb 38bd
000003a0: 25bc 0d3e 3b5b a0be 68f1 8cbc 35e8 9cbd
000003b0: b18e b0bd f259 ae3d a78c 2b3e c05c 05be
000003c0: 30ba 19bd 8bd0 473c 086d bb3d c62b 603d
000003d0: 55cb 25be 271a 63be d9d3 73bd 2a2d 9d3e
000003e0: 3f68 13be 929a 173e 9728 f0bd b6f4 b53e
000003f0: e7c6 a6bd 856e c83e 03c1 7e3d f88c 0abe
0.05254568 -0.11782661 -0.058020957 -0.0384524 0.042563733 -0.070231125 -0.0049523623 -0.066812105
-0.04278687 -0.025418958 -0.09470324 -0.08676168 0.08026198 0.082098715 -0.02663296 0.108196124
0.09632321 -0.07873519 -0.07259829 -0.10878626 0.040413707 0.0031612664 -0.017142132 0.06987739
-0.07174129 -0.068411365 -0.08885951 -0.08651829 0.09754894 -0.08370417 -0.03439416 0.056339294
-0.09600411 -0.07586983 0.069578364 -0.047942877 -0.087793484 -0.03910266 -0.017811522 0.022844195
0.022899467 -0.119311534 0.09066632 -0.14177006 0.0423356 -0.035269544 -0.07571522 0.093998425
-0.12045665 0.008536994 0.08009808 0.11174926 -0.12860757 -0.007869766 0.10074658 -0.12244113
0.0076053743 -0.07832137 -0.0026382527 -0.11307305 0.038569625 -0.05065861 0.05177618 -0.024805956
-0.017817453 -0.061174173 -0.11445515 -0.053095117 -0.026674166 -0.09670581 0.07887174 -0.11212087
-0.048699006 -0.04754408 -0.13208455 -0.031815443 -0.09100568 -0.13545804 -0.027755773 0.079834625
0.030781165 0.07227722 -0.032050464 -0.043629885 0.100744754 -0.09739302 -0.14646533 0.027357846
0.03146862 -0.10554531 0.013168881 -0.07517566 -0.01516667 -0.058505412 -0.057564795 -0.101707906
-0.00019180107 -0.03288047 0.06475236 -0.009962097 -0.13305059 -0.09509428 -0.06514545 0.05985965
-0.111533426 -0.088008106 0.022693694 -0.11748927 -0.061553165 0.11334814 -0.09691334 -0.041646466
0.08940007 0.028010517 0.0672842 -0.11012374 0.031653035 -0.049946707 -0.11090376 -0.053537056
-0.12090927 0.0864719 -0.023985147 -0.122568056 0.10690208 0.05013749 0.020857334 0.091517486
0.026125183 0.28193584 0.21052104 0.22060117 0.11814948 0.07061462 0.10072296 0.08848387
0.16993462 0.052038994 0.18156488 -0.23504326 -0.649356 0.20591952 0.25334713 -0.5959493
-0.08607477 -0.70313996 0.16234156 0.1369405 -0.53219944 0.16336288 -0.18508571 0.038510572
-0.14447455 -0.3397584 -0.3542445 0.03489322 -0.4172846 0.0478343 0.13689238 -0.17250794
-0.46749356 -0.23072234 0.2959637 0.36310583 0.17685898 0.14292605 -0.664128 -0.34668225
-0.15343875 0.20684987 0.11984559 0.03463277 -0.2787615 -0.031864464 -0.37206018 -0.559363
-0.004242778 -0.09686925 0.055275146 -0.20346507 0.16982588 0.044640657 0.15554707 -0.3292323
0.18692471 -0.03863807 0.103181705 -0.3101955 0.1263028 -0.5124719 0.052055415 0.082357205
0.18335252 0.13786621 0.031542316 -0.14921509 -0.05406221 -0.10727447 -0.13464318 -0.2771664
0.10692535 -0.14017665 0.039324775 0.26208386 0.45681927 -0.014103291 0.02053351 0.5638822
0.1748471 0.70939434 -0.0654522 -0.15541683 0.7108783 0.03815679 0.26543164 0.051635146
0.27524886 0.17212752 0.6681137 0.011283496 -0.031106725 -0.18493953 0.1369386 0.01663177
0.32059002 0.30733714 0.02046927 -0.08001169 -0.16841173 -0.07627903 0.47722694 -0.04514636
0.13841303 -0.31319603 -0.017204955 -0.076614775 -0.08620966 0.085132495 0.16752873 -0.13023663
-0.037531078 0.012195717 0.091516554 0.054729246 -0.16190846 -0.22177945 -0.059528206 0.3069852
-0.14395235 0.14805058 -0.11726492 0.35538262 -0.08143406 0.3914682 0.06219579 -0.13530338

critic1.preprocess.model.model.2.bias f4 [64]
00000000: f53e 6dbc b05e 1cbc 9169 d73d 8402 32be
00000010: 7c1a 763e 06d3 2f3e 898a 153e 9534 4c3e
00000020: 5b3d 283e e474 25bc 2a2b 5ebd 8fb6 84bc
00000030: c298 203e b96d ae3d 4b51 5e3d 1ec9 fabd
00000040: 9acc 153e bb00 a5bd 5cdc 0ebe d26a ef3c
00000050: e7c9 dfbc 8bc4 763d e396 b53d 8246 513e
00000060: 94f4 23bd 3bfa bcbd 4f3f 3c3e 0cc8 7e3d
00000070: 26bc 10be 3a04 803e 1bac 06be 01bb a6bc
00000080: 97d6 ae3d e1dc 733e 0933 2d3e 67bd 403e
00000090: 3eae 123d 8680 c33c 67b7 113e 2bb8 09bd
000000a0: 211b 513e 635c 0fbd 4a67 03be 2ec1 6dbc
000000b0: 47a6 613e 0e81 3e3e 38fd 9a3d b3a4 bfbd
000000c0: 26cb 7f3e 784d e5bc 044c d43d b844 3f3e
000000d0: 0442 4b3d 0329 403e cb2f 103e 2408 7e3c
000000e0: 7ec0 43be cb4e fd3d 9176 803e 7b0e aa3d
000000f0: 55f9 913e 9b7d d7bd 2ec0 a4bd bfb8 c0bd
-0.014480342 -0.00954406 0.10518182 -0.17383772 0.2403354 0.17170343 0.14603628 0.19941933
0.16429655 -0.01009867 -0.054240383 -0.016200332 0.15683272 0.08517022 0.054276746 -0.12245391
0.1462883 -0.0805678 -0.13951248 0.02922574 -0.027317954 0.06024603 0.0886667 0.20437053
-0.04002817 -0.09227415 0.18383525 0.0622025 -0.14134273 0.25003225 -0.1315159 -0.020352842
0.085370235 0.23814727 0.16914 0.18822251 0.0358107 0.023864996 0.14230119 -0.033622902
0.20420505 -0.035000216 -0.1283237 -0.01451139 0.22036086 0.18603918 0.07567829 -0.09357586
0.24979839 -0.027991042 0.10366061 0.18678558 0.049623504 0.18765645 0.14080732 0.015504871
-0.19116399 0.12368544 0.2509046 0.08303543 0.28510538 -0.10522004 -0.08044468 -0.094102375

critic1.last.model.0.weight f4 [2, 64]
00000000: 91ab ad3d a4b2 623d 7684 c03e a94c 2bbf
00000010: 2e21 a73e 048a 8a3e 9ca5 13bf 301d b53e
00000020: 1415 ca3e ca01 8cbd 3bde f13b af40 613d
00000030: 360e 0a3f 9197 3abd aea9 f63e 6c89 533c
00000040: b383 9c3e 68cc cfbe b5f4 21bf ee12 83bd
00000050: 6ab5 65bc cbb0 8d3e 2eb1 c73e 9ad8 6a3e
00000060: d277 b03d 2089 b4bd 366b 9c3e 9e00 b0bd
00000070: 2839 3fbf 2e6a b73e 3e41 24bf 1a13 3bbd
00000080: b23c 32bd a7f2 08be c872 ce3e 0d57 bd3e
00000090: 6096 03bf d9fe 113b 044b 95be 1206 96be
000000a0: 29f2 993e 544b 003b 5dfa 013d 0626 763b
000000b0: 8f23 903e 2741 b33e 5a5c 5d3c 8a83 09bb
000000c0: f7de b93e 803e 0c3c 5ce8 a93e b4ed 733e
000000d0: d1b5 b23e b507 a73e ee8d 093f 0519 60bd
000000e0: fdcd 91be 3b4a a93e 5411 8b3e 4d70 c73e
000000f0: 8881 a23e f3e3 26bd 2bd7 343c d734 36bf
00000100: 6a5d d2bd ddb4 4b3d 893f a73e efaf fbbe
00000110: 9ac8 8b3e 6b29 bf3e 0aa8 93be 80ac ba3e
00000120: 7684 b63e 2330 4b3d 2040 6bbd cafc b2bd
00000130: 309a 9b3e 77cb e8be aec8 3c3e 5dd5 92bc
00000140: 344d 993e 14d8 98be 418c 32bf e0b9 99bd
00000150: 05e1 78bc 3230 bc3e 64fa bb3e 612a c13e
00000160: 6c73 6c3d 0676 d53d 0d6a 813e 2853 5cbd
00000170: 980e ffbe ba9d db3e 3fb1 3abf 851a 993c
00000180: 2c5e 9ebd 855e ce3e dd4e 063e 2af9 493e
00000190: 5fe3 153e 3a22 b1bd 425a 2dbf 65f4 2dbf
000001a0: f3de 063f bd53 84bd 0385 2e3c 7439 a1bd
000001b0: d5a7 8f3e 6e2c b53e d517 34bd 6d8b 11bc
000001c0: 24a2 883e 80de 94bb 00a9 913e 15bf 063f
000001d0: 9019 4f3e a7cc aa3e 1e84 783e 5ac1 8cbd
000001e0: 3684 14bf bb09 a03e 5556 a23e 954f c83e
000001f0: a676 d73e 88f1 c7ba fc26 4cbd 4ed9 04bf
0.08479989 0.055346146 0.3760106 -0.6691385 0.32642502 0.27058423 -0.57674575 0.3537383
0.39469206 -0.06836279 0.0073812283 0.054993328 0.53927934 -0.0455547 0.4817633 0.012911182
0.3056923 -0.40585637 -0.6326402 -0.06400095 -0.014020303 0.27673945 0.39002365 0.2293419
0.08616604 -0.08815217 0.30550545 -0.08593868 -0.7469659 0.35823196 -0.6416205 -0.045672514
-0.043514915 -0.13373815 0.40321946 0.36980477 -0.5140133 0.0022277145 -0.29158795 -0.29301506
0.30067566 0.001957615 0.031732906 0.0037559285 0.2815213 0.35010645 0.013510788 -0.0020982944
0.3630292 0.008559823 0.3318509 0.23821145 0.3490434 0.32623067 0.5373219 -0.05471136
-0.2847747 0.33064446 0.27161658 0.38952866 0.3173945 -0.040744733 0.011037628 -0.7117438
-0.102717236 0.04973303 0.3266566 -0.49157664 0.27301484 0.37336287 -0.2883914 0.36459732
0.35647935 0.049606454 -0.0574342 -0.08739622 0.30391073 -0.4546773 0.18435928 -0.017924005
0.29941714 -0.29852355 -0.6974526 -0.07506156 -0.015190368 0.3675552 0.3671447 0.37727645
0.057727262 0.10422902 0.25276223 -0.05379024 -0.49815822 0.42893773 -0.72926706 0.018689403
-0.077328056 0.40306488 0.13116021 0.19723955 0.14637516 -0.08649106 -0.6771585 -0.6795104
0.52683944 -0.06461284 0.01065183 -0.078722864 0.28057733 0.3538546 -0.04396804 -0.008883339
0.26686203 -0.0045431256 0.2844925 0.5263532 0.20224595 0.33359262 0.24269149 -0.068728164
-0.5801424 0.31257424 0.3170649 0.39123216 0.4208271 -0.0015254477 -0.049841866 -0.5189408

critic1.last.model.0.bias f4 [2]
00000000: f378 0c3d 8f59 1c3e
0.034295034 0.15268539

critic1_old.preprocess.model.model.0.weight f4 [64, 4]
00000000: c3cc 423e fbf6 a43e ab20 99be fb3f ccbe
00000010: da7b 36ba c691 5ebd 714c 1dbf b95b 1abe
00000020: a303 4e3f 3d3c 963e 61b1 763e 37f8 f2bd
00000030: d029 5c3e 8aca 0c3f 4578 073d 5406 12bc
00000040: d37b 08be b6d1 453e a818 d7be c833 a23e
00000050: 68e0 593f 7db9 a43e fd1d 5d3e 9cca 263e
00000060: 3a03 13bd ea96 fabe 13aa d2bd f3bc 8e3e
00000070: 1485 303d 5fd3 0e3d 88a8 cb3e 1fa5 033e
00000080: 268a 0f3f c70d 063d 15bd 1dbe 4500 45be
00000090: bf3b 113d 2908 97be 4a02 773e 82e9 cb3e
000000a0: 049a 823d 0285 32be 1189 fb3c 9bdc c2be
000000b0: ad66 94be 99a5 bdbe 9af3 833d e9ae 363e
000000c0: ff8d 18bf 9db6 c33e b65d 633f 9edd d53e
000000d0: c6a9 8fbe 2a93 76be c42a adbe cff2 27bc
000000e0: 45a4 8e3e ed6e 62be db67 8ebe f407 54be
000000f0: 0b4f e5bc c38a cdbe f843 8cbf 0ded 10bf
00000100: 42ce c3be 3380 003f 0a83 b83e fd75 1abe
00000110: bec6 523d d266 95be 2cff 8bbf a9fe c5be
00000120: fc66 3d3e fd9b ddbe 911b 25bf 095d 16be
00000130: 8e84 cabd f387 8b3e 3cc3 4c3e 2867 81bd
00000140: 1111 df3d b905 02be d272 b1bf acf9 15be
00000150: 5c70 c2bc 7e5c 1ebf 084a 53be aa00 b0be
00000160: 3d45 ef3c d456 e3be 545c 30bf 416c 0bbf
00000170: 5829 0d3f 7d4e 173e f7d8 0abf d126 ad3e
00000180: ef81 08bf 80e7 9dbe 7c8c 573f 6ea0 e23e
00000190: 1bff 00bf 50c7 073d a646 2bbe d146 a3be
000001a0: f0e0 aabe 3839 adbd c207 c83e dde4 863e
000001b0: a426 87be 2d58 a1bd bfcf 313e efbf 96be
000001c0: 620f 653d 12ef bbbb efa1 e53f eda9 a73e
000001d0: 40fa a93d 6a2b d4be c567 c0bd c81f d53d
000001e0: c03b 89be 55dd 8ebe 23cf f5be e1ac 90be
000001f0: 329e 91be fa0c 053f 2111 4a3e b813 973d
00000200: f7ca 853e 6a5d fdbe db31 a6bf d747 a7be
00000210: f974 673e 7b79 ce3e 5d3e 15bf eaad 743d
00000220: 859b 053e 2293 76be e4c9 acbe f870 76be
00000230: 9b02 b1be 32d4 e63d 4434 243f 652c 4cbe
00000240: 1772 ef3d e0b5 5f3c be1e d4be 2728 323e
00000250: db04 403f 1d29 b2bb 127a 62be d731 b63e
00000260: 477f 5c3f b256 03bf 50e1 b6bf e9bd 26bf
00000270: 25d1 be3e b2e8 e33e e22d f1bb afc7 9f3e
00000280: 5410 8cbe e9ee 7cbe 4916 a73f 8425 bf3e
00000290: a22c 063e d13a 123d df36 843c 8153 863e
000002a0: b86e 333f f942 6ebb aab7 d83d 9d4a 17be
000002b0: 60fc b63e a335 d5be 6be6 47bf af71 b43e
000002c0: 72cf c1ba 747c 373e 9369 523f edc3 823e
000002d0: e840 2e3e 9ca1 503e 2819 8abe e076 dbbc
000002e0: fd3b aebe f29e 4c3d 3abb 3a3f de7c 943e
000002f0: 2580 d8bb e4e4 2a3d 82e6 ef3f c65e a83e
00000300: ccc1 593e d8b4 45be 4c69 d1be cc8b 3ebe
00000310: bfae 263d f046 4fbe fcfe f03e 7dd6 96be
00000320: f26c f0be 07e6 bcbe ef95 f13e 3dac 60be
00000330: 18cf 0d3f 7e87 cb3e 6886 313e 8d22 c03e
00000340: be64 8c3e 4df7 a6be 596e 4cbe d105 ec3e
00000350: 80b8 bb3e b47b abbe 08e4 d2be eecf 483e
00000360: e27a 4b3e efff 04be e670 97be 182c 98be
00000370: 288c 9a3d d4f6 80bd 9628 a4bf 7c74 17bf
00000380: a342 8abe d9e8 0e3f 9993 873c a7cd dcbe
00000390: 535b b63e 05f3 1e3f 657c 66be 82e2 b8be
000003a0: bb97 52be c261 ca3e 445f 38be 44b1 cf3c
000003b0: 0b54 4f3f a4ff b3be 4d22 94bf 8623 b0be
000003c0: 637c d23e d295 143f dee6 eb3d da9c 353e
000003d0: 0707 07bf 7a13 343e 99ca 973f c152 db3e
000003e0: 3cf4 523e 886d e9be ce04 fdbe 4d82 233e
000003f0: c2a9 e73e 171d 96be e05a 25bf d4cc b1be
0.19023423 0.3221968 -0.29907736 -0.39892563 -0.00069612043 -0.05433824 -0.61444765 -0.15074052
0.804743 0.29342833 0.24091102 -0.118637495 0.21500325 0.5499655 0.033073682 -0.008912642
-0.13328485 0.1931828 -0.42011 0.3168013 0.8510804 0.32172766 0.21593471 0.16288227
-0.03589175 -0.48943263 -0.10286345 0.27878532 0.043095663 0.034869548 0.39777017 0.12855957
0.5607017 0.032727983 -0.1540416 -0.19238384 0.03545737 -0.29498413 0.24121967 0.3982659
0.063770324 -0.17433551 0.030705007 -0.38058934 -0.28984585 -0.37040403 0.06442948 0.1784016
-0.5959167 0.3822526 0.88814867 0.41770643 -0.28059214 -0.24079576 -0.3382169 -0.010250761
0.27859703 -0.22112627 -0.2781361 -0.20706159 -0.027991792 -0.4014493 -1.0958242 -0.5661171
-0.382433 0.50195616 0.36037475 -0.15084071 0.051459067 -0.29180008 -1.0937247 -0.38670853
0.18496317 -0.43283072 -0.6449519 -0.14683928 -0.09888564 0.2725216 0.19996351 -0.063185036
0.10891927 -0.12697496 -1.3863165 -0.14646024 -0.023735218 -0.6185988 -0.2063371 -0.34375507
0.02920782 -0.44402182 -0.6889088 -0.5446206 0.5514121 0.14776035 -0.5423731 0.33818677
-0.5332326 -0.30840683 0.8419874 0.44263023 -0.5038926 0.033149064 -0.16726169 -0.31889966
-0.3337474 -0.08458179 0.3906842 0.26346484 -0.26396668 -0.07878146 0.17364405 -0.2944331
0.055922873 -0.0057352865 1.7940043 0.3274683 0.082996845 -0.41439372 -0.093947925 0.104064524
-0.26803398 -0.27903238 -0.48009595 -0.28256896 -0.28441006 0.51972926 0.19733097 0.07376808
0.26131412 -0.49485332 -1.2983965 -0.32671997 0.22603215 0.40327057 -0.58298284 0.05973617
0.13047607 -0.24079564 -0.3374778 -0.24066532 -0.345723 0.11270942 0.6414225 -0.1993881
0.11691683 0.013654202 -0.41429704 0.1739813 0.7500741 -0.00543703 -0.22116879 0.355849
0.8613171 -0.5130416 -1.428751 -0.6513353 0.3726894 0.4451347 -0.007360206 0.31207034
-0.27356207 -0.24700512 1.3053676 0.3733331 0.13102964 0.035700623 0.016139446 0.26235583
0.7009082 -0.0036355837 0.10581906 -0.14774556 0.35739422 -0.41642484 -0.78085965 0.35242984
-0.0014786555 0.17918569 0.82192343 0.25540105 0.17016947 0.20374149 -0.26972318 -0.026790082
-0.34030142 0.04995627 0.72941935 0.29001516 -0.006607073 0.041722193 1.874222 0.32884806
0.21265334 -0.19307268 -0.40900648 -0.18608016 0.040693995 -0.20241904 0.47069538 -0.29460517
-0.4695812 -0.36894247 0.47184703 -0.21940704 0.55394125 0.3975181 0.17336428 0.3752636
0.2742061 -0.3261055 -0.1996397 0.46098188 0.366642 -0.33492815 -0.411896 0.19610569
0.19871095 -0.12988256 -0.29578322 -0.2972114 0.07546264 -0.06297079 -1.2824886 -0.59162116
-0.27003965 0.5582405 0.016549872 -0.4312565 0.3561655 0.6208957 -0.2250839 -0.36110312
-0.20565693 0.39527708 -0.18005091 0.025353082 0.80987614 -0.35155976 -1.1572968 -0.34402102
0.41110525 0.5804111 0.11518644 0.17735615 -0.527451 0.17585555 1.1858703 0.42836574
0.2060098 -0.45591378 -0.49417728 0.15967675 0.45246702 -0.2931907 -0.6459179 -0.34726584

critic1_old.preprocess.model.model.0.bias f4 [64]
00000000: 067d edbe cc56 b13e 2ae6 e13e f280 363e
00000010: a35e c33e 28dd bc3e e219 053f 70ca 093f
00000020: 58d5 c73e a69f b83e e989 023f 1b53 19bf
00000030: 9fa0 b4be 6f48 ad3e c442 9a3e 7e6c eebe
00000040: 6e50 79be 34a5 dbbe d198 213f 9728 0c3f
00000050: b4e9 54be df06 913e 10e1 71be e2c9 0b3f
00000060: c0b3 fabe ee45 32bf 5250 2abf 353b fa3e
00000070: 0e6a c3bd 67b9 083f 9fb0 c83e 3d9f 78be
00000080: 809a 34bd 1902 79be ac4e e03e dd93 523e
00000090: 35bb be3e 53f4 083e 1a9d a4be d2c9 dabe
000000a0: b188 33be 3f68 053f 477b 733e 0bf4 f63d
000000b0: 99fb 59be 8ea5 fdbe 486d 24bd 0991 32be
000000c0: 48a2 febe 3396 00bf ef76 4dbd a33b fdbe
000000d0: 3896 d23e 21c7 d73e b190 df3e cf54 b4be
000000e0: 43f7 053f ac51 7c3e 4f75 df3e 3779 963d
000000f0: 67bc ab3e 0ce0 bdbe 523a bb3e 2a63 193f
-0.46384448 0.34636533 0.44120914 0.17822626 0.3815814 0.3688748 0.5199262 0.5382452
0.39029956 0.36059302 0.50991684 -0.59892434 -0.35278794 0.33844325 0.30129063 -0.46567148
-0.24347088 -0.42899477 0.63123804 0.54749435 -0.20792276 0.28325555 -0.23621011 0.54604924
-0.48965263 -0.69637954 -0.6652881 0.48873296 -0.09541713 0.534079 0.3919725 -0.24279495
-0.044092655 -0.24317206 0.43810022 0.20564218 0.37252203 0.13374452 -0.3215111 -0.42732102
-0.17532612 0.5211219 0.23777495 0.12058266 -0.21287383 -0.4954037 -0.04014328 -0.17438139
-0.49733186 -0.50229186 -0.050162252 -0.49459562 0.41130233 0.4214411 0.43665078 -0.35220954
0.52330416 0.2464053 0.43644187 0.07347339 0.33542177 -0.37084997 0.36567932 0.5991694
