demo/tianshou/panda/log/MinitaurBulletEnv-v0/ddpg/policy.pth (torch, 349725 bytes, 22 tensors)

actor.preprocess.model.model.0.weight f4 [128, 28]
000000 b4 6d 22 3e de 77 8e 3e 01 57 67 bb 0e 8a 2f 3d
       0.15862161 0.27825826 -0.003529966 0.04285627
000010 fa 31 cd 3d 58 b6 50 3e a3 15 7e 3d b9 d5 5a 3e
       0.10019298 0.20382059 0.062032353 0.21370591
000020 15 a7 a6 3c b3 65 c3 3d e3 74 44 3c de 3c cb 3b
       0.020343343 0.09540882 0.011990759 0.0062023243
000030 88 79 46 be 70 70 0e be 3b 35 c0 bd 3f b9 c1 3c
       -0.19382298 -0.13910079 -0.09385153 0.023647903
000040 30 c1 d6 3c 68 a1 94 3d d9 63 0b 3c 9e a9 0d be
       0.026215166 0.07257348 0.008507692 -0.13834235
000050 a2 bc 94 3d 51 34 93 3e 3c 7d 94 3d 95 b3 1e 3e
       0.07262541 0.28750852 0.07250449 0.15498193
000060 4e 35 8c 3e b0 f7 53 be 4e fe b6 3e 5f e9 34 bd
       0.27384418 -0.20699954 0.35740894 -0.044167873
000070 be 3b 96 bd 21 7f 3c 3d 62 43 c4 bc 59 2d 7c 3e
       -0.07335614 0.046019677 -0.023957912 0.24626674
000080 2d 6f 03 bd bc 67 d2 bc 5e 05 06 be 2c d4 0e be
       -0.032088447 -0.02568423 -0.13087985 -0.13948125
000090 08 59 d0 bd 91 5e 8f 3e a0 af 20 3e b4 99 09 3e
       -0.10173231 0.28001836 0.15691996 0.1343754
0000a0 ce 54 b0 3d c4 17 11 be 4d d1 17 bd 54 c5 1d be
       0.08609925 -0.14169222 -0.03706484 -0.15407306
0000b0 8e 5c a4 bd d8 c2 99 bc 76 12 62 3e 5c 6c 79 3e
       -0.08025466 -0.018769667 0.22077355 0.24357742
0000c0 7c b7 14 3d ff d9 d0 3d e8 24 9c 3d 0d af 3f 3e
       0.036307797 0.101978295 0.07624227 0.1871912
0000d0 e7 60 44 3e f5 86 85 bd cc 3e 7e 3e 6f f3 92 bd
       0.1917759 -0.06519882 0.24828643 -0.071753375
0000e0 af 1a 30 3e 74 ee 1d 3c 4e d4 01 3d 38 bb 4d 3d
       0.17197679 0.009639371 0.03169661 0.050227374
0000f0 e3 ef 79 3e c7 8a 81 3e 2e f3 d5 3d 70 a0 6c 3e
       0.24407916 0.2530119 0.104467735 0.23108077
000100 bc c8 21 3e 39 8f e4 bc bb 6c ae 3c 74 ba d4 3d
       0.1579923 -0.027900325 0.021292081 0.103871256
000110 be 14 b6 3d 84 95 45 3e 94 1a 0b be 0c 98 c5 bd
       0.08890675 0.19295317 -0.13584358 -0.09648141
000120 50 c0 fc 3d 4d 50 2f 3e b8 49 ff 3d 27 2c ad 3e
       0.12341368 0.17120476 0.124652326 0.33822748
000130 93 b4 24 3e 7c bc 7f be 0f 49 61 bd 41 86 e3 bd
       0.16084509 -0.24974245 -0.055001315 -0.11109591
000140 0a 25 63 be c1 c5 a7 3d e0 bb 9e 3d 72 5d fb bc
       -0.22182098 0.081920154 0.07750678 -0.030684207
000150 fc 18 af 3d 24 0a 1b bb 21 f4 a4 39 e9 c2 7a bd
       0.08549687 -0.0023657167 0.00031462408 -0.061221037
000160 e4 27 df 3d 06 0b 9f bd 0c e0 99 3d b3 84 98 3d
       0.108962804 -0.077657744 0.07513437 0.07447185
000170 ec f1 02 3e 66 4a e0 3d 18 f1 7c be 4c 80 54 bd
       0.12787598 0.109516904 -0.24701345 -0.051880166
000180 d6 43 d9 3d 82 08 86 bd fb 24 31 be 19 22 f5 bd
       0.10608642 -0.065445915 -0.17299263 -0.11969394
000190 75 b3 f1 3d 7e 91 23 3e 0d 67 e4 3c 81 94 2f 3b
       0.11801807 0.1597347 0.02788117 0.0026791396
0001a0 b0 40 3a be 65 c6 48 3c 5f d4 f1 bd 7b bb 3f be
       -0.18188739 0.012254332 -0.11808085 -0.18723862
0001b0 dc 95 8d 3d b6 10 9e bd 4b ae 9a b9 21 24 12 3e
       0.06913349 -0.07718031 -0.00029503027 0.14271595
0001c0 56 d1 17 bd ab f0 84 3e ae 95 4f 3e 43 25 9b bd
       -0.037064873 0.25964865 0.20271942 -0.075754665
0001d0 e7 8d 1d 3d d0 91 dc 3d bb c2 9d 3d d5 ce 7a 3d
       0.038465407 0.10769999 0.077031575 0.061232407
0001e0 1c 45 b0 3d 57 2f e5 ba c4 d1 d0 bd bf ae 05 3e
       0.086069316 -0.0017485422 -0.101962596 0.13054942
0001f0 77 15 53 be 26 9a 0e be 0d 75 30 bd ac 88 84 bd
       -0.20613657 -0.1392599 -0.04308038 -0.064713806
000200 74 ad 80 bd ea e8 33 be 09 fd 47 3d 14 5e 43 3d
       -0.062830836 -0.17569318 0.048825298 0.04769714
000210 b5 8f 87 bd d1 1a 95 bc 6e cf fe 3d ec ee 8e 3c
       -0.06619207 -0.018201264 0.12441908 0.017447911
000220 d7 45 20 3e 13 df 13 be f5 bf 60 3e a0 03 46 3e
       0.15651642 -0.14440565 0.21948226 0.1933732
000230 42 93 3b 3e ed 4f 04 3e bd b9 36 3e 02 60 61 ba
       0.18317893 0.12921114 0.17844291 -0.0008597375
000240 d4 87 2b be 75 6d c3 bd bc 60 f8 3d a4 c9 06 bd
       -0.16751033 -0.09542362 0.121278256 -0.032907143
000250 ba 76 bb bd 71 68 3c be de 2d 68 be 68 01 81 be
       -0.09153505 -0.18399216 -0.22673747 -0.25196385
000260 bd c2 00 bd 19 f2 b5 3d 90 9f ae 3d 9c 9e c0 bd
       -0.031435717 0.08884067 0.08526528 -0.09405252
000270 05 26 3c 3e de 93 b4 bd 9d 34 50 3d e0 85 2d be
       0.18373878 -0.08817266 0.050831426 -0.169456
000280 af 85 c0 bd 54 7d 4d 3d ea a4 e5 bd 68 bd c7 bd
       -0.09400498 0.05016835 -0.112130955 -0.09752923
000290 7b ff 03 3d 6e 41 13 3d 31 61 93 bd d1 6b 98 3d
       0.032226067 0.03595107 -0.07196272 0.07442439
0002a0 35 34 fe bd b6 fc bb 3c 00 20 5e 3e 5f 37 19 bd
       -0.124123015 0.02294765 0.21691895 -0.03740632
0002b0 9d 49 4b 3e 12 11 e1 3d 4a 90 b1 bd 52 ac 55 3e
       0.198523 0.10989584 -0.08670099 0.20866516
0002c0 d4 6b 9a ba 95 cd ae bd e4 8b ee 3d a3 fd 24 be
       -0.0011781403 -0.085353054 0.11647776 -0.1611238
0002d0 98 5e d1 3b c9 55 83 bc 1b 54 b0 3d 35 1c fa 3c
       0.0063894503 -0.016032116 0.08609792 0.030531028
0002e0 1a 09 1e 3e 88 05 9f 3d 90 ed 70 bd 9b b4 b1 bd
       0.1543316 0.07764727 -0.058820307 -0.08677026
0002f0 6b 98 91 be e0 90 1c 3e d9 2f 2c 3e a6 13 1d 3e
       -0.28436598 0.1528964 0.16815127 0.15339527
000300 0a fb 02 be 0e 64 2c 3e 4a a9 57 be 50 06 4f bd
       -0.12791076 0.16835043 -0.21060672 -0.05054313
000310 e8 50 5d bd 52 79 0f 3e bc 50 7a bd 8d f0 8f 3d
       -0.054032236 0.14011124 -0.06111215 0.07028303
000320 d0 58 bd 3d 23 00 2b 3e 8f 4e 28 be 48 74 e7 bd
       0.09245455 0.16699271 -0.16436218 -0.11301476
000330 72 b7 cb bd 19 04 37 3e bb 0a 01 be 35 fb 31 3e
       -0.09947099 0.17872657 -0.1260175 0.17380984
000340 59 0c b3 3d eb 4f e8 bc 25 cc 9a 3c ce 27 98 bd
       0.087425895 -0.02835842 0.018896172 -0.07429467
000350 15 80 74 3d c4 9f b9 bb 01 cc f2 3d 31 1e 08 3d
       0.05969246 -0.0056647975 0.11855317 0.033231918
000360 e3 81 0c be b6 b4 0f 3d d4 94 29 3e 7b 61 61 be
       -0.13721423 0.03508445 0.1656068 -0.22009842
000370 c7 a4 2b 3e 91 42 dd 3d 16 6f 88 3e 17 32 3a 3d
       0.16762076 0.10803712 0.26647252 0.045457926
000380 f8 ff b6 bd ad 48 2f 3e 39 9b 91 bd 35 d3 54 3c
       -0.08935541 0.17117567 -0.071096845 0.012989809
000390 48 5a 73 3c f9 53 23 3d 71 a1 cb 3c 2f 81 3b 3e
       0.014853068 0.039875004 0.024857255 0.18310998
0003a0 3f 09 16 3d d8 09 54 3e 67 a6 23 3e 4e 47 90 bd
       0.03662991 0.2070688 0.15981446 -0.0704485
0003b0 9c 79 f5 3d f4 2c 4f be 9d ba f7 bd a0 2a 77 3d
       0.11986086 -0.20231992 -0.120961405 0.060343385
0003c0 54 11 0a bc d1 a5 f0 3d 85 7e 28 3d bc 69 99 3d
       -0.008426983 0.11750377 0.041136283 0.0749087
0003d0 7b 60 0f 3e c2 ba e7 bd 1d 7c 22 3e 2a 77 11 be
       0.14001648 -0.11314918 0.15867658 -0.14205614
0003e0 17 94 1e 3e 37 d6 3d be 35 58 d4 3a 2d 07 a2 3d
       0.1548618 -0.18538748 0.0016200604 0.07911525
0003f0 be 1c 56 3e a4 2f e7 ba c5 c8 8d bd f0 0e e9 bc
       0.20909402 -0.0017638099 -0.069230594 -0.028449506

actor.preprocess.model.model.0.bias f4 [128]
000000 2b 63 57 bc 4a 05 f4 bd 25 59 4a 3e b0 b2 1d be
       -0.013146202 -0.11915071 0.19760568 -0.15400195
000010 18 70 1b 3e 5b 0f 2a bd a9 4c f4 3d a4 8d 87 bb
       0.15179479 -0.04151855 0.11928684 -0.004136758
000020 d4 73 f6 3d fb 3c 27 3d 9b 87 ba 3d 36 a1 30 3d
       0.12033811 0.04082964 0.09107896 0.043122493
000030 64 fc 9f bd bf db 9f 3c 81 a9 ae bd ab a5 80 bd
       -0.078118116 0.019513963 -0.08528424 -0.06281599
000040 09 a3 25 be f2 e7 ed 3b 34 05 f2 bd 1f 7a 2f 3e
       -0.16175474 0.007260316 -0.11817399 0.17136429
000050 27 18 d2 3d 39 12 dc 3d e7 0b 40 3e 8b aa 40 3e
       0.10258513 0.10745663 0.1875454 0.18815057
000060 5e 68 fc bd ba 17 14 3d 9c 33 5c 3d 62 b8 91 bd
       -0.12324594 0.03615544 0.053760156 -0.07115246
000070 46 fb 56 3e 1f 1c a1 3b 83 05 4e bd a6 2a 90 3d
       0.2099429 0.0049166824 -0.050298225 0.070393845
000080 ff 2e ad bd 1b b5 03 3e b1 60 dd 3d 7e 3d 41 3e
       -0.084562294 0.12862055 0.10809458 0.18871114
000090 7c f0 d5 3c 4e 8f 97 3d 36 82 91 3b 54 12 30 be
       0.026115648 0.0740038 0.004440571 -0.17194492
0000a0 09 43 1d 3e 4f 67 1a be bc 28 0a bd 54 9e ba 3c
       0.15357603 -0.15078472 -0.033730254 0.022780575
0000b0 d3 0f 01 be ab 6d 9d 3d dd bb 11 3e 9b fb 76 3d
       -0.12603693 0.07686933 0.1423182 0.060298543
0000c0 1a 3f 31 3e c0 fd 27 3d 58 cb 8b 3d e9 56 a3 bd
       0.17309228 0.04101348 0.06825894 -0.07975561
0000d0 5e 99 71 bd 8e b2 b1 3c dc cc 7b bd 33 e1 b7 bd
       -0.058984153 0.021691587 -0.061474666 -0.089785
0000e0 82 9b 34 3d 2e db 01 3c cd fb e7 bd 60 11 48 3e
       0.044093616 0.007925792 -0.11327324 0.19537878
0000f0 5f d7 35 3e cc 1f d3 bd 32 ed 1b 3e f5 38 6d bd
       0.17757939 -0.10308799 0.15227202 -0.057915647
000100 23 8b cd 3c 2d d5 81 3e af c5 97 3d 6c 6f 10 be
       0.02509076 0.25357953 0.07410752 -0.14105004
000110 be 3f 42 3e f9 bb 08 3d 8d 6c a6 bd 86 3f a1 bd
       0.18969628 0.03338239 -0.08126173 -0.07873444
000120 15 4b 33 3e 6d cf 69 3d 4d 4d 21 3e bb 4e 28 3e
       0.1750911 0.057082582 0.15752144 0.16436283
000130 bc 7e f0 bc 0b 7b 7e 3d 81 2c 68 bd 5a 6f 34 3e
       -0.029357307 0.06212906 -0.056683067 0.17620602
000140 7d 78 4e bd 7d 3a 44 3e ce bb 20 3d 36 6b e7 3d
       -0.050407875 0.19162937 0.039241605 0.11299746
000150 a9 b4 5a bd 68 34 8b 3c 24 bb fd 3d 93 4d a1 3d
       -0.053394947 0.016992763 0.1238921 0.07876124
000160 f0 95 ab 3c 8a 19 26 3e e8 c1 39 be af b9 90 bd
       0.02094552 0.1622068 -0.18140376 -0.07066666
000170 74 38 2e 3d a2 9e cc 3d c9 31 2f 3e 52 32 ad 3c
       0.042534307 0.09991194 0.17108835 0.021142159
000180 32 98 a6 3d 10 fc 9b bd c5 7f d8 bb c7 e1 1a bc
       0.08134498 -0.076164365 -0.006607028 -0.009453244
000190 b7 67 65 3e 76 42 1e 3d 81 16 0f 3e c5 da 21 3e
       0.22402845 0.0386376 0.13973428 0.1580611
0001a0 7e 70 13 3e 88 28 29 3d 8c 6d ba 3b 50 8c e9 bd
       0.14398381 0.04129842 0.0056893285 -0.114037156
0001b0 b0 de 6b 3d f7 05 e6 3c 23 b8 10 be 7b b6 28 3e
       0.05758542 0.028079016 -0.14132743 0.16475861
0001c0 20 50 38 bd 10 b6 77 3d ab 43 08 be 8d 5b 2f be
       -0.04499829 0.060476363 -0.13307063 -0.17124768
0001d0 4e 0f 90 3d f9 45 01 bc fa 3f 6d bd 7e 17 05 bd
       0.07034169 -0.007890218 -0.05792234 -0.032493107
0001e0 41 b8 1e 3e b8 46 09 3d 2b 8b 2f 3e c9 72 62 3e
       0.15499975 0.03351471 0.17142932 0.221141
0001f0 28 0f c4 bd f9 d2 84 3e c6 38 c0 bc 73 80 f8 3d
       -0.09573203 0.2594221 -0.023464572 0.12133875

actor.preprocess.model.model.2.weight f4 [128, 128]
000000 4b 4e 87 3c 04 2f 20 be 48 8e 83 3d 34 f7 d9 3c
       0.016516825 -0.15642935 0.06423622 0.026607133
000010 0b d0 53 bd 58 1c a7 3d 60 85 96 bd b9 1c b9 bd
       -0.051712077 0.08159703 -0.07349658 -0.090386815
000020 93 80 a9 3d 7f d5 73 3d 9e 68 b6 3b 83 eb de bc
       0.08276477 0.059529778 0.0055666706 -0.02721191
000030 43 36 8c bd 59 3a a0 bd 7e eb 3e bd e6 e1 a5 3c
       -0.06846287 -0.07823629 -0.0466113 0.020249318
000040 5f 93 c4 3c b1 af 2b bd b9 64 93 3d e9 4d 7d 3d
       0.023996053 -0.0419156 0.07196946 0.06184188
000050 40 af 2b bc f6 9d 1d bd f8 0f 1f 3c 45 53 db 3c
       -0.010478795 -0.03848072 0.009708397 0.026773104
000060 29 15 7e 3c 4b 52 91 3c f8 ae ad 3d cd a6 13 bd
       0.015507975 0.017739436 0.08480638 -0.036047745
000070 9f 64 a8 3b 2b 8f 34 3d 15 d8 d8 3a e2 9d 7f 3d
       0.005138948 0.044081848 0.001654389 0.06240643
000080 f0 e1 d8 bb cc f8 bb bd da d3 eb 3b df 37 c3 bd
       -0.0066187307 -0.091783136 0.0071968855 -0.09532141
000090 e2 0b e3 3c 3f d8 ae bd ca bc 37 3d 7a 71 02 3d
       0.027715627 -0.085373394 0.044857778 0.0318465
0000a0 93 69 1a 3b a0 48 26 3e 76 95 55 bc 21 43 ce 3c
       0.0023561462 0.16238642 -0.013036123 0.025178494
0000b0 0e 83 4e 3d 7b fb ec 3c c3 ca d7 bc d6 21 6b bd
       0.050417952 0.028928509 -0.026341802 -0.057405315
0000c0 f4 f3 91 bc cd 47 8f 3d 6e 31 0a 3e 9b e9 9f 3d
       -0.017816521 0.06996117 0.13495418 0.078082286
0000d0 42 b8 6a 3d 1d b9 62 bd b5 4d b7 bc 98 32 0b bd
       0.05730463 -0.05535232 -0.02237592 -0.033983797
0000e0 48 67 00 3e 17 02 a3 bb 39 4a b2 bc 16 37 f8 3a
       0.12539399 -0.0049746144 -0.021763908 0.0018937315
0000f0 5c 76 ff bd 59 3d a4 bd 8c 43 c0 3d 0f 7d a3 bb
       -0.12473747 -0.08019514 0.093878835 -0.0049892734
000100 54 60 54 bd 76 57 a3 bc 15 c8 96 3b e8 2a d2 bc
       -0.05184968 -0.019939166 0.0046014884 -0.025655225
000110 a6 d0 55 bd 1c 36 40 3d 3b 3f 21 bc fe 7f b4 3d
       -0.052200936 0.046926603 -0.0098417355 0.08813475
000120 7d 65 8a bd 06 56 8e 3c fc aa 33 bb e3 73 8a bd
       -0.067576386 0.017375004 -0.0027415147 -0.06760385
000130 d7 e7 a0 3d a8 bd 85 3d df 58 7e 3d d1 13 bb bd
       0.0785672 0.06530315 0.062096473 -0.09134639
000140 f2 00 e9 3d 0d 90 b7 3d 2b d7 28 bd be c7 cf 3c
       0.113771334 0.089630224 -0.041220825 0.0253638
000150 3f 18 e4 3d df de 01 3d 01 84 91 bd 1b 1d ee 3c
       0.11137437 0.031706687 -0.07105256 0.029066613
000160 a4 44 67 bc 1c a3 26 3d 4e a5 2d be 9c dd 38 bd
       -0.014115486 0.040682897 -0.1695759 -0.04513322
000170 74 e9 92 bd 81 d0 31 3d 2d ed 0d 3c fe 39 f3 3d
       -0.07173434 0.043411735 0.008662504 0.118762955
000180 e1 b0 9f 3d ba cb 5b 3d 4d 17 17 bd 1f b3 8a bc
       0.07797409 0.053661086 -0.036887456 -0.016931115
000190 db 46 8c bd fd ef 4f bc 39 c1 aa 3d 40 39 4d bc
       -0.06849452 -0.012691495 0.083376355 -0.0125258565
0001a0 1e 95 8d bd c1 83 e0 bd 79 39 1e bc 5f a8 cd bc
       -0.069132075 -0.1096263 -0.009657257 -0.0251047
0001b0 2a 35 c8 bc 9c d6 85 3d 9e 8d 5a bd 46 50 5f 3d
       -0.024439413 0.06535074 -0.053357713 0.054519914
0001c0 6b 96 e6 ba f4 d3 e0 bd 1f 9b b8 bd 6b 48 4e 3d
       -0.0017592435 -0.10977927 -0.09013962 0.050362032
0001d0 cd e8 03 bd ac 78 64 3d 7f 43 cf 3c da ac 09 3c
       -0.032204438 0.055779144 0.02530074 0.008403027
0001e0 0b 55 83 bd 6e 16 a9 3d b0 2d aa bc 98 96 fe bd
       -0.06412705 0.08256231 -0.020773739 -0.12431067
0001f0 d8 95 06 3d c7 eb 93 3c ba 30 cc bd d4 8e 10 3d
       0.032857746 0.018056763 -0.09970231 0.03529246
000200 77 64 90 bd f7 9e 66 bc 5a 62 d2 3b e5 b9 9a 3d
       -0.07050412 -0.014075986 0.006420416 0.07554988
000210 1b de 67 3d b8 6b 11 3b 75 9f 14 bd ce f5 de 3d
       0.0566083 0.002218945 -0.036284883 0.10886727
000220 b1 b2 94 3b 5d a6 95 3c da d6 1c 3d d9 3a 36 3d
       0.0045379032 0.018267805 0.038290836 0.044489715
000230 ad aa 0b 3d 3a d2 7d 3d 64 61 84 3d b9 4f b3 3b
       0.034098316 0.061968066 0.06463888 0.00547215
000240 f3 5d 22 3d 56 f7 b1 bc 20 6f 24 3d b8 48 8a bc
       0.03964038 -0.021724384 0.04014504 -0.016880378
000250 88 0a 3b 3d f4 37 6b 39 c7 83 81 bd c1 e4 9a ba
       0.04566434 0.0002243219 -0.06323963 -0.0011817442
000260 03 fb 20 3d 29 62 87 3d 1b fd 6a 3c 2f c0 1e 3d
       0.039301883 0.066105194 0.014342572 0.0387575
000270 eb 47 c3 3d 49 00 6a bc 7e ae bd 3d 28 2f 3b 3d
       0.09535202 -0.014282295 0.09261797 0.04569927
000280 f0 f1 a0 3d 9e 3b d8 3d d8 89 b4 bd 05 83 ba 3d
       0.07858646 0.10558246 -0.08815354 0.09107021
000290 16 d1 e4 3d 4d fb b5 bd 11 45 cb bc a0 03 08 bd
       0.111726925 -0.088858224 -0.024813207 -0.033206582
0002a0 5e d7 d0 bb 9a 80 f9 bc 57 d2 2a 3d e5 99 63 bd
       -0.00637333 -0.03045683 0.041704502 -0.055566687
0002b0 12 7b b0 bd 3b f1 4d 3d 45 19 4b 3d b4 1b ea bb
       -0.08617224 0.050278883 0.049584646 -0.0071444158
0002c0 6a e9 98 3d 91 18 dd 3d ca 45 31 bc bb 11 6b 3c
       0.07466395 0.10795701 -0.010819862 0.014347489
0002d0 11 4e e1 bb 24 f1 e6 3a 42 cc 10 bd ff e8 ce bc
       -0.0068757613 0.0017619473 -0.035351045 -0.025257586
0002e0 f0 a9 fd bc 5a 11 5a 3d b0 64 19 bd 7f e1 03 bd
       -0.030964822 0.053239204 -0.03744954 -0.03219747
0002f0 0e 05 ac 3d 83 8d e7 3c 5a 66 90 3d be dd 93 3d
       0.083994016 0.02826572 0.07050772 0.07220028
000300 aa 1a 94 bb 55 4b 07 3c e8 32 ab 3d 98 37 ab bd
       -0.00451978 0.008257707 0.08359319 -0.08360213
000310 11 3d 34 bc 16 49 d6 3c e8 d4 c9 bc 0e c9 17 3d
       -0.0110008875 0.026157897 -0.024637654 0.037056975
000320 8f 69 71 3d d5 3d 7c bd 97 46 0c 3d 11 f9 b5 3d
       0.05893856 -0.061582405 0.034247007 0.08885396
000330 e2 ae 88 bd bd cf e5 bc 65 9b 00 bd 33 81 b0 3d
       -0.06673981 -0.028053159 -0.031398196 0.08618393
000340 7c d5 8a bd 83 d0 6d bc 7c 85 98 3d 31 2a 56 bc
       -0.06779 -0.014515045 0.07447335 -0.013071583
000350 9a ca 44 3d af d3 70 bd fe 66 90 3c 0b 2f d2 3c
       0.04804478 -0.058795627 0.017627236 0.025657197
000360 67 3f 3e bc 8c f3 98 3d 9e 0c a2 3d 73 58 64 bd
       -0.011611796 0.07468328 0.07912563 -0.055748414
000370 3e d1 ae 3d bb 46 1f 3c 9c a6 b0 bc 6f f3 7c bd
       0.085360035 0.009721453 -0.02156382 -0.061755594
000380 1a dc 61 3d a4 29 26 3d c0 d4 a8 bd 36 e2 81 bd
       0.055141546 0.040567055 -0.08243704 -0.063419744
000390 61 15 d9 bd 8b 9c 21 3d d7 df e8 ba 71 43 08 bc
       -0.10599781 0.03945593 -0.0017766905 -0.0083168605
0003a0 bd 6e dd 3d 55 4c 60 3b 9f 16 ea bc 9d d0 a5 3c
       0.10812137 0.0034225185 -0.02857524 0.020241076
0003b0 20 94 c8 bc d5 0d 96 bc 39 62 8f 3d 4c da f4 3c
       -0.024484694 -0.018317143 0.07001156 0.029889248
0003c0 de f6 1a bd 94 4a ba 3d 4d 63 87 3d 2f 8c 3f bd
       -0.037833087 0.09096256 0.06610737 -0.04676455
0003d0 1d 01 5a 3d 20 2d b3 3d 08 60 5a bd 4d 99 40 bd
       0.053223718 0.08748841 -0.05331424 -0.0470212
0003e0 27 c1 90 bd 5f e7 8f 3d 45 2a 5c 3c ed 1c 87 3d
       -0.07068091 0.070265524 0.013437812 0.06597314
0003f0 18 85 cd 3c bb e0 f9 3d 66 90 42 bc 7f 80 c8 bd
       0.025087878 0.12201067 -0.011875248 -0.09790134

actor.preprocess.model.model.2.bias f4 [128]
000000 09 be c0 3c 4d 59 a5 3d 5a d4 80 bd ef 0f bb bc
       0.023528116 0.080736734 -0.06290503 -0.022834746
000010 7e 01 c7 bb 1c 9a fa 3c 33 d2 6e 3d 41 a0 d9 bc
       -0.006073176 0.030591063 0.05830593 -0.026565673
000020 a3 fe bc 3d 05 05 73 3d 3e 3d 1d bd fa 39 8e bd
       0.092282556 0.05933096 -0.038388483 -0.06944652
000030 e1 0d 9a 3c 0e 38 26 3c f1 4d 3e bd 2c 32 fd 3c
       0.018805446 0.0101452 -0.04646105 0.030907713
000040 7b 67 84 3d 1f cf 75 3d e2 88 3e 3b 8d 32 96 bc
       0.0646505 0.06001198 0.0029073288 -0.018334651
000050 60 c6 16 3d 81 ca c4 bc 98 83 a6 bd f4 53 6e bc
       0.03681028 -0.024022343 -0.08130568 -0.014546383
000060 c2 eb fc 3c 51 7b 06 3d 9d 90 c8 3d 25 b6 d1 3b
       0.030874137 0.032832447 0.09793208 0.006399887
000070 26 91 02 bd f4 62 73 3c 4e fc 0e 3d 43 20 c9 3d
       -0.031876706 0.014855135 0.034908585 0.098206066
000080 3c ec 92 3d 37 89 b9 bd dc 55 a9 3d 81 64 b3 3d
       0.071739644 -0.09059375 0.082683295 0.08759404
000090 7f 84 d4 bc bf b2 67 3d 97 81 b7 bb f4 10 87 bc
       -0.025942085 0.05656695 -0.005600165 -0.016487576
0000a0 cf a2 0e bd c6 6d 44 3d ca 12 d3 3d 07 52 cf 3d
       -0.034823235 0.04795625 0.10306318 0.10123067
0000b0 b5 4e 3d 3d 05 c1 e0 3c 3f e8 61 3d 42 2c 8d 3d
       0.04621764 0.027435789 0.055153128 0.06893207
0000c0 97 a9 a0 3c 71 01 7e bb aa 91 15 bd f2 fc 83 3d
       0.019612117 -0.0038758183 -0.03651587 0.0644473
0000d0 6d f1 82 bd 32 f1 8f 3c 50 88 81 bd e3 3d e6 3d
       -0.063937046 0.017571066 -0.06324828 0.11242273
0000e0 7c 4a 81 bd 36 cd 8d bd 08 1f 88 b9 5c e7 22 bc
       -0.06313035 -0.069239065 -0.00025963061 -0.009942856
0000f0 87 fa a4 bc ba 34 40 bd d2 cd 15 3c b3 31 40 bd
       -0.020138992 -0.046925284 0.00914331 -0.046922397
000100 bb ef 8b bd 9f 55 6b bd ac 7d b8 3d d0 79 f4 3c
       -0.06832834 -0.0574547 0.09008345 0.029843241
000110 4d f5 dd 3d 10 d8 a7 3c b4 5d 1e 3c 76 df 81 bc
       0.10837803 0.020488769 0.009665895 -0.015853625
000120 ed 18 4a bd c0 70 df 3d 38 24 9c 3d 19 ce d2 bc
       -0.049340177 0.10910177 0.07624096 -0.02573304
000130 05 c0 a3 3c 74 53 46 3d 32 26 1a bd 65 4b ae bd
       0.019989023 0.04841943 -0.037634082 -0.08510474
000140 2f 95 24 bd 47 b7 a4 bd 96 6d ba 3d 96 a8 fd bc
       -0.040181335 -0.0804277 0.09102933 -0.030964177
000150 39 0c 1b 3b 04 2a 12 3d db fe 4a bd 20 f7 b6 3d
       0.0023658408 0.0356846 -0.049559455 0.08933854
000160 ea 75 8a bd 5e 88 b7 3d 61 71 20 bd e2 56 0b 3d
       -0.067607716 0.08961557 -0.039170627 0.034018405
000170 c3 c4 7b 3c 49 58 a2 bd 4f bc 8b 3d ba 58 28 3d
       0.015366736 -0.07926995 0.068230264 0.04110024
000180 70 3e df 3c 42 9b 3f 3d d0 e1 4d bc ad c2 a3 3c
       0.027251452 0.046778925 -0.012566045 0.01999029
000190 fc 1e 52 3d 5f 2a ac 3d 58 e8 b7 bd 7a 7b f4 3b
       0.05129908 0.08406519 -0.08979863 0.0074610086
0001a0 66 da 86 3d b8 e7 52 bd b2 9e bb bd e8 37 8d 3d
       0.06584625 -0.051490515 -0.09161128 0.06895429
0001b0 2c 0c 28 3d 87 20 a1 bc 0d ec e8 bc e7 08 b9 3c
       0.041027233 -0.01966883 -0.02843287 0.022587253
0001c0 e4 3c ef 3c ab ea ab 3d 6b 8e be bb 33 1d e9 3c
       0.02920384 0.08394369 -0.0058153174 0.028456306
0001d0 0b fd 62 3d 68 47 47 3d b5 6d 82 bc 10 de 23 3d
       0.0554171 0.048652083 -0.015921453 0.040006697
0001e0 92 5b 43 bc 7b 34 34 bd 97 e0 ae bc 8c 70 9f 3a
       -0.0119236875 -0.04399536 -0.021347327 0.0012164279
0001f0 a1 f3 ee 3c b4 13 bb 3c 5a 33 c3 3d 04 00 16 3d
       0.029168906 0.022836544 0.09531279 0.03662111

actor.last.model.0.weight f4 [8, 128]
000000 d0 e7 50 3b d4 cd ef 3c af 60 97 3d 39 79 9b bd
       0.0031876452 0.029272951 0.07391488 -0.07591481
000010 18 5a 3f bd fd 56 cb bd 86 61 b7 bd f5 81 06 3c
       -0.04671678 -0.09928701 -0.08954148 0.008209695
000020 43 29 46 3d 1c 6d 3f 3c 46 58 83 bd 05 9b 5c bd
       0.048379194 0.011683729 -0.06413321 -0.053858776
000030 67 14 a3 bd 8d b2 f9 ba c8 b1 e0 bd 18 6f a0 3d
       -0.07962876 -0.0019050405 -0.10971409 0.078336895
000040 a3 a1 e9 bc 6e e9 a6 bb 6f 41 82 bd 97 9c 0b bd
       -0.028519457 -0.005093745 -0.06360137 -0.034084883
000050 f6 0f be 3c b1 a7 cf bb 91 da 4b 3c 4d 7b 45 3d
       0.02320097 -0.006337129 0.012442247 0.048213292
000060 b8 39 cb bd 5f b7 94 3d c9 74 28 bc 74 57 d1 bd
       -0.09923118 0.07261538 -0.01028175 -0.102217585
000070 b2 85 da 3c ee 52 79 bd dc 9d 67 3d cb 76 d4 bd
       0.026675079 -0.060870104 0.05654703 -0.103742205
000080 bc 08 7c bd c3 c0 56 3c 18 06 a1 3d 7f 14 a0 bd
       -0.061531767 0.013107481 0.078624904 -0.07816409
000090 e3 3e ca 3c 5a cf c3 bd ad 29 85 3d 4a 6d 01 bd
       0.02468819 -0.095610335 0.0650209 -0.031598367
0000a0 62 ce 71 3d ae c3 a5 bd 95 cf 0c 3c 96 07 4c 3d
       0.059034713 -0.080939636 0.008594413 0.049811922
0000b0 c9 81 8f 3b 9d 72 f8 3c 80 3b 60 3d fd 60 5a bc
       0.0043794853 0.03032809 0.054744244 -0.013328788
0000c0 95 3b c4 bd b2 27 b8 3c c5 ec d5 bd 48 b3 e8 bd
       -0.09581677 0.022479866 -0.10445551 -0.1136232
0000d0 91 c0 b3 3c c5 ec 2c 3d 38 61 25 bd 18 eb 0b be
       0.021942409 0.04221799 -0.04037592 -0.136639
0000e0 bd 14 30 bc 42 be 5b 3d e6 7f bb bb af 2e bb bd
       -0.010747132 0.05364824 -0.005722034 -0.091397636
0000f0 72 22 a0 ba 15 3d ab bd 74 e5 c1 bc 52 f3 87 bd
       -0.0012217297 -0.0836126 -0.023668982 -0.066382065
000100 9d 9b f5 bd 27 bc 84 bb e4 a6 23 bd c4 b2 db bd
       -0.119925715 -0.00405075 -0.03995408 -0.10727456
000110 2f 68 57 3d 07 20 24 bd 76 48 cb bd 2b 80 1e 3c
       0.05258959 -0.040069606 -0.0992593 0.009674112
000120 3c a0 83 3d df 83 8a bd c7 e0 c0 bd 8e b5 50 3c
       0.06427047 -0.06763434 -0.09417873 0.0127385985
000130 35 ba a5 3d 2e fa e5 3d a0 fa 17 3d c9 6a 33 bd
       0.08092157 0.112293586 0.03710425 -0.04380301
000140 61 aa a1 3c 2e a4 db bb 88 ec 18 bc b6 72 1d 39
       0.019734563 -0.0067029214 -0.009333737 0.0001501542
000150 56 ed 96 bd 0b 57 82 bd 25 d9 96 bd f7 9c 13 bd
       -0.07369487 -0.063642584 -0.07365636 -0.036038365
000160 b9 62 32 3d ea 2a 48 bc 49 b9 cc bb 0d fc 93 3d
       0.04355118 -0.012217263 -0.0062476736 0.07225809
000170 5b f0 0a bc ff b5 77 3d 25 43 d2 bc 5d df ae bd
       -0.008480157 0.0604763 -0.025666783 -0.08538697
000180 b5 e8 97 3c 89 0e a6 3d df 1f 75 ba 2e f6 0d bb
       0.01854358 0.08108241 -0.00093507575 -0.0021661627
000190 4b 74 ce bc 44 d7 e7 bd 3d f7 ac 3d 02 c0 29 3d
       -0.025201937 -0.113203555 0.084455945 0.04144288
0001a0 ba 1a 08 bd 26 4b fa bc 52 91 18 3d d3 b8 66 bd
       -0.033228613 -0.030553412 0.037247963 -0.056328606
0001b0 17 ab 90 3d c8 4f b1 bd c1 eb 8c 3d 19 72 5e bd
       0.07063883 -0.08657795 0.06880904 -0.05430803
0001c0 01 9e 90 bd bb 84 35 bc 09 12 31 bd 94 1d 80 3c
       -0.07061387 -0.011079009 -0.04323009 0.015639104
0001d0 2e 2d b7 bd 44 6c 81 bd b7 4c f8 3b 86 01 c2 bd
       -0.08944164 -0.06319478 0.0075775045 -0.09472947
0001e0 9b 25 4e bd 5b 74 ea bc 0a be 0e 3c 2d 2c 45 3d
       -0.050328832 -0.028619936 0.008712301 0.048137832
0001f0 3b 9c 85 bb ab 6b fe 3c 7f 6f a2 bd 43 7d 8f bd
       -0.004077462 0.0310572 -0.079314224 -0.07006314
000200 f2 69 b6 bd 52 8d 9a bd 39 69 c2 bd f1 b6 85 3d
       -0.08906926 -0.07546486 -0.09492726 0.06529034
000210 54 55 d4 bd 1e b4 7f bc 59 3f aa 3d 69 21 68 3d
       -0.103678375 -0.015606908 0.08312864 0.056672487
000220 fb a9 a6 bb b8 f8 81 3c 12 f6 c4 bd df f9 9d 3d
       -0.005086181 0.015865669 -0.09617247 0.07713675
000230 4b 84 52 bd d9 4c b3 3d 87 0b 07 3d fd 05 bb bc
       -0.051395696 0.08754892 0.032969978 -0.022830004
000240 73 61 a8 bc f4 f4 17 3d 4d 8c b8 bd ea 1d 4f 3d
       -0.02055428 0.03709884 -0.09011135 0.050565638
000250 05 56 6f 3c d9 e3 23 be 4c d5 0b 3d 6d 34 c8 3d
       0.014607911 -0.16004886 0.034138963 0.097756244
000260 26 d9 1e 3d 9d 8e 85 3d ab 2f 9d 3d b2 8d e8 bc
       0.038781308 0.06521342 0.076751076 -0.028387878
000270 bb 79 cc bc 02 b2 b2 3c c8 61 91 bd 7c 67 4c bd
       -0.02496039 0.021813396 -0.070987284 -0.049903378
000280 74 6c 0b 3d f2 07 ec bc 8b 23 24 be 1c ef 45 3d
       0.034038976 -0.028812382 -0.16029184 0.048323736
000290 be ce 10 3d 10 9c e1 3c a7 81 72 3d 31 db d1 3d
       0.035353415 0.027540237 0.059205677 0.102468856
0002a0 fd 15 81 3d a8 58 63 3d 87 87 30 bd dc ea af bd
       0.06303022 0.05550447 -0.043098 -0.08589718
0002b0 d3 5e 22 3d 7c cb 88 3c a5 7a 8e 3c 48 68 bd 3d
       0.039641213 0.016698591 0.017392466 0.09248406
0002c0 5a cb 17 bd 58 44 97 bd ea 65 57 bd f6 6b a6 3d
       -0.037059166 -0.073860824 -0.052587427 0.08126061
0002d0 f5 c0 8b bd 30 79 e4 bb 31 9b 27 3d 41 ef f6 bd
       -0.06823913 -0.0069724545 0.040919486 -0.12057353
0002e0 43 08 a6 bd 07 b9 6f 3d 14 42 b3 3d fa 93 c0 3d
       -0.081070445 0.058526065 0.08752838 0.09403224
0002f0 6f ea 14 3e 82 a3 aa bd 5b a6 89 3c f0 4d ad 3c
       0.14542554 -0.08331968 0.016802957 0.021155328
000300 c2 01 3b bd e3 ad d4 bd 3e 3f 73 3d 3b b9 73 bc
       -0.045655973 -0.10384729 0.059386484 -0.014875705
000310 90 a1 9f 3c 3d b3 73 3c bd 75 9f bc 96 28 02 3e
       0.019486219 0.014874277 -0.019465322 0.12710795
000320 94 c5 44 bd 12 e0 65 bd af 04 0d bc 26 48 d6 bd
       -0.048039988 -0.056121893 -0.008607074 -0.1046298
000330 03 b4 92 3d 7f 69 69 3d 3b fe 02 3d 9c 11 0a 3d
       0.07163241 0.056985375 0.031980734 0.0337082
000340 05 1c ee bd 14 fc 64 bd 19 00 c9 bd 35 84 bd bc
       -0.11626438 -0.055904463 -0.09814472 -0.02313433
000350 9d 79 5d bd c0 a1 f0 3d 9c b3 8a 3d 5e 79 c3 bd
       -0.054071058 0.11749601 0.06772539 -0.09544633
000360 41 70 2b bd 09 b6 df bd a7 53 39 3d be af 3c 3d
       -0.0418551 -0.10923392 0.045245793 0.04606604
000370 c5 0d 5d 3d 5a e5 ed 3c 84 1c 11 3d f9 60 aa bd
       0.05396821 0.029040027 0.035427585 -0.08319277
000380 ef 61 15 bd de da c4 3c d3 f0 c9 bd e4 df 32 3e
       -0.03647035 0.024030145 -0.09860387 0.1746822
000390 d5 a6 57 3d ec f7 49 bd d7 09 5c 3c 70 5b 8d bd
       0.052649338 -0.049308702 0.01343008 -0.06902206
0003a0 96 d1 8d 3c 45 72 b8 bc fd c0 cd 3b 1d 7c 95 3d
       0.017311852 -0.022515425 0.0062791095 0.07299063
0003b0 8b df a7 3d 9f 7e ef bb bd 42 db bd 97 7c 2b bd
       0.08196934 -0.0073087956 -0.10706089 -0.041866865
0003c0 ea 84 bc bd f7 3f 28 3c 47 3a cf bd 27 be 48 3d
       -0.09205039 0.010269157 -0.101185374 0.04900947
0003d0 c2 09 02 be 54 5c 00 3d 89 99 e2 3d 27 90 d1 3c
       -0.12699035 0.03133805 0.11064441 0.025581433
0003e0 b1 ec 37 3d d0 cf d4 bc e0 a3 49 3d 6d 45 04 3e
       0.04490346 -0.025977999 0.04922855 0.12917109
0003f0 62 b1 1b be 90 bc 34 bc c6 39 8a bd 58 6c e3 3d
       -0.15204385 -0.011031285 -0.06749301 0.11104649

actor.last.model.0.bias f4 [8]
000000 97 01 72 3d 88 a3 d8 bc 88 c9 a2 bd 28 ff c5 3d
       0.059083547 -0.026445165 -0.07948595 0.09667808
000010 4c e9 ae bd a7 c8 92 3d a6 63 6e 3d 53 f3 05 3b
       -0.085405916 0.07167178 0.0582005 0.0020439222

actor_old.preprocess.model.model.0.weight f4 [128, 28]
000000 37 33 21 3e 66 42 8d 3e 7c 30 84 bb f3 fa 29 3d
       0.15742193 0.2758972 -0.0040341 0.04149909
000010 37 32 c9 3d cf 0c 50 3e e8 dc 7a 3d 33 1d 5b 3e
       0.09824031 0.20317386 0.06124583 0.21397857
000020 c1 f3 b0 3c 37 95 c0 3d 11 e0 03 3c 2b a0 4c 3c
       0.021600606 0.094034605 0.008049027 0.012489359
000030 6b d3 48 be 40 43 0f be e2 9d bc bd 07 82 dd 3c
       -0.196119 -0.13990498 -0.09209801 0.027039541
000040 0b 2a a2 3c d2 0e ca 3d 39 9d f4 bb 2a 81 0e be
       0.019795438 0.09866108 -0.0074650315 -0.1391646
000050 40 9f b4 3d 66 5e 8d 3e 68 1e 98 3d 22 67 12 3e
       0.08819437 0.27611083 0.074276745 0.14297155
000060 90 47 84 3e b8 b2 66 be a0 bb ae 3e 0b 86 39 bd
       0.25835848 -0.22529113 0.34127522 -0.04529385
000070 1b 5b a2 bd 94 b6 1e 3d 19 b3 f2 bc 17 c5 75 3e
       -0.07927533 0.03874834 -0.029626416 0.24000965
000080 66 51 20 bd 5f 82 00 bd dc 62 0c be 38 7b 14 be
       -0.039140128 -0.03137433 -0.13709587 -0.14500129
000090 d5 b6 e3 bd 85 4f 8b 3e d0 20 19 3e b2 0d 0a 3e
       -0.11118857 0.27209106 0.14953923 0.13481787
0000a0 d5 e8 a9 3d 6a 65 15 be 8b 77 13 bd 6e f9 22 be
       0.08296362 -0.14589468 -0.036002677 -0.15915462
0000b0 0d 82 b3 bd 36 6e 31 3b c9 45 5b 3e 81 2d 78 3e
       -0.087650396 0.0027073747 0.2141334 0.24236108
0000c0 b6 9c 4c 3d 0d de be 3d a2 45 a4 3d c3 4f 33 3e
       0.04995414 0.093196966 0.08021094 0.17510895
0000d0 c0 c8 3b 3e f5 7d a7 bd 4b aa 70 3e f6 82 9f bd
       0.18338299 -0.08178321 0.23502462 -0.07788651
0000e0 f3 70 30 3e 01 a0 48 3c e3 8f 03 3d 08 60 54 3d
       0.17230587 0.012245179 0.032119643 0.051849395
0000f0 fb f3 7c 3e 0f 99 81 3e 52 c5 d7 3d 0e 04 6c 3e
       0.24702446 0.25312087 0.10535683 0.23048422
000100 66 66 24 3e c1 26 ae bc 5e 7d d9 3c 30 4e c9 3d
       0.16054687 -0.021258714 0.026549038 0.09829366
000110 3d bb c1 3d b4 e2 3f 3e f4 f2 0b be a9 c1 c3 bd
       0.09459541 0.18738824 -0.13666898 -0.09558422
000120 f6 a2 14 3e e0 b7 15 3e b3 45 16 3e 9e 6d ac 3e
       0.1451529 0.14620924 0.14675026 0.3367738
000130 d5 06 08 3e 8e 9a 68 be 8b ab 78 bd 87 b3 bf bd
       0.13283856 -0.22715208 -0.06071047 -0.09360414
000140 26 99 4a be cd 3c e0 3d 91 53 bb 3d 58 ad f1 bc
       -0.19784984 0.10949097 0.091467984 -0.029501602
000150 d1 52 ae 3d 3a 84 61 bb 1e 69 30 3a f4 6b 7b bd
       0.0851189 -0.0034411089 0.0006729531 -0.06138225
000160 4a dd dd 3d fa 69 9e bd a7 0f 9a 3d e3 17 9a 3d
       0.10833223 -0.07735057 0.07522517 0.07524087
000170 04 9b fc 3d fc e8 d8 3d f2 a4 7e be 36 eb 46 bd
       0.123342544 0.10591313 -0.24867609 -0.04856416
000180 4f ea d1 3d 6b 0d 8a bd bb a8 31 be bd d6 f7 bd
       0.10249769 -0.067408405 -0.17349522 -0.12101505
000190 45 02 f4 3d 0a 82 37 3e 56 fb ac 3c b9 15 b3 3a
       0.119144954 0.179207 0.02111594 0.001366309
0001a0 37 5f 30 be 6d 26 fc 3b 2a f3 ed bd 37 34 44 be
       -0.17223822 0.0076950104 -0.116186455 -0.19160543
0001b0 95 bd 80 3d 58 26 b1 bd eb b9 01 bc 75 12 12 3e
       0.0628616 -0.086498916 -0.007917861 0.14264853
0001c0 b1 8e 1c bd 4c cc 83 3e 31 03 4f 3e 93 b5 9d bd
       -0.03822202 0.25741804 0.20216061 -0.07700648
0001d0 4b 81 16 3d 50 20 db 3d ae ae 9c 3d 55 f2 7c 3d
       0.036744397 0.106995225 0.07650505 0.061754543
0001e0 8c 71 a7 3d 6f 7d a5 bb 2d 0c d9 bd aa 57 08 3e
       0.08175954 -0.0050503532 -0.105980255 0.13314691
0001f0 8f aa 55 be 73 31 12 be 9b a4 25 bd 91 b9 80 bd
       -0.20865844 -0.14276676 -0.040440183 -0.06285394
000200 81 93 89 bd db 56 19 be 0c 4c 0d 3d 37 0c 41 3d
       -0.06717587 -0.14974539 0.034496352 0.04713079
000210 9c 53 4f bd 63 2e d7 bc b5 6e fe 3d c6 79 b6 3b
       -0.050616845 -0.026267236 0.124234594 0.0055687157
000220 c4 0c 0e 3e 93 7e 26 be 4c 4c 4e 3e 1a f6 44 3e
       0.13872057 -0.16259222 0.20146292 0.19234505
000230 6d 30 3e 3e bb 41 03 3e 75 43 37 3e 89 49 fe ba
       0.1857316 0.12818043 0.17896827 -0.0019400577
000240 ad 51 2e be 0d 5b c0 bd 21 9c f5 3d e9 6a 07 bd
       -0.17023344 -0.093923666 0.1199267 -0.03306094
000250 95 18 b7 bd e4 2d 47 be ca 76 65 be 96 70 7f be
       -0.089402355 -0.194511 -0.22408596 -0.24945292
000260 33 9f 35 bd fd ae d0 3d aa d0 a3 3d db b8 cb bd
       -0.044341277 0.10189626 0.07998784 -0.09947368
000270 0f 06 1a 3e 6e a2 ad bd 7d 4b d7 3c a1 5f 28 be
       0.15041374 -0.08478247 0.026281113 -0.1644273
000280 6b 13 86 bd 93 81 a9 3c ce e7 cb bd 5a 6e eb bd
       -0.065466724 0.020691669 -0.099563226 -0.11495657
000290 fb ba 51 3c 1c a1 61 3b 64 d9 84 bd 31 25 97 3d
       0.012800927 0.0034428304 -0.064867765 0.073801406
0002a0 d4 94 fc bd bc 57 ac 3c 2b b1 5d 3e ef ae 1d bd
       -0.12333074 0.021037929 0.21649615 -0.038496908
0002b0 fb 3e 48 3e 36 16 e2 3d 71 9c b5 bd 98 d8 53 3e
       0.19555275 0.11039393 -0.088677295 0.20688093
0002c0 a9 86 38 bb af 94 bc bd 93 00 e6 3d 7d 54 24 be
       -0.0028156436 -0.09208047 0.11230578 -0.16047855
0002d0 15 ef 0a 3b 27 7c 3a bc 97 c3 b0 3d e7 29 f1 3c
       0.0021199633 -0.011382139 0.08631056 0.029438926
0002e0 c6 87 07 3e d0 00 c2 3d 4b ce 94 bd 7e cd b8 bd
       0.13235387 0.09472811 -0.0726591 -0.090235695
0002f0 5a ee 81 be ec 6e 07 3e 56 09 33 3e a5 1d 11 3e
       -0.2537716 0.13225907 0.1748403 0.14171465
000300 37 25 15 be 79 ea 0a 3e 0f 6a 54 be 97 a8 52 bd
       -0.14564978 0.13566007 -0.20743583 -0.05143031
000310 0f 08 6f bd c6 d9 08 3e 10 e0 85 bd 72 bb 84 3d
       -0.058357295 0.13364324 -0.06536877 0.06481065
000320 51 03 af 3d dc 41 27 3e 89 1b 2d be df 2e ee bd
       0.085455544 0.16333717 -0.16905035 -0.11630034
000330 43 72 cf bd f1 36 31 3e 08 6e 0a be 95 c8 36 3e
       -0.101292156 0.17306115 -0.13518536 0.17849953
000340 fb 8e ad 3d 30 c7 b2 bc 7e c6 97 3c 27 c1 9c bd
       0.08474537 -0.021823496 0.018527266 -0.076540284
000350 ad 71 1f 3d 20 b9 98 3c 1d 0e ce 3d e5 60 18 3d
       0.03892677 0.018642962 0.10061286 0.03720178
000360 50 01 de bd 88 72 4e 3c bf 52 2f 3e 12 82 71 be
       -0.10840094 0.012600549 0.17121409 -0.23584774
000370 c3 52 14 3e 60 32 a5 3d 27 9f 83 3e dc 45 26 3d
       0.14484696 0.08066249 0.2570736 0.040593967
000380 b3 3d b1 bd e1 64 32 3e ba 18 89 bd e3 34 8c 3c
       -0.08654346 0.17421295 -0.06694169 0.017115062
000390 5b ce 9d 3c f9 79 32 3d 20 f8 f0 3c 8a db 40 3e
       0.019263437 0.043573353 0.02941519 0.18833748
0003a0 3a a2 fb 3c 56 fb 52 3e 01 9d 27 3e b4 c1 85 bd
       0.030717004 0.2060369 0.16368486 -0.065310866
0003b0 ba e2 f6 3d ab 5f 56 be 08 d4 ec bd c8 01 78 3d
       0.120549634 -0.20934932 -0.11563879 0.060548574
0003c0 f9 cf 15 3c 82 b6 12 3e cf a9 38 3d 28 6d 94 3d
       0.009143823 0.14327434 0.045083817 0.072473824
0003d0 d5 71 0b 3e d6 a9 d7 bd cd 31 22 3e 2b 3c 11 be
       0.13617642 -0.105304405 0.1583931 -0.14183109
0003e0 e3 fa 1c 3e 69 67 3d be 4a 27 4f bc 35 7c aa 3d
       0.1533008 -0.18496479 -0.012643645 0.08324472
0003f0 bf 1a 3e 3e 51 59 e2 bc 15 ee ba bd 8a 79 57 bd
       0.1856489 -0.02763048 -0.09127442 -0.052606143

actor_old.preprocess.model.model.0.bias f4 [128]
000000 7f 8f 6b bc f0 4b 00 be c1 c6 4b 3e 90 d5 1d be
       -0.014377474 -0.12528968 0.19900037 -0.15413499
000010 45 42 1a 3e bf d1 2d bd ea ee f1 3d 01 e3 16 bc
       0.15064342 -0.042436358 0.11813147 -0.009209395
000020 d0 f5 fe 3d 65 f3 92 3c 90 fe bb 3d 69 2d 3a 3d
       0.12449229 0.017938325 0.09179413 0.045453463
000030 2a 95 9b bd 1b da 66 3c f7 e9 af bd 28 bd 7e bd
       -0.0759681 0.014090086 -0.08589547 -0.062192112
000040 7c 68 26 be d2 93 09 3c 19 41 f5 bd 5a 33 38 3e
       -0.16250795 0.0083970595 -0.11975307 0.17988339
000050 ad 5c d3 3d c5 89 df 3d 47 32 3f 3e 53 18 42 3e
       0.10320411 0.10914949 0.18671523 0.18954591
000060 3d 3b fc bd 8f 29 0c 3d de a3 5c 3d 83 3d 8a bd
       -0.12315986 0.03421932 0.053867213 -0.06750014
000070 eb a5 56 3e 73 b2 99 3b 52 60 3d bd b1 86 a0 3d
       0.2096173 0.0046904623 -0.046234436 0.0783819
000080 ae 4d a8 bd 01 4d fd 3d bd 45 e9 3d d6 db 43 3e
       -0.08217941 0.12368203 0.11390255 0.1912683
000090 9f 02 df 3c e3 56 a4 3d 86 9b 1f 3c df 16 32 be
       0.02722293 0.08024385 0.0097416695 -0.17391537
0000a0 b4 3e 20 3e 24 40 21 be d8 7c 00 bd 56 c6 a7 3c
       0.1564892 -0.15747124 -0.03136906 0.020480316
0000b0 8c d3 fb bd de d0 9e 3d c3 91 10 3e 2d 3a 73 3d
       -0.12296209 0.07754682 0.14118104 0.059381653
0000c0 be 79 36 3e db fd 1f 3d 7b b5 8d 3d a6 77 9d bd
       0.17819878 0.039060455 0.0691938 -0.07688837
0000d0 a3 52 99 bd 4c 64 c2 3c 88 3b 85 bd cf 14 bd bd
       -0.07486465 0.023729466 -0.06505495 -0.092324845
0000e0 ec 16 21 3d c1 e6 5f 3b 2a b7 e3 bd 9e b8 49 3e
       0.0393285 0.003416464 -0.1111892 0.19699332
0000f0 45 96 30 3e 12 d2 d2 bd b7 74 1e 3e fa 30 6a bd
       0.17244823 -0.10293974 0.1547421 -0.057175614
000100 d0 3f de 3c a7 b3 81 3e 3a 73 8b 3d a0 62 21 be
       0.027130038 0.25332376 0.06809087 -0.15760279
000110 7a 60 43 3e fc 57 fa 3c cb 64 b8 bd 55 71 97 bd
       0.19079772 0.030559532 -0.090036 -0.07394663
000120 80 ea 37 3e 68 93 66 3d ea 81 20 3e 39 06 29 3e
       0.17960548 0.05629292 0.15674558 0.1650628
000130 61 aa ce bc e9 51 82 3d a7 b3 5d bd 8b c9 2e 3e
       -0.025227727 0.06363279 -0.054126408 0.1706907
000140 1e 63 48 bd 27 a7 45 3e 0b d3 37 3d 85 75 f0 3d
       -0.04892265 0.19302045 0.044879 0.11741165
000150 a3 2c 51 bd ff fb 98 3c 54 7d f7 3d 83 72 9e 3d
       -0.05106796 0.018674849 0.12084451 0.07736685
000160 eb 25 98 3c d6 84 24 3e 7d 8a 36 be 7d 84 88 bd
       0.018572768 0.16066298 -0.17826267 -0.06665895
000170 17 54 22 3d 5f 88 d0 3d b5 17 29 3e 05 c4 ba 3c
       0.039630976 0.10182261 0.1651295 0.022798548
000180 14 bd 9b 3d bc ac 9f bd 61 98 15 bc a1 2a 00 bc
       0.07604423 -0.07796618 -0.009130568 -0.0078226635
000190 e4 d4 63 3e 2d 04 1d 3d c7 34 0e 3e 02 a2 23 3e
       0.2224918 0.03833406 0.1388732 0.1597977
0001a0 ed 4a 12 3e fa 9c 20 3d 1f c0 26 3c e6 eb ef bd
       0.14286394 0.039212205 0.010177641 -0.11714916
0001b0 55 59 65 3d ed 09 f7 3c 90 f1 0b be 85 78 30 3e
       0.055993397 0.0301561 -0.13666368 0.17233475
0001c0 31 14 37 bd 1f 70 6d 3d e0 19 0a be 25 e4 33 be
       -0.04469699 0.057968255 -0.13486433 -0.17567499
0001d0 1f a9 8c 3d 38 67 04 bc 0d 49 5f bd e4 74 fe bc
       0.06868195 -0.00808125 -0.054513026 -0.031061597
0001e0 88 6b 1d 3e 65 80 10 3d a9 10 26 3e 03 a6 62 3e
       0.15373051 0.035278697 0.16217293 0.22133641
0001f0 0e 9f c5 bd e2 6f 85 3e 4e d4 a3 bc 5b f2 fb 3d
       -0.09649478 0.26061922 -0.019998696 0.12302085

actor_old.preprocess.model.model.2.weight f4 [128, 128]
000000 90 33 93 3c a0 3c 19 be 7c 85 80 3d ef d1 d2 3c
       0.017968923 -0.14964533 0.0627546 0.02573487
000010 2b 10 47 bd 58 bd a9 3d 54 91 8c bd 5b 23 ab bd
       -0.048599403 0.082880676 -0.06863657 -0.08356353
000020 c4 37 aa 3d 54 88 93 3d d3 4d 1b 3c cc 04 df bc
       0.08311418 0.07203737 0.009479004 -0.027223967
000030 4b 92 85 bd 73 ef 9a bd 1f d0 40 bd 50 96 db 3c
       -0.06522044 -0.075652026 -0.04707348 0.026805073
000040 7a 46 ba 3c a0 3f f4 bc 1e 4f 9e 3d c7 53 72 3d
       0.022738684 -0.029815495 0.07729934 0.059161928
000050 ac c3 b4 bb 24 9a 02 bd 84 03 44 3c 4e 48 e2 3c
       -0.00551649 -0.03188528 0.011963729 0.027622368
000060 2d db 43 3c 19 c9 a2 3c 99 4d aa 3d e0 cc 1b bd
       0.011954111 0.019871281 0.08315582 -0.03803718
000070 90 29 24 3c 86 c6 3a 3d 44 0d c1 3b 38 8f 85 3d
       0.010019675 0.045599483 0.005891474 0.065214574
000080 67 9d a7 bb 6d d4 ab bd 29 f4 14 3c 41 5b b8 bd
       -0.0051151994 -0.083901264 0.009091415 -0.0900178
000090 cf 3f 09 3d d3 43 b3 bd 26 b0 41 3d cb 6f 00 3d
       0.03350812 -0.08753171 0.04728713 0.031356614
0000a0 b8 f3 e7 b9 fc c4 24 3e 58 e9 63 bc e5 72 c8 3c
       -0.00044241338 0.16090769 -0.013910614 0.024468848
0000b0 00 5e 52 3d a0 5d 04 3d fb 26 b1 bc db e7 6c bd
       0.051359177 0.03231585 -0.021625033 -0.057838302
0000c0 46 7d 80 bc 1e 36 87 3d 2a 56 0a 3e 95 4d 9f 3d
       -0.015684735 0.06602119 0.13509431 0.077784695
0000d0 ae 75 7d 3d da ae 52 bd 24 d6 84 bc a7 e6 03 bd
       0.061879806 -0.051436283 -0.016215391 -0.03220239
0000e0 c3 49 f4 3d 11 f5 41 bc 1c 72 b6 bc aa 08 a6 3b
       0.119281314 -0.011838214 -0.022271208 0.005066951
0000f0 e5 61 f9 bd 0a a1 9c bd 7b f3 c5 3d d2 ea a4 ba
       -0.12176875 -0.07647903 0.09665581 -0.0012582189
000100 06 3e 5f bd c7 a0 b0 bc a0 31 0a 3c 92 4d b0 bc
       -0.05450251 -0.02156104 0.008434683 -0.021521363
000110 ab 94 51 bd 9b 42 48 3d 53 f8 d0 bb f1 64 c7 3d
       -0.05116717 0.048891645 -0.006377259 0.0973605
000120 a4 8c 8b bd 90 8b 28 3c e0 31 c4 bb 50 6a 7c bd
       -0.068139344 0.010287181 -0.005987391 -0.061624825
000130 50 f7 a2 3d 6d 9f 7e 3d a0 2e 8a 3d 8e fa b7 bd
       0.07957327 0.06216376 0.06747174 -0.089833364
000140 d9 ea e4 3d ec 0d be 3d a2 9c 2b bd 24 2a d5 3c
       0.11177606 0.09279999 -0.041897424 0.02602107
000150 53 6a e1 3d bf 19 dc 3c fd d9 8c bd 7e e6 18 3d
       0.11006608 0.026867745 -0.068775155 0.03732919
000160 6a 96 3c bc e8 cb 26 3d fe 5f 2e be 62 9b 36 bd
       -0.011510471 0.040721804 -0.17028806 -0.04458178
000170 66 35 8b bd 7f 81 3b 3d a6 99 c9 3b 08 60 fa 3d
       -0.06797294 0.045777794 0.0061523495 0.12225348
000180 b9 b7 96 3d ab 7e 62 3d c1 01 08 bd 4b cb 51 bc
       0.07359261 0.05529658 -0.033204798 -0.0128048165
000190 af a8 82 bd b1 6c 45 bc 06 26 a3 3d fa 6e 13 bc
       -0.0637983 -0.01204984 0.07966237 -0.008998627
0001a0 52 42 8a bd fe 36 dd bd 2a 18 33 bc ae 0a f1 bc
       -0.06750931 -0.108015046 -0.010931054 -0.029424038
0001b0 ca 7f b2 bc 09 24 86 3d 2f 8e 4d bd e2 ec 64 3d
       -0.02178945 0.06549842 -0.050184425 0.05588997
0001c0 87 e2 5a bb cb 46 dd bd 82 f6 b7 bd ef 2a 57 3d
       -0.003339918 -0.10804518 -0.089825645 0.05253118
0001d0 78 80 0c bd dc e7 74 3d 63 a9 e3 3c 5d a4 4d 3c
       -0.034302205 0.05979143 0.02779073 0.012551394
0001e0 c0 4f 80 bd 85 61 ab 3d e8 e7 b9 bc 88 ec f8 bd
       -0.06265211 0.0836821 -0.02269359 -0.1215449
0001f0 5a 95 e1 3c 8e f9 8f 3c 93 3c c5 bd 90 55 13 3d
       0.027537037 0.017575052 -0.09630694 0.03597027
000200 79 fa 88 bd f1 92 07 bc 6f bd 80 3b 6c d6 ab 3d
       -0.06688399 -0.00827478 0.0039288322 0.08390507
000210 b3 dc 5e 3d 99 c2 30 3b 8a 76 d7 bc 66 5a f0 3d
       0.054409694 0.0026971458 -0.026301641 0.11735992
000220 86 fd 1b 3c cc 8a 28 3d 72 00 2b 3d e6 ab 3b 3d
       0.009520894 0.041147992 0.04174847 0.045818232
000230 74 c2 0e 3d e8 90 8d 3d 96 4e 8a 3d 1a 15 04 3c
       0.034853414 0.06912404 0.0675327 0.008061672
000240 fd c7 33 3d ae 41 94 bc 57 57 25 3d 09 18 90 bc
       0.043891896 -0.018097725 0.040366497 -0.017589586
000250 8a b7 40 3d f9 55 07 3b 43 cf 80 bd 32 97 4b 3a
       0.047050036 0.002065061 -0.06289532 0.00077663653
000260 4f e5 26 3d fb 13 93 3d 4c 59 88 3c f8 4a 25 3d
       0.04074603 0.07181545 0.016644143 0.0403547
000270 de 7c cd 3d 0d 1b 79 bc 8c b1 c0 3d 02 d6 54 3d
       0.10033582 -0.015204203 0.094088644 0.051961906
000280 9f 0f a4 3d 76 41 ec 3d de ea b1 bd 0d 36 c4 3d
       0.08010792 0.11535923 -0.086873755 0.09580622
000290 9b ac e5 3d d8 a4 b6 bd 2e be c5 bc 21 26 0f bd
       0.112145625 -0.0891816 -0.024138536 -0.034948472
0002a0 8d 35 c4 bb 0e 20 da bc 53 16 47 3d 3e 46 3e bd
       -0.005987829 -0.026626613 0.048605274 -0.046453707
0002b0 1b 38 ab bd 17 12 5d 3d ce 2b 69 3d e6 23 bf 39
       -0.08360311 0.05397233 0.05692654 0.00036457105
0002c0 c3 0f a4 3d 2d 2c da 3d ca de 59 bc f7 6e 41 3c
       0.08010819 0.10652957 -0.013297746 0.011806241
0002d0 d8 f6 20 3c 9e 65 4f 3b 75 94 1a bd cb bb c5 bc
       0.009824477 0.0031646262 -0.037739236 -0.024137398
0002e0 c2 58 06 bd ec 15 41 3d da fc 1b bd 52 a8 eb bc
       -0.03279949 0.047140047 -0.038082935 -0.028766785
0002f0 79 f3 c8 3d 6f 4b f5 3c 70 7c 98 3d 6a 33 a4 3d
       0.09812064 0.029943196 0.074456096 0.08017619
000300 fa 8d c1 bb 6a cd 7c 3c 2c c0 a3 3d 46 a1 9d bd
       -0.0059068175 0.015429834 0.07995638 -0.07696776
000310 2e 4a 2b bc 6c 7c f9 3c 60 d3 40 bc a4 8f 2c 3d
       -0.010454698 0.030454837 -0.011769146 0.042129174
000320 c8 43 6c 3d 16 4d 54 bd 7e 0c 00 3d 89 17 b0 3d
       0.05768183 -0.051831327 0.031261913 0.08598239
000330 ba 9e 95 bd dd f0 d8 bc a6 bc f4 bc 88 c1 c1 3d
       -0.07305665 -0.02648204 -0.02987511 0.09460741
000340 3b e5 87 bd c6 33 71 bc 35 e2 99 3d d0 2d 7e bc
       -0.06635519 -0.014721816 0.07513849 -0.015513852
000350 26 71 43 3d a7 92 60 bd d5 64 d3 3c 01 a5 ef 3c
       0.04771533 -0.05482736 0.025804916 0.029253485
000360 66 fa 0b bc 8b 5e 9b 3d 59 97 ab 3d 2c 81 67 bd
       -0.008543586 0.07586392 0.08378477 -0.056519672
000370 08 5f b3 3d 5b 6c 57 3c 26 93 85 bc ef 8b 79 bd
       0.0875836 0.013148393 -0.016305517 -0.060924467
000380 52 56 53 3d d7 d7 29 3d ab 44 ae bd ca ef 80 bd
       0.051595993 0.041465607 -0.08509191 -0.06295736
000390 bd b3 e1 bd 50 da 0e 3d d9 0f 66 bb 64 a8 97 bb
       -0.110206105 0.034876168 -0.003510466 -0.004628228
0003a0 6b 42 ea 3d 42 65 10 3c 59 7e 02 bd 6b c5 bf 3c
       0.114384495 0.008813204 -0.031858776 0.023409566
0003b0 3c bd b4 bc 0b ad aa bc e4 2b 8f 3d 3a d6 04 3d
       -0.02206289 -0.020834466 0.06990793 0.032430865
0003c0 a8 87 1b bd 2d 7c c2 3d 71 a7 8b 3d 89 cb 30 bd
       -0.03797117 0.09496341 0.06819046 -0.043162856
0003d0 ef 9b 78 3d c5 b1 bf 3d 53 5b 60 bd bc e6 4a bd
       0.060695585 0.09360079 -0.054774594 -0.04953645
0003e0 4e eb 8b bd 89 72 92 3d a5 4f 79 3c 97 06 80 3d
       -0.0683199 0.07150752 0.015216743 0.06251257
0003f0 2b 78 fe 3c e0 47 f6 3d 23 bb 5a bc 3b cb c9 bd
       0.03106316 0.12025428 -0.013350281 -0.09853216

actor_old.preprocess.model.model.2.bias f4 [128]
000000 ed 45 cc 3c 94 71 a6 3d 7e 29 7a bd eb b5 c7 bc
       0.024935687 0.08127132 -0.061074726 -0.024378737
000010 8c 38 a3 bb 37 74 08 3d 31 d4 6f 3d 12 b4 d3 bc
       -0.004981106 0.033313956 0.05855197 -0.0258427
000020 6f 49 bf 3d d0 5d 79 3d 85 9a 23 bd e3 5d 90 bd
       0.09340178 0.060880482 -0.039942283 -0.070491575
000030 c1 91 a7 3c f3 6e 95 3c a1 da 37 bd 67 82 06 3d
       0.020455243 0.018241381 -0.044886235 0.032839205
000040 ad 3d 89 3d c5 2c 7c 3d b9 33 75 3b 8d b0 90 bc
       0.06701217 0.061566133 0.0037414862 -0.017662311
000050 02 4b 11 3d e9 85 ab bc 81 78 a1 bd bb 76 23 bc
       0.035471924 -0.020937877 -0.078843124 -0.009977038
000060 16 d7 f5 3c 3a 34 f0 3c b5 83 c6 3d 42 e9 d3 3b
       0.030009788 0.029321779 0.0969309 0.0064670155
000070 77 b9 01 bd 73 dd 6b 3c 35 5a 0f 3d 67 53 cb 3d
       -0.031671014 0.014396059 0.034998138 0.09928017
000080 bf db 93 3d 5a 7a b4 bd 82 94 9f 3d 71 ab b0 3d
       0.072196476 -0.08812399 0.077919975 0.0862645
000090 47 c8 ca bc 76 14 68 3d 98 87 cc bb 6e 78 94 bc
       -0.024753703 0.056660138 -0.00624175 -0.018123832
0000a0 f4 5d 13 bd c9 8e 3c 3d 55 7e d2 3d d3 67 cb 3d
       -0.035978273 0.046034608 0.10278002 0.09931912
0000b0 fb 18 43 3d 60 40 ea 3c 51 9e 60 3d df 39 87 3d
       0.047631245 0.02859515 0.054838482 0.06602835
0000c0 4c f3 9c 3c 73 3e 8a bb 43 3e 11 bd 7c dd 81 3d
       0.019158982 -0.0042188703 -0.035459768 0.06341073
0000d0 25 2e 83 bd 23 17 8c 3c 90 96 81 bd 5a 44 e9 3d
       -0.06405286 0.017100876 -0.06327546 0.1138999
0000e0 cf 6a 7e bd 3a 24 8a bd 41 91 3d bb d3 3b 55 bc
       -0.06211358 -0.06745191 -0.002892569 -0.0130147515
0000f0 ae 10 b5 bc 4f 17 3a bd 70 12 1d 3c ae 1a 4d bd
       -0.02210268 -0.045432385 0.009586915 -0.05007427
000100 ff 4a 89 bd 63 cf 62 bd 0d 39 ba 3d 5d b1 e5 3c
       -0.067037575 -0.05537356 0.09092913 0.028038675
000110 87 a9 de 3d 9d 55 9f 3c d3 99 12 3c e0 9d 97 bc
       0.108721785 0.019450003 0.008947807 -0.018507898
000120 1c 65 48 bd 55 95 e0 3d 2a 0e 9b 3d f1 9f d0 bc
       -0.04892455 0.10965983 0.07571061 -0.025466891
000130 63 e4 aa 3c bf 20 4a 3d a1 5c 15 bd b8 dc b0 bd
       0.020860856 0.049347635 -0.03646529 -0.08635849
000140 29 de 1a bd eb 06 a5 bd 5a 81 bf 3d 13 fc f8 bc
       -0.037809525 -0.0805796 0.09350844 -0.030393636
000150 73 e1 8e 3a 2a 47 08 3d e5 21 50 bd d4 51 b6 3d
       0.0010900929 0.033270992 -0.050813574 0.08902326
000160 b9 e4 89 bd ff 74 b8 3d 74 97 1b bd 8f 0a f6 3c
       -0.067330785 0.0900669 -0.037986234 0.030034332
000170 9a fe 54 3c 39 aa a1 bd 13 54 86 3d 5a da 2c 3d
       0.013000155 -0.078937955 0.06559005 0.042200424
000180 30 b8 e7 3c 25 80 3d 3d 36 36 32 bc 4a 78 88 3c
       0.02828607 0.046264786 -0.010877183 0.01665892
000190 26 10 4c 3d b2 f6 b1 3d 7b 14 b5 bd 8d ee 15 3b
       0.049820088 0.086896315 -0.08841797 0.0022877783
0001a0 86 b9 84 3d ec 79 55 bd 3c b4 bf bd fc 37 8d 3d
       0.06480698 -0.052118227 -0.09360549 0.06895444
0001b0 48 37 30 3d b4 83 87 bc c3 43 db bc 48 d9 ab 3c
       0.04302147 -0.016542293 -0.02676571 0.020977631
0001c0 86 ed 00 3d 5a 21 a9 3d 3c 01 8b bb ca 1d e9 3c
       0.03147652 0.082583144 -0.0042420905 0.028456587
0001d0 92 4a 69 3d 9f 0e 4d 3d d9 65 8c bc d6 ca 28 3d
       0.05695588 0.050062772 -0.017138408 0.041209064
0001e0 70 62 5a bc 63 34 2f bd 18 44 b4 bc 4c 3c ac ba
       -0.013329133 -0.04277457 -0.022005126 -0.0013140528
0001f0 50 28 fc 3c 02 0e c7 3c 48 5e c9 3d 31 2f 0f 3d
       0.030780941 0.024298672 0.09832436 0.034957115
