demo/base/ppo/test/ppo.pt (torch, 11599 bytes, 7 tensors)

fc1.weight f4 [128, 6]
0	0x3ebdd189	0.37073925
1	0x3f22a6df	0.63535875
2	0xbef3181f	-0.4747934
3	0xbf17a521	-0.5923634
4	0x3c561f9d	0.013069061
5	0xbcaf0c5c	-0.021368198
6	0xbe91d9d8	-0.28486514
7	0x3e8dbcec	0.27683198
8	0xbe23fb21	-0.16013767
9	0x3db2661a	0.087108806
10	0xbe2951ae	-0.16535065
11	0xbd9fee3a	-0.0780911
12	0xbe1c0875	-0.15237601
13	0x3c0ee85a	0.008722389
14	0x3d4fd77d	0.050742615
15	0xbe1b2c44	-0.15153605
16	0xbe47d9ff	-0.19516753
17	0x3eb57b86	0.35445803
18	0xbec9821e	-0.39357084
19	0xbda42cc5	-0.080163516
20	0x3e55c753	0.20876817
21	0x3dd27844	0.10276845
22	0xbdb350eb	-0.08755668
23	0x3ea3a2c0	0.31960106
24	0xbdee7b72	-0.11644639
25	0xbe0f7e06	-0.14012918
26	0x3ea350fd	0.31897727
27	0xbe31dea8	-0.17370093
28	0xbe7d4199	-0.24732055
29	0xbe9abc1a	-0.30221635
30	0xbec09dd7	-0.37620422
31	0xbd99df13	-0.07513251
32	0xbe75e0e5	-0.24011572
33	0x3d44344e	0.047901444
34	0xbea9db34	-0.3317505
35	0xbe9fd22d	-0.3121504
36	0xbf1eb724	-0.619982
37	0x3e0acc35	0.13554461
38	0xbd3c5e4d	-0.04598837
39	0x3e971509	0.29508236
40	0xbdc27bd6	-0.09496276
41	0xbe90e7b2	-0.2830177
42	0xbc881c35	-0.016615013
43	0xbea83233	-0.328508
44	0xbeb8ff38	-0.36132216
45	0xbe8fdacc	-0.28096616
46	0x3e97ba67	0.296344
47	0x3e80606c	0.25073564
48	0xbebc8d62	-0.36826617
49	0xbe231439	-0.15925683
50	0x3e1408d9	0.144565
51	0x3ece0df0	0.40245008
52	0x3ea21362	0.31655413
53	0x3c30aa71	0.010782824
54	0x3d014007	0.0315552
55	0xbec3fb85	-0.38277832
56	0xbe5a7da6	-0.21336994
57	0xbd644564	-0.05573024
58	0xbe8d570d	-0.27605477
59	0xbf00fd13	-0.5038616
60	0x3e393093	0.18084936
61	0x3eb51abc	0.3537196
62	0xbe747614	-0.23873168
63	0xbe1b123a	-0.15143672
64	0x3e08ab10	0.13346505
65	0x3de2d293	0.1107532
66	0xbe80a764	-0.2512771
67	0x3ecac103	0.3960038
68	0x3d834848	0.06410271
69	0x3ea0e113	0.31421718
70	0xbe82308a	-0.25427657
71	0xbeb4f461	-0.35342696
72	0x3e32f2d6	0.17475447
73	0x3e1edad6	0.15513167
74	0x3f0b337f	0.5437545
75	0x3f061371	0.52373415
76	0x3cbeb498	0.023279473
77	0xbea3ec8e	-0.32016414
78	0xbe81f833	-0.25384673
79	0xbe5d27a5	-0.21597154
80	0xbf27e63d	-0.6558569
81	0x3f0d5ea8	0.5522256
82	0x3ebd7f5f	0.3701124
83	0xbe6b8cca	-0.23002926
84	0x3ddbee50	0.10738814
85	0xbeb57295	-0.35438982
86	0xbd96e84d	-0.073685266
87	0x3e176da8	0.14787924
88	0x3e238347	0.15968047
89	0xbeb75857	-0.35809585
90	0xbe222458	-0.15834177
91	0x3d927d9c	0.07152864
92	0x3d57b16d	0.05265944
93	0x3eaf7bea	0.34274226
94	0xbedbb99a	-0.4291504
95	0xbed11573	-0.40836677
96	0x3e062b3d	0.13102432
97	0x3d117d03	0.03551961
98	0xbeb13c21	-0.34616187
99	0xbe488498	-0.1958183
100	0x3ee53db2	0.44773632
101	0x3e78f1d0	0.24310994
102	0xbe90d763	-0.28289327
103	0x3e0713ab	0.13191096
104	0xbed271f4	-0.41102564
105	0xbd728a29	-0.05921379
106	0xbef2d687	-0.47429296
107	0xbeb53bc9	-0.35397175
108	0x3e7bf6d1	0.24605872
109	0x3e858a54	0.26082098
110	0x3d455385	0.048175354
111	0x3da6013d	0.08105705
112	0xbeab2a3a	-0.33430654
113	0x3ec0277d	0.37530127
114	0x3eeddc63	0.46457204
115	0xbe930b6f	-0.2871966
116	0x3de827d5	0.11335722
117	0x3dabcc99	0.08388633
118	0xbe4eeeeb	-0.20208327
119	0x3e6766b4	0.22597772
120	0xbcfa4742	-0.030551556
121	0x3ea940dd	0.330573
122	0xbea44437	-0.32083294
123	0x3e1888d0	0.1489594
124	0xbea48c3c	-0.3213824
125	0xbe823a45	-0.2543508
126	0x3eaabfa1	0.33349326
127	0x3e4442c8	0.191661
128	0xbd63ea00	-0.05564308
129	0xbf1b9c9e	-0.60785854
130	0xbd0d2cae	-0.034466438
131	0x3d08a509	0.033360515
132	0xbe82d4fe	-0.25553125
133	0xbdac49da	-0.084125236
134	0x3f06ceab	0.526591
135	0x3e207fbb	0.15673725
136	0x3e14aa70	0.14518142
137	0xbdef224f	-0.11676466
138	0xbe036797	-0.12832485
139	0x3e300885	0.1719075
140	0x3eaeab94	0.3411528
141	0x3e5f52d3	0.21808939
142	0x3ecc1ba4	0.39864838
143	0x3dfb57a7	0.12272578
144	0xbe8856a5	-0.26628605
145	0xbefe72ff	-0.4969711
146	0x3e424c79	0.18974485
147	0x3dc8a95b	0.09797927
148	0xbd9cb331	-0.076513655
149	0xbf0fe931	-0.56215197
150	0xbf2b20fc	-0.66847205
151	0xbec72dcc	-0.38902128
152	0xbeb43ef1	-0.3520427
153	0x3e7bddfd	0.245964
154	0x3e5e1161	0.21686317
155	0xbe924ddc	-0.28575027
156	0x3ea73aae	0.32661957
157	0xbf062296	-0.52396524
158	0xbe420427	-0.18946896
159	0x3d8d7798	0.06907576
160	0x3e2f49b9	0.17117967
161	0xbe9d2dc3	-0.30698976
162	0xbe8f3946	-0.27973384
163	0xbe24ccc5	-0.16093738
164	0xbdb1b5ff	-0.08677291
165	0xbe2b6543	-0.16737847
166	0xbeb21c27	-0.34787104
167	0x3dd609a8	0.104510605
168	0xbefd6bea	-0.49496394
169	0xbe87d542	-0.2652989
170	0x3ddd3b92	0.10802378
171	0xbd5f73e2	-0.054553874
172	0x3f020233	0.50784606
173	0x3e59c1cf	0.21265338
174	0xbe992415	-0.2991034
175	0x3f16de30	0.5893278
176	0xbd685ebd	-0.056730974
177	0xbee6958e	-0.45035976
178	0x3e2f454d	0.1711628
179	0xbe030181	-0.12793542
180	0xbd7b553c	-0.061360583
181	0x3cad0ddb	0.02112477
182	0x3eeec46f	0.46634242
183	0x3afe3a90	0.0019396115
184	0xbc84af0a	-0.016196746
185	0x3e854901	0.2603226
186	0xbdac8ce0	-0.08425307
187	0xbd8789aa	-0.06618054
188	0xbd1b2a3c	-0.037882075
189	0x3ca8d336	0.020608526
190	0x3e59a94f	0.21255992
191	0x3ee49183	0.44642267
192	0xbe4c220a	-0.1993486
193	0xbcf43cd1	-0.029814156
194	0xbe77b44f	-0.24189876
195	0xbe51b170	-0.20477843
196	0xbe33145d	-0.17488237
197	0x3e04f7c1	0.12985136
198	0xbf17d100	-0.59303284
199	0x3dcc3749	0.09971482
200	0xbdad3c0a	-0.08458717
201	0x3eade54f	0.3396401
202	0xbec03335	-0.37539068
203	0xbedb5ac4	-0.42842686
204	0xbebbadac	-0.3665594
205	0x3e943f07	0.28954336
206	0xbe134a7b	-0.14383881
207	0x3e99d810	0.30047655
208	0x3e498314	0.19678909
209	0x3d24b7af	0.040214237
210	0x3e18fe60	0.14940786
211	0xbe14e73e	-0.14541337
212	0x3e88b1ab	0.2669805
213	0x3d9447f6	0.07240288
214	0xbe33e368	-0.17567217
215	0x3e723bec	0.23655671
216	0xbe0b059c	-0.13576359
217	0x3d97596c	0.07390103
218	0x3f1dce67	0.6164307
219	0xbef1eb1f	-0.47249696
220	0xbe00d07f	-0.12579535
221	0x3f07a360	0.52983665
222	0xbdcb43b7	-0.09925025
223	0xbda07af7	-0.07835954
224	0xbf0c139e	-0.54717433
225	0x3ea627a1	0.3245211
226	0xbe0055ac	-0.12532681
227	0xbe5431d1	-0.20722128
228	0xbe9eeaa8	-0.31038404
229	0xbce0922e	-0.027413454
230	0x3a0ea049	0.00054407545
231	0x3e910fa6	0.2833225
232	0x3dbc3f4c	0.091917604
233	0x3e757285	0.23969467
234	0x3e9b4601	0.30326846
235	0xbe7126bb	-0.23549931
236	0x3e05c79f	0.1306443
237	0xbea57e01	-0.32322696
238	0xbdd9e6b7	-0.106397085
239	0xbd1a93a8	-0.037738472
240	0x3df779d2	0.12083782
241	0x3cd357ab	0.02579864
242	0xbe2f748c	-0.17134303
243	0x3e916fea	0.28405696
244	0x3e15ab38	0.14616096
245	0xbf001669	-0.50034195
246	0x3ee572ae	0.44814056
247	0xbe84cf1a	-0.25939256
248	0x3e9a20cf	0.30103156
249	0xbcc976f1	-0.024592848
250	0xbe96c43e	-0.29446596
251	0x3e87ac65	0.26498714
252	0x3f04b4cb	0.5183837
253	0xbe023125	-0.1271406
254	0xbc177d53	-0.009246188
255	0xbe4f39f3	-0.2023695

fc1.bias f4 [128]
0	0xbdce8fa6	-0.100859925
1	0xbe3028db	-0.17203085
2	0x3d8ac3f9	0.0677566
3	0xbeacfbd8	-0.33785892
4	0x3e85ddb7	0.26145718
5	0x3e209ddf	0.15685223
6	0x3e60f0f5	0.21966918
7	0xbeba9fd5	-0.36450067
8	0x3ebde9f0	0.37092543
9	0xbd160785	-0.036628265
10	0x3eb7a646	0.35869044
11	0xbeb1edc0	-0.347517
12	0xbefea46b	-0.49734816
13	0x3ecc97e9	0.39959648
14	0x3d6b9e43	0.057523977
15	0xbb9f18f1	-0.004855268
16	0xbe62c3f8	-0.22145069
17	0xbe9f50d0	-0.31116343
18	0xbe850267	-0.25978395
19	0xbe9be9e9	-0.30451897
20	0xbe297710	-0.16549325
21	0x3d9a2cee	0.07528101
22	0xbe0214ae	-0.12703201
23	0x3d0266f8	0.03183648
24	0x3eda8843	0.42682084
25	0x3dfa3b0e	0.12218295
26	0xbe030fc3	-0.12798981
27	0xbe286542	-0.16444877
28	0xbdf95a7b	-0.12175461
29	0xbed8fc5c	-0.42380035
30	0xbda3db43	-0.08000805
31	0xbe11643c	-0.14198393
32	0x3df1c6ea	0.11805518
33	0xbe81afde	-0.2532949
34	0x3e930fd7	0.28723022
35	0xbdea58be	-0.114427075
36	0x3dece895	0.11567799
37	0x3e89ad1e	0.2688989
38	0x3e85a2dc	0.26100814
39	0xbe8d5829	-0.27606323
40	0x3e2dabd8	0.16960084
41	0x3b57324b	0.0032836373
42	0xbe50a400	-0.20375061
43	0xbe51c872	-0.2048662
44	0x3ca5b569	0.020228105
45	0xbef8f173	-0.4862171
46	0x3d9cb5ce	0.07651864
47	0x3dedc601	0.11610032
48	0xbe64e9ca	-0.22354808
49	0x3ec73157	0.3890483
50	0xbe721637	-0.23641287
51	0x3e28275b	0.16421263
52	0x3f150e08	0.58224535
53	0xbeb794a0	-0.3585558
54	0x3d950dcb	0.072780214
55	0xbb46dc57	-0.0030343735
56	0xbdecd306	-0.11563687
57	0x3e25fe63	0.16210322
58	0xbd2667f3	-0.040626477
59	0xbe28d867	-0.16488801
60	0x3c5e45a1	0.0135664055
61	0xbd7c65b2	-0.06162042
62	0x3e3f4cf1	0.18681695
63	0x3cf14d43	0.029455787
64	0x3eab8fd0	0.33508158
65	0xbe6f2550	-0.23354077
66	0xbeb61d20	-0.35569096
67	0x3e442846	0.19155988
68	0xbdaf70d4	-0.08566442
69	0xbe454f85	-0.19268616
70	0x3c8bead8	0.017079756
71	0x3d753411	0.059864108
72	0xbc98ceab	-0.018653234
73	0x3e45b551	0.19307448
74	0xbcb7a78f	-0.022418765
75	0x3ee80196	0.4531371
76	0x3daba264	0.08380583
77	0xbdeb3df1	-0.11486424
78	0x3df2abbf	0.11849164
79	0x3e82e0d4	0.25562155
80	0xbe016853	-0.12637453
81	0x3deb3e70	0.114865184
82	0x3e11611c	0.141972
83	0x3e326e0c	0.17424792
84	0xbe0f8cb3	-0.14018516
85	0x3dfe0636	0.124035284
86	0x3e9c7cc2	0.30563933
87	0xbeea987d	-0.45819464
88	0x3e874ba1	0.26424888
89	0xbe2d5007	-0.1692506
90	0x3ec0971b	0.37615284
91	0xbeb176a7	-0.34660837
92	0x3e358ba2	0.17729047
93	0x3e793f54	0.24340564
94	0xbdde2667	-0.108471684
95	0x3d97decd	0.07415543
96	0x3ec148ef	0.37750956
97	0xbdb8279a	-0.089919284
98	0xbaa57c04	-0.001262546
99	0xbe5a508c	-0.21319789
100	0xbd81ae4b	-0.06332072
101	0x3e31e226	0.17371425
102	0xbe39febc	-0.1816358
103	0xbd6fd859	-0.058555935
104	0xbea177c6	-0.31536692
105	0xbc2f8c8b	-0.01071466
106	0xbe93001a	-0.28711015
107	0x3dbba5ae	0.0916246
108	0x3e9c49ed	0.3052515
109	0x3ea0fe9b	0.3144425
110	0x3dbcbce3	0.09215715
111	0xbdce9ed0	-0.10088885
112	0xbe5fa4df	-0.21840237
113	0xbeee96ca	-0.46599418
114	0xbe444987	-0.19168673
115	0x3edb2413	0.4280096
116	0x3e4b63a9	0.19862236
117	0x3ec72286	0.38893527
118	0x3e5b1fe9	0.21398892
119	0xbeca262c	-0.39482248
120	0xbdb90460	-0.090340376
121	0x3eb3c7c6	0.35113353
122	0xbe5d0ee7	-0.21587716
123	0x3ebb5b49	0.36593083
124	0xbba54acf	-0.0050443183
125	0x3e5b3819	0.21408118
126	0x3d9c5863	0.07634046
127	0x3d3255fe	0.04353904

fc2.weight f4 [3, 128]
0	0xbeba5ff7	-0.3640134
1	0x3e21665c	0.15761703
2	0x3dbdcb58	0.092673
3	0x3d9cb52d	0.07651744
4	0x3e222553	0.1583455
5	0x3e5cf2b8	0.21576965
6	0x3e726548	0.23671448
7	0x3e2b7d5d	0.16747041
8	0x3e1f981b	0.15585367
9	0x3e5132ff	0.2042961
10	0xbd7e680e	-0.062110953
11	0x3e919201	0.28431705
12	0x3de72740	0.11286783
13	0x3e0c1998	0.13681638
14	0x3e305d65	0.17223127
15	0x3e63b864	0.22238308
16	0x3d7350c2	0.05940319
17	0x3e467b4b	0.1938297
18	0x3d5313e0	0.051532626
19	0xbd9eca57	-0.07753437
20	0x3d6e4df2	0.058179803
21	0xbe0b218c	-0.13587016
22	0x3e6fe719	0.23428
23	0x3d692834	0.056923106
24	0x3e8542b8	0.26027465
25	0x3e0b4e0e	0.13603994
26	0x3e838f35	0.25695196
27	0x3dcb15ca	0.09916265
28	0x3e7adf80	0.24499321
29	0xbdfda4d7	-0.12384956
30	0x3d0f5699	0.034994695
31	0xbd9890fa	-0.07449527
32	0x3e081561	0.13289405
33	0x3e946e10	0.2899022
34	0x3d8c98b2	0.06865062
35	0xbc8c19a8	-0.017102078
36	0xbd820322	-0.06348254
37	0x3e363534	0.17793733
38	0x3dc5c14e	0.096560106
39	0x3c75e162	0.015007349
40	0x3e1c407c	0.15258974
41	0xbe0c5fb6	-0.13708386
42	0x3bd9a7d5	0.0066423216
43	0x3d38baaf	0.04509991
44	0x3df830eb	0.12118705
45	0x3e3c9225	0.18415125
46	0x3dd824ee	0.10553919
47	0x3cb6d7b2	0.022319648
48	0x3da560cb	0.080751024
49	0x3d3c1642	0.045919664
50	0xbb90f47c	-0.004423676
51	0xbbfdf4a2	-0.00775011
52	0x3e263217	0.16230045
53	0x3c2ad9b2	0.010427879
54	0xbd85f8f3	-0.06541624
55	0xbe21c281	-0.15796854
56	0x3da60882	0.081070915
57	0xbe31f683	-0.17379193
58	0x3d328779	0.043586228
59	0x3e15e2ad	0.14637251
60	0xbd68beb0	-0.05682248
61	0xbdc9b9a8	-0.09849864
62	0x3dd97485	0.106179275
63	0xbd54bb75	-0.051936585
64	0xbe87ab9c	-0.26498115
65	0x3b454b06	0.0030104532
66	0x3e025e9b	0.12731402
67	0xbdb8d27f	-0.09024524
68	0xbe4ddbaf	-0.20103334
69	0x3de88a30	0.11354482
70	0x3e80a0a1	0.2512255
71	0xbe059c41	-0.13047887
72	0x3d781f2c	0.060576603
73	0x3dbc124f	0.091831796
74	0x3e399a6c	0.18125314
75	0xbdd8180a	-0.1055146
76	0x3e41b567	0.18916856
77	0x3e97b69b	0.29631504
78	0x3dd40719	0.10352916
79	0xbd10e013	-0.035369944
80	0x3db5ab98	0.088706195
81	0x3d0843c0	0.033267736
82	0x3e14bc8c	0.1452505
83	0xbd8df2ba	-0.06931062
84	0xbdd7ff76	-0.10546772
85	0xbf0165bd	-0.50545865
86	0x3df01fe2	0.11724831
87	0xbd8bafdc	-0.06820652
88	0x3e90acff	0.28256986
89	0x3e37fd76	0.17967781
90	0xbdff2335	-0.12457887
91	0x3e87e6d7	0.26543304
92	0x3dbf8e42	0.093533054
93	0xbcbbb31a	-0.02291255
94	0x3dcb65e4	0.099315435
95	0xbb5c3919	-0.0033603369
96	0x3e93fc32	0.28903347
97	0x3e433fbd	0.19067283
98	0x3bd72247	0.0065653655
99	0x3d8f9e35	0.070125975
100	0x3e8b601d	0.27221766
101	0x3e1f55d9	0.15560092
102	0x3c90f7a3	0.017696207
103	0x3dfc54f0	0.12320888
104	0x3c9dcdbb	0.019263139
105	0xbdabcd4a	-0.08388765
106	0x3d840eb1	0.06448115
107	0xbe05d522	-0.13069585
108	0x3e01daee	0.12681171
109	0x3dd9ab4f	0.10628378
110	0xbd98842c	-0.07447085
111	0x3cff9f64	0.031203933
112	0xbd3883a5	-0.04504742
113	0x3d2bdd82	0.041959293
114	0xbe5e0ef0	-0.21685386
115	0x3e3a73ff	0.18208311
116	0xbd210d03	-0.03931905
117	0xbd9e7a6d	-0.077381946
118	0x3e0b259f	0.1358857
119	0x3d541d54	0.051785782
120	0x3de48fcc	0.111602396
121	0xbdd434f2	-0.10361661
122	0x3e08e30d	0.13367863
123	0x3e3f1369	0.18659748
124	0x3d6ba40c	0.057529494
125	0xbdcc55b5	-0.09977285
126	0xbec91ec1	-0.39281276
127	0xbbd36f43	-0.0064524724
128	0x3e09ad23	0.13444953
129	0xbdb0c952	-0.08632149
130	0xbdaecb14	-0.08534828
131	0xbd85bf96	-0.06530683
132	0xbe05a00f	-0.13049339
133	0x3c88e8b9	0.016712533
134	0xba9c1311	-0.0011907538
135	0x3dc276a2	0.09495284
136	0xbca50cf8	-0.020147786
137	0xbe42ebdb	-0.19035284
138	0xbced37f2	-0.02895734
139	0xbe0303c8	-0.12794411
140	0xbe22cadb	-0.15897696
141	0xbddf5765	-0.10905341
142	0xbe27a329	-0.16370834
143	0xbdfce15e	-0.12347673
144	0x3d13e8a1	0.036110524
145	0x3dd5985b	0.1042945
146	0xbe0ce631	-0.13759686
147	0xbdde773a	-0.108625844
148	0x3c342435	0.010994961
149	0xbdbc20c1	-0.09185935
150	0xbcb6fac1	-0.022336366
151	0xbbe5a1a1	-0.007007793
152	0xbe8defe6	-0.2772209
153	0xbd73d429	-0.059528504
154	0xbe9ad644	-0.30241597
155	0xbe26c3e8	-0.1628567
156	0x3e103b8c	0.14085215
157	0x3d044346	0.03229072
158	0xbdbfd528	-0.09366828
159	0x3d12db25	0.035853524
160	0xbc0a5bf5	-0.008444776
161	0xbcdb75a7	-0.0267895
162	0x3dfbce1a	0.1229517
163	0xbe487eb0	-0.19579577
164	0xbe45d4de	-0.19319484
165	0xbcd6daba	-0.026227344
166	0x3b91401e	0.004432692
167	0x3d6c840e	0.057743125
168	0xbdd4704d	-0.10372982
169	0xbe23d713	-0.16000013
170	0xbd39d85b	-0.04537235
171	0xbd83821d	-0.064213015
172	0x3d5319b8	0.0515382
173	0x3c0fefff	0.008785247
174	0xbdf14146	-0.11780028
175	0xbd93fe9b	-0.072262965
176	0x3d326359	0.043551777
177	0xbe02d977	-0.12778269
178	0x3d3b35e9	0.04570571
179	0xbe1fc076	-0.15600762
180	0xbe8e0378	-0.2773702
181	0xbd051cf3	-0.03249831
182	0xbc8e481b	-0.017368367
183	0xbd184321	-0.037173394
184	0xbe06a564	-0.13149029
185	0xbe1d4927	-0.15359937
186	0xbc9c1de7	-0.019057227
187	0xbdcce2cd	-0.10004196
188	0x3dba7b33	0.0910553
189	0xbce736f3	-0.028224444
190	0x3df4c9a1	0.1195252
191	0xbd94ac4a	-0.07259424
192	0xbe70bdfe	-0.23509976
193	0xbe164a96	-0.1467689
194	0x3c2c1bcc	0.010504674
195	0x3d97076b	0.07374462
196	0xbc84c260	-0.016205966
197	0xbdc4cf26	-0.09609823
198	0xbe4222bd	-0.18958564
199	0xbdcb91d7	-0.09939926
200	0xbd4c28b4	-0.049843505
201	0xbdcf57ca	-0.10124166
202	0xbd6340d6	-0.055481754
203	0xbe2c4435	-0.16822894
204	0x3c4fcaa4	0.012682591
205	0xbe8a82fc	-0.27053058
206	0x3d88dcd0	0.06682742
207	0x3cabc5c2	0.020968322
208	0xbd8d4a17	-0.06898897
209	0xbdbb555c	-0.091471404
210	0xbe9bf446	-0.30459803
211	0xbcf296d2	-0.029612932
212	0xbd8fdd19	-0.07024593
213	0xbe3b5d6b	-0.18297355
214	0xbdf50734	-0.119642645
215	0xbd951743	-0.072798274
216	0xbe9aa65e	-0.30205053
217	0xbdcfa909	-0.10139663
218	0xbe2a9571	-0.1665857
219	0xbe09ec2f	-0.13469003
220	0xbe2d2804	-0.16909796
221	0xbdda7eff	-0.10668754
222	0xbd6d6812	-0.057960577
223	0xbe1a702a	-0.1508185
224	0xbe6003be	-0.21876428
225	0xbe8d4ede	-0.27599233
226	0xbe360d8b	-0.17778604
227	0x3d715883	0.058922302
228	0xbe61866f	-0.22023939
229	0xbe637a7f	-0.22214697
230	0x3ba0ce08	0.0049073733
231	0xbe154677	-0.14577661
232	0xbde9ad41	-0.11409999
233	0xbda68b82	-0.08132078
234	0xbdcc3273	-0.0997056
235	0xbcaa2b5e	-0.020772632
236	0xbd95e858	-0.07319707
237	0x3ca5885f	0.020206628
238	0xbe4d6b56	-0.20060477
239	0xbc1a49b2	-0.009416984
240	0xbe5a6544	-0.21327692
241	0xbd459059	-0.048233364
242	0x3de683c0	0.11255598
243	0xbe67dd8e	-0.2264311
244	0xbdb285b8	-0.08716911
245	0xbc2c4728	-0.010515012
246	0xbe043eeb	-0.12914626
247	0x3c43de11	0.0119548
248	0xbc80df5f	-0.015731512
249	0xbe266c8a	-0.16252342
250	0xbdd0d976	-0.101977274
251	0xbdc25256	-0.094883606
252	0x3cb0abf1	0.021566363
253	0xbe1e8cd5	-0.1548341
254	0xbd8bc11e	-0.068239436
255	0xbe6c0b38	-0.23051155

fc2.bias f4 [3]
0	0xbc90d929	-0.017681675
1	0xbd9f9128	-0.07791358
2	0x3d39168f	0.04518753

fc1.weight f4 [128, 6]
0	0x3df657ff	0.12028503
1	0x3e78578e	0.2425215
2	0xbf233ee4	-0.6376784
3	0x3ea2ad9a	0.31773072
4	0x3eb4eaf3	0.35335502
5	0xbf11a6be	-0.56895053
6	0x3f65b4bc	0.89728904
7	0xbf8b24af	-1.087057
8	0x3f914058	1.1347761
9	0x3f317e1e	0.69333065
10	0xbdf4d700	-0.119550705
11	0xbf62667d	-0.88437635
12	0xbfc517d3	-1.5397896
13	0x3ea761a8	0.32691693
14	0xbec1eaf8	-0.3787458
15	0xbf86e72e	-1.05393
16	0x3eeef2ae	0.46669525
17	0x3ddcd032	0.107818976
18	0xbf9b8b66	-1.2151916
19	0xbfd23666	-1.6422851
20	0xbe29b72d	-0.16573782
21	0xbd433965	-0.047662158
22	0xbf299cd3	-0.6625492
23	0xbf385a05	-0.7201236
24	0x3d35b74a	0.04436425
25	0x3db19164	0.08670309
26	0x3e5239ff	0.20529936
27	0x3e577566	0.21040878
28	0xbd1dd8d4	-0.03853686
29	0xbe076b92	-0.13224629
30	0x3f9eff4d	1.2421662
31	0x406129bf	3.518173
32	0x3f924951	1.1428624
33	0xbf8addd5	-1.0848948
34	0xbdd35762	-0.10319401
35	0x3dfc71e4	0.123264104
36	0x3e5d1dbe	0.21593377
37	0xbd487141	-0.048936132
38	0x3e8bfef9	0.27342966
39	0x3d9225bd	0.07136104
40	0xbc8625c9	-0.01637544
41	0xbd0951fd	-0.033525456
42	0xbff08a16	-1.879214
43	0xbef4100c	-0.47668493
44	0xbfa1c31d	-1.2637669
45	0x3c9024bd	0.017595643
46	0xbe10592a	-0.14096513
47	0x3ee3b2eb	0.4447244
48	0xbe685cba	-0.22691622
49	0xbde06c6e	-0.10958181
50	0x3e9646d1	0.29350904
51	0xbd67f237	-0.05662748
52	0x3e0f63aa	0.14002863
53	0xbcd23d3a	-0.02566396
54	0xbf565ed5	-0.8373845
55	0xbf231084	-0.63697076
56	0x3e74ba51	0.23899199
57	0x3f6042b5	0.87601787
58	0x3f543c2d	0.8290432
59	0x3e3e6ae5	0.18595465
60	0x3fa2fa48	1.273263
61	0x3f0feca9	0.5622049
62	0x3e47a8e7	0.19498025
63	0xbda12f41	-0.07870341
64	0xbec1a0ef	-0.37818095
65	0xbd435c28	-0.04769531
66	0x3faadda4	1.3348889
67	0xbfca6f34	-1.5815187
68	0x3eb30587	0.34965155
69	0x3f55343e	0.8328284
70	0xbd5ec1f9	-0.054384205
71	0x3dc625ba	0.096751645
72	0xbf9a02a5	-1.2032057
73	0x3ef25b50	0.4733529
74	0xbe07e325	-0.13270243
75	0xbf948ee3	-1.1606106
76	0xbe272fb1	-0.16326787
77	0xbef9ea9d	-0.48811808
78	0x3ec0b862	0.37640673
79	0xbf2f3836	-0.68445146
80	0xbf537f32	-0.8261596
81	0x3e8071c4	0.25086796
82	0x3dae3112	0.08505453
83	0x3e921037	0.28527996
84	0x3efa5af4	0.48897517
85	0xbe8070a5	-0.2508594
86	0x3eee29f6	0.4651639
87	0x3e25eda7	0.16203938
88	0xbe8f1eda	-0.27953225
89	0xbe0d9502	-0.13826373
90	0xbe9e09f7	-0.30866978
91	0x3dcab095	0.098969616
92	0xbff9426b	-1.9473394
93	0xbef32535	-0.47489324
94	0xbed8f666	-0.42375487
95	0x3ec1d13f	0.37854955
96	0xc0015722	-2.0209432
97	0x3fb33d83	1.4003147
98	0xbfe86689	-1.8156291
99	0x3f81bee6	1.0136383
100	0x3ebe8036	0.37207192
101	0x3f0eac55	0.5573171
102	0xbc8e8f29	-0.017402248
103	0x3ed7b2e6	0.42128676
104	0xbf52d567	-0.82356876
105	0x3e01837d	0.12647815
106	0x3e541d7c	0.20714372
107	0x3da8c748	0.08241135
108	0x3fbfb71f	1.4977759
109	0x400647ac	2.0981245
110	0x3f372ca2	0.7155248
111	0xbefdc74d	-0.49566117
112	0x3da47c9d	0.080315806
113	0x3dfc43bf	0.12317609
114	0x3dcb63ab	0.099311195
115	0x3f65d355	0.8977559
116	0xbec90ee3	-0.3926917
117	0x3e1fcf9f	0.15606545
118	0x3d93e180	0.07220745
119	0x3ebafe53	0.3652216
120	0x3e9ad395	0.3023955
121	0x3d3eddf3	0.046598386
122	0x3e541354	0.20710498
123	0x3e14bb78	0.14524639
124	0xbb52a07c	-0.0032139113
125	0x3b6b2968	0.0035882834
126	0xbeb31c8c	-0.34982717
127	0xbeb02dfc	-0.34410083
128	0xbf454c8b	-0.7706992
129	0xbf986886	-1.1906898
130	0x3fb5b78c	1.4196639
131	0x3f502322	0.8130361
132	0x3d1b6de8	0.03794661
133	0xbe0d19ef	-0.13779424
134	0xbe7c7b71	-0.24656464
135	0xbe2afaa3	-0.16697173
136	0xbee662fb	-0.4499739
137	0xbd1fdef5	-0.039030988
138	0xbfe04b0b	-1.7522901
139	0x3cf52018	0.02992253
140	0xbf9fa789	-1.2473003
141	0xbe4597a2	-0.19296125
142	0xbf2578b9	-0.64637333
143	0x3eda6350	0.42653894
144	0xbeaf35f5	-0.34220853
145	0x3e70343a	0.23457423
146	0xc00c817e	-2.1954036
147	0x3ee905a2	0.4551211
148	0x3f620c04	0.88299584
149	0xbed21d03	-0.4103776
150	0xbf4a0b1d	-0.7892321
151	0x3ecf0d63	0.404399
152	0xbe240c18	-0.16020238
153	0x3e151ced	0.14561816
154	0x3d9bc8f4	0.07606688
155	0x3e38c318	0.18043172
156	0xbe27ddc7	-0.16393195
157	0xbd2d563f	-0.04231858
158	0xbf07aeff	-0.530014
159	0xbea2c6fd	-0.3179244
160	0x3d614709	0.054999385
161	0x3da8ef64	0.08248785
162	0x3f510c3d	0.816593
163	0x3ee97cc2	0.45602995
164	0x3d305cd3	0.043057274
165	0x3e798f88	0.24371159
166	0xbdddc6a3	-0.108289026
167	0xbe0c4c2f	-0.13700937
168	0xbedff072	-0.43738133
169	0xbe91ee9d	-0.2850236
170	0xbef746a4	-0.48296082
171	0x3d3dfc50	0.046383202
172	0x3ea9d725	0.33171955
173	0xbdefb861	-0.11705089
174	0xbd7f90f7	-0.06239411
175	0x3f5d0c57	0.86346954
176	0x3ed7cb3c	0.42147243
177	0xbdfc55a5	-0.12321023
178	0xbf19704f	-0.59936994
179	0xbef32e2b	-0.4749616
180	0xbfa09f43	-1.2548603
181	0x3f1b5175	0.6067117
182	0xbf993344	-1.196877
183	0xbec69973	-0.38788947
184	0xbf086cd9	-0.5329109
185	0x3f57f0f1	0.8435202
186	0x3a4ee342	0.00078921404
187	0xbfb6e31f	-1.4288062
188	0xbf7d65b0	-0.9898329
189	0xbf8c93bf	-1.0982589
190	0x3f525e82	0.8217546
191	0xbf401577	-0.7503275
192	0xbf56ee01	-0.83956915
193	0x3d15d5cc	0.036580846
194	0xbe7a3591	-0.24434496
195	0xbf9303e5	-1.1485564
196	0xbf284ec1	-0.6574517
197	0x3ec8e919	0.3924034
198	0xbe7cfdcd	-0.24706192
199	0x3f0d7be0	0.55267143
200	0xbf39b5f9	-0.72543293
201	0x3e656e5e	0.22405383
202	0xbcb66c76	-0.022268515
203	0xbc04dbbc	-0.008109029
204	0xbf284435	-0.65729076
205	0x3f1befb1	0.60912615
206	0xbf913b70	-1.1346264
207	0xbf88c894	-1.0686212
208	0xbee4849c	-0.44632423
209	0x3ece8a21	0.4033976
210	0xbfba9634	-1.4577088
211	0xbf38f6c9	-0.72251564
212	0xbf57f38f	-0.84356016
213	0xbfda5849	-1.7058192
214	0x3ecdde9e	0.40208906
215	0xbdc57a2e	-0.096424446
216	0xbec053e1	-0.37563995
217	0x3e970500	0.29496002
218	0xbf496f27	-0.7868523
219	0x3e331201	0.17487337
220	0x3dd35324	0.10318592
221	0x3d944d82	0.07241346
222	0xbf5309a3	-0.8243658
223	0x3e86f53c	0.26358974
224	0xbf10fcd7	-0.56635803
225	0xbe2cf0a8	-0.16888678
226	0xbf67ed7a	-0.90596735
227	0xbcc8896a	-0.024479587
228	0xbf67379f	-0.90319246
229	0xbeb52019	-0.3537605
230	0xbfd77257	-1.6831769
231	0xbef983d0	-0.48733377
232	0x3ebcb38d	0.36855736
233	0xbd62d43d	-0.055378187
234	0x3ded9668	0.11600953
235	0xbee950f8	-0.45569587
236	0xbff974c4	-1.9488759
237	0xbf927e92	-1.1444876
238	0xbf20173e	-0.62535465
239	0x3f28a0c6	0.6587032
240	0xbf5bf4d6	-0.85920465
241	0x3e967b74	0.29391062
242	0x3c62982c	0.013830226
243	0xbdfceaee	-0.12349497
244	0x3d811fb3	0.06304874
245	0x3e89cafc	0.26912677
246	0xbf123022	-0.57104695
247	0x3eddba04	0.4330598
248	0xbf64f56a	-0.8943697
249	0xbe23da47	-0.16001235
250	0x3e47f008	0.19525158
251	0x3de759da	0.11296435
252	0xbf42a654	-0.76035047
253	0xbf06184b	-0.5238082
254	0xbe48b8b4	-0.19601709
255	0x3f6d3cec	0.92671084

fc1.bias f4 [128]
0	0x3f3bddb1	0.7338515
1	0xc02e4398	-2.7228756
2	0xc043b1cd	-3.057727
3	0xc0589d93	-3.3846176
4	0x3f89dc19	1.0770293
5	0x3fe1d594	1.7643304
6	0x3f93f37c	1.155868
7	0xc01ab0dc	-2.4170446
8	0x3f1ddb97	0.6166319
9	0xbeedcc12	-0.46444756
10	0x3fe23d6f	1.7674998
11	0x3f97dc4c	1.1864104
12	0xbf827c22	-1.0194132
13	0x3fbae35c	1.4600635
14	0x4022ff50	2.546833
15	0xbfe1e8fd	-1.7649227
16	0xc04aa98b	-3.166598
17	0xbfc6d2fb	-1.5533136
18	0x3fd315ab	1.6490988
19	0xbecf5b76	-0.40499467
20	0x40151365	2.3293087
21	0xc016d9f5	-2.357053
22	0x3f03c0c7	0.5146603
23	0xbfe600f5	-1.7969042
24	0xc057a2e8	-3.369318
25	0xbfb7aec3	-1.4350208
26	0xbfbb1621	-1.4616128
27	0x40325a76	2.7867713
28	0xbf50a71a	-0.81504977
29	0xc027507f	-2.614288
30	0xbfdd6b2d	-1.7298332
31	0xc032d5ad	-2.7942917
32	0xbe1612ec	-0.14655656
33	0xbfc54280	-1.5410919
34	0xbf354a58	-0.70816565
35	0xc0613b9d	-3.5192635
36	0xbfb8efde	-1.4448202
37	0xbcb0bfc9	-0.021575825
38	0xc03322cd	-2.798999
39	0xc0619aa1	-3.5250628
40	0xbf078d15	-0.5294965
41	0xbfb44611	-1.4083883
42	0xbe9c2067	-0.3049347
43	0xbfe98bee	-1.8245828
44	0xc02e5a12	-2.7242475
45	0x3fabb9f6	1.3416126
46	0xbf1b5cd2	-0.6068851
47	0xbfd42c09	-1.6575938
48	0x3fec66d9	1.8468887
49	0xbfc9a0f4	-1.5752244
50	0x3f5e3ce6	0.86811674
51	0x3fba2304	1.4541936
52	0xbfdaa98c	-1.7082992
53	0x3f678f56	0.9045309
54	0x401904f6	2.3909278
55	0x40002430	2.0022087
56	0xbecb4eca	-0.3970855
57	0x3f605c5f	0.8764095
58	0xbf4aa503	-0.7915804
59	0xbff1dc36	-1.8895328
60	0xbff845d8	-1.9396315
61	0xbfa2da48	-1.2722864
62	0x4003da17	2.0601861
63	0x3f0a72ed	0.5408161
64	0x3fa3667b	1.276565
65	0xc01abdbe	-2.417831
66	0xbfa4e374	-1.2881913
67	0x401ca6c1	2.4476779
68	0xbec4bd01	-0.3842545
69	0x3f2a4061	0.66504484
70	0x3f91b343	1.1382831
71	0xbf6ca75e	-0.9244288
72	0xc0061f29	-2.0956519
73	0xbfd54abe	-1.6663435
74	0xbfd4726e	-1.6597421
75	0x40126ffe	2.2880855
76	0x3fe9b573	1.8258499
77	0xbf76b53e	-0.96370304
78	0xc02f7013	-2.7412155
79	0xbf31cbaf	-0.6945142
80	0xbf96070a	-1.1720898
81	0xc048ff17	-3.1405694
82	0x3fb08301	1.3789979
83	0xbfbd5c02	-1.4793704
84	0xbfdc0479	-1.7188865
85	0x3fed5acd	1.8543335
86	0xc00d34ee	-2.2063556
87	0x3ff9ee0d	1.9525772
88	0x3f111703	0.5667574
89	0xbf4dc716	-0.80381906
90	0x3e855947	0.26044676
91	0xc024b337	-2.5734384
92	0xbfebe5c6	-1.8429496
93	0xc0335051	-2.8017771
94	0xbf8ad5dc	-1.0846515
95	0xbf98759b	-1.191089
96	0xbff65804	-1.924561
97	0xbf791925	-0.9730399
98	0x3f17add9	0.59249645
99	0xbec1ac7c	-0.37826908
100	0xbfd61126	-1.6723983
101	0x3e9b99e2	0.3039084
102	0xbf6bd233	-0.92117614
103	0x3f927b82	1.1443942
104	0xbfdce2de	-1.7256734
105	0xbfd5a73a	-1.6691658
106	0xc0960cc9	-4.6890607
107	0x3fadefd5	1.3588816
108	0xc0232a9c	-2.5494757
109	0x402e4b7d	2.7233574
110	0x3d6b5647	0.057455327
111	0xc02d2cc2	-2.7058568
112	0xbf9d24a8	-1.2276812
113	0xc03e52f8	-2.973814
114	0xc02049a4	-2.5044947
115	0xbf7a862e	-0.9786099
116	0xc037f912	-2.874577
117	0xc04c0858	-3.1880093
118	0x3f0009a9	0.5001474
119	0xbf1be6bb	-0.6089894
120	0x3e8544b7	0.26028988
121	0x40153d50	2.3318672
122	0x3faaaff6	1.3334949
123	0xbfcbc1ed	-1.5918556
124	0xc01594e8	-2.3372135
125	0x3fec5b00	1.8465271
126	0xbf8278a6	-1.0193069
127	0xc0017305	-2.0226452

fc2.weight f4 [1, 128]
0	0x3dd6242a	0.104561165
1	0x3e645cdd	0.2230105
2	0xbddbe926	-0.10737829
3	0xbd34add3	-0.044111084
4	0x3c0028e9	0.007822254
5	0xbf098240	-0.5371437
6	0xbcb48ac1	-0.02203882
7	0x3d4c1bb3	0.049831104
8	0x3d69282b	0.056923073
9	0x3dbc5068	0.09195024
10	0xbe387f83	-0.18017392
11	0xbdd0566f	-0.10172736
12	0xbda2bd29	-0.07946236
13	0xbde5d9a4	-0.11223152
14	0xbe4df76a	-0.20113912
15	0x3e32e81b	0.17471354
16	0xbea305a0	-0.3184023
17	0xbd4f2be0	-0.05057895
18	0xbe84daf6	-0.25948304
19	0xbb6e3afb	-0.0036351073
20	0xbe4fe14c	-0.20300788
21	0x3e964736	0.29351205
22	0xbc0bcd0f	-0.0085327765
23	0x3e2b0a58	0.16703165
24	0x3eadcf87	0.33947393
25	0xbc804d6b	-0.015661916
26	0xbcd4e867	-0.025989724
27	0xbe998ef0	-0.29991865
28	0xbab2a715	-0.0013630117
29	0x3dbb8c22	0.091575876
30	0x3e00b58c	0.12569255
31	0x3ee4b33e	0.44668
32	0x3db273a9	0.08713467
33	0x3df31c84	0.11870673
34	0x3df6487d	0.12025545
35	0xbc8f050c	-0.017458461
36	0xbe0bd8c7	-0.13656913
37	0x3dc57547	0.096415095
38	0xbdf3b33f	-0.11899423
39	0x3e8e13d4	0.27749503
40	0x3e18addb	0.1491007
41	0xbcf8cf0a	-0.030372161
42	0xbc52f24f	-0.012875154
43	0xbdd17617	-0.10227602
44	0xbede896b	-0.43464217
45	0x3c594a5a	0.013262356
46	0x3d5bd5c0	0.053670645
47	0xbe5534d3	-0.20820932
48	0xbd9cb435	-0.07651559
49	0xbd477289	-0.048693214
50	0xbd946f62	-0.07247807
51	0xbcef45c0	-0.029208064
52	0x3da7e5f5	0.08198158
53	0x3d35a0cb	0.044342797
54	0xbe6ddbca	-0.23228374
55	0xbe1178e1	-0.14206268
56	0xbeb2d5ad	-0.34928647
57	0xbd56f585	-0.05248024
58	0x3dbeb397	0.09311598
59	0x3ed551d4	0.41663992
60	0x3e7fbe8d	0.24975033
61	0x3d95597d	0.07292459
62	0xbed2b5f1	-0.41154435
63	0x3e5414e6	0.20711097
64	0xbceca164	-0.02888555
65	0x3db5a3c7	0.08869129
66	0x3f0dcb25	0.553881
67	0xbe411281	-0.18854715
68	0x3d3e1509	0.04640678
69	0x3d565649	0.05232838
70	0xbc4c1a22	-0.012457402
71	0xbcd47335	-0.025933841
72	0xbdf72f68	-0.12069589
73	0x3e7d3368	0.24726641
74	0x3da56de9	0.08077604
75	0xbea09cc9	-0.31369618
76	0xbd85fb87	-0.06542116
77	0xbdeb7590	-0.11497033
78	0xbeeed664	-0.46647942
79	0xbd3fa364	-0.04678668
80	0x3eb64557	0.35599777
81	0x3e0873da	0.13325444
82	0xbde869e5	-0.11348323
83	0xbd811fc0	-0.06304884
84	0xbbbf6102	-0.0058404217
85	0xbda83c3c	-0.08214614
86	0xbe052192	-0.13001087
87	0xbd9d0cfd	-0.07668493
88	0x3d7a0541	0.061040167
89	0xbeddc4e0	-0.43314266
90	0x3d1b1d19	0.037869547
91	0x3d52a500	0.051426888
92	0xbc966531	-0.018358799
93	0xbe13a2ba	-0.14417544
94	0x3ee89852	0.4542871
95	0x3c20d398	0.009816073
96	0x3c3fc419	0.011704468
97	0x3e9de448	0.30838227
98	0x3d051094	0.032486513
99	0xbe415698	-0.18880689
100	0xbdd627d0	-0.104568124
101	0xbc6a84c2	-0.0143138785
102	0x3d394ee0	0.045241237
103	0xbc271c65	-0.010199641
104	0xbd527ccb	-0.051388543
105	0x3d484118	0.048890203
106	0x3ec5b88e	0.38617367
107	0xbc99c57c	-0.018770926
108	0xbddff32b	-0.109350525
109	0xbeb5c550	-0.355021
110	0x3d817421	0.06320978
111	0xbdfdd06d	-0.1239327
112	0x3e6e1336	0.23249516
113	0x3c4feea8	0.012691177
114	0x3e35f290	0.17768312
115	0xbe0d6402	-0.13807681
116	0x3e24a96d	0.16080256
117	0xbe3ff773	-0.18746738
118	0x3d76d7b9	0.060264323
119	0xbef095ff	-0.46989438
120	0xbd8a53bb	-0.067542516
121	0xbeaa3292	-0.33241707
122	0xbda663db	-0.08124515
123	0xbd3f235f	-0.046664592
124	0xbe20633c	-0.15662855
125	0xbdbaf0c6	-0.09127955
126	0xbb91cc06	-0.0044493703
127	0xbe3e7623	-0.18599753
