demo/base/ppo/test/trpo.pt (torch, 11599 bytes, 7 tensors)

fc1.weight f4 [128, 6]
000000 c8 f5 64 bd b7 2f f9 3e a9 5b 8e be 14 86 e9 be
       -0.055898458 0.48669216 -0.27804306 -0.45610106
000010 f6 6b cb 3c 46 41 9c 3c af 1a 96 bd c2 94 c4 3e
       0.024831753 0.019074094 -0.07329308 0.38394743
000020 e7 99 99 3d 06 5a 55 3e 6a 84 9f bd 56 40 83 be
       0.07500058 0.20835122 -0.07788928 -0.25635022
000030 c2 66 09 bf c8 97 58 bc de 44 b7 be 80 26 8e 3e
       -0.5367242 -0.013219781 -0.3579473 0.27763748
000040 1f 7d a1 3e 1b f4 7d 3e 03 24 80 be 53 7b aa be
       0.31540772 0.2480015 -0.25027475 -0.33297214
000050 ef a2 1c 3d 62 f5 3d 3e cc f0 1e be 83 b8 95 3e
       0.038241323 0.18550637 -0.15521544 0.29242334
000060 f3 8b 7d bd 7a 57 8e 3e 9a 15 cc 3e 69 66 91 be
       -0.061901044 0.27801114 0.3986023 -0.28398445
000070 d4 d8 73 be 5d 97 80 be 09 77 81 bd 88 1b e8 3e
       -0.23813182 -0.2511548 -0.06321532 0.45333505
000080 2f 8f 60 be 3e 08 45 be 07 55 2a be 27 d7 33 bf
       -0.2192962 -0.19241425 -0.16633998 -0.7025017
000090 86 a7 74 be ee bf aa 3e a9 2c a1 3e 95 57 af bc
       -0.2389203 0.33349556 0.31479385 -0.021404067
0000a0 32 5e a9 bc ae 1f e2 be 49 1a 69 3e 81 5d a6 be
       -0.020674799 -0.44164795 0.22763933 -0.32493213
0000b0 05 dd fc bd a5 db 91 be 8f e9 d3 3e 7d a5 ae 3e
       -0.12346844 -0.28487888 0.4138913 0.34110633
0000c0 17 f0 2f bd df 47 85 3d 23 ea bc 3e 47 9b 7c 3e
       -0.042953577 0.06507849 0.36897382 0.24668609
0000d0 d9 92 bd 3c e6 2c bf 3d 45 26 86 3e 40 c9 d6 be
       0.023141311 0.093347356 0.26201072 -0.41950417
0000e0 d7 76 a5 be b6 b0 18 be 36 69 c2 be 01 a2 bc bd
       -0.3231723 -0.1491116 -0.37970895 -0.09210587
0000f0 c4 fb 83 3e 10 ed 92 3d f5 1e b2 bc 9a e9 cd 3d
       0.2577802 0.07174122 -0.021743277 0.100543216
000100 04 c1 f2 3d 2b 53 29 3d d2 aa 9c bd 52 a3 df 3c
       0.11853221 0.04133908 -0.07649769 0.027299557
000110 4e 9c 92 3e c7 a8 8b 3e 34 4b 99 be e8 db ac bd
       0.28634876 0.27277204 -0.29940188 -0.08440381
000120 28 65 83 bc fb a9 1b 3f c0 6f b7 3e a5 52 c8 3d
       -0.016039446 0.60806245 0.35827446 0.09781388
000130 26 83 b4 bc da 0f e7 be c2 3a 00 3d 6e da 10 be
       -0.022035193 -0.4512928 0.031306036 -0.14145824
000140 ec ce 6c be 81 18 0b 3e be 14 bd 3d bf 93 fa be
       -0.2312581 0.13583566 0.09232472 -0.48940846
000150 c5 04 e8 bc 00 32 a8 3e 31 13 ae bc 8c a6 bd be
       -0.028322587 0.32850647 -0.021249386 -0.37041128
000160 15 bf e6 3d c6 b0 b9 be 73 9f b7 3c a7 4c 1c 3f
       0.11266915 -0.3626768 0.022414898 0.6105446
000170 05 27 ba 3d 55 8a ba 3d 5b 8c 58 be 18 0d 26 bf
       0.09089474 0.09108416 -0.21147291 -0.6486373
000180 4f 2e db 3e d0 52 72 3e 75 25 3a bf d2 20 1d 3e
       0.42808768 0.23664403 -0.72713405 0.15344551
000190 92 45 e3 3e b6 0f a9 3e 23 30 c3 3d 7b d1 d7 bc
       0.44389015 0.330198 0.09530666 -0.026345005
0001a0 4b 1f 18 bf 95 16 2e bd 63 5c 8e be 16 6c 06 bf
       -0.5942275 -0.042502005 -0.2780486 -0.52508676
0001b0 2c d2 2e bc e5 4b 89 be 98 30 91 be bb cc 67 3e
       -0.010670226 -0.26815715 -0.28357387 0.22636692
0001c0 41 5a a1 be 97 08 ba 3e 60 80 d8 3e 62 7e 8f be
       -0.3151417 0.3633468 0.42285442 -0.2802611
0001d0 ed f6 0b 3e 85 fa f7 bc 73 4f ed 3d 38 25 97 3d
       0.13668413 -0.030270824 0.11587419 0.07380146
0001e0 71 4e 59 3e 8e 1a c7 be 76 9b 45 be 56 db 29 3e
       0.2122133 -0.38887447 -0.19297585 0.16587576
0001f0 b7 b1 bd be 49 94 4b be 0b 8d 27 be 2c 7a ee 3b
       -0.37049648 -0.19880785 -0.16362397 0.0072777476
000200 0a 48 27 be 7f 09 99 be 96 d0 25 3e a3 74 18 3e
       -0.16336074 -0.29890057 0.1619285 0.14888243
000210 be b5 2b bf b8 57 d9 3b e1 46 b2 3d 74 c3 95 3d
       -0.6707419 0.0066327713 0.08704925 0.0731267
000220 a8 f3 4b bb 65 f8 85 3d 89 23 f5 3d a7 a9 9f 3e
       -0.0031120572 0.06541518 0.119696684 0.31184122
000230 db 3f e6 3e aa 67 4b 3e 2a 6f 73 3e ab 1e 3a 3c
       0.44970593 0.19863763 0.23772874 0.011359851
000240 18 53 e5 be 29 64 fd 3d cb a8 88 3e 0d 5f 1e be
       -0.44789958 0.1237262 0.2669128 -0.15465946
000250 c0 d6 c5 bd 62 ba 15 bf 80 5f d2 be 70 e3 da be
       -0.09660101 -0.5848752 -0.41088486 -0.42751646
000260 6d 58 e9 3d 38 9f 29 3e ba 0e b6 3d 7c a1 95 be
       0.11393819 0.16564643 0.088895276 -0.29224765
000270 e4 5a c3 3e e8 a4 a4 be e6 28 60 3e 0f c0 aa be
       0.38155282 -0.32157063 0.21890602 -0.33349654
000280 c4 80 01 be c0 c7 58 be 78 d2 ac be 5f f0 13 bf
       -0.12646776 -0.21169949 -0.33754325 -0.5778865
000290 a7 c4 2f be 09 0d c1 bd f5 bf 86 be e7 4a 17 3e
       -0.1716486 -0.094263144 -0.26318327 0.14774667
0002a0 e3 53 07 be 13 fd e8 bd 11 d3 a6 3e ec 82 10 3d
       -0.13215594 -0.11376395 0.32582906 0.035281107
0002b0 c3 56 de 3e d1 ad 20 3e 60 6c ca be bf ef 80 3e
       0.4342557 0.15691306 -0.3953581 0.25182912
0002c0 34 43 a1 bd e2 8e 83 be b8 ac 54 3e 12 64 87 be
       -0.07874146 -0.25694948 0.20769012 -0.26443535
0002d0 29 0f bd 3d d5 c8 09 be cd 0c 11 3e 98 d3 6f 3e
       0.09231407 -0.13455518 0.1416504 0.2342056
0002e0 b0 48 a4 3e f2 c6 44 3e d9 3a 9d 3d 4f 13 2d 3d
       0.32086706 0.19216517 0.0767724 0.042254742
0002f0 76 be c7 be c1 ae ec 3e fe 56 ee 3e 7a 6d a6 3e
       -0.39012498 0.46227077 0.46550745 0.325054
000300 01 cd a1 be b9 21 90 be 78 05 bd be b9 fa 77 be
       -0.31601718 -0.28150728 -0.36918235 -0.24216737
000310 47 ea 68 be 6a f0 91 3d 04 7d ec bd 09 aa 77 3d
       -0.2274562 0.071259335 -0.11547282 0.060464893
000320 00 4d be bd c8 02 73 3e b9 13 46 be eb 31 12 bf
       -0.0929203 0.2373153 -0.19343461 -0.5710742
000330 1a de b1 be f6 5f 8c 3e 80 8a 1c be 54 8f 8d 3e
       -0.34739763 0.27416962 -0.15287209 0.27648413
000340 a3 8d a9 3d 9b d1 97 bd db 82 d8 bc e3 1f 80 bd
       0.08278968 -0.07413026 -0.026429584 -0.06256082
000350 20 7a da 3b 5f 48 1c bb 78 09 88 3d f4 de 91 3d
       0.0066673905 -0.0023846847 0.06642431 0.07122603
000360 dd 1b 95 be 32 01 80 bd a9 47 e7 3e 48 a2 bb be
       -0.2912282 -0.06250228 0.4517186 -0.36647248
000370 c1 37 0f 3d ad 11 cc 3e c8 a1 35 3e 09 fc 21 be
       0.03496528 0.39857236 0.17737496 -0.158188
000380 e2 58 8a be 08 88 09 3e 31 49 b5 be 3f 93 44 be
       -0.27020937 0.13430798 -0.35407403 -0.19196795
000390 74 23 ab 3c f4 9b 7e 3e 05 0d 8f bc b8 68 d0 3e
       0.020890929 0.24864179 -0.017462263 0.40704894
0003a0 a3 d7 bb 3e 90 b2 49 3e d4 ea c3 3d 02 e6 57 bd
       0.36687955 0.19697022 0.09566274 -0.052709587
0003b0 d6 a1 e4 3c 2b cd 8e be 89 c9 ef bd ba 51 e8 3c
       0.0279092 -0.27890906 -0.11708362 0.028359283
0003c0 c5 da f3 3c d2 b0 1d 3f 92 9d ab bd d0 0f 15 be
       0.029767403 0.6159793 -0.083796635 -0.14556813
0003d0 4f e8 4e 3e bb 5f 0b bf 3e da ad 3e 48 d0 6a be
       0.20205806 -0.5444295 0.33955568 -0.22931015
0003e0 60 02 5b 3d ca 50 7a bd c5 76 18 be d7 d1 91 3d
       0.05346906 -0.061112203 -0.14889057 0.07120102
0003f0 89 f0 cc 3e f6 42 cd be 3f 34 89 be c8 5e 7d bd
       0.40027264 -0.4009015 -0.26797673 -0.06185797

fc1.bias f4 [128]
000000 de 05 91 be ce 2a f6 bd a2 8e 8c 3e 56 bb b9 be
       -0.2832479 -0.12019883 0.2745257 -0.36275738
000010 67 83 0e 3e 11 7b 45 3e a7 39 5a 3e f2 3f 1b bd
       0.13917314 0.19285227 0.21311055 -0.03790278
000020 57 65 9c 3e 20 71 c9 be 92 ae a1 3e b0 9e c1 be
       0.30546066 -0.3934412 0.315785 -0.3781638
000030 ba 4b a0 be 65 43 a8 3e 38 5a a8 3d c7 d9 fc bc
       -0.31307775 0.32863918 0.08220333 -0.030865563
000040 14 bb 12 be 73 c3 15 bd f1 20 69 be 32 ce bf be
       -0.14329177 -0.036563348 -0.22766472 -0.37462002
000050 08 6a 45 bd da d5 25 3d 25 6c 97 bd 58 ee 69 bd
       -0.048196822 0.040487148 -0.07393674 -0.057112068
000060 84 d2 a9 3e 82 57 07 bd ed 91 30 be 02 ca 66 be
       0.33168423 -0.03304244 -0.17243166 -0.22537997
000070 7f 01 b9 be c1 f6 ae be 89 7b a6 bd 19 71 0e 3c
       -0.36133954 -0.34172633 -0.08129031 0.008693957
000080 2a d4 2d 3d 5a 0e ea bc 5f 5e 74 3e 2f 02 a5 be
       0.042438664 -0.028571296 0.23864125 -0.32228228
000090 a4 b0 1d 3e a8 27 89 3e 76 b9 a2 3e c5 a2 c3 be
       0.15399414 0.26788068 0.3178212 -0.3821012
0000a0 f5 70 c4 3d 2e 8c 68 bc f5 68 71 be 87 98 7d 3d
       0.09591857 -0.014193578 -0.23575194 0.06191304
0000b0 c1 9a ca 3d b5 5f 04 be 74 07 c5 bc 64 48 4f 3e
       0.09892798 -0.12927134 -0.024051405 0.20242459
0000c0 a8 01 a6 be d3 a4 d7 3e a8 0e d0 bd 8a 5a 7d 3e
       -0.3242314 0.42117938 -0.101590455 0.24741569
0000d0 36 73 b9 3e ce 9f 97 be 7b c7 b6 3d d8 c6 00 be
       0.3622071 -0.2961411 0.08924767 -0.12575853
0000e0 2c 9a 5c be ca 0c d2 bc 0a 39 91 3d 90 ea 70 be
       -0.21543187 -0.025640864 0.070909575 -0.23526978
0000f0 47 5b 9d 3e 97 1e 89 3d 35 c6 d5 3e 43 d6 12 be
       0.30733702 0.06695288 0.41752782 -0.14339547
000100 2a 63 04 3e 6b d2 9d be 87 10 d4 be fa c5 9b 3e
       0.12928453 -0.308246 -0.4141886 0.30424482
000110 72 58 8d 3e 41 7e 06 bd c5 81 cf bc 4c a6 86 3d
       0.2760654 -0.03283525 -0.025330434 0.06574687
000120 76 95 da bc 8c 25 9c 3e ed d8 bd 3d f9 b0 ae 3d
       -0.026682597 0.30497396 0.09269891 0.085298486
000130 42 10 25 3e 61 40 c2 bc f2 c3 66 3d c9 84 b1 3e
       0.16119483 -0.023712339 0.05633921 0.3467162
000140 79 0a 6d 3d ae 33 a5 bd e8 5c 29 be 68 fd ab 3e
       0.057871316 -0.08066498 -0.16539347 0.3359177
000150 75 c5 15 be 43 39 35 be 4b 7a 2a 3e 70 77 8b be
       -0.14626105 -0.17697625 0.16648214 -0.2723956
000160 ca bc 95 bd 70 c1 ba bd 5d 58 cf 3e 33 47 39 be
       -0.07311399 -0.091189265 0.40497103 -0.18093567
000170 29 bc b4 3d 60 c7 bb 3e ee 49 3c 3d 77 8c 33 be
       0.08824951 0.3667555 0.045968942 -0.17534052
000180 d8 64 92 3e 3f e9 e4 3c fa b1 87 bd 4f 9f 8e bd
       0.28592563 0.027943252 -0.06625743 -0.069639795
000190 0a 90 4c bd 26 c2 95 3d c1 9e 73 3d 5c ed c8 bc
       -0.049942054 0.073124215 0.05947757 -0.024527244
0001a0 ec b8 1c bf 75 16 4d be d4 2a d1 bd 7d 40 2d 3e
       -0.6121967 -0.20028098 -0.10213247 0.16919132
0001b0 4f 89 8f 3e 34 10 5b 3e 7b e9 ba bd 95 24 08 3e
       0.28034446 0.213929 -0.09126564 0.13295205
0001c0 93 f1 76 bd 77 ee b9 be a4 7d 93 be e7 81 c2 3e
       -0.060288977 -0.36314747 -0.28806794 0.37989733
0001d0 ef 7e 3e 3e d5 2c d1 3e 2e b9 9d 3e be 81 83 be
       0.18603109 0.40854517 0.30805343 -0.25684923
0001e0 86 f1 24 bc 32 cb 86 3e 9c f6 b1 be c0 63 bb 3e
       -0.010067349 0.263269 -0.3475846 0.3659954
0001f0 0e ad 13 3c 98 c4 c9 3e 5d f4 5f bd c3 85 68 3e
       0.009013427 0.39407802 -0.054676402 0.22707276

fc2.weight f4 [3, 128]
000000 a2 83 11 be 52 93 e6 3d cc 97 f8 bd 61 3a 18 3d
       -0.1421037 0.11258568 -0.12138328 0.03716505
000010 56 d9 c8 3d d5 24 8d 3e 31 26 57 3e e4 57 cf bd
       0.098070785 0.27567163 0.21010663 -0.10124186
000020 a7 77 2b 3d a0 a9 28 3e af fc af bc ed ef 26 3d
       0.041862156 0.16470957 -0.021482794 0.040756155
000030 2b 53 c5 3d af cd 7c bc 92 e2 14 3e 08 35 78 3e
       0.09635004 -0.015429898 0.14539555 0.2423898
000040 9e 1a 0e be 09 9d 83 3e ec 3c 02 3e 4f d1 41 3d
       -0.13877341 0.25705746 0.12718552 0.047318753
000050 0d a2 89 3d f6 33 07 bd 65 70 ae bd 09 11 1e 3d
       0.06720362 -0.03300854 -0.08517531 0.038590465
000060 ba f8 57 3e 7c 3a 76 bb 08 8f 07 3e b4 52 3a 3e
       0.21090975 -0.003757148 0.13238156 0.18195611
000070 65 33 7f bd 3d 5b 30 3c f4 e9 e8 bd 52 e8 90 be
       -0.062304873 0.01076394 -0.11372748 -0.28302246
000080 b5 08 f3 3d f8 29 1d 3e 14 59 88 3d ab 59 ee bc
       0.11866895 0.15348041 0.06657615 -0.029095491
000090 9a fa 8f bd 3f ad 0b 3e d4 6e 03 bd 55 1c c5 3d
       -0.0703022 0.13640307 -0.032088116 0.096245445
0000a0 d7 cf 30 3e e3 0a 9a 3d ac 20 27 3e fa 70 40 be
       0.17266785 0.07521608 0.16321057 -0.18793097
0000b0 74 7a 00 be ea 83 3a 3e 11 c6 ad 3d 79 4b b3 bd
       -0.12546712 0.18214384 0.08485044 -0.0875463
0000c0 c2 33 94 3d 75 55 80 3d d4 68 12 3d 43 c4 8c 3d
       0.072364345 0.062663 0.035744503 0.068733715
0000d0 4e a0 af 3d 77 8f 21 3d 34 ad d6 3c b9 1b 81 3d
       0.085754976 0.03944346 0.026205637 0.06304116
0000e0 6c c3 d5 3c a3 76 80 be a4 75 b2 bc 71 ec d8 3d
       0.026094161 -0.25090513 -0.021784611 0.105919726
0000f0 69 55 8e bd 1e b2 25 3c de eb 0e be ae 4c 65 bd
       -0.069498844 0.010113267 -0.13957164 -0.05598133
000100 49 b4 26 bd 9a 55 e1 3d 3e d2 a5 3c 19 f6 6a be
       -0.040699277 0.11002655 0.020241853 -0.22945441
000110 61 41 d6 bd 2f 43 89 bd 73 43 ff 3d 2d 77 81 3d
       -0.10461689 -0.067022674 0.12464037 0.06321559
000120 fc 70 eb 3d 17 b2 f8 3d 1f fa 31 3e 53 ca 43 3d
       0.114961594 0.12143343 0.1738057 0.047800373
000130 4c 08 58 3e e0 57 bb 3d 8b 02 8b bd 0d 09 af 3d
       0.21096915 0.0914762 -0.067875944 0.08546648
000140 94 9a 74 3d 25 aa 13 3d 5d be 42 3c c4 7d da bd
       0.05971773 0.036050934 0.011886206 -0.10668519
000150 04 89 b8 bd f7 a6 01 be 97 f7 20 3e 8e a8 8f bc
       -0.09010509 -0.12661348 0.15719448 -0.017536428
000160 8e d9 08 3e d3 44 0e be 9b 65 0d be 16 a9 84 3d
       0.1336424 -0.13893442 -0.1380829 0.06477563
000170 65 4d 04 3d bd 7c ee 3c 9e ce cf bd 41 7d 79 3d
       0.03230037 0.029112214 -0.10146831 0.060910467
000180 37 08 15 3e 75 b8 c0 bd 05 1e c1 3d b0 04 73 be
       0.14553915 -0.094101824 0.09429554 -0.23732257
000190 30 22 fe 3d d9 bb 7a 3c c9 8a 08 be 98 cb 07 3d
       0.124088645 0.015303575 -0.13334192 0.033153147
0001a0 b4 a6 87 3d 16 29 8b bd ee 64 29 3e 10 dc 34 bc
       0.06623593 -0.06794946 0.16542408 -0.011038795
0001b0 14 20 9d 3d d1 af 22 3d 56 b1 11 bd 6d 60 1e 3c
       0.07672134 0.039718453 -0.03556951 0.009666544
0001c0 b4 9a 43 3e 8e 30 c3 bc d1 33 39 be 1f fd d9 3d
       0.19101983 -0.023826864 -0.18086173 0.10643982
0001d0 1e 02 00 3e e6 29 fd bd 81 db 64 3e c1 96 d2 bd
       0.12500808 -0.12361507 0.22349359 -0.1028266
0001e0 63 62 2c 3e b6 bb 98 3c 19 ba cb bc 6b 8f 34 3d
       0.16834407 0.018644195 -0.024869012 0.044082087
0001f0 01 a6 38 3e 43 09 01 be 55 12 ef bd a3 88 dd bb
       0.18032075 -0.1260119 -0.116734184 -0.006760673
000200 4c 98 f1 bd 6a b9 40 be b2 0d 15 be e9 63 b5 bd
       -0.117966264 -0.1882073 -0.14556006 -0.08856947
000210 d3 65 00 be ca 2a f7 bd a9 e8 fb bc e0 4b 7f bc
       -0.12538843 -0.12068708 -0.03075059 -0.015582055
000220 68 82 3d bb 59 5e dc bd f5 3d 0a bd 4e 10 fc bc
       -0.002891684 -0.10760183 -0.033750493 -0.030769493
000230 80 f9 06 be 64 a5 86 bd 83 78 46 be 47 05 b9 bd
       -0.13181114 -0.065745145 -0.19381909 -0.0903421
000240 bc 3a 02 be 06 2b c8 bd 02 00 e3 bd 21 9c cb bd
       -0.12717718 -0.09773831 -0.11083986 -0.099418886
000250 ba e1 34 bd de fe df bd 27 3f 12 bd 87 f0 07 3d
       -0.044160582 -0.10937284 -0.035704758 0.03318837
000260 d9 10 5e be 54 f3 75 bc 8e 2d 68 bd ad 19 3e be
       -0.21686114 -0.015011627 -0.05668407 -0.18564482
000270 08 41 ed 3d 39 05 4f bd ca 9f 49 bc 57 08 26 bd
       0.11584669 -0.05054209 -0.012306163 -0.040535297
000280 3a be b1 bd 1e 55 b4 bd d5 c7 38 bc ed 7e bf bd
       -0.08678861 -0.08805297 -0.011278112 -0.09350381
000290 a2 2f a7 bd 18 b7 ba bb 6d 34 bc bb 90 5e 27 3d
       -0.08163382 -0.005698096 -0.0057435543 0.040861666
0002a0 e0 25 1a be 2b e1 a2 bd 49 8e a1 bd a3 40 ea bd
       -0.1505351 -0.07953104 -0.07888467 -0.1143811
0002b0 60 ad 1b 3d ed 26 2d bc 08 c4 92 3c 9b 47 28 be
       0.03800714 -0.010568363 0.01791574 -0.16433565
0002c0 04 06 8b 3b dc 72 bf bd 9f 25 b8 bc 42 1e 8b be
       0.0042426605 -0.093480796 -0.022478877 -0.27171522
0002d0 70 41 c7 bd 3c 47 ad bd a7 8a 9e 3b a6 59 10 be
       -0.09729278 -0.084608525 0.004838306 -0.14096698
0002e0 94 10 08 bb 67 9a 9e bd 5b 4b ef bd 6c 53 f3 bd
       -0.0020761834 -0.07744294 -0.11684295 -0.11881146
0002f0 1f 92 29 bb 8a ab 47 bb 05 a0 22 bc 46 d4 0b bc
       -0.0025874448 -0.0030467235 -0.009925847 -0.008534497
000300 57 28 78 bd 64 f3 30 be 32 77 78 bd 80 b1 36 3d
       -0.060585346 -0.17280346 -0.06066055 0.04460287
000310 03 8a 30 be f4 57 34 bd 83 cd 8e bd 93 4d 3a be
       -0.17240147 -0.04402919 -0.06972792 -0.18193655
000320 8b 5b d4 bd a6 ac f0 bd d9 1b 14 be 64 2c 14 bd
       -0.10369023 -0.1175168 -0.14463748 -0.036175147
000330 58 21 95 bd 86 58 3c bc 72 d2 99 3c b8 b5 b1 3c
       -0.072817504 -0.011495715 0.018777106 0.021693096
000340 e5 38 32 be f3 55 06 bb db 96 d0 bd 91 a5 cb bd
       -0.17404516 -0.0020498007 -0.101850234 -0.09943689
000350 3e aa 21 3d 0e 29 88 bc 7e 5a 21 be 62 58 24 be
       0.039468996 -0.016621139 -0.15757176 -0.1604934
000360 6c f4 bf bd dc ef 20 be aa 75 1e be 47 13 4a be
       -0.09372792 -0.15716499 -0.15474573 -0.19733916
000370 53 0a 79 bb 2f 52 c6 bd 51 b2 f5 bd 7b 58 18 bd
       -0.0038000538 -0.09683644 -0.11996902 -0.037193757
000380 2f e3 58 bd 6a d8 26 be c8 32 bb bd 28 0a c3 bc
       -0.052951034 -0.16293493 -0.09140545 -0.023808554
000390 05 9c eb bd 72 14 8a bd 99 c0 8a 3c c3 f7 c9 bd
       -0.11504368 -0.06742181 0.01693754 -0.0986171
0003a0 44 b1 26 bd 48 1a b7 bd 81 48 83 be cf d5 2a bd
       -0.040696397 -0.089405596 -0.25641254 -0.04170781
0003b0 09 09 95 bd c5 68 b0 bc 6a 90 4e bc b7 91 44 be
       -0.07277114 -0.021534333 -0.012607673 -0.19196211
0003c0 b5 87 2c be 28 82 98 bd 4d ff 56 3d 66 f9 e1 bd
       -0.16848643 -0.074467 0.052489568 -0.11033897
0003d0 ce 92 28 bb 14 b3 98 bd 6e 17 82 be 41 bf 7a 3b
       -0.0025722268 -0.074560314 -0.254085 0.003826097
0003e0 7c 80 1c 3c 54 77 9e bd 65 95 48 bd 3f 73 fb bd
       0.009552117 -0.07737604 -0.0489706 -0.12277841
0003f0 ee 7b 82 bd d7 44 f0 bd 59 73 7f bc 89 bc 01 be
       -0.06371294 -0.1173188 -0.015591466 -0.12669577

fc2.bias f4 [3]
000000 19 ba 89 bd ff 76 a7 bd 6f 32 b0 3d
       -0.067249484 -0.081769936 0.086033694

fc1.weight f4 [128, 6]
000000 ed b9 02 3f d8 80 31 3f bd 80 07 3e 93 b3 e5 bb
       0.5106495 0.69337225 0.13232704 -0.0070099323
000010 14 1a cd 3c de c3 31 bd e3 e4 8d bf 49 ef 1e 3f
       0.02503685 -0.043399684 -1.1085476 0.6208387
000020 98 a5 97 be 85 10 3c 3e 4e b9 ef be 45 2f 17 be
       -0.29618526 0.18365677 -0.46821064 -0.14764126
000030 41 f7 c9 bf f9 21 5a be c4 00 8a bf 64 bf 1b bd
       -1.5778581 -0.21302022 -1.0781484 -0.03802432
000040 e7 d4 21 bd 84 2a 0a be c4 05 57 bf 45 5e b5 3d
       -0.03950968 -0.13492781 -0.8399317 0.08855871
000050 60 3d 64 be a5 ec ac 3e 6f 7e 9c 3e 1d 2c 5f 3e
       -0.22289038 0.33774295 0.3056521 0.21794172
000060 10 21 4a bf 22 c6 c6 be b1 07 66 bf 38 90 83 be
       -0.789567 -0.38823038 -0.89855486 -0.25695968
000070 56 3f df 3d c9 e5 d2 3d 25 9a d1 3e a9 5c 2a 3f
       0.10900752 0.10297734 0.40937915 0.6654764
000080 fe 67 2e 3e d0 ab a8 3d 17 13 46 3d e1 7a 41 3d
       0.17031857 0.08235896 0.04835805 0.047236327
000090 57 46 da bf 43 01 a2 3d eb 07 02 bd 84 fd 29 3f
       -1.7052716 0.07910397 -0.031745832 0.6640246
0000a0 54 23 f6 bd 26 ad 11 bd 33 65 df bf 8e 11 90 3f
       -0.12018457 -0.035565518 -1.7452759 1.1255357
0000b0 f1 e8 93 bf fd 76 9c 3f bc 75 23 3e 63 3a 5c 3e
       -1.1555463 1.2223812 0.15962881 0.21506648
0000c0 34 ca ae bf e3 79 17 be a8 d7 07 3f 56 0f 30 be
       -1.3655457 -0.1479259 0.5306344 -0.1719335
0000d0 78 51 7a bd b1 1f d6 bd 31 21 16 bf ac f7 b1 3e
       -0.06111285 -0.104552634 -0.58644396 0.3475927
0000e0 08 cf 45 3f 80 92 ac be f1 33 a6 3d 5c e2 47 bc
       0.7726903 -0.3370552 0.08115376 -0.012199964
0000f0 e9 43 0f 3f 52 db a7 3f 88 98 28 bf df 51 32 bf
       0.55963 1.3113806 -0.65857744 -0.69656175
000100 41 ad 1e be 3c ab 9c 3d b0 a1 ce 3e e9 0c a1 bd
       -0.15495779 0.07649848 0.40357733 -0.078637905
000110 77 97 de bc 17 13 0e bd a0 6e 0f bd 8e 78 a3 bd
       -0.027171833 -0.034686174 -0.03501761 -0.07981978
000120 76 50 fc be dd a9 a9 be 65 32 26 bf e1 77 04 bf
       -0.49280137 -0.33137408 -0.64920646 -0.5174542
000130 1e b4 c3 3c b2 63 f2 3d 09 15 81 3f 63 c3 8b bf
       0.023889598 0.118354216 1.0084544 -1.0919002
000140 0b c0 b3 3e 2e 2f fa 3e c9 4b 58 3e b0 a8 54 3c
       0.35107455 0.4886412 0.2112266 0.012979671
000150 7a fc 27 3e 5e 19 ee bf 03 8b 4f 3f 59 33 13 3f
       0.16404906 -1.8601491 0.8107149 0.57500225
000160 f6 de 1f be bd 65 96 be b8 82 16 bd e7 60 59 be
       -0.15612397 -0.29374495 -0.036745757 -0.21228372
000170 13 2e 31 bf b4 a8 06 3f aa df 99 3c a8 e7 a7 3e
       -0.6921093 0.5260117 0.01878341 0.32793927
000180 40 6f 0a c0 9c b1 57 3f d3 d9 7f 3d dc 59 a5 3f
       -2.1630402 0.84255385 0.062463593 1.2918048
000190 6b 70 92 bd 02 aa 1e be 09 54 bb bf 1c bf 98 3f
       -0.07150348 -0.1549454 -1.463502 1.1933322
0001a0 5e 37 f9 be e2 db aa 3e e4 4d 42 3f fe 45 fe 3d
       -0.48675054 0.33370882 0.759001 0.12415694
0001b0 83 a8 96 3f c5 65 f1 3f 74 a1 01 3f 7f bb c6 bd
       1.1770176 1.8859183 0.5063698 -0.09703731
0001c0 aa 11 bb bd fa ad fd 3d c8 a2 b1 bf 2e ed c9 be
       -0.091342285 0.12386699 -1.3877802 -0.39438766
0001d0 ab 26 93 be fd e5 56 3d 63 28 74 be c6 c4 40 bc
       -0.2874044 0.052465428 -0.23843531 -0.011765664
0001e0 ce 7c ae 3f 0a f0 0e 3f 69 a5 98 3e bf 92 26 3e
       1.3631837 0.5583502 0.29813698 0.16266917
0001f0 6c ad d2 be 9b dc 7f 3c 0f 23 fc be 27 c9 b6 be
       -0.41147935 0.015616561 -0.49245498 -0.35700342
000200 b4 67 1b 3f 6c 5e 15 bf 92 03 96 3f c6 e9 2b 3f
       0.60705113 -0.583472 1.171984 0.67153585
000210 ab 15 9b 3e 4a fa 85 3e 5b bd b2 bf f3 ba ee 3e
       0.3028997 0.26167518 -1.3964037 0.46627006
000220 b1 d6 39 3e e8 50 52 be a4 de 92 bf 5f bd 61 bf
       0.18148305 -0.20538676 -1.1474195 -0.8817958
000230 70 f6 65 bf bb 73 60 bf e7 3a b4 3d fc 74 8e 3e
       -0.8982916 -0.8767659 0.08800297 0.27823627
000240 c7 47 69 bf 5b 75 25 bf bd ad 40 be 79 d2 cf bf
       -0.9112515 -0.64632195 -0.18816276 -1.6236106
000250 90 e4 28 bf 38 91 30 be 12 10 99 bf 26 ff d9 3e
       -0.6597376 -0.17242897 -1.1958029 0.42577475
000260 b7 37 80 3e d4 98 b9 3e 81 12 3e 3e 50 95 46 3e
       0.25042507 0.3624941 0.18561746 0.19392896
000270 46 a1 78 bf bf 20 b6 3e c2 12 e4 3e 55 83 66 bd
       -0.97121084 0.35571858 0.4454556 -0.05627759
000280 68 7f b9 bd 80 14 14 3d bc fa 63 be e7 61 26 bd
       -0.09057504 0.036152363 -0.22263616 -0.04062071
000290 82 29 29 bd 1d a6 34 be bb 99 a8 bc 2a 0e 19 bd
       -0.04129935 -0.17641492 -0.020581117 -0.037367024
0002a0 cf dd 67 3e 8d ab ae be 6d 99 bd be ab 75 a5 3e
       0.22643207 -0.34115258 -0.37031117 0.32316336
0002b0 aa 7d d7 3d 94 b7 91 bd 94 f1 b2 be a3 70 15 3d
       0.105220154 -0.07115093 -0.34949934 0.036484372
0002c0 2c 05 66 3e 96 55 fd 3d b3 1c ed bc 06 89 1d bc
       0.2246291 0.1236984 -0.028944349 -0.009615188
0002d0 9e e9 0a c0 8c 3c 79 3e b3 47 2e bf d6 97 08 3f
       -2.1705089 0.24339503 -0.68078154 0.53356683
0002e0 1a 04 0b 3e 7c 91 21 3e 86 25 0a c0 33 ef b1 3f
       0.13575783 0.15778154 -2.1585402 1.3901123
0002f0 6d 61 2d bf 10 45 e9 3d 77 1f 8c be b7 75 3e 3d
       -0.67726785 0.11390126 -0.27367756 0.04649898
000300 00 d0 2d bf 77 0e 89 bd 35 1b 83 be c4 55 8e be
       -0.6789551 -0.06692212 -0.25606695 -0.2779981
000310 51 2e 4a be e7 c6 d3 bb a3 86 5b be 1f fa 30 3e
       -0.19744231 -0.00646292 -0.21438079 0.17282914
000320 d5 01 17 bf a2 39 e3 3d 97 33 92 be c4 9a a9 3d
       -0.5898717 0.11094977 -0.28554985 0.08281472
000330 35 b5 0c c0 b7 0e b4 bd 51 0b 47 bf ef 3e 2d be
       -2.19856 -0.08791869 -0.7775164 -0.16918539
000340 b6 7c e9 3e 1d c1 a3 bd 67 00 fb bf 8c 61 89 bf
       0.4560296 -0.07995818 -1.9609498 -1.0732894
000350 9e 03 a2 bf 66 a8 d6 bf 2d 51 f8 be 0c 1c e8 3d
       -1.2657354 -1.6770141 -0.48499432 0.113334745
000360 64 d9 1b bf 87 25 04 bd bb 9f bc be 82 fc d4 be
       -0.60878587 -0.03226235 -0.36840615 -0.41598898
000370 8f 75 12 be 09 a9 23 bd 91 8e 73 be 00 7b 31 3c
       -0.14302658 -0.039956126 -0.23784854 0.010832548
000380 3f 1b 5a 3b f5 18 99 be 80 c2 af bc e5 40 26 ba
       0.00332804 -0.29901853 -0.02145505 -0.00063420675
000390 48 d8 88 bf 05 82 67 3f a6 07 8e bf 36 5b b7 3e
       -1.0691004 0.9043277 -1.1096084 0.35811776
0003a0 49 ff ad 38 d2 b3 3f 3d e6 ae d6 be 32 13 69 3f
       8.2968334e-05 0.04680235 -0.41930312 0.91044915
0003b0 21 c0 c2 bf 84 ab 96 bf 11 bd ce be 52 43 49 3f
       -1.5214883 -1.1771092 -0.4037862 0.7861835
0003c0 42 48 8f be 80 a4 38 be 71 92 84 be 66 5b b3 bc
       -0.27984816 -0.18031502 -0.25892976 -0.021894168
0003d0 2d ad a0 bc 38 2c b7 3b 55 5a 4e bf ff 14 cd bc
       -0.019613827 0.005589988 -0.80606586 -0.025034426
0003e0 f7 7b b1 bd c6 52 c8 3d 64 8e af 3d 6d 13 2c bd
       -0.086662225 0.09781413 0.08572081 -0.042010713
0003f0 b8 10 d6 bf bf df 0c 3f 6f 00 c4 bf 15 5c 8e 3e
       -1.6723852 0.5502891 -1.5312632 0.27804628

fc1.bias f4 [128]
000000 83 0c 3c 3f 3e 2a a6 bf c2 13 b3 be 96 31 1b c0
       0.7345659 -1.2981641 -0.34976012 -2.4249015
000010 66 2e 3f bf cc 3c 9f 3f 7c 55 c3 bf 36 e6 fc bf
       -0.74680173 1.2440429 -1.5260463 -1.9757755
000020 2d 67 04 c0 51 2a 98 be b2 97 90 3f b4 b8 ce 3e
       -2.0687973 -0.29719785 1.1296294 0.40375292
000030 87 49 50 3f 46 d4 a0 3f 77 20 a2 3f bb 05 01 c0
       0.81362194 1.2564781 1.2666157 -2.0159748
000040 0b 07 17 c0 5f 76 cf bf 14 66 b7 3f 67 91 e7 bf
       -2.3598049 -1.6207999 1.4328027 -1.8091248
000050 80 60 fd 3f d2 42 cd bf ae 81 fa 3f f1 46 72 3f
       1.9795074 -1.6036017 1.9570825 0.946395
000060 ef 44 21 c0 9a 83 be bf e2 23 e4 bf ec eb 4e 3d
       -2.5198324 -1.4883912 -1.782345 0.05051796
000070 a3 65 3a bf a3 36 21 bf 01 4e 1f bf cc 59 01 c0
       -0.72811335 -0.62973994 -0.622284 -2.0211058
000080 93 6b 16 bf 32 46 27 c0 35 39 fd bf 8d 04 cf bf
       -0.58757895 -2.6136594 -1.9783083 -1.6173264
000090 68 f6 f5 bf 28 fa 8e bf 1b eb af bf cb 96 d8 bf
       -1.9215822 -1.1170092 -1.3743623 -1.6921018
0000a0 82 e8 5a bf c4 7c c5 bf aa 22 12 c0 7c f0 ce bf
       -0.8551103 -1.54287 -2.2833657 -1.616714
0000b0 ba 34 9c bf 3d 2b 1e bf cc 59 95 bf 74 a5 fa bf
       -1.2203591 -0.61784726 -1.1668029 -1.9581742
0000c0 6a 62 96 3f c1 07 c1 bf ea 11 8d 3f 75 80 b5 3d
       1.1748784 -1.5080491 1.1021092 0.08862392
0000d0 ab 09 71 bf 8d 39 7a 3f b7 96 b3 3f 68 5a 29 3f
       -0.9415538 0.97744066 1.403037 0.66153574
0000e0 0f a6 05 c0 57 3a 02 bf 09 f8 ef bf d5 2e de bf
       -2.0882604 -0.5087027 -1.8747569 -1.7358042
0000f0 6c 4e ef be c2 78 a4 bf 4a 29 f8 3f 53 84 a8 bf
       -0.4673952 -1.2849352 1.93876 -1.3165382
000100 04 9e 97 be ad aa 11 c0 33 ed bf bf e7 ec c6 3f
       -0.29612744 -2.2760422 -1.4994262 1.5541047
000110 8c 6d e2 bf 9e b0 4c bf dd 9c f1 be 36 b9 6d bf
       -1.7689681 -0.79956996 -0.4718999 -0.92860734
000120 3b 5b aa bf 08 5b 2b c0 81 a4 28 c0 1e db ee 3f
       -1.3309091 -2.677431 -2.6350405 1.8660619
000130 24 fa ed 3e 06 d5 00 bf 8a b4 00 c0 9e e9 22 c0
       0.46479905 -0.5032505 -2.0110192 -2.5455089
000140 2c eb fa bf fb 17 44 c0 05 5e 57 3f aa f8 b6 bf
       -1.9603019 -3.0639637 0.8412784 -1.4294636
000150 30 ab a1 bf 96 f5 57 3f 3e d8 ee bf 35 1a c4 3f
       -1.2630367 0.8435911 -1.8659742 1.5320498
000160 78 c0 70 bf 63 95 71 bf bb ce 61 3f 69 51 18 c0
       -0.94043684 -0.9436857 0.8820607 -2.379969
000170 bc 77 c2 bf c9 5d a8 bf cc 81 30 c0 20 96 df be
       -1.519279 -1.3153621 -2.7579222 -0.43669224
000180 fa b4 b2 bf fb 0a fc bf ab 4d 94 bf 1c c4 7a be
       -1.396148 -1.9690851 -1.1586202 -0.24488872
000190 1e b5 1d bf bd f7 b4 bf 28 bc a7 bf c2 f6 a6 3d
       -0.6160449 -1.4138104 -1.3104296 0.08152534
0001a0 78 30 3d c0 9a 9c 9a be 85 10 3c c0 64 22 45 be
       -2.9560833 -0.30197603 -2.9385083 -0.192514
0001b0 60 ac 08 c0 eb fe 91 3f 03 ca 0f c0 ea 43 91 bf
       -2.135521 1.140592 -2.2467048 -1.1348851
0001c0 aa 98 a6 bf ab 23 df bf a7 1d 12 c0 5d 2b be bf
       -1.3015339 -1.743276 -2.2830598 -1.4856983
0001d0 40 69 80 bf 4d ac 27 c0 b7 ac 6e bf 7e 1f 82 3f
       -1.003212 -2.6198914 -0.9323229 1.0165861
0001e0 af e9 0f bf 3b 23 f3 3f 98 45 1d 3f b7 9a 09 c0
       -0.5621595 1.8995126 0.61434317 -2.150068
0001f0 e9 ac 22 c0 a2 33 c2 3f c4 96 72 bf 16 e7 0a c0
       -2.5418036 1.5172007 -0.947613 -2.1703544

fc2.weight f4 [1, 128]
000000 00 73 8e bc 4c 45 8d bd 68 ed 92 bd 0a 75 14 be
       -0.01738882 -0.06897983 -0.07174188 -0.14497772
000010 86 d8 c6 bc 92 8c 9e bc 97 0d d2 3d 55 e1 1f bf
       -0.024273168 -0.019354139 0.10256498 -0.62453204
000020 10 a2 b7 3d 38 36 33 3d 63 38 b2 bd 9b b3 4c bc
       0.08966458 0.04375288 -0.08702161 -0.012493993
000030 ab 76 04 bc 6f b1 fd bd c3 29 4a be be 17 0d 3e
       -0.008084933 -0.123873584 -0.19742493 0.13778588
000040 a9 58 88 3e b6 b2 ba be e7 82 40 be 77 2c 62 bd
       0.26630142 -0.3646447 -0.18799935 -0.055218186
000050 df 35 8a be 6f 18 e7 3e d2 cb ae be 85 04 b4 bd
       -0.26994225 0.4513583 -0.34139878 -0.087899245
000060 bc b2 67 3e 3e 97 45 be 0a 71 50 bd 05 74 8e 3c
       0.22626776 -0.19295976 -0.050889052 0.017389307
000070 80 ae 0a bd 79 9e 2b 3d e5 45 ee bd 4e 5a 9a bd
       -0.033857822 0.04189918 -0.11634425 -0.075367555
000080 42 ef 8b bb b4 05 89 bc eb 43 6a be ec a7 9f 3e
       -0.004270465 -0.016726352 -0.22877471 0.31182802
000090 1f 5c a2 bd df fe 59 bc 66 71 c0 bd 98 f0 a7 3e
       -0.07927727 -0.013305395 -0.09396629 0.32800746
0000a0 bf 34 ee bc ee bb f4 3c 02 71 64 be c1 2f d2 bd
       -0.029077886 0.029874768 -0.22308734 -0.102630146
0000b0 96 83 38 3e d5 82 17 3c 78 d5 8d 3c b3 e0 6e 3e
       0.18018946 0.009247501 0.017313704 0.23327903
0000c0 44 1b 28 be 43 58 4b 3e e3 ae 82 be e6 49 86 be
       -0.16416651 0.19857888 -0.25524053 -0.26228255
0000d0 90 3d ed 3c 1c 42 16 bc bd db 04 be f1 c1 af bc
       0.02896002 -0.009171035 -0.12974449 -0.021454783
0000e0 33 5d ae bd 2f e8 2c 3d 39 bf 5c be de 9e e3 bc
       -0.0851387 0.042213615 -0.2155732 -0.027785715
0000f0 33 19 8d be 65 82 94 3d c4 5d 15 be 25 98 3f be
       -0.27558288 0.07251433 -0.1458655 -0.18710382
000100 86 0d dc bc 25 9a 8f 3e d3 a4 56 3f af 21 38 bd
       -0.026861917 0.2804729 0.8384525 -0.044954
000110 a4 62 57 be 7c e0 51 3d d7 a3 6a bc 5f dd a8 bb
       -0.21033722 0.051239476 -0.014321289 -0.0051533426
000120 a1 55 1f bd 7b 06 b1 3e 5b 56 0c bf 05 1e 7b be
       -0.03890002 0.34575257 -0.5481927 -0.2452317
000130 3f d0 b4 bb df 85 ee bc f5 52 95 3e 28 93 d4 be
       -0.005517989 -0.02911657 0.29164854 -0.4151852
000140 ee b1 a3 bc f3 00 c0 3e 58 78 ae be e7 83 da 3e
       -0.019982304 0.37500724 -0.3407619 0.42678759
000150 39 ab 68 bd 67 3a 87 bd 3f 35 d4 bd 1d 23 98 be
       -0.056803916 -0.06602936 -0.103617184 -0.2971429
000160 76 70 ed ba 05 42 6f bd ba 80 99 bc 8d cf 17 be
       -0.0018115181 -0.05841257 -0.01873814 -0.14825268
000170 8d d1 9b 3e 26 8c 0a 3e da a5 38 bd 04 ab a3 3c
       0.30433312 0.13530025 -0.045080043 0.019979008
000180 14 cf c4 3d 03 5d 0a 3d ef 95 85 3c ed 41 84 bd
       0.096098095 0.03378011 0.016306845 -0.06457887
000190 3f 24 e7 3b 31 37 50 3d 72 52 e6 bc f3 74 d0 3d
       0.0070538814 0.050833885 -0.028115485 0.10178556
0001a0 6a 1b 94 be 08 17 09 bd 74 ee c7 be a1 aa 46 bc
       -0.28927165 -0.03346923 -0.39049113 -0.012125642
0001b0 dc 6c 82 bc 6d 64 b6 bd 02 52 a5 3e f1 52 3f 3c
       -0.015921049 -0.089058734 0.3228913 0.01167749
0001c0 d9 5b 8f bd 22 46 ec ba fe 3d 54 be a4 a1 e9 3d
       -0.069999404 -0.0018026272 -0.20726773 0.11407784
0001d0 72 fe 21 be bb a7 ae 3e 03 0e 72 3d 35 ea 9c be
       -0.1581972 0.34112343 0.059095394 -0.30647436
0001e0 3d 3c dd bd fa 5d 8a be 68 3a 9c bc bb f8 fd be
       -0.10802505 -0.27024823 -0.019070819 -0.4960383
0001f0 58 66 00 3f f6 03 12 be 75 54 4b bd cf 65 7b 3d
       0.50156164 -0.14259323 -0.04964109 0.06137639
