demo/base/ppo/test2/ppo.pt (torch, 11599 bytes, 7 tensors)

fc1.weight f4 [128, 6]
000000 5b 01 81 3e 66 1b 9a 3e b1 01 b9 be 46 77 de bd
       0.25196347 0.30099028 -0.36134103 -0.10862593
000010 1d d0 98 be 5c 45 7d 3d 62 ef 32 3e cd f9 c8 3e
       -0.29846278 0.061833724 0.1747413 0.39253083
000020 cb e6 e7 3c cb ff 25 3e e5 41 2a be 6b 01 ac bc
       0.028308293 0.16210859 -0.166267 -0.02099677
000030 b1 e0 f0 be 41 69 62 be 08 de 6f be a0 ed a8 be
       -0.47046426 -0.22110464 -0.23424542 -0.32993793
000040 45 f5 9f 3d bb 2f b9 3e bc fd cc be f5 91 be bd
       0.07810453 0.36169228 -0.40037334 -0.09305183
000050 a4 5b 82 bd 77 2c d9 3e d3 86 d1 bd 95 1a 73 3e
       -0.06365135 0.42416736 -0.10230794 0.23740609
000060 04 a6 10 be d1 cc a1 3d 5c 62 8e 3e 04 bd 72 be
       -0.1412583 0.07900394 0.27809417 -0.23704916
000070 a6 dc 62 be 21 62 73 be 92 41 8d be b9 84 cd 3e
       -0.22154483 -0.23767902 -0.2758909 0.40140322
000080 f8 8d b6 be 07 c9 be 3d 87 13 a4 be a4 89 c6 be
       -0.3565519 0.09315687 -0.32046148 -0.38776886
000090 3d 7a 63 be 42 26 cb 3e 8e 4a 37 bd 88 0e be 3e
       -0.22214599 0.39677626 -0.044748835 0.3712046
0000a0 69 51 02 be da fc a3 be bd e8 79 3d d0 7b 05 bf
       -0.12726368 -0.32028848 0.061012972 -0.5214205
0000b0 85 34 a9 be c8 40 15 bf e7 2e 7b 3d 47 25 c3 3e
       -0.33047882 -0.58301973 0.061324026 0.38114378
0000c0 12 e4 21 3d bc fa d2 be 81 53 78 3e 8b 4e 53 3f
       0.039524145 -0.4120692 0.24250604 0.8254172
0000d0 ee 5e 29 3d 8b dc fb 3c 09 2c bd 3e 0b 48 98 be
       0.041350298 0.030744812 0.3694766 -0.29742464
0000e0 f5 93 87 3d f8 f3 4d be 3c 12 83 be f5 be 43 be
       0.066200174 -0.20112598 -0.2559985 -0.19115813
0000f0 f4 f9 6a 3e d3 89 2c bc ec 5d d0 be 59 0e db 3e
       0.22946912 -0.010530907 -0.40696657 0.42784384
000100 50 38 c1 3d 60 ce fc bd ae 09 57 bc e1 26 b7 bb
       0.09434569 -0.123440504 -0.013124866 -0.0055893515
000110 42 44 a9 3e c3 a8 c2 3e 4a eb 43 be 96 43 f9 bd
       0.3305989 0.3801938 -0.19132724 -0.12171094
000120 6c 52 d3 3d d5 18 8b 3e cc b2 97 3e 26 1c b7 3e
       0.10318455 0.27167383 0.296286 0.35763663
000130 d6 8a 53 3e eb b3 db be d0 50 61 3e c1 d9 c4 be
       0.2065843 -0.42910704 0.22003484 -0.38447383
000140 e7 44 06 bf 1f 87 00 3f e2 ef 6a 3e 17 37 18 bf
       -0.52448887 0.5020618 0.2294307 -0.5945906
000150 3f 96 d0 3d 45 41 11 be a1 9c 58 be 1c 89 5a bd
       0.10184907 -0.14185055 -0.21153499 -0.053353414
000160 2a da 4f 3e 1b 50 e5 be 02 07 65 bd 9d 0e bf 3e
       0.20298067 -0.44787678 -0.055914886 0.37315837
000170 11 8b 3a 3e 08 84 a5 3e 61 6d b0 be b5 9b 83 be
       0.18217112 0.32327294 -0.3445845 -0.25704733
000180 44 eb 15 3e 5f c8 93 3e 75 10 c3 be a0 17 c5 be
       0.14640528 0.2886381 -0.38098493 -0.38494587
000190 46 98 86 3e 52 39 19 3e de 29 6f be 85 bd e1 3d
       0.2628805 0.14963272 -0.23355815 0.11022476
0001a0 87 a9 e3 be 67 65 2d 3d fb f3 a7 be 55 0e b0 be
       -0.44465277 0.042333033 -0.3280333 -0.34385934
0001b0 56 35 0a bd f4 af 16 3e cb 15 c4 bc 49 e9 ca 3e
       -0.03374227 0.14715558 -0.023936173 0.39631107
0001c0 b9 e1 fc bd f2 a7 47 3e 36 36 65 3e 16 7d 02 bf
       -0.12347741 0.1949766 0.22383961 -0.50972116
0001d0 0c 03 2f be 06 7b d5 3e 06 c7 36 39 53 46 f0 3d
       -0.17091006 0.41695422 0.00017431015 0.11732163
0001e0 41 e6 5e 3e af f8 40 3e d3 c5 52 be 04 9d 85 3e
       0.21767522 0.18844865 -0.20583276 0.26096356
0001f0 45 36 d7 be ba bd 57 be ab e4 e7 3d 49 25 13 be
       -0.42033592 -0.21068469 0.11322912 -0.14369692
000200 2c 7c b1 bd 4f f7 f3 be a6 16 b0 bd 70 7b c4 3d
       -0.08666262 -0.4764962 -0.0859807 0.09593856
000210 33 71 9e be 8d ba 5a 3d 8e 62 e5 3d 10 d6 d3 3d
       -0.3094574 0.053400565 0.112004384 0.103435636
000220 7e a6 60 be 1a 0b 7e be e3 1b 46 3e b4 2d 40 3d
       -0.21938512 -0.24808922 0.19346575 0.046918586
000230 87 62 e2 3e 94 96 16 3f ea a9 ac 3e 8e b1 25 be
       0.44215795 0.58823514 0.33723384 -0.16181013
000240 df 92 d2 be 88 3d b4 be 8a 35 63 3e 38 06 d2 3e
       -0.4112768 -0.35203195 0.22188392 0.4102037
000250 fa b3 85 be a6 7b 8e be e6 26 58 be a7 57 f5 be
       -0.26113874 -0.2782871 -0.21108589 -0.47918436
000260 21 b3 27 be 58 ae 6a 3e aa 29 dc 3d 94 62 b3 be
       -0.16376926 0.2291807 0.10750134 -0.35036147
000270 9c 00 e8 3e 13 6e ad bd 0d 88 42 bd 9d 1b 2c be
       0.45312965 -0.084682606 -0.04749303 -0.16807409
000280 d1 58 0b be 9e 6e 0b be 20 d1 ea be 21 0b 81 be
       -0.136081 -0.13616416 -0.45862675 -0.25203803
000290 b2 32 54 bd 77 19 3a 3e d2 36 02 be 66 e1 2a 3d
       -0.05180616 0.18173777 -0.12716225 0.041718863
0002a0 b3 7e 47 bf 5d ee 17 3e ac 39 35 3e 8e b3 eb be
       -0.779277 0.14837022 0.17697781 -0.46035427
0002b0 1a 8c 9c 3e 56 eb 78 3e 5b 97 e6 be 13 89 af 3e
       0.3057564 0.24308524 -0.4503735 0.34284267
0002c0 ff 3b 8e be d1 47 93 be 55 31 d6 3d 2e 73 99 be
       -0.27780148 -0.2876573 0.10458628 -0.29970688
0002d0 cc c6 fd 3d e7 f0 8a be 22 36 aa 3e 50 68 4c be
       0.12391433 -0.2713692 0.33244425 -0.19961667
0002e0 bf b7 b3 3d 0d 23 97 3e ad d1 eb be df bb 1b 3e
       0.08775281 0.2951893 -0.46058407 0.15208386
0002f0 e7 97 82 be a7 86 df bd da 88 81 3e 1d 40 81 3e
       -0.25506517 -0.10914355 0.25299722 0.25244227
000300 dc f7 3d be a4 80 4b 3e cb b9 90 be 57 3d 73 bd
       -0.18551582 0.19873291 -0.2826675 -0.05938467
000310 14 1a 74 be 12 c4 d0 3c b1 a0 c0 be d4 4b 21 3e
       -0.23838073 0.025484119 -0.37622598 0.15751582
000320 e5 7e 3a 3d 99 3f ba 3e 30 03 ae be 1c a2 b9 be
       0.045531172 0.36376646 -0.33986807 -0.36256492
000330 69 7b c2 bd ef 70 4a 3e fa 16 a3 be a4 9c 1a 3f
       -0.09496195 0.19769643 -0.31853467 0.60395265
000340 71 79 57 bd 23 5a a4 bd 49 fd 30 be 27 ff 10 bd
       -0.05260605 -0.08025005 -0.1728412 -0.035399582
000350 ae e2 c3 bc 4d f4 96 bd 45 12 d7 3c 5a 91 aa 3d
       -0.0239118 -0.073708154 0.026253829 0.08328505
000360 bb b6 76 be c5 7f 74 be d2 d2 c4 3e f4 27 47 bf
       -0.24093144 -0.23876865 0.38442093 -0.7779534
000370 a3 65 ac bd 31 f3 01 3f ea df f1 3d a5 2a b1 3d
       -0.08417823 0.50761706 0.11810286 0.08650712
000380 a1 7c cf be 68 08 00 3f 23 f7 8b be aa 9f 1b be
       -0.40524772 0.50012827 -0.27336988 -0.15197626
000390 1a a6 11 3d bf 43 f5 bc f0 00 04 3c c8 5f 0e 3f
       0.035558797 -0.02993953 0.008056864 0.556149
0003a0 1e 2c 3f bd fe b6 91 3e b0 97 be 3e c6 cd 9b be
       -0.046672933 0.28459924 0.37225103 -0.3043043
0003b0 cd fa 56 3e 81 41 41 bf c4 a3 2d be bc bb 9a 3d
       0.2099411 -0.75490576 -0.16957003 0.07555339
0003c0 f0 75 e2 3d 21 36 0a 3e 87 45 af be 97 b4 e8 3d
       0.11057651 0.13497211 -0.34232733 0.1136257
0003d0 48 c9 8d 3e cb e5 07 bf d9 a8 e7 3e 22 7e 5d be
       0.27692628 -0.5308501 0.45246008 -0.21630147
0003e0 4c f8 5c 3e 3f 63 15 bf de 86 96 be c2 c4 50 3c
       0.21579093 -0.5835456 -0.2939977 0.012742223
0003f0 bc 21 e1 3e 83 97 99 3d 28 df 36 bd 24 9b 1c be
       0.4397105 0.07499602 -0.044646412 -0.15293556

fc1.bias f4 [128]
000000 96 f0 e5 be e9 93 ae be 3d 08 59 3e 77 a0 d8 be
       -0.44910115 -0.34097221 0.21194549 -0.42309925
000010 cc e4 33 3e 85 e9 b5 3b c3 d0 83 3e fd 17 15 be
       0.17567748 0.0055515193 0.2574521 -0.14559932
000020 8d 3a 1d 3f 9b e4 00 bf 7e 10 ff 3e 15 78 10 bf
       0.61417466 -0.50348824 0.4981727 -0.5643323
000030 e0 77 c7 be 33 74 1b 3f 01 8b c5 3d 99 be 04 be
       -0.38958645 0.6072418 0.096456535 -0.12963332
000040 a0 81 7d be f2 9b 4c be fb 42 8d be 67 c1 b5 be
       -0.2475648 -0.19981363 -0.27590165 -0.35499117
000050 5b 15 50 be 45 ac 89 bd 00 fb f0 3c 50 b7 1a 3b
       -0.20320646 -0.06722311 0.029416561 0.0023607798
000060 5d fb fb 3e 82 2a 16 3e 9f 8b 89 be 2b 79 86 be
       0.49215212 0.14664653 -0.26864335 -0.2626432
000070 42 b1 f1 bd dd 77 4d be 4a 02 24 3e 81 27 95 be
       -0.11801387 -0.20065255 0.16016498 -0.29131702
000080 09 a6 82 bd dd 78 05 be 41 6f d1 3e 81 7e 8e be
       -0.06379325 -0.13034387 0.40905192 -0.2783089
000090 a9 91 5c 3e 1d f7 64 3e 9c 75 da 3e 2f 1c 70 bd
       0.2153994 0.22359891 0.42667854 -0.058620628
0000a0 fa f7 2b 3e 1a 2a 8e 3d 47 e3 e7 be a5 1f 93 be
       0.16793814 0.06941624 -0.45290586 -0.2873508
0000b0 10 4f b9 3e 1e 7b d3 be 8d 32 10 3e 02 d9 8f 3b
       0.36193132 -0.41304868 0.14081784 0.004389883
0000c0 10 36 b4 be 20 02 13 3f c7 09 23 bc 07 de 21 be
       -0.35197496 0.5742512 -0.009951062 -0.15807353
0000d0 d0 da f8 3e 52 a9 d7 be 92 55 17 3e 33 41 ff bd
       0.4860444 -0.4212137 0.14778736 -0.12463608
0000e0 0d 08 5c be aa 41 30 be 0b e8 4b be 04 1e cf be
       -0.21487446 -0.17212549 -0.19912736 -0.40452588
0000f0 73 c3 32 3e 4f e1 5c be b1 43 c3 3e ff 6a fa bd
       0.1745737 -0.21570323 0.38137582 -0.12227439
000100 30 37 c9 bd 3a bb 49 be 19 56 17 bd e1 19 39 3e
       -0.09824979 -0.19700328 -0.036947343 0.18076278
000110 b6 06 89 bd 9e 65 2c 3d da 57 37 3d 99 f3 52 be
       -0.06690733 0.042089097 0.044761516 -0.20600738
000120 f6 81 44 3e 79 c4 a2 3e af ed 81 3e 78 90 87 3e
       0.19190201 0.31790522 0.2537665 0.26477408
000130 f4 b9 1d be 78 a1 91 3e 75 d1 a5 bb 5d 9b b0 bc
       -0.15402967 0.28443503 -0.0050603696 -0.021558458
000140 56 f4 de bd ee 4d b1 bd 1b 3c 57 bc f2 26 c0 3e
       -0.10886447 -0.08657442 -0.013136889 0.37529713
000150 dd c3 3d be 74 cb 9b bd 1b b0 97 3e a0 a7 56 be
       -0.18531747 -0.07607165 0.29626545 -0.20962381
000160 8b 52 28 3e b2 c9 45 be 7e 71 c3 3e 1b 3f a1 be
       0.16437738 -0.19315222 0.38172525 -0.31493458
000170 b3 ea a0 3e a1 14 52 3e 5e b5 0e bc 8e 30 14 be
       0.3142906 0.20515682 -0.0087102335 -0.14471647
000180 ac d3 0a 3f e6 0e 5d bd af 5b 1e ba 0f 3b bb be
       0.54229236 -0.053969286 -0.00060408836 -0.36568496
000190 57 88 6f 3d e4 48 8e 3e 3e 3c a7 3e a6 3e f3 3d
       0.058479633 0.27789986 0.3266315 0.118771836
0001a0 c4 19 14 bf ab f8 24 3e 3b 7f 78 be bd cc b1 bd
       -0.57851815 0.16110484 -0.24267285 -0.08681629
0001b0 2a b6 c6 3e 1c 92 2e 3e 80 24 0c bd b2 fe a3 be
       0.38810855 0.17047924 -0.034214497 -0.32030255
0001c0 5e ba a8 be 57 a8 f9 be a3 71 93 be 56 b7 1d 3f
       -0.32954687 -0.48761246 -0.28797635 0.61607873
0001d0 3e 33 83 3e 82 ae 80 3e 50 26 1a 3c f8 ed 4d be
       0.25625032 0.2513314 0.0094085485 -0.20110309
0001e0 65 c6 29 be c2 4e d4 3e 88 21 a7 be a5 a9 1d 3f
       -0.16579588 0.41466337 -0.3264277 0.6158698
0001f0 00 d2 e1 bd 5a 87 f8 3e fd 98 5b bd a8 03 b5 3e
       -0.110263824 0.48540765 -0.053612698 0.35354352

fc2.weight f4 [3, 128]
000000 95 90 53 be 47 20 6d bd c1 1d 5a bd 5c 02 a9 3d
       -0.20660622 -0.05789211 -0.05325103 0.08252403
000010 71 8a 4c 3c 37 ab 1f 3e 48 0e 1b 3e 6c 78 6a bc
       0.012484179 0.15592657 0.15142167 -0.014310937
000020 e9 29 ac 3e 1b ff 30 be d7 b3 a9 3d 84 50 6e 3c
       0.33625725 -0.17284815 0.08286255 0.014545564
000030 60 50 00 3e 36 57 04 3e b8 1d 24 3e 62 86 c2 3d
       0.1253066 0.12923893 0.16026962 0.09498288
000040 cf 2e e7 3b 10 e9 92 3d 54 f1 85 3d 0f bc 8b 3e
       0.0070551406 0.071733594 0.0654017 0.27291915
000050 37 86 74 bd ad 15 26 be 0d e4 18 3e 92 d9 14 3e
       -0.05969831 -0.16219206 0.14930744 0.14536121
000060 e9 2a 37 3e 2b 5e a9 3c f1 8d 43 be db 89 8a 3d
       0.17887463 0.020674786 -0.19097115 0.06764575
000070 9e 90 0d be d6 1b fa bc ea fe e8 3d 7e 8e 0f be
       -0.13824698 -0.030530851 0.11376746 -0.140192
000080 c0 a8 a4 3a 95 ab 1a 3e 4e 3a 62 3e 08 82 72 bc
       0.0012562498 0.15104516 0.22092554 -0.01480151
000090 91 fa 46 be 7a 3b 14 3e 5a 92 20 3e 84 da 01 be
       -0.19431521 0.14475814 0.15680829 -0.12681013
0000a0 aa b0 25 3e a0 e4 3c be 5e 0e 55 bd 5a e3 6b be
       0.16180673 -0.18446589 -0.052015655 -0.23035946
0000b0 73 f7 62 3e 07 83 30 3c 3d 88 78 3d f2 d0 28 3c
       0.22164707 0.010773427 0.060676802 0.010303723
0000c0 0a 80 10 bd 40 9f 29 bd 76 01 4b 3b 80 f5 fe bd
       -0.035278358 -0.04141164 0.0030976213 -0.12449169
0000d0 9a c6 26 3e 5d b6 9b bd 14 1c 73 3c 67 65 84 3c
       0.16286698 -0.076031424 0.014838237 0.016161634
0000e0 a9 82 5b bd 77 bd 76 bd f7 f5 b2 3d 6b f2 c8 bb
       -0.053591404 -0.06023928 0.0873832 -0.006132414
0000f0 bd 11 95 3c 20 07 be bd ec 8a 30 be f4 0f 32 3c
       0.018196935 -0.09278703 -0.17240494 0.010868061
000100 3b 14 a5 bd f1 0d b3 bd 2b 04 f2 3e 67 6e a8 be
       -0.08060499 -0.087428935 0.47268805 -0.3289673
000110 f6 f6 21 be 8b cc 4e be 2c b0 83 3e 0d b2 94 bd
       -0.15816864 -0.20195214 0.25720346 -0.07260523
000120 03 08 e8 3d 89 52 29 bb 4c 3f 20 3e e9 27 c4 3a
       0.11329653 -0.0025836548 0.15649146 0.0014965507
000130 96 4f 72 3d d3 22 c5 3e 67 97 6f 3d cf 5f 8a 3c
       0.05915793 0.3850313 0.058493998 0.016891388
000140 57 07 7b 3d b4 af e1 3c 69 ce 2e be f3 2c ce 3d
       0.061286297 0.027549602 -0.17070927 0.10067167
000150 38 3b 03 bd 48 40 d1 be 82 4a 0a 3d b3 e5 11 3e
       -0.032038897 -0.40869355 0.033762462 0.1424778
000160 47 d8 1e 3e aa 01 81 be 65 3f 65 be 5f 70 b3 3d
       0.15512191 -0.25196582 -0.22387464 0.087616675
000170 26 02 a3 3d fe 01 8e bc 87 95 64 be 3b 39 1b bb
       0.07959394 -0.017334934 -0.22322665 -0.0023685235
000180 18 74 ae 3e fb c2 e9 be fc c4 8a bd a8 c9 47 bd
       0.34072948 -0.4565657 -0.06775853 -0.0487763
000190 1c ce 81 3e 86 47 22 3d 5d aa c0 3e 36 db 24 3e
       0.2535256 0.03961899 0.37629977 0.16099247
0001a0 bf 91 85 bd b1 3f 1a 3e f6 65 2b 3e 1d 90 e4 bc
       -0.065219395 0.15063359 0.16738114 -0.02790075
0001b0 c3 8b 97 3d bf 35 2b 3e ec 1e 84 be 46 fd a5 bd
       0.07399704 0.16719721 -0.25804842 -0.08104949
0001c0 01 4e 04 3d 73 43 91 3a f7 9f 2c 3d 55 db 83 3e
       0.032300953 0.0011082724 0.042144742 0.25753275
0001d0 d0 43 89 3d 29 51 86 be a6 b2 6d 3d f0 c4 28 3e
       0.06702387 -0.26233795 0.0580317 0.16481376
0001e0 0e 44 c4 bc 40 85 90 bb 72 50 84 3d 25 c6 7d 3e
       -0.023958232 -0.004410416 0.06460656 0.24782617
0001f0 13 e2 8a 3d 77 2e 42 3c 2d 6a aa be cb 46 04 be
       0.067814015 0.011851898 -0.3328413 -0.1291763
000200 25 d5 df 3d 66 2f a3 3d 7b 10 1e be a6 66 51 3d
       0.10929326 0.07968025 -0.15435974 0.051123284
000210 36 bf 98 bd 7d 13 31 3d 63 7f 09 bd 5c 7e 3b be
       -0.074583456 0.043231476 -0.03356875 -0.18309921
000220 0d 4a 68 be f6 86 7c 3c 26 0b 19 be ee 48 6c 3d
       -0.22684498 0.015413037 -0.14945659 0.05768674
000230 0a 6b fe bd b1 52 35 be 9a b8 4a be 87 18 1b bc
       -0.1242276 -0.17707326 -0.19796982 -0.009466297
000240 9e a8 ff bd f8 a2 97 3d cf 13 6d bc f3 ec 10 3c
       -0.12483333 0.07404131 -0.014470055 0.008845556
000250 43 23 99 3d 4f 3e cc bc e1 3e c9 bd 59 df 94 bd
       0.07477429 -0.024932055 -0.09826446 -0.07269163
000260 99 2b 3f be 69 9f 5b bd a5 c7 7a 3c 4f 9b 0e bd
       -0.18668975 -0.053618822 0.015306388 -0.034816083
000270 ba 25 83 3d e2 53 54 bd 04 4c 7f be 76 9d 85 bd
       0.0640368 -0.05183781 -0.24931341 -0.06524174
000280 84 83 b9 3d a4 cd 9b bc ad b1 c7 bd 1a 6d 47 3d
       0.09058288 -0.019018956 -0.09750686 0.04868803
000290 be 86 3c be b1 b8 47 3d e4 43 a9 bd 43 ce 6d bd
       -0.18410775 0.04876012 -0.08264902 -0.058058035
0002a0 f3 0f 19 be 95 97 b5 bd 30 b6 28 3d 02 a4 8f bd
       -0.1494749 -0.088668026 0.041189373 -0.07013704
0002b0 8c e7 70 be e0 e5 e7 3d dc 1e 7d bd c1 c0 5b 3b
       -0.23525828 0.11323142 -0.061797008 0.0033531638
0002c0 13 aa 26 3d 97 24 1f be d2 85 f7 bc fb 95 6a bd
       0.04068954 -0.15541302 -0.030215178 -0.05727194
0002d0 72 4d 72 be d4 5b 32 3d 87 62 d2 bc 71 b3 78 bd
       -0.23662356 0.043544605 -0.025681747 -0.060718004
0002e0 c9 a4 91 bc b2 c0 00 be 43 f0 fa 3c 24 ad b9 3d
       -0.017778771 -0.12573507 0.030632144 0.09066227
0002f0 d8 70 a0 bd 3b 21 55 3d 1c 91 85 bd 5f e5 0f be
       -0.07834023 0.052033644 -0.06521818 -0.14052342
000300 8f 96 a5 3b a5 60 81 bd 4a 35 93 be 87 6a 54 3d
       0.0050533484 -0.063172616 -0.28751594 0.051859405
000310 9a 0f 75 bd c7 fb 31 bc a7 f5 22 be ce d5 cb bc
       -0.059829332 -0.010863251 -0.15914021 -0.024882223
000320 1d f4 05 be 84 49 04 be 5d 0e 35 be 0a 6f e0 bd
       -0.13081403 -0.12918669 -0.1768126 -0.10958679
000330 cd 4e 5d 3d 2e 55 14 be f5 36 6c bc e6 82 22 3d
       0.05403023 -0.14485618 -0.0144174 0.039675616
000340 ba 7c 55 bd 3c 0e 07 3c 90 ef 9a bd 61 86 5f be
       -0.0521209 0.00824314 -0.07565224 -0.21828605
000350 89 d0 65 bc 19 07 a9 b9 9d 17 d8 bd 89 a1 6a be
       -0.014026769 -0.0003223948 -0.10551379 -0.22913183
000360 4b 0f ef bd f0 87 ce 3b 1f 03 29 be 7e 09 72 bd
       -0.11672839 0.006302826 -0.16505097 -0.059091084
000370 64 17 e9 bd 66 2b a5 bd 70 03 22 bd 6a ca 0f bd
       -0.113814145 -0.08064918 -0.03955406 -0.035105146
000380 dd cb 21 be 71 b2 28 bd 6b fa a0 bd 7c de 09 bd
       -0.15800424 -0.0411858 -0.078602634 -0.033659443
000390 c0 0f 01 be 4e a8 0f be b3 7a 9b be 93 68 1b be
       -0.12603664 -0.14029047 -0.3036705 -0.1517661
0003a0 42 de f4 3d c8 e3 4a be cf 2f 49 bd 9c 67 93 3c
       0.11956455 -0.19813454 -0.04911786 0.01799374
0003b0 ee 52 da bd 82 19 c8 3b ba 29 fc bd 7a 13 39 3d
       -0.10660349 0.0061065564 -0.12312646 0.04518459
0003c0 af 7c bb 3d d3 93 6f bc aa 06 9d bc 21 7c 67 be
       0.09154641 -0.014622646 -0.019168217 -0.22605945
0003d0 c4 cb e3 bd a1 07 d5 bc d2 4b ad bd 46 e0 b6 bd
       -0.111228496 -0.026004614 -0.08461727 -0.089294955
0003e0 88 a8 9c 3c 16 a6 5d be d6 2b a5 bd 00 41 63 be
       0.01912333 -0.21645388 -0.08065002 -0.22192764
0003f0 bd af 33 3d 51 f9 79 be 1f ac 5c 3d 59 71 08 be
       0.04386877 -0.24411513 0.053875085 -0.13324489

fc2.bias f4 [3]
000000 fd 1f e7 3b 6a 69 36 be ef 62 ec 3d
       0.007053374 -0.1781365 0.115423076

fc1.weight f4 [128, 6]
000000 6b fa 73 3f 72 17 5e 3d e9 68 65 3e 9d f0 1b 3e
       0.9530398 0.054221578 0.22403301 0.15228505
000010 1c be 31 3e 97 98 77 3d 65 fd a6 bf 19 3f 63 be
       0.17357677 0.060448255 -1.304608 -0.22192039
000020 7a 68 46 bf 63 03 8d bf a2 f8 e5 be 26 b4 99 3e
       -0.7750317 -1.1016659 -0.44916254 0.30020255
000030 d3 a3 2a bf a7 0b 4e 3e 02 90 8f 3e 03 e1 bc 3f
       -0.66656226 0.20121633 0.28039557 1.4756168
000040 ed ad 3e be 77 49 58 be 00 e0 97 bf d8 40 c1 be
       -0.18621035 -0.21121775 -1.1865234 -0.37744784
000050 0d 53 8d 3e c3 b8 94 be b5 18 2e bd 08 31 cf bc
       0.27602425 -0.29047212 -0.04250403 -0.025291935
000060 ef fb 53 be bd 62 f9 3e bf b4 fb bd cc d5 11 3d
       -0.20701574 0.48708144 -0.12290334 0.035604283
000070 c0 0b d0 bb 16 d3 01 3b ae 74 6f 3f f0 ee 0f 40
       -0.006349057 0.0019809655 0.93537414 2.2489586
000080 dc 66 f7 3f 39 b1 96 bf 3a 2f db 3c 43 1a 89 3e
       1.9328265 -1.1772834 0.026755918 0.2677785
000090 32 68 3d bf 42 bd f8 3e 9d f9 1e bf aa 96 96 3e
       -0.73987114 0.48581892 -0.6209963 0.29411823
0000a0 25 34 90 3e 9c 69 f8 3d 43 d2 8c bf 5c c9 bb 3c
       0.28164783 0.121295184 -1.1001667 0.022923164
0000b0 93 89 81 be a1 fb 06 3f 53 4d 0d 3d 0d ef 32 3b
       -0.25300273 0.52727705 0.03449757 0.002730313
0000c0 15 55 32 bf b4 26 28 3e 4f 42 b6 be 4a c0 92 3e
       -0.69661075 0.16421014 -0.35597464 0.2866233
0000d0 ec e5 2b 3e 12 f4 fd 3d 10 7d 31 bf 28 97 12 be
       0.16786927 0.12400068 -0.69331455 -0.14315474
0000e0 5e 84 42 be b3 8f 97 3e 22 ff da 3d 94 a1 11 3d
       -0.18995807 0.2960182 0.10693194 0.035554484
0000f0 c1 09 90 3f 4e e4 1e bf 13 a9 bf 3e 99 2c c1 3e
       1.1252977 -0.62067115 0.3743368 0.37729338
000100 3a 4a a4 3d 77 5d 81 3b a7 bc 87 be 1e 13 8c 3e
       0.0802197 0.0039479095 -0.26511118 0.27358335
000110 02 89 01 bf b0 c3 8a be c1 4c a7 3d 99 da ed 3d
       -0.5059968 -0.27102423 0.081689365 0.1161396
000120 44 22 c6 be e6 80 c2 be 40 b6 8a be c7 15 f4 bd
       -0.38698018 -0.37988967 -0.2709217 -0.11918216
000130 2c 96 24 bd fb ee 87 3d 2d 24 09 3f 2f 4c 83 bc
       -0.040182278 0.06637379 0.53570825 -0.016027538
000140 9a 39 84 3d ab 00 ff 3d d2 aa c6 bb c6 07 51 3d
       0.06456299 0.12451299 -0.006062844 0.051032804
000150 6d cb ad 3f e8 b3 47 bf 64 21 87 3f fb b8 4d 3e
       1.3577706 -0.7800889 1.0557065 0.20090096
000160 76 cf 8a be c7 9e a4 bd 86 14 96 3e f3 6e 13 be
       -0.27111405 -0.08038097 0.29312533 -0.14397793
000170 cf 9e 84 be 47 c4 a9 3e ad 5b 82 bd 6d f3 a3 3c
       -0.2590241 0.3315756 -0.06365142 0.020013535
000180 e5 79 a1 bf e4 c9 e5 3f 26 ea c7 be e2 0a 67 3f
       -1.2615324 1.7952237 -0.3904583 0.9025098
000190 a0 df 47 3f 51 e1 61 3e f2 a5 24 bd fc f5 ab bf
       0.780756 0.22058608 -0.04019732 -1.3434443
0001a0 51 5b e4 be 03 5b ac bf 31 6a fb 3d 33 15 6a 3e
       -0.4460092 -1.3465275 0.12276114 0.2285965
0001b0 6f 7d 93 bd 6b 58 ba 3d 11 de e9 bd 3b 2b c8 3d
       -0.07201659 0.09098896 -0.11419309 0.097738706
0001c0 c7 07 bd 3d 32 43 fe 3d d6 ad 94 3e 64 51 0b 3c
       0.09229999 0.1241516 0.29038876 0.008503292
0001d0 85 51 5d bf 0b cf 20 bf 75 a7 c6 3e b8 43 76 3e
       -0.86452514 -0.6281592 0.38799635 0.2404927
0001e0 15 9d 37 3f 53 35 f2 3e 50 7b 55 bd 3c ce 09 3e
       0.71724063 0.47306308 -0.052119553 0.13457578
0001f0 73 45 da 3c af 86 a8 3c a5 05 bb bf ec 5b 17 bf
       0.026644444 0.020572035 -1.4611098 -0.59124637
000200 fb f1 1f bf 33 76 af 3d e5 87 be 3e ba 72 43 3e
       -0.6247861 0.085674666 0.37213054 0.19086733
000210 ea f7 88 bd 03 c3 c1 3f db 7a 03 c0 78 f0 08 3f
       -0.06687911 1.5137638 -2.0543735 0.53491926
000220 d4 d5 b6 bd cf 83 f2 bd b0 dd cd bf fa 9f 9b be
       -0.08927503 -0.11841547 -1.6083279 -0.3039549
000230 fa 1a a0 3f 42 5c b3 be 0e bc a9 be 14 20 8e bb
       1.2508233 -0.35031325 -0.33151287 -0.00433732
000240 27 67 29 3e 43 e4 84 3e 58 f2 7d bf 7f 87 46 3f
       0.16543256 0.259554 -0.9919791 0.775505
000250 06 3d fb be d7 5f a4 3e 47 eb aa be 61 e7 d5 3c
       -0.49069995 0.3210437 -0.33382627 0.026111307
000260 52 20 58 be ec 31 1e 3e 12 fd 1f be e8 b2 5c 3d
       -0.21106079 0.15448731 -0.15623882 0.053881556
000270 07 bf 68 3c bb 82 9a be 76 07 2e bf 56 59 24 3e
       0.014205701 -0.30177864 -0.67980134 0.16049704
000280 b0 98 b5 bb b4 93 e6 bb f0 2e a2 3f 04 17 37 40
       -0.0055418834 -0.0070366506 1.2670574 2.8607798
000290 d6 d3 82 3e 0b bd 54 bf dc 11 83 be 69 3f f3 bd
       0.25552243 -0.83100957 -0.25599563 -0.11877329
0002a0 c4 bf f7 bd c2 f2 3a 3e f9 21 62 be 60 e6 56 3f
       -0.12097123 0.18256667 -0.22083272 0.83945274
0002b0 80 e8 37 3e 26 e7 97 3d 51 69 3f bf 67 1f c9 3e
       0.17959785 0.07417135 -0.74770075 0.3928177
0002c0 e9 b4 9e bd 8d 32 d6 bd 98 be b1 be 0c dd d6 bd
       -0.077493496 -0.104588605 -0.34715724 -0.1049138
0002d0 b5 db 1f c0 84 05 55 be 37 97 9c bf 07 06 6d 3e
       -2.4977849 -0.20802885 -1.2233647 0.2314683
0002e0 39 aa bb 3d 99 8a ed bd d8 6f d3 bf 9f f0 35 bf
       0.09163327 -0.11598701 -1.6518507 -0.71070284
0002f0 fd c1 af 3d 11 de 6e bf 1e 5b 64 3e 07 a6 78 3e
       0.08581922 -0.93307596 0.22300383 0.24282084
000300 94 0f de bf 54 a6 28 bf 45 58 c7 bf 3c 30 87 bf
       -1.7348504 -0.65878797 -1.5573813 -1.0561595
000310 84 73 31 3e 20 17 14 3e d3 1e 68 3c bf e5 d3 be
       0.17329222 0.14461946 0.014167505 -0.4138622
000320 94 5d 8f bf 2f 0f 8c bf 4b f3 87 3e 71 21 fe bd
       -1.1200433 -1.0942134 0.26552805 -0.12408722
000330 36 57 6c bf ed cf e2 bc eb 92 41 3f fe e7 30 bf
       -0.92320573 -0.027687037 0.75614804 -0.6910399
000340 33 b8 af 3f cd b9 80 3f d6 c4 bb bf d3 41 aa bf
       1.3728088 1.0056702 -1.4669445 -1.3301338
000350 18 cb 6f be 1c e0 3a c0 59 65 d6 3d c1 bb 19 3e
       -0.23417318 -2.9199286 0.10468549 0.15013029
000360 2e ef 0c bd e8 b3 ae be eb 32 a0 3d 26 9e ef 3e
       -0.034407787 -0.34121633 0.07822212 0.46800345
000370 61 66 78 3e 8b 79 90 3d c2 11 32 bf fd b8 21 be
       0.24257804 0.070544325 -0.69558346 -0.15793224
000380 b5 f0 a2 bc 85 23 2a bd bd 31 96 3d 70 44 58 3d
       -0.019890169 -0.04153778 0.073337056 0.052799642
000390 6a b2 bf bf 71 70 41 be 7a e5 a7 bf c8 fd 0f bc
       -1.4976323 -0.18890549 -1.3116906 -0.0087885335
0003a0 82 25 57 be eb 0c 31 3d 87 a7 1e bf e4 2b 10 3f
       -0.21010402 0.04322521 -0.61974376 0.5631697
0003b0 f1 39 99 bf 5a 22 f7 be 70 b5 3e 3e 4d ef b0 3d
       -1.1970807 -0.48268396 0.186239 0.08639393
0003c0 12 e4 ef be 03 18 00 bf e2 fd 2a 3d fb 79 a0 be
       -0.4685369 -0.5003664 0.041746028 -0.31343064
0003d0 ad 36 c7 3c ac 5d 8a 3c 94 2f be 3d 31 f8 10 bd
       0.024318064 0.01689037 0.092864186 -0.035392944
0003e0 01 b4 3a 3e fa d3 5f 3e e9 7f 0d 3d 7e cd 4a 3d
       0.18232729 0.21858206 0.034545813 0.04951238
0003f0 eb 3f e1 be 38 6d d7 be 87 ea fb be 2c 4a ad be
       -0.43994078 -0.42075515 -0.49202368 -0.3384565

fc1.bias f4 [128]
000000 17 da 93 3f a3 08 aa bf 68 f2 e6 3f a0 7c cf bf
       1.1550931 -1.3283886 1.8042727 -1.6209908
000010 4d fe 4d bf 28 98 78 3f e3 4d 94 bf a8 bd 1a c0
       -0.8046616 0.9710717 -1.1586269 -2.4178257
000020 2f ee 71 bf 40 09 26 bf 66 79 98 3f 5a c0 7d bf
       -0.94504064 -0.64857864 1.1912048 -0.9912163
000030 81 f8 bd bd ca 7b 57 3f 42 60 b7 3f a4 56 b4 be
       -0.09275914 0.8417326 1.432625 -0.35222352
000040 5e f6 23 c0 3a b2 58 c0 66 ef 67 be f9 32 21 bf
       -2.561912 -3.385878 -0.22649917 -0.62968403
000050 cc 80 ef 3f 79 50 0c c0 e8 31 94 3f 2b 83 2a c0
       1.8711181 -2.1924117 1.157773 -2.6642559
000060 9c 66 59 c0 7e d8 10 bf 4d c8 96 bf 74 3a 37 3f
       -3.3968878 -0.5658034 -1.1779877 0.7157357
000070 4e 7a 15 bf 41 37 d3 bf f3 28 ea bf 63 85 3e c0
       -0.5838975 -1.6501237 -1.8293747 -2.9768913
000080 5c d7 2b 3f 68 72 74 c0 bf 18 a1 bf 8e c9 23 c0
       0.6712549 -3.8194828 -1.2585677 -2.559177
000090 eb cd 4b bf ae bc be bf b6 94 12 c0 32 8d 39 c0
       -0.7961108 -1.490133 -2.2903266 -2.8992429
0000a0 b2 69 83 bf 43 84 b8 3f 37 d1 e2 bf 42 f2 02 c0
       -1.0266631 1.4415363 -1.7720097 -2.0460362
0000b0 2a 88 2c c0 89 dd e5 3e 7c 84 d8 be 0a f2 34 c0
       -2.6958108 0.4489558 -0.42288578 -2.827273
0000c0 a4 13 2f 3f 19 b3 01 c0 eb 69 50 bf 2a 9c e8 be
       0.68389344 -2.0265563 -0.8141162 -0.45431644
0000d0 df fd b1 be 00 8b d3 3e e0 02 a0 3f da 2d cf 3e
       -0.34764 0.41316986 1.2500877 0.4046467
0000e0 33 f5 a7 bf 38 1a 52 bf 07 28 f6 bf ff 37 88 bf
       -1.3121704 -0.82071257 -1.9230965 -1.0642089
0000f0 67 7b d9 bf f6 ea 82 bf c8 78 da 3f 01 42 8c 3d
       -1.6990784 -1.0227954 1.706811 0.06848527
000100 f8 8b e6 3e 89 67 16 c0 7f 1a 89 bf 25 84 d2 3f
       0.45028663 -2.3500693 -1.0711211 1.6446577
000110 97 2d e8 bf b7 6b 8e bf 9e b9 c5 be 59 02 96 bf
       -1.8138913 -1.1126622 -0.38618177 -1.1719466
000120 6b be 04 c0 88 98 de bf e2 97 ae bf da 26 ee 3f
       -2.0741222 -1.7390299 -1.3640101 1.8605607
000130 c3 0e b8 3f 58 a0 e1 be 69 72 d4 bf 31 db de 3e
       1.4379505 -0.44067645 -1.6597415 0.43526605
000140 f2 43 02 c0 f9 40 a1 bf 15 3c 9e 3f bc c0 c3 bf
       -2.035397 -1.2597953 1.2362086 -1.5293193
000150 0a 58 6d bf 78 5c 2f 3f 68 bb 1d c0 52 b2 1d 40
       -0.9271246 0.6850047 -2.4645634 2.4640088
000160 65 18 b3 bf ec c4 9b bf e5 0d 7e 3f ec 81 d9 bf
       -1.399182 -1.2169471 0.9923995 -1.6992774
000170 54 ab 8e bf 75 20 cb bf ce 43 2d c0 3f eb 88 bf
       -1.1146035 -1.586928 -2.7072635 -1.0696791
000180 bb a4 f6 bf 83 3c d8 bf 07 c9 9a 3e 38 00 38 bf
       -1.9269022 -1.6893467 0.30231497 -0.71875334
000190 41 ea c5 3e 13 80 8c bf d2 eb bc bf 57 51 15 3f
       0.38655284 -1.0976585 -1.4759467 0.5832724
0001a0 84 30 18 c0 c0 3f 1e bf 80 cd e2 bf 5e f6 89 3f
       -2.3779612 -0.61816025 -1.7718964 1.077831
0001b0 a2 42 29 c0 02 70 a4 3f d9 15 7b bf 7a e4 2a c0
       -2.644692 1.2846682 -0.9808021 -2.670195
0001c0 6c 96 21 c0 5c 24 60 bf e6 38 93 bf 0f 85 52 c0
       -2.524806 -0.8755548 -1.1501739 -3.2893713
0001d0 75 78 a3 bf b8 bb 1f c0 f0 95 03 bf 95 46 43 bf
       -1.2771136 -2.4958324 -0.5140066 -0.76279575
0001e0 03 06 9f bf 9f 63 c4 3f 6d 1f 95 be 58 4d 2f bf
       -1.242371 1.5342902 -0.29125538 -0.6847739
0001f0 21 3a e6 bf b4 f3 e0 3f ca ba 2f bf 77 81 12 c0
       -1.798649 1.7574372 -0.6864439 -2.289152

fc2.weight f4 [1, 128]
000000 8a b9 86 bd 09 a2 0e 3e 2d 82 87 be 3f c0 cb 3c
       -0.065783575 0.13928999 -0.26466504 0.024871944
000010 d1 b1 37 3d da 5d 8c be 71 2f c2 bd 79 62 d2 bd
       0.044847313 -0.27415353 -0.09481705 -0.102726884
000020 2a 77 aa bd b9 3a 39 bb 9a 69 b3 bd 24 a0 ad 3b
       -0.0832351 -0.0028263761 -0.08760376 0.0052986313
000030 a6 2b 52 3c 26 0d 16 bd da 66 1d be 66 93 2f 3d
       0.012827789 -0.036633633 -0.15371266 0.04286518
000040 3e f3 bd be 30 c3 a8 be 59 bf 5c 3c 20 44 cc ba
       -0.37099642 -0.32961416 0.013473355 -0.0015584268
000050 2d 10 19 be 47 08 34 be af c0 c4 be 97 55 37 bd
       -0.14947577 -0.17581283 -0.38428256 -0.04475936
000060 0e 9d dd 3e 30 17 cc 3c 77 f6 8d bc d1 4b 73 be
       0.43283886 0.0249134 -0.017329438 -0.2375939
000070 3e fb 0a 3a a9 76 37 3d dd 25 29 bd fd 2d 98 3e
       0.000530172 0.044790898 -0.041295875 0.29722586
000080 46 30 30 be df 2a 6e 3e d1 43 09 3f e4 1f 8e 3e
       -0.17205915 0.23258542 0.53619105 0.27758706
000090 a9 f6 14 3d 5f d8 d8 3c 20 54 3c be 80 89 ae 3d
       0.036368046 0.026470361 -0.18391466 0.0852232
0000a0 f0 3d 91 3d 67 25 2e bd 1b 5a 8a 3c 17 c1 f8 3e
       0.07091892 -0.04251614 0.016888669 0.48584816
0000b0 c2 83 19 3f e8 33 56 bc d8 76 19 3e ea 91 a0 3e
       0.5996667 -0.013073899 0.14986742 0.31361324
0000c0 84 2a 95 be 21 f7 89 3e 54 77 dc 3c 77 7f 56 bd
       -0.29134 0.26946357 0.026912369 -0.052367654
0000d0 62 96 85 3c b9 78 99 bc 52 4b 42 bd 85 0c 20 bd
       0.01630706 -0.018734323 -0.047435112 -0.03907444
0000e0 1b 47 c6 3d ac c8 24 3d 22 7f 6b 3e 29 23 aa 3e
       0.09681531 0.040230438 0.22997716 0.3322995
0000f0 0e 9a ee bd 1d 23 f4 3d c5 12 a1 be 36 da 37 3d
       -0.11650477 0.1192076 -0.31459633 0.044885837
000100 c7 27 10 bc aa 6b c9 bd ad 3a 4e 3d b0 9c 93 bd
       -0.008798546 -0.098349884 0.050348926 -0.0720762
000110 71 a7 b8 3d 7c 5f 7f 3d ef 06 2b bd f3 af 5b 3c
       0.09016312 0.06234692 -0.04175466 0.013408649
000120 dc 2f fa 3c 4c 38 ab 3d 8f 07 14 be 8c 26 cb be
       0.0305404 0.08360347 -0.14456008 -0.39677846
000130 15 55 f6 bd 73 58 15 bd 98 66 2f bd 3e 94 02 3e
       -0.12027947 -0.036461305 -0.04282245 0.12751862
000140 c1 46 72 be 40 c8 83 bd d3 08 de bd 11 b9 94 3d
       -0.23659803 -0.06434679 -0.10841527 0.07261861
000150 ba 1e b8 3d be cf b8 bc cd f2 21 3d 0f ff fa be
       0.089902356 -0.022559997 0.039538193 -0.4902272
000160 4c 9a 82 3c c5 f6 e2 be e4 8a 9f be 49 e1 9f 3d
       0.015942715 -0.44328895 -0.31160653 0.078066416
000170 ad 71 0d bc 73 1a e0 bd 3f a0 20 be 6a 01 e4 bd
       -0.008633059 -0.10942545 -0.15686129 -0.11133082
000180 72 1b d1 bd ac 17 29 3e 92 2a d2 3c 72 2f 1e bc
       -0.10210313 0.16512936 0.025655065 -0.0096548665
000190 e8 42 15 be c0 4b 86 bc e5 35 48 3e cd f5 ac bc
       -0.14576304 -0.016393542 0.19551809 -0.0211133
0001a0 0a c4 a6 3e a9 02 82 bc 3a 09 bd 3d c2 14 01 be
       0.3257144 -0.01587041 0.092302755 -0.12605575
0001b0 46 70 3a 3f 2f 89 6a be 62 3b e3 bd de ff 01 3f
       0.72827566 -0.22903894 -0.11095311 0.5078105
0001c0 de af 94 bd 19 79 fe 3e 03 bb 8b ba 1d a2 e6 3d
       -0.072601065 0.49701765 -0.0010660592 0.112613894
0001d0 ff c4 ed bc 60 a8 4e be 4f 8d 40 3c 08 fd 77 3e
       -0.0290246 -0.20181417 0.011752441 0.24217618
0001e0 fa 1b 0b 3e 91 93 97 bd 0b d8 94 3c 24 d2 36 bb
       0.13584891 -0.07401193 0.018169424 -0.002789625
0001f0 68 92 16 3d 85 59 f0 bd 8a de d5 bc a0 da 4a 3e
       0.036760718 -0.117358245 -0.026107091 0.19809961
