demo/base/ppo/test2/scappo.pt (torch, 11599 bytes, 7 tensors)

fc1.weight f4 [128, 6]
0	0xbda82983	-0.08211043
1	0x3ee1147e	0.43960947
2	0xbee01667	-0.43767092
3	0xbe64e135	-0.22351535
4	0xbdad3e6e	-0.08459173
5	0x3e7a05c8	0.24416268
6	0x3b8c43ed	0.0042805583
7	0x3e42db6c	0.19029015
8	0x3e118aeb	0.14213149
9	0x3e569e7b	0.20958893
10	0xbcd68f29	-0.026191311
11	0xbeaaab0e	-0.3333363
12	0xbf0f2d9d	-0.55928975
13	0xbf044dcd	-0.51681215
14	0xbd539375	-0.051654298
15	0xbdafcc1c	-0.08583853
16	0xbdcb0775	-0.09913532
17	0x3f1b939d	0.60772115
18	0xbe45c4c7	-0.19313346
19	0xbecb69f5	-0.39729276
20	0x3e025ff1	0.12731911
21	0x3ee3f486	0.44522494
22	0xbdeccc6b	-0.11562427
23	0x3ea9607f	0.33081433
24	0xbe327294	-0.1742652
25	0x3c7e7ece	0.015533162
26	0x3ea2809d	0.3173875
27	0xbe47a21c	-0.19495434
28	0xbe6fce2c	-0.23418492
29	0xbe63c03d	-0.22241302
30	0xbdf4dec7	-0.11956554
31	0x3e5ddf9c	0.21667331
32	0xbe140f47	-0.14458953
33	0xbd7dadf6	-0.06193348
34	0xbea011a7	-0.31263468
35	0xbea4a9ef	-0.321609
36	0xbe03691b	-0.12833063
37	0x3ec3ff30	0.3828063
38	0x3e5ddc31	0.21666028
39	0x3eb74157	0.35792038
40	0x3df38df2	0.11892308
41	0xbecc2083	-0.39868554
42	0xbe2256c4	-0.15853411
43	0xbecea21e	-0.4035806
44	0xbe3a4e53	-0.18193941
45	0xbe408ad9	-0.18802966
46	0x3dc3c190	0.095584035
47	0x3eab1adc	0.3341893
48	0xbda704db	-0.08155223
49	0x3d88b604	0.06675342
50	0x3ee6a1fd	0.45045462
51	0x3f12f81c	0.57409835
52	0x3e7ffef2	0.24999598
53	0xbe02ba7f	-0.12766455
54	0x3e154595	0.14577325
55	0xbee02eff	-0.43785855
56	0x3db37a7a	0.08763595
57	0x3d7249c7	0.05915239
58	0xbe5608f0	-0.20901847
59	0xbd8b6d4f	-0.06807958
60	0x3e89cc3f	0.2691364
61	0x3e19510b	0.14972322
62	0xbe117d90	-0.14208055
63	0x3e4894ee	0.19588062
64	0x3e476cf7	0.1947516
65	0xbd9e1933	-0.0771965
66	0xbdfd97c4	-0.123824626
67	0x3bc03202	0.0058653364
68	0x3e13e9da	0.14444676
69	0x3f0c1dcb	0.5473296
70	0xbe905b8b	-0.28194842
71	0xbda0afd6	-0.07846038
72	0x3e70da01	0.23520662
73	0x3f08f31f	0.53495973
74	0x3e358197	0.17725216
75	0x3e1d039d	0.1533341
76	0x3e991fd2	0.2990709
77	0xbeb4fa0c	-0.3534702
78	0x3e8f12d1	0.27944043
79	0xbe120827	-0.14260922
80	0xbe6ebec5	-0.2331496
81	0x3eb03462	0.34414965
82	0x3ec13416	0.3773505
83	0xbef69b09	-0.48165157
84	0x3e5f9059	0.21832408
85	0x3e157779	0.14596356
86	0x3c6a1fcd	0.014289808
87	0xbe009e77	-0.1256045
88	0x3e569925	0.20956858
89	0xbe9b3f54	-0.30321753
90	0x3e1fe2a5	0.15613802
91	0x3e0e8693	0.13918523
92	0x3ea8bd15	0.32956758
93	0x3e8789c2	0.26472288
94	0xbe82b9e5	-0.2553245
95	0xbf0646b7	-0.5245165
96	0x3e917be4	0.28414834
97	0x3d5308f0	0.051522195
98	0xbe2b8c7b	-0.16752808
99	0xbd25d260	-0.040483832
100	0x3edf3356	0.43593854
101	0x3d79cd2d	0.060986686
102	0xbe23d022	-0.15997365
103	0xbdcabdee	-0.098995075
104	0xbef9319e	-0.48670667
105	0xbcaf27e1	-0.02138132
106	0xbea3610f	-0.31909987
107	0xbec93796	-0.3930022
108	0xbce1e79e	-0.027576264
109	0xbd0bcdff	-0.034132
110	0xbe6ee2fe	-0.23328778
111	0x3eebdc0b	0.46066317
112	0xbe9be9ad	-0.30451718
113	0x3ecdd1a8	0.40199018
114	0x3d91c5a5	0.07117776
115	0xbef193f1	-0.47183183
116	0xbc91caea	-0.017796952
117	0x3d4a4c45	0.049389143
118	0xbd2227f3	-0.03958888
119	0x3e9695d0	0.29411173
120	0x3e355538	0.1770829
121	0xbc9aab04	-0.018880375
122	0xbbd2ca72	-0.006432825
123	0x3e02b0c8	0.12762749
124	0xbe7cbc8a	-0.24681297
125	0xbef31115	-0.4747397
126	0xbe32a084	-0.17444044
127	0xbc3f1607	-0.011662967
128	0xbe67915e	-0.22614047
129	0xbeb413db	-0.351714
130	0x3b743458	0.0037262645
131	0x3e9c61f3	0.3054348
132	0xbd9b99c5	-0.075976886
133	0x3eac5057	0.33655044
134	0x3e77f2bf	0.24213694
135	0x3de5fb96	0.11229627
136	0x3e1abd75	0.15111335
137	0xbea02b2c	-0.31282938
138	0x3e541388	0.20710576
139	0x3ec1331c	0.37734306
140	0x3ed8bcdf	0.42331597
141	0x3f1f01f1	0.6211234
142	0x3eb33d9c	0.35007942
143	0xbe8ecf11	-0.27892354
144	0xbeb2c4f5	-0.3491589
145	0xbe35e57e	-0.17763326
146	0x3e7017fa	0.23446646
147	0xbc9e1682	-0.019297842
148	0xbe44670b	-0.19179933
149	0xbef0f61b	-0.47062764
150	0xbe772dc1	-0.24138547
151	0xbef8820b	-0.48536715
152	0x3e0c9413	0.13728361
153	0xbbe509cd	-0.0069896937
154	0x3d9be9e5	0.07612971
155	0xbe9b821f	-0.30372712
156	0x3e4c69d3	0.19962244
157	0xbec4b366	-0.3841812
158	0xbd148387	-0.036258247
159	0xbe54b56b	-0.2077233
160	0xbde3191a	-0.11088772
161	0xbdaec859	-0.08534307
162	0xbefb95b4	-0.49137652
163	0xbf2722ca	-0.6528746
164	0xbc8a70f4	-0.016899563
165	0x3e7eabdd	0.24870248
166	0xbdeb30c7	-0.11483913
167	0x3e6f2987	0.23355685
168	0xbe9d0257	-0.30665848
169	0x3de7a681	0.11311055
170	0x3eea56c8	0.45769334
171	0xbd869948	-0.06572205
172	0x3ea208e6	0.31647414
173	0x3da448a1	0.08021665
174	0xbe7110d1	-0.23541571
175	0x3dbad4fe	0.09122656
176	0xbd1246b3	-0.035711955
177	0x3da64c5a	0.08120032
178	0x3e6c4b7a	0.23075667
179	0xbe7bc5dd	-0.24587198
180	0xbda7f6ff	-0.08201408
181	0x3d330d90	0.043714106
182	0x3e965eca	0.29369193
183	0xbd721844	-0.059105173
184	0x3d890878	0.066910684
185	0x3e95581d	0.29168788
186	0xbd5f5958	-0.054528564
187	0xbd19b612	-0.03752715
188	0xbe749902	-0.23886493
189	0x3e3caff0	0.1842649
190	0x3e684e30	0.22686076
191	0x3e00b148	0.12567627
192	0xbe76ac27	-0.24089108
193	0xbdd6ac0b	-0.10482033
194	0xbe7bea48	-0.2460109
195	0xbc876661	-0.01652831
196	0xbd579d02	-0.05263997
197	0x3e402bb4	0.18766671
198	0xbea5fab9	-0.3241785
199	0x3e08a5ab	0.13344447
200	0xbd9e24d3	-0.077218674
201	0x3de15637	0.11002772
202	0xbe991f6e	-0.2990679
203	0xbf0971cc	-0.53689265
204	0xbc0fcc3b	-0.00877672
205	0x3e805d38	0.2507112
206	0x3db01c0d	0.085991
207	0x3ee12bbf	0.43978688
208	0x3e9a82a1	0.30177787
209	0xbe759eb0	-0.23986316
210	0xbd47a950	-0.048745453
211	0xbe2ab674	-0.16671163
212	0x3ea2826b	0.31740126
213	0xbeda0c7c	-0.4258765
214	0xbd479be7	-0.048732664
215	0x3eb232fd	0.34804526
216	0xbeb149b9	-0.34626558
217	0xbe563b19	-0.20920981
218	0x3efe1165	0.49622646
219	0xbf12e361	-0.573782
220	0xbdcf1371	-0.1011113
221	0x3f197d4a	0.599568
222	0x3e408d28	0.18803847
223	0x3ddc8963	0.10768392
224	0xbe608588	-0.21925938
225	0x3ea4cbbc	0.32186687
226	0xbe3e6f44	-0.18597132
227	0xbedbb45b	-0.42911038
228	0xbe3b3ecb	-0.18285672
229	0x3c58d8b7	0.013235263
230	0x3d77af47	0.060469892
231	0x3e9c2810	0.30499315
232	0xbd3edf75	-0.046599824
233	0x3eb7328d	0.35780755
234	0x3e065c4d	0.13121147
235	0xbe1ee707	-0.15517817
236	0x3eb522aa	0.3537801
237	0xbf086a20	-0.53286934
238	0xbd83a3f8	-0.06427759
239	0x3e9eaab5	0.30989614
240	0x3ea21a93	0.316609
241	0x3ed4b3f7	0.41543552
242	0xbda56a9f	-0.08076977
243	0x3d42ddee	0.04757493
244	0x3ea0ac74	0.3138157
245	0xbf065f7f	-0.52489465
246	0x3e805a02	0.2506867
247	0xbee9395b	-0.4555157
248	0x3b3cee78	0.0028828662
249	0xbd8ffdf9	-0.07030863
250	0xbe277f49	-0.16357149
251	0x3e8b43d8	0.27200198
252	0x3ea97061	0.3309355
253	0xbe5bf8f4	-0.21481687
254	0xbe4cd114	-0.20001632
255	0x3dc02dd6	0.093837425

fc1.bias f4 [128]
0	0xbea83771	-0.32854798
1	0xbdf005b2	-0.11719836
2	0x3e9c4461	0.3052092
3	0xbe91abc4	-0.2845136
4	0x3ddec712	0.108778134
5	0x3cab6a9a	0.020924855
6	0x3ea89350	0.3292489
7	0xbe9cda10	-0.30635118
8	0x3ebe9d25	0.37229267
9	0xbeba9b3c	-0.3644656
10	0x3e2ae9fd	0.16690822
11	0xbed966e7	-0.4246132
12	0xbe981b80	-0.2970848
13	0x3e64d5a1	0.22347118
14	0x3db8144a	0.08988245
15	0xbda52549	-0.08063752
16	0xbe79240b	-0.24330156
17	0xbe7a74cf	-0.24458621
18	0xbd9a432e	-0.07532345
19	0xbeab90ed	-0.33509007
20	0xbdc41d60	-0.09575915
21	0x3e968cd3	0.29404315
22	0x3e200f02	0.15630725
23	0x3e3739fd	0.17893215
24	0x3ed58c1d	0.4170846
25	0xbe047512	-0.12935284
26	0xbe8d7502	-0.27628332
27	0xbe1f2e76	-0.15545067
28	0xbeb72a0b	-0.35774264
29	0xbf0b1bed	-0.54339486
30	0xbde2e0d3	-0.11078038
31	0xbe6bd4e2	-0.23030427
32	0x3d8e2fb0	0.069426894
33	0xbe33771e	-0.17525908
34	0x3eb2c73e	0.34917635
35	0xbbac6a25	-0.005261677
36	0x3e3cb080	0.18426704
37	0x3e9bea67	0.30452272
38	0x3eca3429	0.3949292
39	0xbe5c9422	-0.21540883
40	0x3e28845d	0.16456743
41	0x3e02cc6d	0.12773295
42	0xbe6db13d	-0.23212142
43	0xbe0d7eb1	-0.1381786
44	0xbd36731e	-0.044543378
45	0xbee3f0aa	-0.4451955
46	0xbe1bc49b	-0.15211718
47	0x3dc641fe	0.09680556
48	0xbe9c5d2b	-0.30539832
49	0x3e70a947	0.23502074
50	0xbe3a433d	-0.18189712
51	0xbd350c6a	-0.044201292
52	0x3e8573ef	0.26065013
53	0xbea42a2e	-0.3206343
54	0x3e3d68b6	0.18496975
55	0x3d735915	0.059411127
56	0xbe06af51	-0.13152815
57	0xbe7c2c76	-0.24626336
58	0xbd5b53f2	-0.053546853
59	0xbe44de79	-0.19225492
60	0xbbf958df	-0.007609471
61	0x3e146e9f	0.14495324
62	0x3df912c6	0.12161784
63	0xbe8dcc57	-0.2769496
64	0x3da5af4c	0.08090076
65	0x3e46faa9	0.19431557
66	0xbe82c3b5	-0.25539938
67	0x3e9b40ad	0.3032278
68	0x3e12f122	0.14349797
69	0x3de1138c	0.109900564
70	0xbd899135	-0.06717149
71	0x3e766fc8	0.24066079
72	0xbbd9d979	-0.006648239
73	0x3ec621d9	0.386977
74	0x3d8dffc0	0.06933546
75	0x3e98f883	0.298771
76	0xbc5d0b51	-0.013491468
77	0xbd6cf551	-0.05785114
78	0x3e180de6	0.14849052
79	0x3ee0992b	0.43866858
80	0xbd856097	-0.06512564
81	0x3c557157	0.013027511
82	0x3b88fe9e	0.0041807434
83	0x3e2fe76f	0.17178129
84	0xbe392de8	-0.18083918
85	0xbd8db6a6	-0.06919603
86	0x3e0e9403	0.1392365
87	0xbead8162	-0.33887774
88	0x3dafe914	0.08589378
89	0xbdef2c2b	-0.11678346
90	0x3f144ac9	0.57926613
91	0xbeaf9024	-0.34289658
92	0x3d170204	0.036867157
93	0x3e7db543	0.24776177
94	0x3e40625a	0.18787518
95	0xbe114b64	-0.14188915
96	0x3edb26ba	0.42802984
97	0x3e52640b	0.20545976
98	0x3db34f7d	0.087553956
99	0xbe940ba3	-0.28915128
100	0x3b77efcb	0.0037832137
101	0xbbc8717d	-0.0061170445
102	0xbdf48c93	-0.11940875
103	0xbdf8aeef	-0.12142741
104	0xbe908c48	-0.28232026
105	0x3c81288b	0.015766403
106	0x3e048da8	0.12944663
107	0x3e666546	0.2249957
108	0x3ea651b2	0.32484204
109	0x3eaf8613	0.34281978
110	0xbd28b60a	-0.04118923
111	0xbe22bff9	-0.15893544
112	0xbeac3f70	-0.3364215
113	0xbed9344e	-0.42422718
114	0xbed4fc84	-0.41598904
115	0x3ec3d3e9	0.38247612
116	0x3eddfdd9	0.43357733
117	0x3f0f7555	0.5603841
118	0xbcc8680e	-0.02446368
119	0xbe80d6b7	-0.25163814
120	0xbdaf4ab2	-0.08559169
121	0x3ead7708	0.33879876
122	0xbf0d85e1	-0.5528241
123	0x3ede1593	0.43375835
124	0x3d6cccf6	0.057812653
125	0x3eef29a8	0.4671147
126	0x3e18afe6	0.1491085
127	0x3ef0f18d	0.4705929

fc2.weight f4 [3, 128]
0	0xbe276608	-0.16347516
1	0x3e161584	0.14656645
2	0xbe2c8e84	-0.1685124
3	0xbdc26dce	-0.094936
4	0x3dca17ce	0.09867822
5	0x3e296996	0.16544184
6	0x3e889b85	0.26681152
7	0xbb649774	-0.0034880312
8	0x3e3f84c0	0.18702984
9	0xbc776f17	-0.0151021695
10	0x3be43843	0.0069647147
11	0x3d91a914	0.07112327
12	0x3dee747d	0.11643312
13	0x3d8b7598	0.068095386
14	0x3e05c363	0.13062815
15	0x3e3cf656	0.18453345
16	0x3c81bcf2	0.015837166
17	0x3e2eac44	0.17057902
18	0xbcf3c719	-0.029758023
19	0xbcdcb034	-0.026939489
20	0x3dabb836	0.08384745
21	0xbe278944	-0.16360956
22	0x3e8116d9	0.25212744
23	0x3e5c59ef	0.21518682
24	0x3e2dcb6f	0.16972135
25	0xbc9874b7	-0.018610341
26	0xbe04f918	-0.12985647
27	0xbc9e0bb1	-0.019292684
28	0x3d86af13	0.065763615
29	0x3b8ce8fb	0.0043002344
30	0x3d6edf23	0.05831827
31	0xbd4fa4df	-0.050694343
32	0x3c57cca5	0.01317135
33	0x3e69aaf6	0.22819123
34	0x3e6d3673	0.23165302
35	0xbe5aa83b	-0.21353237
36	0xbe861690	-0.2618909
37	0x3e651584	0.22371489
38	0x3cce3298	0.02517061
39	0xbd826f3a	-0.06368871
40	0x3e6221b9	0.22083177
41	0xbdb3795c	-0.08763382
42	0x3d43ac54	0.047771767
43	0xbe19370f	-0.1496241
44	0x3d357016	0.044296347
45	0x3dff13b1	0.12454928
46	0x3c2d133b	0.010563667
47	0xbd648dc3	-0.055799257
48	0x3d894b08	0.06703764
49	0xbcf5f1e6	-0.030022573
50	0x3d7d66bb	0.06186555
51	0xbc347d20	-0.01101616
52	0x3ce4544b	0.027872225
53	0xbd0203dc	-0.03174196
54	0x3df16972	0.1178769
55	0xbe070402	-0.13185123
56	0x3dc3e4ef	0.0956515
57	0xba892ba5	-0.0010465278
58	0x3c21d088	0.009876378
59	0x3cfdea81	0.03099561
60	0xbd49c7ec	-0.049262926
61	0xbddbb3ed	-0.107276775
62	0xbcf65662	-0.030070487
63	0x3cb807d1	0.022464665
64	0xbe4de4f4	-0.2010687
65	0xbe047062	-0.12933496
66	0x3e368fcf	0.17828296
67	0xbe335620	-0.17513323
68	0x3da4236f	0.08014571
69	0xbe19a43a	-0.15004054
70	0x3e3d15ba	0.1846532
71	0xbdeb800a	-0.11499031
72	0x3e10bccc	0.1413452
73	0xbdb72ca8	-0.089440644
74	0x3e31cf98	0.17364347
75	0xbdee4b20	-0.11635423
76	0x3e393a82	0.18088725
77	0x3dff7c47	0.12474876
78	0x3e37fa6f	0.17966627
79	0xbd5cf113	-0.053940844
80	0xbd8cb1ec	-0.068698734
81	0x3db258be	0.087083325
82	0xbcf65bab	-0.030073008
83	0x3d808f34	0.06277314
84	0xbd0865e5	-0.0333003
85	0xbdbfc0e1	-0.093629606
86	0x3db90551	0.09034217
87	0x3ce24ebc	0.027625434
88	0x3e30d200	0.17267609
89	0xbd8faefd	-0.07015798
90	0xbe75f757	-0.24020134
91	0x3e358c70	0.17729354
92	0xbc6665cc	-0.014062356
93	0xbd92f57e	-0.0717573
94	0x3d770407	0.060306575
95	0xbcbf03e7	-0.02331729
96	0x3e2d2445	0.16908367
97	0xbe69a8ab	-0.22818248
98	0xbd5928f9	-0.05301759
99	0x3d338827	0.043831017
100	0x3e3aea18	0.18253362
101	0x3d9ba085	0.07598976
102	0x3d405a0a	0.046960868
103	0x3df18a5c	0.11793968
104	0x3d4b06d9	0.049567077
105	0x3e0274fe	0.12739941
106	0xbc9ca711	-0.019122632
107	0xbe4ca1c3	-0.19983582
108	0x3dda2f38	0.106535375
109	0x3d8145f5	0.06312171
110	0xbe822ea0	-0.25426197
111	0x3d5442f2	0.051821657
112	0xbcca18c6	-0.024670016
113	0xbce5246c	-0.027971469
114	0xbc30f420	-0.010800391
115	0x3e4e6cce	0.20158693
116	0xbce52474	-0.027971484
117	0xbe6fe33f	-0.23426531
118	0x3daaea80	0.083455086
119	0x3cb6e031	0.0223237
120	0x3d00cd81	0.031445984
121	0xbe0113be	-0.12605187
122	0x3caed394	0.021341123
123	0x3debd0d6	0.11514442
124	0x3df406b3	0.1191534
125	0xbd9d6f65	-0.076872624
126	0xbe4193aa	-0.18903986
127	0xbe1bbc22	-0.15208486
128	0xbd97ab45	-0.07405714
129	0xbd91aadd	-0.07112668
130	0xbe72c0da	-0.2370638
131	0xbd7a5cc8	-0.06112364
132	0xbd126691	-0.035742346
133	0x3b6c580e	0.0036063227
134	0xbd4a8222	-0.04944051
135	0x3cb81fdf	0.022476135
136	0xbd525365	-0.051349062
137	0xbd4c847c	-0.049931034
138	0xbd8d8bcf	-0.06911432
139	0xbda9186b	-0.082566105
140	0xbdc928e1	-0.0982225
141	0xbce0ca81	-0.027440311
142	0xbdcf4d02	-0.1012211
143	0xbc309326	-0.01077727
144	0xbd71e35a	-0.05905471
145	0x3cc4a29c	0.02400332
146	0xbdf0e156	-0.117617294
147	0xbdc047e0	-0.09388709
148	0xbcfb1158	-0.030647919
149	0xbd63e8ce	-0.05564194
150	0xbdd9b218	-0.10629672
151	0xbccde412	-0.025133166
152	0xbe12b62d	-0.14327307
153	0x3d323105	0.04350378
154	0x3d82afec	0.06381211
155	0xbe900855	-0.28131357
156	0xbca1d99a	-0.01975708
157	0xbacedf4e	-0.0015783103
158	0xbe1ca585	-0.15297516
159	0xbc84fc52	-0.016233597
160	0x3bfd1cf1	0.0077243974
161	0xbd8e7076	-0.06955044
162	0x3c224e1b	0.009906317
163	0xbea4b278	-0.3216741
164	0xbe2f0c68	-0.17094576
165	0xbcf0d204	-0.029397018
166	0xbd239e31	-0.039945785
167	0x3d828e2d	0.06374774
168	0xbddd8af9	-0.108175226
169	0xbdee92fd	-0.116491295
170	0xbd797a48	-0.060907632
171	0xbdd84c04	-0.10561374
172	0x3d0bfaec	0.034174845
173	0xbbddfb06	-0.006774309
174	0x3d4f72de	0.050646655
175	0xbd2bea35	-0.041971404
176	0x3d573fe3	0.05255116
177	0xbc93018d	-0.017945075
178	0x3c32bd56	0.010909399
179	0xbdcf06da	-0.10108729
180	0xbe185eba	-0.14879885
181	0xbd6bc449	-0.05756024
182	0xbc5b43ae	-0.013382835
183	0xbe12e483	-0.14344983
184	0xbdc28962	-0.0949886
185	0xbdd59c89	-0.10430247
186	0xbdc55415	-0.09635178
187	0xbdc879fb	-0.09788891
188	0x3c704a93	0.014666217
189	0xbd4ce1ba	-0.050019957
190	0x3d55b19c	0.052171335
191	0xbdcb1531	-0.09916151
192	0xbda6ceb2	-0.08144893
193	0xbe115407	-0.1419221
194	0xbc9dd1c1	-0.019265058
195	0xbd362048	-0.04446438
196	0xbe2b1a36	-0.16709217
197	0xbda0cda2	-0.07851721
198	0xbcda5bed	-0.026655162
199	0xbe230147	-0.15918456
200	0xbd461c79	-0.048366997
201	0xbe0ebcf6	-0.1393927
202	0xbe0da12b	-0.13831012
203	0xbdab6bbb	-0.08370157
204	0xbd0471b0	-0.032334983
205	0x3d56e443	0.05246378
206	0xbcde266c	-0.02711793
207	0xbd9f8ed6	-0.07790916
208	0xbe280540	-0.16408253
209	0xbce07bc6	-0.02740277
210	0xbe04e5b0	-0.12978244
211	0xbd8a7d2b	-0.06762155
212	0xbd50b345	-0.050952215
213	0xbe41f80a	-0.18942276
214	0xbd4826c6	-0.048865102
215	0xbd897e81	-0.06713582
216	0xbdd8195d	-0.10551713
217	0xbd8abf51	-0.06774772
218	0xbe5e49bd	-0.21707816
219	0xbe3098ea	-0.17245832
220	0x3d1e7f26	0.038695477
221	0xbdca35e0	-0.09873557
222	0xbe0537fb	-0.13009636
223	0xbd710afb	-0.058848362
224	0xbdce3a05	-0.1006966
225	0xbe39b57c	-0.18135637
226	0xbdbd12c0	-0.09232092
227	0xbd8c64c8	-0.0685516
228	0xbdc21f23	-0.09478595
229	0xbdbc5eec	-0.091977924
230	0xbc63d7c3	-0.013906422
231	0xbdc710a1	-0.097199686
232	0xbddc40df	-0.10754561
233	0xbe09c545	-0.13454159
234	0xbe93dc9a	-0.28879243
235	0xbd95993f	-0.0730462
236	0xbd1282e4	-0.03576936
237	0xbdaa8d7c	-0.08327767
238	0xbded459a	-0.11585541
239	0xbdddd773	-0.10832109
240	0xbe10d382	-0.14143184
241	0x3ca0367f	0.019557236
242	0xbcb62489	-0.022234218
243	0xbe05f383	-0.13081174
244	0xbdbf09ff	-0.093280785
245	0xbd9e85ae	-0.07740341
246	0xbdcd862a	-0.100353554
247	0xbe0445f3	-0.12917309
248	0x3b945db3	0.0045277714
249	0xbdcab662	-0.09898068
250	0xbbdc3cc8	-0.006721113
251	0xbd8b903d	-0.06814621
252	0xbb67b9f5	-0.0035358642
253	0xbe8db2e6	-0.2767555
254	0xbd61e813	-0.055152964
255	0xbe340844	-0.17581278

fc2.bias f4 [3]
0	0xbd023736	-0.031790935
1	0xbdedb993	-0.11607661
2	0x3d862bf7	0.065513544

fc1.weight f4 [128, 6]
0	0x3f1f0ff0	0.62133694
1	0x3eff1d80	0.49827194
2	0x3e9a860a	0.3018039
3	0xbedbe1f7	-0.42945835
4	0x3f05933b	0.5217778
5	0xbd54944e	-0.051899247
6	0xbf1925a0	-0.59823036
7	0xbf38bc7b	-0.721626
8	0xbee37034	-0.44421542
9	0xbd417673	-0.047232103
10	0x3f30d28b	0.69071263
11	0xbf03c42e	-0.5147122
12	0x3eea1145	0.457163
13	0xbe530fc1	-0.20611478
14	0xbf5958fb	-0.849014
15	0xbeb87c96	-0.36032552
16	0x3eeb646b	0.4597505
17	0x3e7ddc3e	0.24791047
18	0xbf216023	-0.6303732
19	0x3cf1b1eb	0.029503783
20	0xbe297660	-0.16549063
21	0x3e7fcac1	0.24979688
22	0x3dbf409c	0.09338495
23	0x3e0932db	0.13398306
24	0x3d92c2f7	0.07166093
25	0xbe5d71f8	-0.21625507
26	0xbe8a1bfa	-0.2697447
27	0xbde14c2e	-0.11000858
28	0xbe4c0251	-0.19922759
29	0x3c84ffc0	0.016235232
30	0xbe749f3e	-0.23888871
31	0x400511d3	2.079213
32	0x3edfadbd	0.4368724
33	0xc0275c33	-2.6150024
34	0x3ede7d56	0.43455
35	0x3ee634ef	0.4496226
36	0xbfa0e122	-1.2568705
37	0xbfd223f0	-1.6417217
38	0xbf076d53	-0.5290119
39	0x3ffd2d1a	1.9779389
40	0xbe9317dd	-0.28729144
41	0xbec27c0a	-0.3798526
42	0x3db4f220	0.08835244
43	0xbf1519fe	-0.58242786
44	0xbf48d218	-0.7844558
45	0x3ab6a2c3	0.0013934005
46	0xbe4a9556	-0.1978353
47	0xbe4ac5e9	-0.19802059
48	0xbf70a281	-0.9399796
49	0x3f617193	0.88063926
50	0x3f45642b	0.7710597
51	0xbf7bb2a6	-0.9831947
52	0x3f5cd067	0.86255497
53	0x3e98c19d	0.29835215
54	0x3e1773c2	0.14790252
55	0xbdc7dd8e	-0.09759055
56	0x3e22934e	0.15876505
57	0x3cb81a53	0.02247349
58	0x3d41be73	0.047300767
59	0xbc2f5621	-0.010701687
60	0xbe7452a0	-0.23859644
61	0x3e2007f0	0.15628028
62	0xbf3513ac	-0.7073314
63	0x3e880b1b	0.26570973
64	0xbe2a882a	-0.16653505
65	0x3df71455	0.12064425
66	0x3f803e74	1.0019059
67	0xc00e5e11	-2.2244914
68	0x3f454742	0.77061856
69	0x3f272e5b	0.6530511
70	0x3e50911f	0.2036786
71	0x3d925c6c	0.07146534
72	0x3de35511	0.111002095
73	0xbeff841f	-0.49905488
74	0xbf7c5db3	-0.98580474
75	0xbe8abeb2	-0.27098614
76	0x3cf6575c	0.030070953
77	0x3e0d19d0	0.13779378
78	0x3f8e1243	1.1099323
79	0xbf44296d	-0.7662571
80	0x3ec1c274	0.37843668
81	0x3e9a6eff	0.30162808
82	0x3e85c91d	0.2613
83	0x3c68d4ee	0.014210923
84	0x3f861d74	1.0477738
85	0xbfd7157a	-1.6803429
86	0x3f7a4fa4	0.9777777
87	0x3ec20958	0.37897754
88	0x3d712357	0.058871593
89	0xbd9b1f05	-0.07574276
90	0xbfebfcd7	-1.8436536
91	0xbecdd3b5	-0.40200582
92	0xbec3318b	-0.38123736
93	0x3b9c0684	0.004761519
94	0x3f23a958	0.63930273
95	0xbbd5d6ac	-0.006525835
96	0xbf7c0931	-0.98451525
97	0xbf6c6411	-0.9234019
98	0xbfa83913	-1.3142418
99	0x3eb556ec	0.3541788
100	0xbee98608	-0.4561007
101	0xbde108c0	-0.10987997
102	0x3da138aa	0.07872136
103	0xbe82fa8b	-0.25581774
104	0xbe6e3c94	-0.23265296
105	0xbe520cbb	-0.20512669
106	0x3d6cee70	0.05784458
107	0xbbf5963e	-0.007494717
108	0x3f29a593	0.6626827
109	0x3ef3a511	0.47586873
110	0x3e747bce	0.23875353
111	0xbf0329c6	-0.51235616
112	0x3eff26bf	0.49834248
113	0xbd927986	-0.07152085
114	0x3ec9674a	0.39336616
115	0xbe041f30	-0.12902522
116	0xbf838d1d	-1.0277439
117	0x3ec302d5	0.38088098
118	0xbeb2edec	-0.34947145
119	0x3ec464b2	0.38358074
120	0x3e88b5e4	0.26701272
121	0x3cd78e8f	0.026313094
122	0x3eaaf773	0.33391914
123	0xbe323dc1	-0.1740637
124	0x3eaffb5e	0.34371465
125	0xbd71251b	-0.058873277
126	0xbe7e1a09	-0.24814619
127	0x3ee93e86	0.45555514
128	0x3e91fc6f	0.28512904
129	0xbe85dce8	-0.261451
130	0xbbe762c0	-0.0070613325
131	0x3b3c8e79	0.0028771444
132	0x3edd7b6d	0.4325823
133	0x3e20538e	0.15656874
134	0xbe9f2bae	-0.31088012
135	0xbec8f586	-0.3924982
136	0xbdb94626	-0.09046583
137	0xbcedb478	-0.029016718
138	0xbff0dda1	-1.8817636
139	0xbec007d5	-0.37505975
140	0xbfea96e0	-1.8327293
141	0x3f8da080	1.1064606
142	0x3ebfda54	0.3747126
143	0xbf4c1cc7	-0.7973141
144	0xbe0417e4	-0.12899739
145	0xbfa32b16	-1.2747524
146	0xbf426a9d	-0.7594393
147	0x3e825455	0.25454965
148	0xbe6a8627	-0.22902738
149	0xbe895330	-0.2682128
150	0xbf8644eb	-1.0489782
151	0xbf6c8b9d	-0.9240053
152	0xbf7c7479	-0.98615223
153	0x3ed7af78	0.4212606
154	0x3ec99fb3	0.39379653
155	0xbed60091	-0.41797307
156	0xbf18d08d	-0.59693223
157	0x3cb4115f	0.02198094
158	0xbec49c14	-0.38400328
159	0x3e5dd2ce	0.21662447
160	0x3d216bb8	0.03940937
161	0xbde76e35	-0.11300317
162	0x3ebb75cd	0.36613312
163	0xbeb7a2c4	-0.35866368
164	0x3e73f101	0.23822404
165	0xbe1ad53f	-0.1512041
166	0x3e7d634f	0.24744914
167	0x3c6f7e48	0.01461751
168	0x3f34abf9	0.7057491
169	0x3fd4d9fe	1.6629026
170	0xbf8de879	-1.108657
171	0xbf416006	-0.75537145
172	0xbd4d59aa	-0.05013434
173	0xbecc339e	-0.3988313
174	0xbf3c23ba	-0.73492014
175	0xbd850f66	-0.06497078
176	0x3dd732af	0.10507714
177	0x3dce7806	0.100814864
178	0x3d384ff1	0.044998113
179	0x3d927f11	0.07153142
180	0xbeb3d9ab	-0.35127005
181	0xbc94a018	-0.018142745
182	0x3e09e88b	0.13467614
183	0xbf051252	-0.5198108
184	0xbce73cbc	-0.028227203
185	0x3d937739	0.07200474
186	0xbfaaf181	-1.3354951
187	0xbda36622	-0.07978465
188	0xbe05931a	-0.13044396
189	0xbe9ff3f0	-0.31240797
190	0x3e09807e	0.13427922
191	0x3e844de7	0.25840685
192	0xbfbcf411	-1.4761983
193	0xbe5b5721	-0.21419956
194	0xbe44ec8e	-0.19230863
195	0x3f52370f	0.8211526
196	0x3d4a669c	0.049414262
197	0x3ef27a9c	0.4735917
198	0x3f7272a5	0.94706184
199	0xbf50b70c	-0.8152931
200	0x3f0d248c	0.5513389
201	0x400010e4	2.001031
202	0x3f0d21b0	0.5512953
203	0xbf27df55	-0.6557515
204	0xbd86e9bf	-0.06587552
205	0x3eabdd42	0.33567244
206	0x3e8dd4bb	0.27701363
207	0xbe10b867	-0.14132844
208	0xbcc396f0	-0.023875684
209	0x3efb71c1	0.49110225
210	0x3d961530	0.0732826
211	0x3faa0b97	1.3284787
212	0xbedc1cab	-0.42990622
213	0x3eb8e446	0.3611166
214	0xbf5ed834	-0.8704865
215	0x3ea755b3	0.3268257
216	0xbf455db7	-0.7709612
217	0x3faf9c03	1.3719486
218	0xc009d367	-2.153528
219	0x3f09668c	0.536721
220	0xbe37a0c9	-0.17932428
221	0xbe87754f	-0.26456687
222	0xbf9ecbaa	-1.2405903
223	0xbe980f29	-0.29699066
224	0xbfa02eff	-1.2514342
225	0x3f7250a1	0.9465428
226	0x3ea20e87	0.31651708
227	0xbe2df753	-0.16988878
228	0xbeb189a2	-0.34675318
229	0x3f30ed1f	0.6911182
230	0x3f83f7aa	1.0309956
231	0xbef1076c	-0.47075975
232	0xbf0086d3	-0.50205725
233	0x3f0a7580	0.5408554
234	0xbf85f432	-1.0465147
235	0x3ef492ee	0.47768348
236	0xbe175b37	-0.1478089
237	0xbf6187c2	-0.88097775
238	0x3f476694	0.77890897
239	0x3acb3e67	0.0015506268
240	0xbedd2d62	-0.43198687
241	0x3f685350	0.90752125
242	0xbf1f32c8	-0.6218686
243	0x3ada1920	0.0016639568
244	0x3ce1ac88	0.02754809
245	0x3e541d72	0.20714357
246	0xbf5551cc	-0.8332794
247	0x3ea76d7f	0.32700726
248	0xbdcc995f	-0.09990191
249	0xbe5cfd8c	-0.21581095
250	0x3df44790	0.11927712
251	0xbc9ae638	-0.018908605
252	0x3f10e524	0.5659964
253	0xbff7d2be	-1.9361188
254	0x3f2bac7b	0.6706006
255	0xbfdff8d7	-1.7497815

fc1.bias f4 [128]
0	0x3f48986f	0.78357595
1	0x3e3f39db	0.18674414
2	0xbff7071d	-1.9299046
3	0xbf9dd0fd	-1.2329403
4	0x3db8b878	0.090195596
5	0x3f071ec3	0.52781314
6	0x3f38ee50	0.72238636
7	0xc01b4f01	-2.426697
8	0xbfbd9db1	-1.4813749
9	0x3f21d9c5	0.63222915
10	0xbf027748	-0.5096326
11	0x3f3e9bfa	0.7445675
12	0x3f514baa	0.8175608
13	0x3fa2ed64	1.2728696
14	0x3fc8b70c	1.5680861
15	0xbfe06425	-1.7530562
16	0xbfc18d65	-1.5121275
17	0xbf26d3ec	-0.6516712
18	0x3f22bb1d	0.6356676
19	0xbec1b69a	-0.37834626
20	0x3f53cbe7	0.82733005
21	0xbf7e73d8	-0.99395514
22	0x3ff88be3	1.941769
23	0xc006bf52	-2.1054273
24	0xc018e9ba	-2.3892655
25	0xbf6594d8	-0.8968024
26	0xbff41e31	-1.9071714
27	0x3f3ef796	0.74596536
28	0x3fa51320	1.2896461
29	0xbed0a4b3	-0.40750656
30	0xc018b386	-2.3859572
31	0xbfec4559	-1.8458663
32	0x3e79c563	0.24391703
33	0x3db3a6c8	0.087720454
34	0xc0551676	-3.329496
35	0xc04b1dfd	-3.1737053
36	0x3f90cba1	1.1312143
37	0xbf93c61b	-1.1544832
38	0xbf6eec24	-0.9332907
39	0xbfe260d9	-1.7685806
40	0xbfc23bc0	-1.5174484
41	0xbf6369e0	-0.8883343
42	0xc0192bfc	-2.3933096
43	0x3e2539f2	0.16135386
44	0xbfa141cd	-1.2598206
45	0x3f8d3c55	1.1034037
46	0xbf95c480	-1.1700592
47	0xc031c147	-2.7774217
48	0x3fd9c029	1.7011768
49	0xc00ce00d	-2.201175
50	0xbea7719a	-0.3270386
51	0xbfd44885	-1.6584631
52	0xbf490430	-0.78522015
53	0x3f82a0a5	1.0205275
54	0x3fd3ff2b	1.6562246
55	0x3de536b1	0.11192072
56	0xbfde8922	-1.73856
57	0xbfcc3ee1	-1.5956689
58	0xbf67ff45	-0.90623885
59	0xbf7c2135	-0.9848817
60	0xbfc43d14	-1.533114
61	0xbfa58d09	-1.2933666
62	0x3fcd687c	1.6047511
63	0x3e8fdd29	0.2809842
64	0xbe20cfe6	-0.15704307
65	0xc0293ea9	-2.6444495
66	0xbf3cbc45	-0.73724777
67	0x3f779063	0.9670469
68	0xbfeb51aa	-1.8384297
69	0xbea9df4e	-0.3317818
70	0xbf576720	-0.8414173
71	0xc02dbfef	-2.7148397
72	0xbf97c0ab	-1.1855673
73	0xbfad1156	-1.3520916
74	0xbfcdbf7e	-1.6074064
75	0x3fbd5d60	1.4794121
76	0x3f192a3e	0.5983008
77	0xbf0ceed1	-0.55051905
78	0xbffec12d	-1.9902703
79	0xbf0d2bd3	-0.55144995
80	0xbf9b4216	-1.2129543
81	0xc0033f9d	-2.0507576
82	0x3fb86176	1.4404743
83	0xc045c71b	-3.0902774
84	0xbffab91e	-1.9587743
85	0x3fbb7fbf	1.464836
86	0xc0023c5e	-2.0349345
87	0x3fc8dae3	1.5691799
88	0xbf6e4269	-0.93070084
89	0xbfc9351d	-1.5719334
90	0x3e9528fd	0.29132834
91	0xbfbec60e	-1.4904191
92	0xc023ba52	-2.558247
93	0xbf83c537	-1.029456
94	0xbfdfc40d	-1.7481705
95	0xbf12ab18	-0.5729232
96	0xbfa62c3c	-1.2982249
97	0xbff15b21	-1.8855935
98	0xbf7467bb	-0.9547078
99	0xbdb1e2a1	-0.08685804
100	0x3c112dbc	0.008861002
101	0xbfa839fd	-1.3142697
102	0xbe856d07	-0.26059744
103	0x3f7837d2	0.96960175
104	0xbfdb5a82	-1.7136996
105	0xbe73491b	-0.23758356
106	0xbf77b91a	-0.9676682
107	0xbc4e855c	-0.012605038
108	0xc0280a8f	-2.6256444
109	0x3fc2ab16	1.5208461
110	0xbff0d08b	-1.8813642
111	0xbffe16b7	-1.9850682
112	0xbffccefa	-1.9750664
113	0xbfb995b5	-1.4498812
114	0xbfc0a27a	-1.5049584
115	0xbf54ea92	-0.83170426
116	0xc007f9d6	-2.1246238
117	0xc003089f	-2.0474012
118	0x3e962e36	0.2933213
119	0xc04be5a0	-3.1858902
120	0xbff5f94b	-1.9216703
121	0x3f134205	0.5752261
122	0x3f557020	0.83374214
123	0xc01ac122	-2.418038
124	0xbf76cc5d	-0.96405584
125	0x3fb4b1c6	1.4116752
126	0xbf21c9b8	-0.63198423
127	0xbfdf63f6	-1.7452381

fc2.weight f4 [1, 128]
0	0xbc410719	-0.011781477
1	0x3cef325e	0.029198822
2	0xbdf1ce20	-0.11806893
3	0x3cd7bc09	0.02633478
4	0xbd3e6000	-0.04647827
5	0xbe86b4ca	-0.26309806
6	0xbea806ab	-0.32817587
7	0x3e1c6702	0.1527367
8	0x3e693079	0.22772397
9	0xbb5a39d7	-0.0033298635
10	0xbc4caceb	-0.012492399
11	0xbe079798	-0.13241422
12	0xbde46b69	-0.11153299
13	0xbe10ec48	-0.14152634
14	0xbe729d29	-0.23692764
15	0xbe824fb6	-0.2545144
16	0xbd201266	-0.039080046
17	0x3c242840	0.010019362
18	0xbc9a154b	-0.018808981
19	0xbdb3ca15	-0.087787785
20	0xbc3054d2	-0.01076241
21	0xbc331b4d	-0.010931802
22	0xbe96a320	-0.2942133
23	0x3ee69d14	0.45041716
24	0x3d51abc2	0.05118919
25	0x3d97547a	0.073891595
26	0x3dca28e8	0.098710835
27	0xbd0c3ed1	-0.034239594
28	0xbe75e581	-0.2401333
29	0x3c019342	0.007908644
30	0xbc953963	-0.01821584
31	0x3df9a08f	0.12188827
32	0x3e21250f	0.15736793
33	0x3e8656ee	0.26238197
34	0x3ec37580	0.38175583
35	0x3ec7b8a5	0.3900806
36	0xbe96eefa	-0.294792
37	0x3de12acc	0.10994491
38	0x3e2ae8b2	0.16690329
39	0xbd95a48e	-0.07306777
40	0xbcdc46d4	-0.026889242
41	0x3c851a78	0.016247973
42	0xbd26e7d2	-0.040748425
43	0x3d8e6403	0.069526695
44	0x3dd6f424	0.10495785
45	0xbdddbd5e	-0.108271345
46	0xbd80edc6	-0.06295352
47	0x3f060375	0.52349025
48	0xbeac2c9b	-0.3362778
49	0x3ef0f5ce	0.47062534
50	0xbcd0946b	-0.025461396
51	0x3ccc28c4	0.024921782
52	0xbc71cc53	-0.014758187
53	0xbd98cfe8	-0.0746153
54	0xbdee6e04	-0.116420776
55	0xbed9b8c5	-0.4252378
56	0xbd96b119	-0.073579974
57	0x3db5b51e	0.08872436
58	0x3cb24563	0.021761602
59	0xb9d60d40	-0.00040827133
60	0x3d584dc4	0.052808538
61	0xbd734484	-0.059391513
62	0xbec140ca	-0.37744743
63	0xbc62e1b8	-0.013847761
64	0x3d2eb03c	0.04264854
65	0xbe97281b	-0.29522786
66	0x3f0330ba	0.51246226
67	0xbc12fed7	-0.008971891
68	0xbe14a906	-0.14517602
69	0x3cfb1792	0.030650888
70	0x3d3d6bb2	0.046245284
71	0x3e3a3e38	0.18187797
72	0x3c4df375	0.012570252
73	0xbd1c41a2	-0.03814853
74	0x3f15eabb	0.58561295
75	0xbedf34ff	-0.4359512
76	0xbed7b4f2	-0.42130238
77	0x3b84ea34	0.0040562395
78	0x3e2a1849	0.16610827
79	0xbd881aba	-0.06645723
80	0xbcf0ce86	-0.029395353
81	0x3e8456ab	0.25847372
82	0xbe4d3c7e	-0.20042607
83	0xbf57f1e2	-0.8435346
84	0x3d939b85	0.07207397
85	0xbd8ac08a	-0.06775005
86	0xbdb23c99	-0.08702964
87	0xbd6cdafa	-0.05782602
88	0x3d1e5844	0.038658395
89	0xbc280c94	-0.010256905
90	0xbdad3ba5	-0.08458642
91	0x3e271b3f	0.16318987
92	0x3e260d2b	0.1621596
93	0x3e075960	0.13217688
94	0xbd29384c	-0.041313455
95	0x3cabe271	0.020982
96	0x3cf72bf9	0.030172335
97	0x3e4e8f48	0.20171845
98	0x3e2bb594	0.16768485
99	0xbcacc972	-0.02109215
100	0x3c22c2dd	0.009934154
101	0xbc921e22	-0.017836634
102	0x3d57b509	0.052662883
103	0xbdd9e192	-0.10638727
104	0x3e588491	0.2114432
105	0x3c8d343f	0.017236827
106	0x3e8d62b6	0.27614373
107	0x3d08d168	0.03340283
108	0xbd991af4	-0.07475844
109	0xbedbf259	-0.42958334
110	0x3dc70dba	0.09719415
111	0xbd459998	-0.04824218
112	0xbe01238c	-0.12611216
113	0x3f3d259b	0.73885506
114	0x3d69ce7d	0.05708169
115	0xbbca34fd	-0.0061708675
116	0xbe6f3e46	-0.23363599
117	0xbeda3036	-0.42614907
118	0xbcb87c65	-0.022520253
119	0x3eede672	0.46464878
120	0xbdf42064	-0.119202405
121	0xbe617124	-0.22015816
122	0xbe3fedbb	-0.1874303
123	0xbeaa3d08	-0.33249688
124	0x3dc9a822	0.09846522
125	0xbd93890b	-0.07203873
126	0x3e13f365	0.14448316
127	0xbee611f2	-0.44935566
