demo/base/ppo/test2/scppo.pt (torch, 11599 bytes, 7 tensors)

fc1.weight f4 [128, 6]
0	0xbccfb5eb	-0.0253553
1	0x3e272c2b	0.16325442
2	0xbeb15c90	-0.34640932
3	0xbe798d94	-0.24370414
4	0xbdecbf83	-0.115599655
5	0x3d8d8073	0.06909265
6	0x3e5059fd	0.20346828
7	0x3eade59d	0.33964244
8	0x3e28080f	0.16409324
9	0x3d819bb0	0.06328523
10	0x3ce19a4b	0.027539393
11	0xbe7056dc	-0.23470634
12	0xbec68dcd	-0.3878006
13	0xbe72a264	-0.2369476
14	0xbe6e0158	-0.232427
15	0xbd9d20a5	-0.07672242
16	0x3e1ee022	0.15515187
17	0x3e70e6e0	0.23525572
18	0xbe937eb7	-0.28807613
19	0xbe5690cc	-0.20953673
20	0x3e5caf6d	0.21551295
21	0x3eb0df6f	0.34545466
22	0xbdbe456d	-0.09290586
23	0x3eb3c02d	0.35107556
24	0x3de34d59	0.11098737
25	0x3dfee72d	0.12446437
26	0x3f061277	0.52371925
27	0xbf13a439	-0.5767246
28	0xbe9414ac	-0.2892202
29	0xbde20f32	-0.110380545
30	0x3e24efa4	0.1610704
31	0x3edf92c6	0.43666667
32	0xbcc868bf	-0.02446401
33	0xbeb0853f	-0.3447666
34	0xbe4204e1	-0.18947174
35	0xbf0ac55e	-0.5420741
36	0xbdcc2fa5	-0.09970025
37	0x3ecb5337	0.39711925
38	0x3e839a6a	0.25703746
39	0x3e32b16d	0.17450495
40	0x3d92f369	0.07175333
41	0xbe9174bd	-0.28409377
42	0x3e04a29f	0.1295266
43	0xbef3f92c	-0.4765104
44	0xbe8438cd	-0.25824586
45	0xbe7981f3	-0.24365978
46	0x3eba69e6	0.3640892
47	0x3e3b92b9	0.18317689
48	0xbddefbfa	-0.108879045
49	0x3c6b0192	0.014343636
50	0x3ea1ad14	0.3157736
51	0x3ea7f4d3	0.32803974
52	0x3e16dcc4	0.14732653
53	0x3dcb0acf	0.09914171
54	0x3f19eddc	0.6012857
55	0xbe4cf3f3	-0.20014934
56	0x3e94f3a1	0.29092124
57	0xbf26edfc	-0.65206885
58	0xbe90ab5d	-0.2825574
59	0xbeb54c40	-0.35409737
60	0x3ea195a7	0.31559488
61	0x3e515a60	0.20444632
62	0xbde31981	-0.11088849
63	0x3d81cc78	0.063378274
64	0x3e4d1adb	0.20029776
65	0xbd156ceb	-0.036480825
66	0x3d228041	0.039673094
67	0x3d92b7ad	0.071639396
68	0x3e96b5cb	0.29435572
69	0x3ed93b7e	0.424282
70	0xbe80ff8e	-0.25194973
71	0xbe35ee9c	-0.17766804
72	0x3e64ea24	0.22354943
73	0x3ec26437	0.37967083
74	0x3ed51bc7	0.41622755
75	0x3e865a12	0.26240593
76	0x3dfddcac	0.123956054
77	0xbeddb518	-0.43302226
78	0x3e21cb56	0.15800223
79	0xbe409a2d	-0.18808813
80	0xbe984c0b	-0.29745516
81	0x3e9d9bdf	0.30782983
82	0x3ecec6c0	0.4038601
83	0xbefcdde0	-0.49388027
84	0x3e791dfc	0.24327844
85	0xbd15e9be	-0.036599867
86	0x3d8ef192	0.0697967
87	0xbe8ae902	-0.27130896
88	0x3e93cce8	0.2886727
89	0xbecc729c	-0.3993119
90	0x3ebf3c84	0.37350857
91	0x3e6a9b39	0.22910775
92	0x3f05adaf	0.52218145
93	0x3e378536	0.1792191
94	0xbee14497	-0.43997642
95	0xbe6db37c	-0.23212999
96	0x3e91c3b3	0.2846962
97	0x3e60622f	0.21912454
98	0xbe843337	-0.25820324
99	0xbefb3421	-0.4906321
100	0x3ed17bb5	0.40914693
101	0x3ea17685	0.31535736
102	0xbddfc5c4	-0.10926393
103	0xbdd75905	-0.10515026
104	0xbed81b3c	-0.42208278
105	0x3d948893	0.07252612
106	0xbe8d3fbb	-0.27587685
107	0xbecf2311	-0.4045644
108	0x3c6bcc3b	0.014391954
109	0x3db06072	0.086121455
110	0xbdd2949a	-0.1028225
111	0x3de5e86f	0.11225974
112	0xbea2e21b	-0.3181313
113	0x3ed28bdf	0.41122338
114	0x3e9a0b6b	0.30086836
115	0xbea598ef	-0.32343242
116	0xbe005139	-0.12530984
117	0xbafc679c	-0.0019256952
118	0x3dc8673d	0.09785316
119	0x3d84dce6	0.064874455
120	0x3dfa3ed7	0.12219017
121	0x3cb162e8	0.021653607
122	0xbe463a51	-0.19358183
123	0x3eb0d1da	0.34535104
124	0xbebbab75	-0.3665425
125	0xbe6553c8	-0.22395241
126	0xbd95720a	-0.07297142
127	0xbe2cfd65	-0.16893537
128	0xbe11f57c	-0.14253801
129	0xbe9ab1ce	-0.3021378
130	0xbdd9b57f	-0.10630321
131	0x3e0788a1	0.13235714
132	0xbd9aba9d	-0.07555125
133	0x3c947b4f	0.018125204
134	0x3ef4c791	0.47808507
135	0xbd967e3b	-0.07348295
136	0xbbea09ab	-0.007142266
137	0x3e07c7a9	0.13259758
138	0x3e2b6302	0.16736987
139	0x3e807697	0.25090477
140	0x3f01dc4c	0.5072677
141	0x3e8c6a0f	0.27424666
142	0x3ebd879b	0.3701752
143	0x3c75150d	0.014958632
144	0xbe3ae96f	-0.1825311
145	0xbe3150cc	-0.17315978
146	0x3ec40a47	0.3828909
147	0xbe27571b	-0.16341822
148	0xbe599f7f	-0.21252249
149	0xbed38970	-0.41315794
150	0xbed90fe6	-0.42394942
151	0xbec7584d	-0.38934556
152	0xbd9b72b7	-0.075902395
153	0x3e9b9504	0.30387127
154	0x3e1c3ef8	0.15258396
155	0xbeabc334	-0.33547366
156	0x3ef37cb1	0.4755607
157	0xbeb68593	-0.35648784
158	0x3dc2cf94	0.09512249
159	0xbe68b0a0	-0.22723627
160	0xbdaf69a5	-0.08565072
161	0xbdd8f3f2	-0.10593404
162	0xbecf52f1	-0.40492967
163	0xbeac2311	-0.33620504
164	0xbdb218da	-0.08696146
165	0xbdf4dbf0	-0.11956012
166	0xbe5b13d7	-0.21394287
167	0x3e468802	0.1938782
168	0xbeadb369	-0.33925942
169	0x3c04823c	0.008087691
170	0x3ec619c5	0.38691536
171	0xbe64931b	-0.22321741
172	0x3ede7db9	0.43455294
173	0x3e50d098	0.20392072
174	0xbed54327	-0.41652796
175	0x3e8aa95b	0.27082333
176	0xbda2eaba	-0.07954927
177	0xbde5cd55	-0.112208046
178	0x3e903a00	0.2816925
179	0xbe8af103	-0.27137002
180	0x3babc619	0.005242121
181	0xbdb18162	-0.08667256
182	0x3e6f1e10	0.23351312
183	0x3dc9f78b	0.09861668
184	0x3e63d94e	0.22250864
185	0x3dd8fcf3	0.10595121
186	0xbddbe32b	-0.10736688
187	0xbe188559	-0.14894618
188	0xbe845501	-0.25846103
189	0x3ea4ebc5	0.32211128
190	0x3ebef9ae	0.37299865
191	0x3e6a2922	0.22867253
192	0xbe6206d3	-0.22072916
193	0x3bb641d2	0.0055620456
194	0xbe45c884	-0.19314772
195	0xbe824e09	-0.2545016
196	0xbe972cde	-0.29526418
197	0x3e3d761b	0.18502085
198	0xbe60bcc6	-0.21947011
199	0x3d19dbba	0.037563063
200	0xbd483785	-0.048881073
201	0x3ea1c94a	0.31598884
202	0xbe9a3e04	-0.3012544
203	0xbea60933	-0.32428893
204	0xbe3ba1dd	-0.18323465
205	0x3e73afbb	0.23797505
206	0xbdaac82c	-0.08338961
207	0x3eaeddf9	0.34153727
208	0x3e43e8f9	0.19131841
209	0x3d3f5210	0.04670912
210	0xbc3346d7	-0.0109421825
211	0xbda056e5	-0.07829074
212	0x3cbe4afd	0.023229117
213	0xbdbb3cb4	-0.091424376
214	0x3cd4d50a	0.025980491
215	0x3d0d9354	0.03456433
216	0xbea86b77	-0.3289449
217	0xbe390bba	-0.1807088
218	0x3e94f29e	0.29091352
219	0xbea5c8bf	-0.3237972
220	0xbc76974f	-0.015050723
221	0x3ebb8f1b	0.36632618
222	0x3e3ef32f	0.18647455
223	0xbc42e859	-0.011896216
224	0xbe944f53	-0.2896677
225	0x3e5be6bf	0.21474741
226	0xbeaaabc4	-0.33334172
227	0xbdbebf54	-0.09313837
228	0xbde503e5	-0.111823834
229	0xbd9f96e7	-0.07792454
230	0x3d60d91f	0.054894563
231	0x3eb50f53	0.35363254
232	0x3d4db010	0.050216734
233	0x3ece89e5	0.4033958
234	0x3ed3f486	0.41397494
235	0xbe5244a6	-0.20534
236	0x3ec1102a	0.37707645
237	0xbeb6fb0f	-0.35738418
238	0xbe309e89	-0.17247976
239	0x3e11c6a5	0.14235933
240	0x3e97410f	0.29541823
241	0x3e8b2609	0.27177456
242	0xbbedb030	-0.007253669
243	0xbdaf4a54	-0.08559099
244	0x3eb67144	0.3563329
245	0xbf0f2c75	-0.5592721
246	0x3e8ac06e	0.27099937
247	0xbea80cb5	-0.32822195
248	0xbcb893c6	-0.022531401
249	0xbd7667da	-0.060157634
250	0xbe33cbcc	-0.17558211
251	0x3d03b557	0.03215536
252	0x3ed4fb28	0.41597867
253	0xbd8019aa	-0.06254895
254	0xbe03356f	-0.12813352
255	0xbe9954df	-0.29947564

fc1.bias f4 [128]
0	0xbeb4eb01	-0.35335544
1	0x3d4af5ff	0.049551006
2	0x3e0d8ade	0.13822505
3	0xbeb1461a	-0.34623796
4	0x3ee39d15	0.44455782
5	0x3ef904ac	0.48636377
6	0x3ec64df7	0.38731357
7	0xbe3f1bb4	-0.18662912
8	0x3f05ab7b	0.52214783
9	0x3db3ee4f	0.08785688
10	0x3f08beeb	0.5341632
11	0xbeb9270d	-0.36162606
12	0xbe89a33c	-0.2688235
13	0x3ebeac8e	0.37241024
14	0x3e8369f4	0.25666773
15	0x3e7ea058	0.24865854
16	0xbd66655b	-0.056249004
17	0xbe0ad617	-0.13558231
18	0xbd6db0c3	-0.0580299
19	0xbecfc754	-0.40581763
20	0xbb8ec37d	-0.0043568
21	0x3e06eff0	0.13177466
22	0x3e5e4ef5	0.21709807
23	0x3e577fd0	0.2104485
24	0x3f028380	0.50981903
25	0x3d85fbcb	0.06542166
26	0x3d5061f1	0.050874654
27	0xbe325ee0	-0.17419004
28	0xbe37620b	-0.17908494
29	0xbea7a1b3	-0.32740554
30	0xbdf2216c	-0.11822781
31	0xbd797c88	-0.060909778
32	0x3e93fc16	0.28903264
33	0xbe6c5b72	-0.23081759
34	0x3ecd973a	0.4015444
35	0xbe9a80f1	-0.301765
36	0xbca4f1ec	-0.020134889
37	0x3edac86a	0.4273103
38	0x3ee6c5b9	0.45072725
39	0xbd6d98d4	-0.058007076
40	0x3e93000c	0.28710973
41	0x3c1c9e33	0.009559202
42	0xbda66b5d	-0.08125947
43	0xbe2c6136	-0.16833958
44	0x3e63d942	0.22250846
45	0xbe687a98	-0.22703016
46	0x3dc29a1f	0.095020525
47	0x3e401570	0.18758178
48	0xbe417ef5	-0.18896087
49	0x3ec3df9f	0.38256547
50	0xbda7848a	-0.08179577
51	0x3eedda66	0.46455687
52	0x3efa4ebe	0.488882
53	0x3b047e22	0.0020216783
54	0x3e8ead0d	0.27866402
55	0xbe304a40	-0.17215824
56	0xbd9ebbbc	-0.07750651
57	0xbe192b71	-0.14957978
58	0x3c2ac7c6	0.010423606
59	0xbdc62f00	-0.09676933
60	0x3e0b2d41	0.13591482
61	0x3ccb5a84	0.024823435
62	0x3eb71d1d	0.357644
63	0x3c98c141	0.018646838
64	0xbc6d6c11	-0.014491097
65	0xbe20c907	-0.15701686
66	0xbea81538	-0.3282869
67	0x3e21c51e	0.1579785
68	0x3d0bb0da	0.034104206
69	0xbe02cdf3	-0.12773876
70	0x3dc5212b	0.09625467
71	0x3d335fc6	0.04379251
72	0x3e7e2efb	0.24822609
73	0x3eaadeec	0.333732
74	0x3dfe28af	0.124101035
75	0x3e3aaf57	0.1823095
76	0x3edb4843	0.4282857
77	0xbba92d1d	-0.0051628486
78	0x3e182283	0.14856915
79	0x3e79b011	0.2438357
80	0x3d19aed5	0.03752025
81	0x3e58d720	0.21175814
82	0x3bde8710	0.006791003
83	0x3ec40969	0.3828843
84	0xbe5d4b6d	-0.21610804
85	0xbe613553	-0.21992998
86	0x3e885b2e	0.26632065
87	0xbda4cb6a	-0.08046611
88	0x3e2b605c	0.16735977
89	0xbe315ddf	-0.17320965
90	0x3e83bef2	0.25731617
91	0xbebf5943	-0.3737279
92	0x3ed1aa9f	0.40950486
93	0x3f074236	0.52835405
94	0x3e759eec	0.23986405
95	0x3dd1a4b9	0.102364965
96	0x3ede377f	0.43401715
97	0xbca57b44	-0.02020038
98	0x3d0d3bde	0.034480922
99	0xbe65347b	-0.22383301
100	0xbd1df654	-0.038564995
101	0x3ea18e5a	0.31553918
102	0x3d583b68	0.05279103
103	0xbd066430	-0.03281039
104	0xbec6a2e5	-0.38796154
105	0x3e9bcf05	0.3043138
106	0xbd4dbdaa	-0.050229706
107	0x3c81c7ea	0.015842397
108	0x3ef21573	0.4728199
109	0x3ed8ffe4	0.4238273
110	0xbe8b77e6	-0.27239913
111	0x3e21e4e9	0.15809979
112	0xbe2b1d9d	-0.16710515
113	0xbeac1052	-0.336062
114	0x3d008201	0.03137398
115	0x3ed78ea5	0.42101017
116	0x3e75b55f	0.23994969
117	0x3e269da6	0.16271076
118	0x3edfaabb	0.43684945
119	0xbebf459f	-0.37357804
120	0x3e0f4b68	0.13993609
121	0x3f00e33d	0.5034674
122	0xbe87783c	-0.2645892
123	0x3f01bd55	0.5067952
124	0x3e947544	0.28995717
125	0x3e6e3130	0.23260951
126	0xbe4dfb47	-0.20115386
127	0x3e5e372d	0.21700735

fc2.weight f4 [3, 128]
0	0xbcb8b40f	-0.022546796
1	0x3e0a8f78	0.13531291
2	0x3dc6a399	0.096991725
3	0x3d418e74	0.047254995
4	0x3e8a28cb	0.26984248
5	0x3e64848e	0.2231619
6	0x3e3f36a8	0.18673193
7	0x3df19d04	0.117975265
8	0x3de7929a	0.11307259
9	0x3e8b3aef	0.271934
10	0x3d653c82	0.055965908
11	0x3d67f17d	0.056626786
12	0x3d822d03	0.063562416
13	0x3d2d21db	0.042268615
14	0x3e4e9f28	0.20177901
15	0x3e27b548	0.16377747
16	0x3e0f6843	0.14004616
17	0x3e40078e	0.18752882
18	0x3debf509	0.11521346
19	0x3d3d114e	0.04615908
20	0xbbba44ed	-0.005684486
21	0x3d10ea52	0.035379715
22	0x3e41acc3	0.1891356
23	0x3db0c478	0.086312234
24	0x3e384590	0.17995286
25	0xbd087e68	-0.033323675
26	0x3e157287	0.1459447
27	0x3dede33b	0.116156064
28	0x3e2be512	0.16786602
29	0xbc8521ef	-0.016251532
30	0x3d423d84	0.047421947
31	0xbd8e34f7	-0.06943696
32	0x3e08b8cb	0.13351743
33	0x3e0b0518	0.13576162
34	0x3dfb36be	0.122663006
35	0xbd465521	-0.04842103
36	0xbc811172	-0.015755389
37	0x3df0c14a	0.11755617
38	0x3dd3b635	0.103374876
39	0x3e218304	0.15772635
40	0x3e3d7331	0.18500973
41	0xbca84f02	-0.020545486
42	0x3e00155f	0.12508152
43	0xbdbd1b77	-0.09233754
44	0x3dd351ea	0.10318358
45	0x3d9c0aec	0.07619271
46	0x3d922f83	0.071379684
47	0x3cda8ebc	0.02667939
48	0xba93ba0f	-0.001127066
49	0x3e0ee237	0.13953482
50	0xbc9c017f	-0.019043682
51	0x3d6e4031	0.058166686
52	0x3dbc99af	0.09209
53	0x3d1d2976	0.03836962
54	0x3d8d6799	0.06904525
55	0xbc168508	-0.009186991
56	0xbc1f3db0	-0.009719297
57	0xbda5294c	-0.080645174
58	0x3d428f9b	0.047500234
59	0x3db09c80	0.086236
60	0x3cb658b1	0.022259088
61	0xbb72d2fd	-0.0037052028
62	0x3e0fb114	0.14032394
63	0x3da64db4	0.081202894
64	0xbcf047da	-0.029331136
65	0x3d95882d	0.07301364
66	0x3e02cc83	0.12773328
67	0x3d355323	0.04426874
68	0x3d340285	0.043947715
69	0x3d873c70	0.066033244
70	0x3e355adb	0.1771044
71	0xbcff4dc6	-0.031165015
72	0x3e397f45	0.18114956
73	0x3e0bf179	0.13666333
74	0x3de15529	0.11002571
75	0x3d8fd5d0	0.070232034
76	0x3e886faf	0.26647708
77	0x3e1e4322	0.15455297
78	0xbb6c6224	-0.0036069239
79	0x3d06f2f2	0.032946534
80	0x3d8038a2	0.06260802
81	0x3e521db2	0.2051914
82	0x3d25183d	0.04030632
83	0x3db859a0	0.090014696
84	0xbb8d11a5	-0.004305082
85	0xbcaac799	-0.020847129
86	0x3e215139	0.1575364
87	0x3dad7dee	0.08471285
88	0x3de44e4e	0.11147748
89	0x3d9fd24f	0.07803785
90	0x3b948559	0.004532498
91	0x3ded4ca8	0.11586887
92	0x3dc099a9	0.09404308
93	0x3e0d4959	0.13797511
94	0x3e0bf2d1	0.13666846
95	0x3e16c44e	0.14723322
96	0x3dd6a24a	0.10480173
97	0x3d65fbc5	0.05614831
98	0x3e064d1c	0.13115352
99	0x3c789ad6	0.0151736345
100	0x3d71987b	0.058983307
101	0x3df8226d	0.12115941
102	0x3d66e4fb	0.056370717
103	0x3d8f028d	0.069829084
104	0x3dad1829	0.08451874
105	0x3ddcc52a	0.107797936
106	0x3cd2ed21	0.025747837
107	0xbd62d730	-0.055381
108	0x3de1d8b0	0.11027658
109	0x3d9b536a	0.07584269
110	0x3bd2b71a	0.006430519
111	0x3cd404ac	0.025881134
112	0xbd86a412	-0.06574263
113	0x3daff144	0.0859094
114	0x3e88f3a9	0.26748398
115	0x3df82c31	0.12117804
116	0x3db69282	0.08914663
117	0xbc41d86e	-0.011831386
118	0x3e023223	0.12714438
119	0x3d3e0242	0.046388872
120	0x3e226285	0.15857895
121	0x3d89c6c8	0.06727368
122	0x3c0ac201	0.008469106
123	0x3e1d6ae3	0.15372805
124	0x3e6cf684	0.23140913
125	0xbd2c0d29	-0.042004738
126	0x3cdb8818	0.026798293
127	0x3df9bac0	0.12193823
128	0xbdb5cb74	-0.08876696
129	0xbe3d2941	-0.18472768
130	0xbc18e594	-0.009332079
131	0x3dd6ba6b	0.10484775
132	0xbe06b2bb	-0.13154118
133	0xbd3b2254	-0.045687035
134	0xbbfecb25	-0.0077756816
135	0x3c789836	0.015173009
136	0x3d29351a	0.041310407
137	0xbe514931	-0.20438077
138	0xbd71c9e9	-0.059030447
139	0x3c7cdb6e	0.0154331755
140	0xbdf2ffa0	-0.11865163
141	0xbdab7b26	-0.08373098
142	0xbe577169	-0.21039356
143	0xbc398329	-0.011322775
144	0xbe045f89	-0.12927069
145	0x3cfb7b47	0.030698432
146	0xbc7efe86	-0.015563613
147	0xbd540346	-0.051760934
148	0x3b84d985	0.0040542507
149	0xbd8af6f3	-0.06785383
150	0x3d1dfd69	0.03857175
151	0x3c946aaa	0.018117268
152	0xbe210224	-0.15723473
153	0x3c37757d	0.011197445
154	0xbe29e704	-0.16592032
155	0xbd110125	-0.035401482
156	0x3d3014de	0.04298865
157	0xbd0173ba	-0.031604506
158	0xbcc9181e	-0.024547633
159	0x3bfa3a61	0.007636354
160	0x3d248970	0.040170133
161	0x3c4915ed	0.012273294
162	0x3dc6a487	0.0969935
163	0xbcf5a229	-0.02998455
164	0xbd4fd2f2	-0.050738283
165	0x3d43e7c8	0.047828466
166	0x3d94418b	0.07239064
167	0x3d0bbb6e	0.034114294
168	0xbe15b99e	-0.14621589
169	0xbd8e3e2e	-0.069454536
170	0xbd24fbdf	-0.040279265
171	0xbcae1717	-0.021251244
172	0x3d0dc145	0.034608144
173	0x3ca27758	0.019832298
174	0xbd1f3877	-0.03887221
175	0x3d197143	0.03746153
176	0x3d56221a	0.052278616
177	0xbe204a47	-0.15653335
178	0x3bf4adfa	0.0074670287
179	0xbe2021c6	-0.15637884
180	0xbd995b2a	-0.07488091
181	0xbd6d0553	-0.057866406
182	0xbb6768a1	-0.0035310166
183	0x3d50cb21	0.05097497
184	0x3cbb6646	0.022875916
185	0xbcf64551	-0.03006235
186	0x3dcc2943	0.099688075
187	0xbc30da81	-0.010794283
188	0x3dc5707e	0.09640597
189	0x3d46aa71	0.04850239
190	0x3ce9755b	0.028498342
191	0xbbb1fd4c	-0.0054318067
192	0x3c84e64a	0.016223092
193	0xbda3e79b	-0.080031596
194	0xbd08f639	-0.03343794
195	0x3d378659	0.04480586
196	0xbdd04a24	-0.10170391
197	0x3d96f5de	0.07371114
198	0xbe03220a	-0.12805954
199	0xbc3b8fa4	-0.011447821
200	0xbe0c43c3	-0.13697724
201	0xbdeb481d	-0.11488364
202	0xbdbe454a	-0.092905596
203	0xbbb459d4	-0.0055038724
204	0xbe0d5129	-0.13800491
205	0xbdac8566	-0.08423881
206	0x3dbb5370	0.09146774
207	0x3d925254	0.07144609
208	0xbc45e6ff	-0.012079
209	0xbc87a753	-0.016559279
210	0xbe0a1a0a	-0.13486496
211	0xbd6a2e0e	-0.057172827
212	0x3d721846	0.05910518
213	0xbce72e7a	-0.028220404
214	0xbe09c5be	-0.13454339
215	0xbe631cd6	-0.22178969
216	0xbdb6dca0	-0.089288
217	0xbdcf48da	-0.10121317
218	0xbdba314f	-0.09091436
219	0xbdbc1508	-0.09183699
220	0xbd63d454	-0.055622414
221	0xbdcd7dbb	-0.10033747
222	0xbded35f3	-0.115825556
223	0xbd79eb0f	-0.061015185
224	0xbd7e02be	-0.062014334
225	0xbdd61733	-0.10453644
226	0xbdafd564	-0.08585623
227	0x3ca50075	0.02014182
228	0xbc7b93ad	-0.015355033
229	0xbe05377e	-0.1300945
230	0xbd3b92a3	-0.04579414
231	0xbdeefc15	-0.116691746
232	0xb9b8c1eb	-0.00035239695
233	0xbe3f11a8	-0.18659079
234	0xbd715ed5	-0.05892833
235	0x3d83c9c6	0.064349696
236	0xbdb40da7	-0.087916665
237	0x3de56cde	0.112024054
238	0xbcf32aee	-0.029683556
239	0xbd764abc	-0.060129866
240	0x3d66c932	0.05634422
241	0xbd46fc53	-0.04858048
242	0xbd3fa03f	-0.046783682
243	0xbe1576f3	-0.14596157
244	0xbb089bf3	-0.0020844906
245	0x3d20e2e3	0.039278876
246	0xbe12ebd7	-0.14347778
247	0x3c750daa	0.014956871
248	0x3a6ef943	0.00091161224
249	0xbdcfc4eb	-0.10144981
250	0xbbdf81e1	-0.0068209027
251	0xbe1669c7	-0.14688788
252	0xbd6f5b93	-0.05843694
253	0x3ca8c03c	0.020599477
254	0x3c034057	0.008010945
255	0xbdd355a6	-0.103190705

fc2.bias f4 [3]
0	0x3d4dceb9	0.050245974
1	0xbd4fd8e6	-0.05074396
2	0xbd841e8b	-0.06451138

fc1.weight f4 [128, 6]
0	0x3e92fbf4	0.2870785
1	0xbd146527	-0.03622928
2	0xbdca1aa9	-0.09868366
3	0xbe328b1f	-0.17435883
4	0xbcd222ec	-0.025651418
5	0x3c4df40a	0.0125703905
6	0xbfaa9df3	-1.3329452
7	0xbf2c2503	-0.67243975
8	0x3f42e69c	0.7613313
9	0xbe94481a	-0.2896126
10	0xbf07f174	-0.53102803
11	0xbe0f47e5	-0.1399227
12	0xbf3c0332	-0.73442376
13	0x3f1d9599	0.6155639
14	0xbf677284	-0.9040911
15	0xbe290c55	-0.1650861
16	0x3dee91e9	0.11648924
17	0x3e461aa0	0.19346094
18	0xbcc73bd9	-0.02432053
19	0x3f273cc1	0.6532708
20	0xbf379b21	-0.7172108
21	0x3e3fa905	0.1871682
22	0x3eb27994	0.34858382
23	0xbe17a844	-0.14810282
24	0xbb871b72	-0.004123145
25	0xbdb9e96b	-0.09077724
26	0x3e183d01	0.14867021
27	0xbe02e51d	-0.12782712
28	0xbc8ef928	-0.017452791
29	0x3e356014	0.17712432
30	0xbcb3dc07	-0.021955503
31	0x3f8c975c	1.0983691
32	0x3f1abd4c	0.60445094
33	0xbeb23cd0	-0.3481202
34	0x3e284e90	0.16436219
35	0x3e40e751	0.1883824
36	0x3dea16e7	0.114301495
37	0x3ec15e27	0.37767145
38	0x3d6e3e4d	0.058164883
39	0xbcef6903	-0.029224878
40	0xbd62cb70	-0.055369794
41	0xbd06718d	-0.032823134
42	0xbd843a65	-0.064564504
43	0x3d801816	0.06254594
44	0xbea3d468	-0.3199799
45	0x3e19022e	0.14942238
46	0x3d9a63cb	0.07538565
47	0x3dad22d6	0.0845391
48	0x3db45065	0.088043965
49	0x3e8f6744	0.28008473
50	0x3e4c60fb	0.1995887
51	0x3e3e2a2c	0.18570775
52	0x3e525288	0.20539296
53	0xb97444e5	-0.00023295319
54	0xbd8c688a	-0.06855877
55	0xbd1d123d	-0.03834747
56	0x3d50f53f	0.051015135
57	0xbe3d4fc0	-0.18487453
58	0xbcd4a45c	-0.025957279
59	0x3c51dce7	0.012809015
60	0x3f00905e	0.50220287
61	0x3a5f9d93	0.0008530255
62	0xbcdbfad2	-0.026852999
63	0x3e7c7b9d	0.2465653
64	0xbdde78c5	-0.10862879
65	0x3a4f1e76	0.00079009624
66	0x3f3296fe	0.69761646
67	0xbf5a76b0	-0.8533735
68	0x3f108588	0.5645375
69	0x3f25048e	0.64460075
70	0x3dae5655	0.0851256
71	0x3b98185e	0.0046415767
72	0x3efd0730	0.49419546
73	0xbe921cc5	-0.28537574
74	0xbea5845d	-0.32327548
75	0xbe916cbe	-0.28403276
76	0xbdfe40bf	-0.12414693
77	0x3dfe9044	0.1242986
78	0x3f1f5300	0.6223602
79	0xbf7c9318	-0.9866195
80	0x3ea7656a	0.3269456
81	0x3ee27337	0.44228527
82	0x3d8734ce	0.066018686
83	0x3d16c507	0.036808994
84	0x3e183190	0.14862657
85	0xbf84b8f0	-1.0368938
86	0x3f2cea63	0.67545146
87	0xb90466c0	-0.00012626778
88	0xbd201f26	-0.039092205
89	0xbd375c93	-0.04476602
90	0xbe05cca6	-0.13066348
91	0xbd641365	-0.05568256
92	0x3c2db146	0.010601347
93	0xbcdcb018	-0.026939437
94	0x3d8c7ce1	0.06859756
95	0x3c6f1edb	0.014594759
96	0xbeb259c0	-0.348341
97	0x3e4d58fc	0.20053476
98	0xbf57f2b8	-0.84354734
99	0x3f2e6cf6	0.6813501
100	0x3eb75d62	0.35813433
101	0xbe9249bf	-0.2857189
102	0x3ee85b97	0.45382378
103	0xbf0df356	-0.55449426
104	0xbd2e8027	-0.042602684
105	0xbeb4c0b5	-0.35303274
106	0x3dae34bb	0.08506151
107	0x3dcfb03a	0.101410344
108	0x3f46f342	0.7771493
109	0x3fa6964e	1.3014619
110	0x3ee7bdd8	0.45262027
111	0xbdeeac11	-0.11653913
112	0xbce39785	-0.027782211
113	0xbaba9a63	-0.0014236685
114	0xbe89490e	-0.2681355
115	0x3f5f26e1	0.871687
116	0xbea5bd97	-0.32371208
117	0x3ed24c4f	0.41073844
118	0x3bb01af4	0.005374307
119	0xbded0400	-0.115730286
120	0x3ec6d3d7	0.38833496
121	0x3f629cbc	0.8852041
122	0x3ddeb027	0.10873442
123	0x3d19ec60	0.03757894
124	0x3e4e1d5d	0.20128389
125	0xbe6c50e7	-0.23077737
126	0xbf04ecab	-0.51923627
127	0xbdc1517a	-0.094393685
128	0x3ef2521e	0.47328275
129	0x3e400662	0.18752435
130	0x3f3294b5	0.6975816
131	0x3f280012	0.6562511
132	0x3ec8bf39	0.3920839
133	0x3f474f02	0.7785493
134	0xbeae4faa	-0.34045154
135	0xbea1c3b7	-0.3159463
136	0xbdb35d6c	-0.08758053
137	0xbd441f8c	-0.047881648
138	0xbf3a9533	-0.7288391
139	0xbfaa1a49	-1.3289272
140	0x3e836620	0.25663853
141	0xbf2fe95f	-0.6871547
142	0x3f1aefe9	0.60522324
143	0xbe6f3f36	-0.23363957
144	0xbd55b48b	-0.052174132
145	0xbf97eea2	-1.18697
146	0xbf4ce8a1	-0.80042464
147	0xbf2494d1	-0.64289576
148	0x3e997386	0.2997095
149	0xbe98b790	-0.29827547
150	0xbe8f08c2	-0.2793637
151	0xbf0bc596	-0.5459837
152	0xbe656dc6	-0.22405156
153	0x3f61b69a	0.8816925
154	0xbeabe60b	-0.33573946
155	0xbe3cdfc9	-0.18444742
156	0x3dfc0b78	0.12306875
157	0x3e9ca3d9	0.30593756
158	0xbf1c70d1	-0.61109644
159	0x3e9d1a38	0.30684066
160	0xbf0d4351	-0.5518084
161	0xbee9945f	-0.4562101
162	0x3f288471	0.6582709
163	0x3f96a8a7	1.1770219
164	0x3e3d1758	0.18465936
165	0xbe61509c	-0.22003406
166	0x3de717f1	0.11283863
167	0xbd356226	-0.044283055
168	0x3f1fbf87	0.6240162
169	0x3fa76965	1.3079039
170	0xbdf02483	-0.11725714
171	0x3e1367bf	0.14395045
172	0xbe4b0a2a	-0.19828096
173	0xbdfd7324	-0.12375477
174	0xbf151095	-0.5822843
175	0xbee5a30b	-0.44850954
176	0x3e5f5cf6	0.21812806
177	0xbd4940ee	-0.049134187
178	0xbf1bfafe	-0.6092986
179	0xbe7bfeef	-0.24608968
180	0xbf647da6	-0.89254224
181	0xbee2d3eb	-0.44302306
182	0xbf3ef333	-0.7458984
183	0xbf083ff5	-0.5322259
184	0xbdbaf4b7	-0.09128707
185	0x3dbea809	0.09309394
186	0xbfb89bc7	-1.442254
187	0xbe68c1b9	-0.2273015
188	0xbeb49238	-0.35267806
189	0xbdfc6dda	-0.1232564
190	0x3e18b1a7	0.14911519
191	0x3d656dd5	0.056012947
192	0xbeca63c2	-0.39529234
193	0xbf11545a	-0.56769335
194	0xbf39c833	-0.72571105
195	0xbe9eba4d	-0.3100151
196	0xbe42c35c	-0.19019836
197	0x3e0f2bb0	0.13981509
198	0xbe27a7b6	-0.1637257
199	0xbf2841ff	-0.657257
200	0xbf47f7de	-0.7811259
201	0xbf0228e9	-0.50843674
202	0x3e9e937f	0.30971906
203	0x3f03ddbe	0.51510227
204	0xbdc8548c	-0.09781751
205	0x3d581ffc	0.052764878
206	0x3ea0f60c	0.3143772
207	0xbdede57a	-0.11616035
208	0x3ea9fc70	0.33200407
209	0x3e172355	0.14759572
210	0xbf879933	-1.0593628
211	0xbc721380	-0.014775157
212	0xbe25091b	-0.16116755
213	0xbee6f51a	-0.45108873
214	0xbea6898b	-0.32526812
215	0xbb921384	-0.004457893
216	0x3d06b001	0.032882694
217	0x3f419dea	0.7563158
218	0xbeeb440d	-0.45950356
219	0x3f0acab2	0.5421554
220	0xbdaecd24	-0.08535221
221	0xbe0d7b29	-0.13816513
222	0xbe821882	-0.25409323
223	0xbe3b65c0	-0.18300533
224	0x3c827272	0.015923712
225	0x3b61fe69	0.0034483916
226	0xbd95e00d	-0.07318125
227	0x3d36a8a6	0.04459443
228	0xbe8d88f0	-0.27643538
229	0x3eda4a24	0.4263469
230	0xbf5e2d0c	-0.86787486
231	0xbeeb71a8	-0.4598515
232	0x3d80fef5	0.06298629
233	0x3e03e5cf	0.12880634
234	0xbedf997a	-0.4367178
235	0xbe512e64	-0.20427853
236	0xbfbf5189	-1.4946758
237	0xbdd3a125	-0.1033347
238	0xbe2c255c	-0.16811126
239	0x3c751ac1	0.014959992
240	0x3d6c25f6	0.05765339
241	0x3f78238e	0.9692925
242	0x3f215f04	0.6303561
243	0xbf075289	-0.52860314
244	0x3d7b55d1	0.061361138
245	0xbd8cc5c4	-0.06873658
246	0xbd37bf1f	-0.04486
247	0x3f5bc887	0.85852855
248	0xbdab7017	-0.08370989
249	0x3ec5fa1c	0.3866738
250	0x3e7932cf	0.24335788
251	0xbccc0841	-0.02490628
252	0xbee5a0e2	-0.44849306
253	0xbe93712d	-0.28797284
254	0x3da5a274	0.08087626
255	0x3ee8bb2e	0.45455307

fc1.bias f4 [128]
0	0x3f52e86a	0.82385886
1	0xbf795270	-0.97391415
2	0xbf1d87bd	-0.61535245
3	0x3e0c8190	0.13721299
4	0x3ed1e4b7	0.40994808
5	0x3f64c590	0.89363956
6	0x3f0fd800	0.56188965
7	0xbf2feb7c	-0.68718696
8	0x3f05ff46	0.5234264
9	0x3f1d91cf	0.6155061
10	0x3f458765	0.7715972
11	0x3f2f3219	0.6843582
12	0x3ed53742	0.4164372
13	0x3f4b980c	0.7952888
14	0x3f82e0f1	1.0224897
15	0xbee71297	-0.4513137
16	0xbf84f344	-1.0386739
17	0xbdce1db5	-0.1006426
18	0x3ecef56a	0.4042161
19	0x3eba7779	0.36419275
20	0x3f5ab19b	0.85427254
21	0xbf344b63	-0.7042753
22	0x3f5b56fb	0.85679597
23	0x3ef94e30	0.48692465
24	0xbcf1c518	-0.029512927
25	0x3e85f35d	0.26162234
26	0xbf2a5aeb	-0.6654498
27	0x3f40a25e	0.7524775
28	0x3e980a12	0.29695183
29	0xbf1bf54a	-0.60921156
30	0xbfa09e06	-1.2548225
31	0xbf823558	-1.0172529
32	0x3f154474	0.58307576
33	0xbf228173	-0.63478774
34	0x3e9537d5	0.2914416
35	0xbf872f7f	-1.056137
36	0x3f5910ac	0.84791064
37	0xbf349fd7	-0.70556396
38	0xbeb7c2c4	-0.35890782
39	0xbe89c0ab	-0.26904806
40	0x3dbdb1cf	0.0926243
41	0x3f333b38	0.70012236
42	0x3edd3587	0.432049
43	0x3eab1d16	0.33420628
44	0x3beaa0f2	0.0071602995
45	0x3f0e4802	0.55578625
46	0x3f0e458a	0.5557486
47	0xbf8184d2	-1.0118659
48	0x3f6fbedf	0.9365062
49	0xbf2f2497	-0.68415207
50	0x3ef61612	0.48063713
51	0x3f11fdc9	0.5702787
52	0x3e6aed7c	0.22942156
53	0x3f4a4308	0.7900853
54	0x3f733e54	0.9501698
55	0x3f18cce9	0.5968767
56	0xbc8591c3	-0.016304856
57	0x3f0563fb	0.52105683
58	0x3f0a7101	0.5407868
59	0x3e690ac7	0.22758017
60	0xbf182d74	-0.59444356
61	0x3ecce843	0.40020952
62	0x3f88925a	1.0669663
63	0x3ee4d4d0	0.44693613
64	0x3f0ff555	0.5623372
65	0xbf826bc4	-1.0189137
66	0xbf49c669	-0.78818375
67	0x3f881206	1.06305
68	0xbe7e324f	-0.24823879
69	0x3ee5d825	0.44891468
70	0x3ee4d22f	0.44691607
71	0x3e1c60ec	0.15271348
72	0xbed47ee6	-0.41503066
73	0xbe02a09e	-0.12756583
74	0xbf3bd8c0	-0.7337761
75	0x3f692bc7	0.91082424
76	0x3f4ebde9	0.8075853
77	0x3f337519	0.7010055
78	0xbe8be4f9	-0.2732313
79	0xbe58ca56	-0.21170935
80	0xbefc8999	-0.4932373
81	0xbf9de3eb	-1.233518
82	0x3f5b4940	0.85658646
83	0xbf10db05	-0.565842
84	0x3e3bb15e	0.18329379
85	0x3f663269	0.8992067
86	0xbf025767	-0.50914615
87	0x3f57bb79	0.84270436
88	0x3ef99783	0.48748407
89	0x3ee25fbb	0.44213662
90	0x3edf6f7b	0.4363974
91	0xbf561e7e	-0.8364028
92	0xbf616445	-0.88043624
93	0xbf8c00dd	-1.0937763
94	0xbd90a90b	-0.070634924
95	0x3f0f29cb	0.55923146
96	0xbea5fab5	-0.32417837
97	0x3c18fac6	0.009337133
98	0x3eb0b61c	0.34513938
99	0x3efc4d72	0.49277836
100	0x3e7de66d	0.24794932
101	0x3e32a61d	0.1744618
102	0x3ebdf083	0.37097558
103	0x3f290e3c	0.66037345
104	0xbec90281	-0.39259723
105	0x3f15f543	0.58577365
106	0xbf4cc562	-0.7998868
107	0x3e83099a	0.25593263
108	0xbf6e4bb8	-0.9308429
109	0x3f7c58c6	0.9857296
110	0x3e9d11a6	0.30677527
111	0xbf81b66c	-1.0133796
112	0x3dab5eea	0.08367713
113	0xbf3f60fb	-0.74757355
114	0x3f3a7f81	0.72850806
115	0x3e9dce3d	0.3082141
116	0xbcfd82f4	-0.030946232
117	0xbeea8e22	-0.45811564
118	0x3f185a58	0.59512854
119	0xbee39538	-0.44449782
120	0x3da0166d	0.078167774
121	0x3f70d2cb	0.94071645
122	0x3f176292	0.5913478
123	0xbf7a56f7	-0.9778895
124	0x3dfc9c84	0.123345405
125	0x3f67f84e	0.9061326
126	0x3e7d583f	0.24740694
127	0xbf592805	-0.8482669

fc2.weight f4 [1, 128]
0	0xbe178c90	-0.14799714
1	0x3e69f480	0.22847176
2	0xbe2f4409	-0.17115797
3	0x3db74789	0.08949191
4	0xbcbe4e88	-0.023230806
5	0xbe4909b3	-0.19632606
6	0xbcce139b	-0.025155833
7	0x3db230c0	0.087007046
8	0xbbf5f17a	-0.007505593
9	0xbde68373	-0.11255541
10	0xbe29609f	-0.16540764
11	0xbe4021ce	-0.18762895
12	0xbd9b503f	-0.07583665
13	0xbe572a43	-0.21012215
14	0xbe39a727	-0.1813017
15	0xbd461b46	-0.048365854
16	0x3d7b0c25	0.06129088
17	0xbc35884d	-0.01107986
18	0xbe5fbd35	-0.2184952
19	0xbb85d474	-0.0040841643
20	0xbe45fc5e	-0.19334552
21	0x3e950519	0.29105452
22	0xbec1af18	-0.37828898
23	0x3e00e5e9	0.12587704
24	0xbd83a1a8	-0.06427318
25	0xbc44a80b	-0.012002955
26	0x3e33292f	0.17496179
27	0xbe455878	-0.1927203
28	0xbde43161	-0.11142231
29	0x3e3b3ac1	0.18284132
30	0x3caa49fe	0.020787235
31	0x3d85311c	0.065035075
32	0xbd921c8b	-0.071343504
33	0x3b8a6a60	0.0042241067
34	0x39383751	0.00017568214
35	0xba756435	-0.00093609403
36	0xbe68867d	-0.22707553
37	0xbce80b92	-0.02832583
38	0xbda1e97b	-0.07905861
39	0xbdb16a3f	-0.08662843
40	0xbd828e90	-0.06374848
41	0xbd57e62c	-0.052709743
42	0xbca7e372	-0.020494197
43	0x3c51e207	0.012810237
44	0x3d6019ba	0.054712035
45	0xbdaf4b7f	-0.085593216
46	0xbd10c563	-0.035344493
47	0x3e77c975	0.24197944
48	0xbe8fcc8c	-0.28085744
49	0x3e71f00a	0.23626724
50	0xbdefa05a	-0.117005065
51	0xbd8d964f	-0.06913435
52	0xbc503faf	-0.012710496
53	0xbe4262c1	-0.18982984
54	0xbe89c4b0	-0.26907873
55	0xbe510996	-0.20413813
56	0x3c91bbcc	0.017789744
57	0xbcc71c66	-0.024305534
58	0xbc8c99bf	-0.017163156
59	0xbd296162	-0.041352637
60	0x3e51b3e2	0.20478776
61	0xbb395418	-0.0028278884
62	0xbe876aac	-0.26448572
63	0xbc26dc13	-0.010184306
64	0xbe1e0f56	-0.15435538
65	0xbd044727	-0.03229442
66	0x3f36baac	0.7137859
67	0xbe57f51b	-0.21089594
68	0xbdba119a	-0.090853885
69	0xbd4aa1e2	-0.04947079
70	0xbdcd5cf8	-0.10027498
71	0xbd20f380	-0.03929472
72	0x3c28696c	0.010279041
73	0x3ce0da25	0.02744777
74	0xbdd87a38	-0.105701864
75	0xbe876bb2	-0.26449353
76	0xbe34c010	-0.17651391
77	0xbd91603a	-0.07098432
78	0xbc8d9aca	-0.017285723
79	0x3dc2f25e	0.09518884
80	0x3d7fcd19	0.062451456
81	0xbf41a673	-0.75644606
82	0xbe846ea1	-0.25865653
83	0xbc8a5e58	-0.01689069
84	0x3da35874	0.079758555
85	0xbe593ec9	-0.21215357
86	0x3cf3dd47	0.0297686
87	0xbe4374a4	-0.19087464
88	0xbc7d5d09	-0.015464076
89	0xbe1d0e7f	-0.15337561
90	0xbe09b670	-0.134485
91	0x3e797c35	0.24363787
92	0x3e1101a3	0.1416078
93	0x3eba9e9d	0.36449137
94	0xbd02a797	-0.031898107
95	0xbd449808	-0.04799655
96	0x3d832e45	0.064053096
97	0x3de88071	0.11352623
98	0xbc681416	-0.014164945
99	0xbcdc61b6	-0.026902061
100	0xbe7cff2b	-0.24706714
101	0x3cb53528	0.022120073
102	0x3bc2fb66	0.005950379
103	0xbe1400e3	-0.14453463
104	0x3da774fc	0.0817661
105	0xbc09a74a	-0.008401701
106	0x3e0f886b	0.14016883
107	0xbd8891bd	-0.06668422
108	0xbe0a4efb	-0.13506691
109	0xbe8dfb09	-0.27730587
110	0x3c12be48	0.008956499
111	0xbda70732	-0.08155669
112	0x3dc6deae	0.097104415
113	0x3e1c848b	0.15284936
114	0xbe53ba33	-0.20676498
115	0x3db8d929	0.09025795
116	0x3d75bd77	0.05999514
117	0x3c81f9be	0.015866157
118	0xbc2ea57c	-0.010659572
119	0xbd372e00	-0.044721603
120	0xbc88d1f9	-0.016701685
121	0xbe8815a1	-0.26579002
122	0xbe39a978	-0.18131053
123	0x3dffc347	0.12488418
124	0xbc2f5faf	-0.010703965
125	0xbe8389fb	-0.25691208
126	0xbcaed219	-0.021340417
127	0x3dd8e060	0.10589671
