demo/base/ac/a2c.pt (torch, 26717 bytes, 21 tensors)

fc1.weight f4 [128, 4]
0	0xbce0fe8a	-0.027465124
1	0x3d892c79	0.066979356
2	0xbf80180f	-1.0007342
3	0xbf10c149	-0.5654493
4	0xbe1df596	-0.15425715
5	0x3e1d2254	0.15345126
6	0xbd0654f1	-0.03279585
7	0x3ec005d6	0.37504452
8	0xbdddd4d0	-0.108316064
9	0xbe474fa8	-0.1946398
10	0xbf7b487d	-0.98157483
11	0xbeb4bcca	-0.35300285
12	0xbf06debb	-0.5268361
13	0xbebe380d	-0.37152138
14	0xbf14a4f5	-0.58064204
15	0xbb15315d	-0.0022765019
16	0x3e27a804	0.16372687
17	0x3e89881d	0.2686166
18	0xbe94bb7c	-0.2904929
19	0xbe399687	-0.18123828
20	0x3e484065	0.19555815
21	0x3f321749	0.6956678
22	0x3f64bfb4	0.89355016
23	0x3f33b486	0.7019733
24	0xbe43813a	-0.19092265
25	0xbd592e96	-0.053022943
26	0x3e7b6817	0.24551426
27	0xbee3589c	-0.4440354
28	0xbe9e3879	-0.3090246
29	0xbdf4fb8f	-0.119620435
30	0xbea1e796	-0.31622
31	0x3ec7b403	0.39004526
32	0xbed25d5a	-0.41086847
33	0xbebce491	-0.36893132
34	0xbf40f7ad	-0.75377923
35	0xbedee7b4	-0.4353615
36	0xbe10053f	-0.14064501
37	0x3f4cc473	0.7998726
38	0x3fb198d0	1.387476
39	0x3f1ec723	0.6202261
40	0xbd4be9c8	-0.049783498
41	0xbf133114	-0.5749676
42	0xbf568747	-0.83800167
43	0xbf2e08f7	-0.6798243
44	0xbea6529a	-0.32484895
45	0xbe745872	-0.23861864
46	0x3e8aecc5	0.27133766
47	0x3e88d1fc	0.26722705
48	0xbe1346cb	-0.14382474
49	0x3cba9696	0.022776883
50	0x3e8abda0	0.27097797
51	0x3eea3cf0	0.45749617
52	0x3e4ae0f4	0.19812375
53	0x3d3bb4ad	0.045826603
54	0x3ebca8ec	0.36847627
55	0xbe887a0f	-0.26655623
56	0xbd813a1e	-0.06309913
57	0xbee4e752	-0.44707733
58	0xbeac9ea1	-0.33714774
59	0xbe3c8e5e	-0.18413684
60	0x3eb0640c	0.3445133
61	0x3ebe49f0	0.37165785
62	0x3f331059	0.6994682
63	0x3e90e023	0.28296003
64	0x3e89687b	0.26837525
65	0xbd35cb9a	-0.044383623
66	0xbcfc2188	-0.030777708
67	0x3db394f2	0.087686434
68	0x3eb31c64	0.34982598
69	0x3eeed390	0.46645784
70	0xbf2b21a8	-0.6684823
71	0xbe9cabae	-0.3059973
72	0x3e26ef7a	0.1630229
73	0x3f16d6de	0.5892161
74	0x3f94932a	1.1607411
75	0x3f2bdbcd	0.67132264
76	0x3d95a721	0.07307268
77	0xbf0ecdcb	-0.55782765
78	0xbf16cd03	-0.58906573
79	0xbef70d70	-0.4825244
80	0xbee314e6	-0.44351882
81	0x3ed470ca	0.414923
82	0x3e4c43a1	0.19947673
83	0xbf102329	-0.5630365
84	0x3db87dad	0.09008346
85	0xbdb5e5fc	-0.08881757
86	0xbda3b9ea	-0.07994445
87	0xbe66932e	-0.22517082
88	0x3e49bb67	0.19700395
89	0xbe8baa79	-0.27278498
90	0x3e1f0625	0.15529688
91	0x3e67f493	0.22651891
92	0x3e8e10b9	0.27747133
93	0x3de187fa	0.110122636
94	0xbf34ddf4	-0.70651174
95	0xbe9dc866	-0.30816954
96	0x3e672c87	0.2257558
97	0x3da2279f	0.079177134
98	0xbed03b9c	-0.40670478
99	0xbe894823	-0.26812848
100	0x3efc510a	0.49280578
101	0x3eb4386e	0.35199302
102	0xbed30648	-0.4121573
103	0xbe5e83d4	-0.21729976
104	0xbef77307	-0.48329946
105	0xbe8de396	-0.27712697
106	0xbf92d27b	-1.1470484
107	0xbf105930	-0.5638609
108	0x3d9fd0ce	0.07803498
109	0x3e1e8f21	0.15484287
110	0x3cc7ea16	0.024403613
111	0x3e93ec35	0.2889115
112	0xbe835bea	-0.25656062
113	0x3ede8ee2	0.43468386
114	0x3caebd43	0.021330481
115	0xbf15b8ea	-0.5848528
116	0x3d5e9799	0.054343794
117	0x3e027b32	0.12742308
118	0x3ed376ee	0.41301674
119	0x3df61d14	0.12017265
120	0x3e8ee4b3	0.2790886
121	0x3e6a5d01	0.2288704
122	0x3edfe9e6	0.43733138
123	0x3ea2ecc6	0.3182127
124	0xbf1dc639	-0.6163059
125	0xbf063473	-0.5242378
126	0xbf641814	-0.8909924
127	0xbee042a1	-0.43800834
128	0xbe187d71	-0.14891602
129	0xbea15748	-0.31511903
130	0x3e850e35	0.25987402
131	0x3e8b67d3	0.2722765
132	0xbeaecd54	-0.34141028
133	0xbd8bcb34	-0.06825867
134	0xbd8fd436	-0.07022898
135	0xbe34c98c	-0.17655009
136	0x3bb93da4	0.0056531
137	0xbdb989d6	-0.09059493
138	0x3e1414f0	0.14461112
139	0x3eb9101b	0.361451
140	0x3f04b9dd	0.51846105
141	0x3e94c498	0.2905624
142	0x3e17cf82	0.14825252
143	0xbe4b7e88	-0.19872487
144	0xbec52095	-0.3850142
145	0xbe491527	-0.19636975
146	0x3ecd998e	0.40156215
147	0x3cd40309	0.025880354
148	0xbec5a1d4	-0.38600028
149	0xbf09efbf	-0.5388145
150	0xbf43cfba	-0.7648884
151	0xbebc4290	-0.36769533
152	0xbd6ea8f2	-0.058266588
153	0x3e8a967d	0.27067938
154	0x3e31c042	0.17358497
155	0xbf0680a1	-0.5254002
156	0x3e4f3876	0.20236382
157	0xbf3f9e59	-0.74850994
158	0xbf886d9f	-1.0658454
159	0xbd1a3f3d	-0.037657965
160	0xbde49547	-0.11161285
161	0xbe85c0bf	-0.26123616
162	0xbf932de2	-1.1498377
163	0xbf399319	-0.7249008
164	0xbd75fe07	-0.060056712
165	0x3cc0e8b5	0.023548463
166	0xbe77b11b	-0.24188654
167	0x3e301785	0.17196472
168	0xbee3eec2	-0.44518095
169	0xbe7d2083	-0.24719433
170	0xbe6fb3ac	-0.23408383
171	0xbeeadc17	-0.4587104
172	0x3f0e9244	0.55691934
173	0x3eafff0d	0.34374276
174	0x3e3b0971	0.1826532
175	0x3eb03252	0.3441339
176	0xbd3eef18	-0.046614736
177	0xbefd591d	-0.4948205
178	0xbee913c8	-0.45522904
179	0xbf276bd5	-0.65398914
180	0x3d872744	0.06599286
181	0xbd9b24bf	-0.07575368
182	0x3ea29621	0.31755164
183	0x3ddd41e4	0.10803583
184	0x3dc2e758	0.095167816
185	0xbd777ccc	-0.06042175
186	0xbf438232	-0.7637054
187	0xbe6f3a2e	-0.23362038
188	0xbe92bbc4	-0.2865888
189	0x3efbc2c9	0.49172047
190	0x3f8fb357	1.1226605
191	0x3f03f8e1	0.51551634
192	0xbeb9b1d9	-0.362685
193	0x3cb2dd5d	0.02183407
194	0xbed311fc	-0.41224658
195	0xbe9c1f5b	-0.30492672
196	0xbe878ebf	-0.26476094
197	0x3e7b5e7f	0.24547766
198	0xbe0ca941	-0.1373644
199	0x3c32e461	0.010918708
200	0x3d307543	0.04308058
201	0x3e5d94e8	0.21638834
202	0xbf5c544f	-0.86066145
203	0xbf098cf1	-0.53730685
204	0xbe7a9f8e	-0.24474928
205	0x3f023703	0.5086519
206	0x3eec6aab	0.4617513
207	0x3f1ba178	0.60793257
208	0x3e20a84c	0.156892
209	0x3caa6e69	0.0208046
210	0x3c151399	0.009098911
211	0xbdafff37	-0.085936
212	0x3d118777	0.03552958
213	0xbe1a19ae	-0.15048859
214	0xbece24cc	-0.4026245
215	0xbcfe876a	-0.03107043
216	0xbf0b8d2c	-0.54512286
217	0xbf151027	-0.5822777
218	0xbf117c1f	-0.5683002
219	0xbf0f9a0d	-0.5609444
220	0x3d4a8d22	0.049451
221	0x3f1df781	0.61705786
222	0x3f83bdea	1.0292332
223	0x3dcaf246	0.09909491
224	0xbedea515	-0.43485323
225	0x3df83c64	0.121208936
226	0xbf6ff5d3	-0.93734473
227	0xbec5e198	-0.38648677
228	0xbddc956f	-0.1077069
229	0x3e1c2ab0	0.15250659
230	0x3f1a572e	0.60289276
231	0x3f17f7b2	0.5936233
232	0x3da904c2	0.082528606
233	0x3ea4ee13	0.32212886
234	0xbe2983f5	-0.16554244
235	0xbf0fa919	-0.561174
236	0x3e95c1da	0.2924946
237	0xbe6aed55	-0.22942097
238	0x3e1b57dd	0.15170236
239	0x3e991eeb	0.299064
240	0x3e2596f2	0.16170862
241	0x3ed36f14	0.41295683
242	0x3cd4744c	0.02593436
243	0x3c57d78f	0.013173952
244	0x3ce2be9e	0.027678784
245	0xbf51a64b	-0.8189437
246	0xbf68afc1	-0.9089318
247	0xbf2016e2	-0.62534916
248	0x3dbcd6de	0.0922067
249	0x3d33db25	0.043910164
250	0x3e19b167	0.1500908
251	0x3e407a2b	0.18796603
252	0x3e8de05c	0.27710235
253	0xbeb83843	-0.35980424
254	0xbf89678e	-1.0734727
255	0xbef047b9	-0.4692972

fc1.bias f4 [128]
0	0x3e14b851	0.14523436
1	0xbe6389fb	-0.22220604
2	0x3e4e3bf5	0.2014006
3	0x3e408984	0.18802458
4	0xbe93c033	-0.28857574
5	0x3e7f0622	0.24904683
6	0x3e89033e	0.26760286
7	0xbdcecc28	-0.100975335
8	0x3e2fcdf2	0.17168406
9	0x3e5d5a38	0.21616447
10	0x3e837f2c	0.25682962
11	0xbece6e52	-0.40318543
12	0xbeb9b066	-0.36267394
13	0xbe8ffe7b	-0.2812384
14	0x3ee95394	0.45571578
15	0x3da3c1e5	0.07995967
16	0xbd5c2b40	-0.053752184
17	0xbe0dc3cc	-0.13844222
18	0x3f038c7a	0.51386225
19	0x3ef2498d	0.4732174
20	0xbea6169c	-0.32439125
21	0xbed12323	-0.4084712
22	0xbed41e71	-0.41429475
23	0xbbf51ead	-0.0074804635
24	0xbe178315	-0.14796098
25	0xbe808cd7	-0.25107452
26	0x3e5d1d1a	0.21593133
27	0x3d7ef87e	0.0622487
28	0xbe181b00	-0.1485405
29	0x3d7e17d4	0.062034443
30	0x3dd9b307	0.1062985
31	0x3e08d692	0.13363102
32	0x3e0ebc75	0.13939078
33	0x3ebc639c	0.36794746
34	0xbe87c276	-0.2651555
35	0x3d29abe2	0.041423686
36	0xbe45e6cb	-0.19326322
37	0x3efc77a5	0.49310032
38	0xbeda636b	-0.42653975
39	0x3d7bc81a	0.06147013
40	0x3effa284	0.49928677
41	0xbea9c48d	-0.3315777
42	0x3e3d9222	0.18512776
43	0x3dc18253	0.094486855
44	0x3e52eecf	0.20598911
45	0xbe258e9e	-0.16167685
46	0x3e990aa5	0.29890934
47	0x3e6c9b91	0.23106219
48	0xbede21a2	-0.43385035
49	0xbea624c3	-0.32449922
50	0x3d5b49bf	0.053537127
51	0x3e92607d	0.2858924
52	0xbebb9082	-0.36633688
53	0x3ee28c86	0.44247836
54	0x3e2db9ea	0.16965452
55	0x3e18ab9c	0.14909214
56	0x3ecde5c1	0.4021435
57	0x3ea70d5c	0.3262738
58	0x3ece4bd2	0.4029222
59	0x3e80cad9	0.2515476
60	0xbdadf850	-0.084946275
61	0x3e30af29	0.17254318
62	0x3d614dbf	0.055005785
63	0x3ec6701f	0.38757417
64	0xbe2d1d0b	-0.1690561
65	0xbef36cad	-0.4754385
66	0x3e1ca3ef	0.1529691
67	0x3ef3e156	0.47632855
68	0x3d90e08e	0.070740804
69	0xbedc9b6b	-0.43087325
70	0xbefbba87	-0.49165747
71	0x3e3a5833	0.18197708
72	0x3de0d8a7	0.10978823
73	0xbe922f22	-0.28551584
74	0x3e45f267	0.1933075
75	0x3e4118e6	0.18857154
76	0x3ed57cc9	0.41696766
77	0x3eb7f473	0.35928687
78	0x3dc4c281	0.09607411
79	0xbef42cce	-0.47690433
80	0xbee753d8	-0.45181155
81	0x3ef1a155	0.471934
82	0x3ea04317	0.31301185
83	0x3e75733b	0.23969738
84	0xbe5d7e97	-0.21630321
85	0x3ed50ff0	0.41613722
86	0x3ed457b3	0.4147316
87	0x3eddb21d	0.43299952
88	0xbed7f530	-0.4217925
89	0x3e11afbb	0.14227192
90	0xbea199cf	-0.3156266
91	0x3effcf5e	0.49962896
92	0xbe241270	-0.16022658
93	0x3dffdc48	0.12493187
94	0x3eab6f6e	0.33483452
95	0xbe94dd4f	-0.29075095
96	0x3e5061e5	0.20349844
97	0x3d81871f	0.063246004
98	0xbd906730	-0.070509315
99	0xbeb44f4f	-0.35216758
100	0x3edf9399	0.43667296
101	0xbc68de18	-0.0142131075
102	0x3e805909	0.25067928
103	0x3ed8766d	0.42277852
104	0x3e467409	0.19380201
105	0x3c5e6c88	0.013575681
106	0x3ed419eb	0.41426024
107	0x3e080147	0.13281737
108	0xbe87f6ff	-0.2655563
109	0x3ef22810	0.4729619
110	0x3e6181ba	0.22022143
111	0xbee6543c	-0.4498614
112	0xbe470356	-0.19434866
113	0xbec25280	-0.37953568
114	0x3ee11643	0.43962297
115	0x3e04d588	0.1297208
116	0xbef23dfd	-0.47312918
117	0x3e1ea978	0.15494335
118	0x3e9ffea0	0.3124895
119	0x3e48371c	0.19552273
120	0x3e4e8c98	0.2017082
121	0x3e645e09	0.22301497
122	0x3e479856	0.19491705
123	0xbdd78b76	-0.10524647
124	0xbdb13147	-0.08651977
125	0xbe93fa22	-0.28901774
126	0xbed56ce3	-0.41684636
127	0x3e697228	0.22797453

fc2.weight f4 [2, 128]
0	0x3dc2ad38	0.09505695
1	0xbbebbb84	-0.0071939845
2	0x3e798d1e	0.24370238
3	0x3d368078	0.04455611
4	0xbccab6db	-0.024745395
5	0xbe770119	-0.24121512
6	0x3cc55ce2	0.024092142
7	0x3d324f6e	0.04353278
8	0x3e0f0c0c	0.1396944
9	0xbf0a7c85	-0.5409625
10	0x3e93fd13	0.28904018
11	0xbd5b46d4	-0.053534344
12	0x3d523870	0.051323354
13	0xbd1db7b5	-0.038505275
14	0x3c5289ee	0.012850268
15	0xbe4d06f6	-0.20022187
16	0xbcad8980	-0.02118373
17	0x3e0f11c3	0.1397162
18	0xbe5fa84d	-0.21841545
19	0x3e12d1a5	0.14337786
20	0x3c0253a3	0.007954511
21	0xbc45ad05	-0.012065177
22	0x3d5a95c0	0.05336547
23	0x3cb4e1db	0.022080353
24	0x3d83a94d	0.06428776
25	0x3dec6885	0.11543373
26	0x3e8936ca	0.26799613
27	0xbcbb8f2b	-0.022895416
28	0x3c9390f9	0.018013464
29	0xbd931da3	-0.07183387
30	0xbe839f5b	-0.25707516
31	0x3e5c9624	0.21541649
32	0xbd32abf2	-0.04362101
33	0x3d178271	0.036989633
34	0x3c8de654	0.017321743
35	0x3d730d7c	0.05933903
36	0xbba13317	-0.0049194205
37	0x3e06178f	0.13094924
38	0x3dbfb6a8	0.09361011
39	0x3e9e6cb4	0.3094231
40	0x3e7dad56	0.24773154
41	0xbd1d0d3f	-0.03834271
42	0x3e338785	0.17532165
43	0xbde2682d	-0.11055026
44	0x3eb5fc7c	0.35544193
45	0x3d223f0b	0.039610904
46	0x3d941e9e	0.07232402
47	0xbeb063b0	-0.34451056
48	0x3d96d4c7	0.07364803
49	0xbb807ae7	-0.003920901
50	0x3e1cdac0	0.15317822
51	0xbe740445	-0.23829754
52	0x3d8720ea	0.06598075
53	0x3da60b2a	0.08107598
54	0x3e81d849	0.25360325
55	0xbe6694ee	-0.2251775
56	0x3e3e7b84	0.18601805
57	0xbe43e655	-0.19130833
58	0x3d9991d1	0.074985154
59	0xbd1d3d6b	-0.03838865
60	0xbd530748	-0.051520616
61	0x3f1c2ea2	0.61008656
62	0xbe226055	-0.1585706
63	0x3e2bafa3	0.16766219
64	0xbb3fe2fc	-0.002927958
65	0xbbee4e9b	-0.007272554
66	0xbd4d2927	-0.050088074
67	0x3e37a12b	0.17932574
68	0x3da9e44b	0.082954966
69	0x3d60e8c4	0.054909483
70	0xbc9d6277	-0.01921199
71	0xbe46a03c	-0.19397062
72	0xbe8396f2	-0.257011
73	0xbd6e7999	-0.058221433
74	0x3e877c70	0.26462126
75	0xbdfafa3d	-0.122547604
76	0xbd918697	-0.07105749
77	0x3e2661df	0.16248272
78	0xbca39528	-0.019968584
79	0x3db3b014	0.087738186
80	0x3d92cf4f	0.07168447
81	0xbe171eed	-0.14757891
82	0x3e7e028e	0.24805662
83	0xbe1b1407	-0.15144359
84	0xbdf3c1e2	-0.119022146
85	0xbdc0e300	-0.09418297
86	0xbd458b4a	-0.04822854
87	0xbe442b63	-0.19157176
88	0x3d5b1b7e	0.053493015
89	0xbf022b59	-0.50847393
90	0xbcc21c2d	-0.023695076
91	0x3df91a5a	0.12163229
92	0xbd427ce6	-0.047482394
93	0x3e945de8	0.28977895
94	0xbe924acb	-0.28572688
95	0x3d2a0dff	0.041517254
96	0xbed09ae5	-0.40743175
97	0x3cba1c51	0.02271858
98	0x3c8d0034	0.01721201
99	0xbd9a0fbc	-0.07522532
100	0xbe3ffd6b	-0.18749015
101	0xbd844227	-0.0645793
102	0x3e5b7b63	0.21433787
103	0x3dcb36aa	0.09922536
104	0xbd349e9a	-0.044096567
105	0x3d1bfbc8	0.038081914
106	0x3e6bf793	0.23043661
107	0xbe99106e	-0.29895347
108	0x3cae178d	0.021251464
109	0x3d55688c	0.052101657
110	0xbdea5f66	-0.11443977
111	0xbdad4a0f	-0.08461391
112	0x3d1cbe36	0.038267337
113	0x3d384f30	0.044997394
114	0x3df70306	0.120611235
115	0x3e5ac52a	0.21364275
116	0xbc71a29c	-0.014748242
117	0xbcc713ea	-0.024301488
118	0x3dbdb264	0.09262541
119	0xbe9908e0	-0.29889584
120	0xbd0c9428	-0.03432098
121	0xbea6903b	-0.32531914
122	0xbe26d581	-0.16292383
123	0x3d8a9c2c	0.06768069
124	0xbcd2b0fd	-0.02571916
125	0xbe270c46	-0.16313276
126	0xbce12f5d	-0.027488405
127	0xbe04b7ba	-0.12960711
128	0xbe5c5f38	-0.21520698
129	0xbbc34516	-0.0059591634
130	0xbe3ef9db	-0.1865
131	0xbded05c1	-0.11573363
132	0x3c82325f	0.01589316
133	0x3ebe56a0	0.37175465
134	0xbca9561f	-0.020670949
135	0xbcdeb335	-0.027185062
136	0xbdf9cd13	-0.12197318
137	0x3eef42f0	0.46730757
138	0xbe1c6211	-0.15271784
139	0xbd8a0b9a	-0.06740494
140	0xbd64a875	-0.055824716
141	0x3d02f0f9	0.03196809
142	0xbd9f69db	-0.07783862
143	0x3e296fac	0.16546506
144	0xbc5cc235	-0.013474037
145	0xbdc365ae	-0.09540878
146	0x3e19fbf8	0.15037525
147	0xbe4a9ee2	-0.19787171
148	0xbcd110ad	-0.025520647
149	0x3c0bbea6	0.008529341
150	0x3c3d4412	0.011551874
151	0xbd7e1a78	-0.06203696
152	0x3ced4d5a	0.028967548
153	0xbc105e21	-0.008811505
154	0xbe9fffca	-0.3124984
155	0x3d61e26d	0.055147577
156	0xbdd07468	-0.10178453
157	0x3da757fa	0.08171077
158	0x3e211d70	0.15733886
159	0xbe79a3a2	-0.24378827
160	0x3d8a11bd	0.067416646
161	0xbd3ced52	-0.046124764
162	0x3db3da6b	0.08781894
163	0xbd5b1bca	-0.0534933
164	0xbc0309fb	-0.007997985
165	0xbd6147f6	-0.055000268
166	0x3d6081c5	0.054811258
167	0xbec4e240	-0.38453865
168	0xbe1e3606	-0.15450296
169	0xbc24eea3	-0.010066661
170	0xbe67c259	-0.22632731
171	0x3d9a249f	0.07526516
172	0xbe95891c	-0.2920617
173	0xbd267a69	-0.040644083
174	0xbd92f1c4	-0.071750194
175	0x3e9e7ac4	0.30953038
176	0xbd8478bf	-0.06468343
177	0x3dd48a87	0.103779845
178	0xbdfce7e1	-0.12348915
179	0x3e653fe1	0.22387649
180	0x3da0a3a9	0.07843716
181	0xbcc7b08f	-0.024376182
182	0xbe4aa6f8	-0.19790256
183	0x3df04e42	0.117336765
184	0xbe0c2a9d	-0.1368813
185	0x3de2e7e6	0.11079387
186	0xbd622a59	-0.055216167
187	0x3c922ad6	0.017842691
188	0x3cfce058	0.030868694
189	0xbf137361	-0.5759793
190	0x3e0acb7a	0.13554183
191	0xbe296427	-0.16542111
192	0xbd353761	-0.044242267
193	0xbd1008f7	-0.0351648
194	0xbc4dd7d2	-0.012563663
195	0xbd8bc9cc	-0.06825599
196	0xbde918cf	-0.11381685
197	0xbd09f6f4	-0.03368278
198	0xbcb36971	-0.021900864
199	0x3e334f7d	0.17510791
200	0x3e27ff77	0.16406046
201	0x3d0ee1a9	0.034883175
202	0xbe3173e5	-0.17329367
203	0x3e091ab1	0.13389088
204	0x3de96fd9	0.11398286
205	0xbe240d54	-0.1602071
206	0x3df242ca	0.11829145
207	0x3d58c676	0.052923642
208	0x3b854890	0.004067488
209	0x3dcb8d27	0.09939032
210	0xbe849c7b	-0.25900635
211	0x3e242fad	0.16033812
212	0x3cffa006	0.031204235
213	0x3d8b99e7	0.06816464
214	0x3e2dc866	0.16970977
215	0x3d338f70	0.043837965
216	0x3ab9bd80	0.0014170855
217	0x3ed81028	0.42199826
218	0x3d84bf9e	0.064818606
219	0xbe08f9bc	-0.13376516
220	0x3da60f7c	0.08108422
221	0xbe46f234	-0.1942833
222	0x3e77a101	0.24182512
223	0x3ce4031b	0.027833512
224	0x3ef74d2a	0.4830106
225	0xbe002425	-0.12513788
226	0x3acfe618	0.001586142
227	0xbcd7a9a0	-0.026326
228	0x3dd75a26	0.10515241
229	0x3db6a0f2	0.08917417
230	0xbe07a229	-0.13245453
231	0xbe105096	-0.14093241
232	0xbb2f63cb	-0.0026762362
233	0x3d2da974	0.04239793
234	0xbe329ddf	-0.17443036
235	0x3e882221	0.26588538
236	0x3d16ae05	0.03678705
237	0x3bc48c32	0.005998158
238	0xbc14ae0f	-0.009074702
239	0x3da213a3	0.07913902
240	0xbbeb2242	-0.0071757147
241	0xbd54f519	-0.051991556
242	0xbe34ebe1	-0.17668106
243	0xbde28771	-0.1106099
244	0x3ce587ba	0.028018821
245	0x3e0dd2a3	0.13849883
246	0xbda46b97	-0.08028334
247	0x3e2b49e9	0.16727413
248	0x3d6a5a13	0.057214808
249	0x3eebcec9	0.46056202
250	0x3d0adfe2	0.033904918
251	0x3dba0f31	0.09084929
252	0x3da55eb6	0.08074705
253	0x3e275030	0.16339183
254	0xbcf0f8ec	-0.02941557
255	0x3e7cf7fd	0.24703975

fc2.bias f4 [2]
0	0xbdb24864	-0.08705214
1	0x3b4a29b5	0.0030847613

fc1.weight f4 [128, 4]
0	0x3dac4310	0.08411229
1	0x3ee9a3be	0.45632738
2	0x3dcbab9b	0.099448405
3	0x3e3cc125	0.18433054
4	0xbcad02c2	-0.02111948
5	0x3e1411d4	0.14459926
6	0x3ec36149	0.3816016
7	0x3df9a6e3	0.12190034
8	0xbecfaec4	-0.40563023
9	0xbe75101f	-0.23931931
10	0xbe52a04f	-0.20568965
11	0xbe88b778	-0.26702476
12	0x3e33b36d	0.17548914
13	0x3e25740c	0.1615755
14	0xbd0944f7	-0.033513036
15	0x3e160402	0.14649966
16	0x3ea4425c	0.32081878
17	0x3c54f9af	0.012998982
18	0xbeef33ce	-0.4671921
19	0xbe4f1e50	-0.20226407
20	0x3d481138	0.048844546
21	0xbe469565	-0.19392927
22	0x3e96f1f1	0.29481462
23	0xbe62febc	-0.22167486
24	0xbf0a0f94	-0.5393002
25	0x3d87f455	0.066383995
26	0x3ea36abd	0.31917372
27	0xbe686249	-0.22693743
28	0x3ff8fd39	1.9452277
29	0xbd974fd9	-0.073882766
30	0x400fe30c	2.2482328
31	0xbd883f12	-0.06652655
32	0x40252d84	2.580903
33	0x3df590fe	0.11990546
34	0x3f9a98a2	1.207783
35	0x3d8dbfa7	0.069213204
36	0x3e209688	0.15682423
37	0xbdc482f2	-0.09595288
38	0x3ecbbe73	0.3979374
39	0xbd581df0	-0.052762926
40	0x3dd136d2	0.10215534
41	0xbf8c5761	-1.0964166
42	0xc0200943	-2.5005653
43	0xbf8ca86e	-1.0988901
44	0xbdcd775c	-0.100325316
45	0x3e3ff249	0.18744768
46	0xbc93da87	-0.018048538
47	0xbc0c35ec	-0.008557778
48	0xbfe1790d	-1.7615067
49	0xbf97941d	-1.1842076
50	0xbfe03955	-1.7517496
51	0xbf3d1842	-0.7386514
52	0xbf9b778c	-1.2145858
53	0xbf1f6247	-0.62259334
54	0xc055a1d9	-3.3380034
55	0xbefe35ca	-0.49650413
56	0x3f09a1e9	0.5376268
57	0xbe1f8a90	-0.15580201
58	0xbfa4fee6	-1.2890289
59	0xbee1e96c	-0.441234
60	0x3e5a843c	0.21339506
61	0x3d2e68a6	0.04258027
62	0xbf022d6c	-0.5085056
63	0x3dbacd12	0.09121145
64	0x3eef36ae	0.46721405
65	0xbeba5cf6	-0.3639905
66	0xbf268997	-0.65053695
67	0xbca1f840	-0.019771695
68	0x3edbf723	0.42961988
69	0xbdb9d057	-0.09072941
70	0xbe466026	-0.19372615
71	0x3def0358	0.1167056
72	0x3ffa8c3a	1.9574044
73	0x3f8be4d3	1.0929207
74	0x4041b2c9	3.0265372
75	0x3f76df55	0.9643453
76	0xbf6142d6	-0.8799261
77	0x3ed29e14	0.4113623
78	0x402a6da8	2.662943
79	0x3f564d28	0.8371148
80	0xbf60a855	-0.87756854
81	0xbeb64946	-0.35602778
82	0xc02dd851	-2.716328
83	0xbf32af57	-0.697988
84	0xbf95eaa9	-1.1712238
85	0xbf8ac2b6	-1.0840671
86	0xbffb50f2	-1.9634078
87	0xbf39448c	-0.7237022
88	0xbe9efaae	-0.31050628
89	0x3da64bf2	0.08119954
90	0xbec901d1	-0.39259198
91	0x3e154730	0.14577937
92	0xbd8efd0f	-0.06981861
93	0x3e9a7bee	0.30172676
94	0xbc010d65	-0.007876729
95	0xbd9abebf	-0.07555913
96	0x3fe33ede	1.775356
97	0xbed533c9	-0.4164107
98	0xbfe0c079	-1.7558738
99	0xbecdbcd9	-0.40183142
100	0xbe8cab82	-0.274746
101	0xbf2e985a	-0.6820122
102	0xc035a819	-2.8383849
103	0xbf0ab2b7	-0.5417895
104	0x3e86f0c7	0.26355574
105	0xbe951b5b	-0.29122433
106	0xbf0dc324	-0.55375886
107	0x3e1a432b	0.15064685
108	0xbb823158	-0.0039731674
109	0xbce245a2	-0.027621094
110	0x3e6ce815	0.23135407
111	0xbe6aaed0	-0.22918248
112	0x3f31ab7a	0.6940228
113	0xbeabd023	-0.33557233
114	0xbfe5ae3c	-1.7943797
115	0xbf3a2e00	-0.7272644
116	0xbe4c2124	-0.19934517
117	0x3dc0f0dc	0.0942094
118	0x3eba6eef	0.3641276
119	0x3e04f109	0.12982573
120	0xbde668d6	-0.112504646
121	0xbec22e24	-0.37925828
122	0xc015d5f6	-2.3411841
123	0xbf1505de	-0.5821208
124	0xbebcee72	-0.3690067
125	0xbe5e199a	-0.21689454
126	0xbd3e86f3	-0.046515416
127	0xbe8111e9	-0.25208977
128	0x3bef3540	0.007300049
129	0x3f59ab74	0.8502724
130	0x3e665f89	0.22497381
131	0x3f5b0bcd	0.8556488
132	0x3f9d1493	1.2271904
133	0xbeaca98a	-0.33723098
134	0xc0034014	-2.050786
135	0xbf117064	-0.5681212
136	0xbdf99b18	-0.12187785
137	0xbc0bf735	-0.0085428255
138	0xbef1491a	-0.47126085
139	0xbc2b9867	-0.010473347
140	0xbecb59d4	-0.3971697
141	0x3ef03d73	0.46921882
142	0xbf19769e	-0.5994662
143	0x3e8b8798	0.27251887
144	0x3d6840a5	0.056702275
145	0xbdda608c	-0.10662946
146	0x3e03a7c5	0.12856968
147	0xbdeb8187	-0.11499315
148	0x3d523ab9	0.051325534
149	0x3ed5709e	0.41687483
150	0xbf28a4c2	-0.658764
151	0x3e9b0e86	0.30284518
152	0x3e4eb4ca	0.20186153
153	0xbd86529e	-0.06558727
154	0xbde8c311	-0.11365331
155	0x3e448c21	0.1919408
156	0xbe4c4428	-0.19947875
157	0x3eadf66c	0.33977067
158	0x4037f51c	2.8743353
159	0x3f438269	0.76370865
160	0x3ed00ebe	0.40636247
161	0x3d3f3ef5	0.0466909
162	0xbf027294	-0.5095608
163	0x3e380192	0.17969349
164	0x3d809bee	0.06279741
165	0x3e6e1c63	0.23253016
166	0xbe48152b	-0.19539325
167	0xbda62101	-0.08111764
168	0x3e4fc234	0.20288926
169	0xbdef2864	-0.11677626
170	0xbe1cff44	-0.15331751
171	0x3c87a805	0.01655961
172	0x3b227673	0.002478984
173	0xbec9e972	-0.39435917
174	0x3e1b0c0d	0.15141316
175	0xbe4954c8	-0.19661248
176	0x3ec25e45	0.37962547
177	0xbee2afd4	-0.4427477
178	0xbf217611	-0.6307078
179	0xbe23f6b9	-0.16012086
180	0x3fcdc55b	1.6075853
181	0xbef4d705	-0.47820297
182	0xbfc32c21	-1.5247842
183	0xbeb8cd9f	-0.36094376
184	0x3d2c7e5a	0.042112686
185	0x3d6478ed	0.055779386
186	0x3d9c4d03	0.07631876
187	0x3e8b7a60	0.27241802
188	0xbf572227	-0.8403649
189	0xbf186c26	-0.5954002
190	0xc02a35c8	-2.6595325
191	0xbf10ebde	-0.56609905
192	0x3f8303f4	1.0235581
193	0x3fb217c9	1.3913509
194	0x4020573c	2.5053244
195	0x3f8621de	1.0479085
196	0xbeb403e3	-0.35159215
197	0xbe9c34cf	-0.3050904
198	0xbdbce221	-0.09222818
199	0xbeb25545	-0.3483068
200	0xbba39800	-0.004992485
201	0xbd4e6e00	-0.050397873
202	0xbd37fc20	-0.04491818
203	0xbdccb3b0	-0.0999521
204	0x400921f3	2.142697
205	0x3f8c3851	1.0954686
206	0x3ff1d9a0	1.8894539
207	0x3f47637a	0.77886164
208	0x3ceafd63	0.028685277
209	0xbeb404a8	-0.35159802
210	0xbd1b55f8	-0.037923783
211	0xbd81924f	-0.06326734
212	0xbfb14d7d	-1.3851773
213	0xbec65dc4	-0.38743412
214	0x3e5a6da6	0.2133089
215	0x3db36d04	0.087610275
216	0xbf9971bc	-1.1987834
217	0xbf9bd599	-1.217456
218	0xc0274da9	-2.614115
219	0xbf6c9bba	-0.9242512
220	0xbfecc05e	-1.8496206
221	0xbf949f39	-1.1611091
222	0xc0078cac	-2.117961
223	0xbf51ae46	-0.81906545
224	0xbeab63ef	-0.3347468
225	0x3cca28f7	0.024677737
226	0xbf1a8d2a	-0.6037165
227	0xbd8a4342	-0.0675111
228	0xbe8e5b73	-0.27804145
229	0xbede4e77	-0.4341924
230	0x3cf709d4	0.030156054
231	0xbec59b1f	-0.3859491
232	0xbeaba8f4	-0.33527339
233	0x3ee6e431	0.4509597
234	0xbe25afd8	-0.1618036
235	0x3e99954e	0.29996723
236	0x3d1b554b	0.03792314
237	0x3e45231a	0.19251671
238	0x401bb2d4	2.4327898
239	0x3eff2d1b	0.498391
240	0x3ef9941f	0.4874582
241	0xbee9e086	-0.4567911
242	0xbef9ad6f	-0.48765132
243	0x3d872038	0.06597942
244	0xbe89874c	-0.26861036
245	0xbef9ab00	-0.48763275
246	0x3e3ec398	0.186293
247	0xbeb76026	-0.35815543
248	0xbde147af	-0.11000001
249	0xbf0da935	-0.55336314
250	0x3e18da47	0.14927016
251	0xbea78470	-0.3271823
252	0x3ea8278c	0.32842672
253	0xbed08f54	-0.4073435
254	0xbf135b3c	-0.5756109
255	0xbd6281bf	-0.055299517

fc1.bias f4 [128]
0	0x3f959b0f	1.1687945
1	0x3f2a984f	0.66638654
2	0x3fa89cad	1.3172814
3	0x3f9b0b47	1.2112817
4	0x3fc4ad33	1.5365356
5	0x3f873d45	1.0565573
6	0x3fab3d15	1.3378016
7	0x3e01cf58	0.12676752
8	0x3e33f8fc	0.17575449
9	0x3f090049	0.5351606
10	0xbee48366	-0.446315
11	0xbf204702	-0.6260835
12	0xbdcf43ad	-0.1012033
13	0xbda57bd7	-0.08080261
14	0xbef0251a	-0.46903306
15	0x3f84947e	1.0357816
16	0x3fa3603d	1.2763745
17	0x3fa1d0a8	1.2641802
18	0xbe3b73a5	-0.18305834
19	0xbf186570	-0.5952978
20	0xbec67e0f	-0.3876805
21	0xbdd43758	-0.103621185
22	0x3fa9acd5	1.3255869
23	0x3dd9d4d9	0.106363006
24	0xbe1c49ac	-0.15262479
25	0xbe855346	-0.26040095
26	0x3f4a715a	0.7907921
27	0xbf4f9f60	-0.8110256
28	0xbf1e45a1	-0.61824995
29	0x3f979e35	1.1845156
30	0xbebca04a	-0.3684104
31	0x3f1cc000	0.6123047
32	0xbe4c65b3	-0.1996067
33	0xbee074a0	-0.43838978
34	0x3f55ef90	0.8356867
35	0x3f6f7a29	0.93545777
36	0xbec514d5	-0.38492456
37	0x3f0836ac	0.5320842
38	0x3f7ba93d	0.9830511
39	0xbf1cd555	-0.6126302
40	0x3fb2b6fb	1.3962091
41	0x3fc2b829	1.5212451
42	0x3fa795ac	1.3092551
43	0x3d34193a	0.04396937
44	0x3f71b5df	0.9441814
45	0xbde9f64e	-0.11423932
46	0xbb817348	-0.00395051
47	0x3d48c047	0.049011495
48	0xbe929029	-0.2862561
49	0x3fa3ba7e	1.2791288
50	0xbe694bfc	-0.22782892
51	0x3be8b364	0.007101463
52	0xbd87b2d6	-0.06625907
53	0xbe5b5bab	-0.21421687
54	0xbd86c1da	-0.06579943
55	0xbdfd0acc	-0.12355575
56	0x3fa1f87c	1.2653956
57	0x3fa11dd5	1.2587229
58	0x3f9598cc	1.1687255
59	0xbee082b7	-0.43849728
60	0x3f852ec3	1.0404896
61	0x3f5be55b	0.85896844
62	0x3fa591b0	1.2935085
63	0x3fb67a79	1.4256126
64	0x3e37619f	0.17908333
65	0xbf029fdb	-0.5102517
66	0xbe003f19	-0.1252407
67	0xbec1e760	-0.37871838
68	0x3fc14e34	1.5101991
69	0x3f9219d8	1.1414137
70	0x3f9f7649	1.2457973
71	0x3fb063a2	1.3780406
72	0x3f8ae28c	1.0850387
73	0xbf2672af	-0.65018743
74	0x3fac70c4	1.3471913
75	0x3fb59d63	1.4188656
76	0x3f5e8922	0.86928
77	0xbddf5a4d	-0.109058954
78	0x3fafc705	1.3732611
79	0x3f715755	0.94273883
80	0x3f8866a7	1.0656327
81	0x3f97fe54	1.187449
82	0x3faf4e73	1.3695816
83	0xbf3a96bc	-0.7288625
84	0xbeefcb48	-0.4683478
85	0x3fa50a0f	1.2893695
86	0x3f478807	0.77941936
87	0xbf12ba93	-0.5731594
88	0x3fc8ff8e	1.5702989
89	0x3f832113	1.0244468
90	0x3fb5ef3a	1.4213631
91	0x3e17abca	0.14811626
92	0x3f8ba70d	1.0910355
93	0xbde2b259	-0.11069173
94	0xbd0db7b8	-0.034599036
95	0x3ea97cfb	0.33103165
96	0x3dd4dd80	0.1039381
97	0x3f895051	1.0727636
98	0x3f599235	0.8498872
99	0x3fa7c873	1.3108047
100	0x3f89cc33	1.0765442
101	0x3f29485d	0.6612604
102	0xbe0ac56d	-0.13551874
103	0x3d584523	0.05280031
104	0xbd9f01ed	-0.07764039
105	0xbf1fb2b2	-0.6238204
106	0x3ed9da81	0.42549518
107	0x3f6917f0	0.9105215
108	0xbe5e2e43	-0.21697335
109	0xbedce03f	-0.43139836
110	0x3f99c0a4	1.2011914
111	0x3f86c074	1.0527482
112	0x3e39be4a	0.18138996
113	0xbee052f1	-0.4381328
114	0x3f868499	1.0509216
115	0x3f978cc1	1.183983
116	0xbf1fcc26	-0.6242088
117	0x3ea0a51e	0.31375974
118	0x3f6d8819	0.92785794
119	0xbe941ce0	-0.2892828
120	0x3fb8e93a	1.4446175
121	0x3da34cbf	0.079736225
122	0x3f909e63	1.1298336
123	0xbea6317e	-0.32459635
124	0x3f52a67b	0.8228528
125	0xbebe3907	-0.37152883
126	0xbe84a02c	-0.2590345
127	0x3f935e97	1.1513242

fc2.weight f4 [1, 128]
0	0x3f2501f1	0.6445609
1	0x3e415858	0.18881357
2	0x3f548add	0.8302439
3	0x3f22be5c	0.63571715
4	0x3f3bfd65	0.73433524
5	0x3f0027ca	0.50060713
6	0x3f17af76	0.5925211
7	0xbf521b42	-0.8207284
8	0xbf28e548	-0.65974855
9	0x3dcf161b	0.10111638
10	0xbfdc9b79	-1.7234946
11	0x3e02d793	0.12777548
12	0xbfda67b9	-1.7062904
13	0xbf9e0e53	-1.2348121
14	0xbec9ea49	-0.39436558
15	0x3f4c5a17	0.79824966
16	0x3f398f73	0.7248451
17	0x3f26363e	0.64926517
18	0xc000ddf7	-2.0135477
19	0xbf809a4b	-1.0047086
20	0xbf5726ed	-0.8404377
21	0xbfb724ea	-1.430814
22	0x3f43b5d6	0.76449335
23	0x3d4c5521	0.049885873
24	0xbf70f6ec	-0.9412677
25	0xbf76a152	-0.96339905
26	0x3e833d98	0.2563293
27	0x3c810fb8	0.015754566
28	0xbf464ad7	-0.77457947
29	0x3f09fdd2	0.53902924
30	0xbf473c46	-0.77826345
31	0x3df2bd40	0.11852503
32	0x3f0e8a44	0.55679727
33	0xbf56861a	-0.8379837
34	0x3ee888f9	0.45417002
35	0x3f0e3d34	0.5556214
36	0x3d29b396	0.041431032
37	0x3e3c2fc8	0.18377602
38	0x3eb0d941	0.34540752
39	0xbf80d29b	-1.0064272
40	0x3f3fb5ee	0.7488698
41	0x3f2fa056	0.6860403
42	0x3f25654a	0.6460768
43	0x3cdd6eaa	0.027030308
44	0x3f0f9923	0.56093043
45	0xbf449ce5	-0.768019
46	0xbc293078	-0.010326497
47	0xbf555678	-0.83335066
48	0xc00c0f9e	-2.1884532
49	0x3f3513a9	0.70733124
50	0x3d6c3eca	0.057677068
51	0xbfd79785	-1.6843115
52	0x3d258993	0.040414404
53	0xbeaa90eb	-0.3331369
54	0xbfe6e70e	-1.8039262
55	0xbff482fa	-1.9102471
56	0x3f58cb7b	0.84685487
57	0x3f38ee84	0.72238946
58	0x3f174a02	0.590973
59	0xbf4f4909	-0.8097082
60	0x3eda00ba	0.4257868
61	0x3ede8562	0.43461138
62	0x3f24e1d4	0.64407086
63	0x3f543633	0.828952
64	0xbf051096	-0.51978433
65	0xbf5ea9e0	-0.8697796
66	0xbf154ca8	-0.58320093
67	0xbf4e6724	-0.8062613
68	0x3f2ce8c0	0.6754265
69	0x3f36f038	0.71460295
70	0x3f24be47	0.6435284
71	0x3f44abaf	0.7682447
72	0x3ebea968	0.37238622
73	0xbf75456e	-0.95809066
74	0x3f2b88cb	0.67005605
75	0x3f43a855	0.7642873
76	0x3f0bf8de	0.54676616
77	0xbf183169	-0.59450394
78	0x3f49a832	0.7877227
79	0x3ea6e778	0.32598472
80	0x3f1c53bf	0.61065286
81	0x3f3dff74	0.74217916
82	0x3f2f728b	0.68534154
83	0xbf0b77d0	-0.54479694
84	0xbdc8b34f	-0.097998254
85	0x3f54ecd0	0.8317385
86	0x3ee28264	0.44240105
87	0x3d6969f7	0.05698582
88	0x3f30b45a	0.69025195
89	0x3ec55cee	0.38547462
90	0x3f4c026c	0.79691195
91	0xbf9a219b	-1.2041506
92	0x3f274ea9	0.653544
93	0xbf7ed320	-0.995409
94	0xbf689b73	-0.90862197
95	0x3d691549	0.056905065
96	0xbf53eb21	-0.82780653
97	0x3eee0f68	0.4649613
98	0x3ec07391	0.3758817
99	0x3f45748d	0.7713097
100	0x3f4a110e	0.78932273
101	0x3ebed6f0	0.3727336
102	0xbf91a17d	-1.1377407
103	0xbf8f6ee3	-1.1205715
104	0xbf7e5ee5	-0.9936355
105	0x3d9b1148	0.075716555
106	0x3e36c23b	0.1784753
107	0x3f08b907	0.5340733
108	0xbf2ad9a4	-0.66738343
109	0xbd1a4f22	-0.037673123
110	0x3f2a4400	0.6651001
111	0x3f03be27	0.51462024
112	0x3d151010	0.03639227
113	0xbf8f324d	-1.1187226
114	0x3efc1a5c	0.4923886
115	0x3f133387	0.575005
116	0xbe0cb375	-0.13740332
117	0x3dc3f431	0.0956806
118	0x3edb6f6a	0.4285844
119	0xbc85ded3	-0.016341602
120	0x3f42541d	0.75909597
121	0xbe8a6cdb	-0.27036175
122	0x3f11cd99	0.5695434
123	0xbfdf38e7	-1.743924
124	0x3ef4b433	0.4779373
125	0xbf4ca03e	-0.7993201
126	0xbfc7ef05	-1.5619818
127	0x3f40a113	0.7524578

exp_avg f4 [128, 4]
0	0x3985d482	0.00025526067
1	0x3a18345c	0.0005806142
2	0x38b4b476	8.616682e-05
3	0xb92c914a	-0.00016457323
4	0x31336f25	2.6111107e-09
5	0x339ce5dd	7.306128e-08
6	0xb17a2f50	-3.6406682e-09
7	0xb3c8dff2	-9.353961e-08
8	0x3a03a47b	0.0005021763
9	0x3a22f731	0.0006216644
10	0x393262f8	0.00017012272
11	0x397b21a0	0.00023949752
12	0x392eb1f9	0.00016660233
13	0x392060c9	0.00015294844
14	0x38483485	4.773263e-05
15	0x393782dd	0.0001750099
16	0xb4c7d910	-3.7224572e-07
17	0xb32ccdcd	-4.0234045e-08
18	0xb450f515	-1.946067e-07
19	0xb5326203	-6.6452793e-07
20	0xba388338	-0.0007038596
21	0xba64cf6c	-0.0008728418
22	0xb97f0378	-0.00024319987
23	0xb9bfb932	-0.0003656834
24	0x38707d8b	5.733738e-05
25	0x385e4d62	5.3000993e-05
26	0x378d7780	1.6864156e-05
27	0x3819b518	3.66467e-05
28	0x3712cf2f	8.750517e-06
29	0x380b3608	3.3190503e-05
30	0x37ed76e8	2.8307972e-05
31	0xb686f2b6	-4.0217665e-06
32	0x399b99ff	0.0002967864
33	0x39ca1208	0.00038541877
34	0x38d89f60	0.000103293685
35	0x390be3e0	0.00013340963
36	0xba9889bc	-0.0011637728
37	0xbabbcbf1	-0.0014327747
38	0xb9d16da2	-0.0003994527
39	0xba1e4027	-0.0006036781
40	0x3a07162e	0.00051531463
41	0x3a271d4f	0.0006374912
42	0x39376597	0.00017490085
43	0x3981b35d	0.00024738433
44	0xb3be004e	-8.84762e-08
45	0xb509e234	-5.1365646e-07
46	0x3340c457	4.4882054e-08
47	0x3524754b	6.1265445e-07
48	0xb305caca	-3.115091e-08
49	0xb6f2e3ad	-7.238667e-06
50	0x34c456e7	3.6571075e-07
51	0x371ccff9	9.346747e-06
52	0xb1a2647b	-4.726244e-09
53	0x34c71939	3.708499e-07
54	0xb29e0928	-1.8397785e-08
55	0xb506569b	-5.004492e-07
56	0x38e64538	0.000109801476
57	0x3905eaee	0.00012771387
58	0x3815312e	3.557017e-05
59	0x385e4fd5	5.3003274e-05
60	0xb9d34b58	-0.00040301192
61	0xba05e0a8	-0.0005107024
62	0xb914d318	-0.00014193018
63	0xb969d61d	-0.00022300375
64	0xb63180c2	-2.6450002e-06
65	0x3642cb9d	2.9026771e-06
66	0xb58f1490	-1.0660315e-06
67	0xb6ee5d79	-7.1038344e-06
68	0x3982fa82	0.00024982175
69	0x39135a1d	0.00014052582
70	0xb7d9a9cd	-2.5947485e-05
71	0xb757fd29	-1.2873942e-05
72	0xb9ddfafb	-0.000423394
73	0xba09e1cf	-0.00052597834
74	0xb919c345	-0.0001466396
75	0xb966cf87	-0.00022011819
76	0x39d2b373	0.0004018802
77	0x39fe7599	0.00048534272
78	0x390de89a	0.00013533459
79	0x39534d5b	0.00020151345
80	0x35a1af34	1.2046426e-06
81	0x36479eee	2.974582e-06
82	0x36306b3b	2.628846e-06
83	0x3501ea5c	4.839728e-07
84	0x00000004	6e-45
85	0x00000004	6e-45
86	0x80000004	-6e-45
87	0x80000004	-6e-45
88	0x3499fcc7	2.868239e-07
89	0xb560ac64	-8.3697364e-07
90	0x31bed814	5.554293e-09
91	0x35a3abe5	1.2194474e-06
92	0x38c5ede8	9.4380055e-05
93	0x3723b649	9.757999e-06
94	0xb68b4d81	-4.1515455e-06
95	0x38c952ab	9.599825e-05
96	0x36328ce9	2.6606087e-06
97	0x357ad3ba	9.344036e-07
98	0x361015a6	2.1470273e-06
99	0x35c0fcf9	1.437874e-06
100	0x37179dc9	9.037039e-06
101	0x3729190e	1.00790185e-05
102	0x36e84209	6.9218263e-06
103	0xb4c41c11	-3.6528266e-07
104	0x3a2f8775	0.0006695905
105	0x3a47f3cb	0.00076275755
106	0x39655681	0.00021871367
107	0x39c781cb	0.0003805294
108	0xb89d2396	-7.492972e-05
109	0xb921153a	-0.00015362064
110	0xb81f1992	-3.793237e-05
111	0x3824054d	3.9105584e-05
112	0x389c4eae	7.453315e-05
113	0xb88dca0e	-6.7610395e-05
114	0x3587f5ba	1.01298e-06
115	0x39325b8e	0.0001700951
116	0xb9377038	-0.00017494045
117	0xb96508cb	-0.00021842417
118	0xb87efeb5	-6.0795533e-05
119	0xb8c0cc92	-9.1933776e-05
120	0xb9f89aac	-0.00047417486
121	0xba22d150	-0.00062109996
122	0xb92a2de7	-0.00016229563
123	0xb953c0b3	-0.00020194314
124	0x39cbde00	0.0003888458
125	0x3a04cda8	0.00050660456
126	0x391c7d40	0.00014923979
127	0x39d5dc89	0.00040790837
128	0xb8dc68de	-0.000105099505
129	0xb95a5952	-0.00020823375
130	0xb80330a8	-3.127815e-05
131	0x3802fd8d	3.1230553e-05
132	0x38d32d05	0.000100696496
133	0x38f5e48c	0.000117250805
134	0x3808d577	3.262373e-05
135	0x384ab073	4.8324884e-05
136	0x366c0fd8	3.5175963e-06
137	0xb802dfb2	-3.1202748e-05
138	0xb5936818	-1.0982649e-06
139	0x381429ed	3.5324996e-05
140	0x39179da5	0.0001445921
141	0x37831cd0	1.5629834e-05
142	0x3684c56c	3.9568895e-06
143	0x3919ec85	0.00014679327
144	0xb2c9e634	-2.3504164e-08
145	0xb4360486	-1.6951716e-07
146	0x32228ef7	9.4621475e-09
147	0x345755a2	2.0054588e-07
148	0x396648d3	0.00021961638
149	0x3989ffd7	0.00026321292
150	0x3899bb1f	7.3304625e-05
151	0x38e60d8b	0.00010969777
152	0x35de2244	1.6550262e-06
153	0x37216d59	9.621807e-06
154	0x35a8ae35	1.2567676e-06
155	0xb720b1ab	-9.57811e-06
156	0x39ab7921	0.0003270591
157	0x3aaa263e	0.0012981368
158	0x3980dd03	0.0002457873
159	0xba0c0740	-0.00053416565
160	0x39f68106	0.00047016906
161	0x3a18bd3b	0.00058265374
162	0x39273f61	0.00015949972
163	0x3969d99d	0.00022301679
164	0x00000004	6e-45
165	0x00000004	6e-45
166	0x80000004	-6e-45
167	0x80000004	-6e-45
168	0x3a091477	0.0005229185
169	0x39f7d60d	0.00047270991
170	0x39078e35	0.0001292758
171	0x39c74ce0	0.00038013514
172	0xb9598792	-0.00020745237
173	0xb98644c8	-0.00025609718
174	0xb895fd05	-7.152002e-05
175	0xb8f818dc	-0.00011830192
176	0x3a45b43e	0.0007541812
177	0x3a831505	0.0010000771
178	0x3984ea18	0.00025351415
179	0x398fa230	0.00027395925
180	0x34f12874	4.4919182e-07
181	0xb6044c49	-1.9713937e-06
182	0x323c12ac	1.0947286e-08
183	0x363ace99	2.7836415e-06
184	0x3934fbcb	0.00017259938
185	0x3956a926	0.00020471643
186	0x386f18e8	5.7005236e-05
187	0x38b0ad9d	8.424672e-05
188	0xba461479	-0.0007556151
189	0xba74c7ec	-0.0009337652
190	0xb9886998	-0.00026018615
191	0xb9cbcd5f	-0.0003887219
192	0x286dd5be	1.3202491e-14
193	0xa96f1f52	-5.3095827e-14
194	0xa71a23ee	-2.139127e-15
195	0x298c82e8	6.2399576e-14
196	0xa7d18156	-5.814938e-15
197	0x28e1e72b	2.5080271e-14
198	0x26d94d20	1.5078305e-15
199	0xa90352fe	-2.9159827e-14
200	0x39a470fa	0.00031364692
201	0x38333d45	4.2733987e-05
202	0xb70b8fe9	-8.318552e-06
203	0x39a4c7f1	0.00031429486
204	0xba0bee0b	-0.00053379004
205	0xba2cffc6	-0.00065993925
206	0xb941048a	-0.00018407605
207	0xb9903636	-0.0002750621
208	0x00000004	6e-45
209	0x00000004	6e-45
210	0x80000004	-6e-45
211	0x80000004	-6e-45
212	0x3905ca47	0.00012759223
213	0x391c88ab	0.00014928232
214	0x382e885b	4.1611824e-05
215	0x38812b05	6.159212e-05
216	0x3a05ec58	0.00051087653
217	0x3a4377d7	0.0007456517
218	0x39394009	0.0001766683
219	0x392eea91	0.00016681316
220	0xb9fb4b07	-0.0004793035
221	0xb81e5af8	-3.7754857e-05
222	0xb88d3a65	-6.734281e-05
223	0xba3ffca7	-0.000732372
224	0x39c6f647	0.00037948994
225	0x39ed8bc5	0.000453083
226	0x39057b30	0.0001272976
227	0x394b119f	0.00019366153
228	0xb9b496df	-0.00034444683
229	0xb9e0f312	-0.0004290571
230	0xb8fa9e13	-0.000119503726
231	0xb939fff4	-0.00017738325
232	0x39298d14	0.00016169652
233	0x391495aa	0.00014170134
234	0x3848e72e	4.789902e-05
235	0x38fea9ae	0.00012143269
236	0xb879fb4e	-5.9600272e-05
237	0xb8925b9a	-6.9788846e-05
238	0xb7acca79	-2.0598281e-05
239	0xb837253d	-4.366528e-05
240	0xb84805f1	-4.768925e-05
241	0xb8871e35	-6.442928e-05
242	0xb6302794	-2.6249081e-06
243	0x382ab350	4.0698156e-05
244	0x3ab64054	0.0013904669
245	0x3acc414b	0.0015583424
246	0x39ed2d26	0.000452378
247	0x3a50b9b8	0.00079622446
248	0xb9af21ac	-0.0003340369
249	0xb9e84703	-0.00044303396
250	0xb8d93a30	-0.000103582046
251	0xb906d9eb	-0.00012860417
252	0x39ce0466	0.0003929466
253	0x39f88ae6	0.00047405733
254	0x390a9162	0.00013214865
255	0x394df682	0.00019642155

exp_avg_sq f4 [128, 4]
0	0x37af6915	2.0910558e-05
1	0x37960acf	1.7886427e-05
2	0x35d0064e	1.5499043e-06
3	0x37ad6555	2.0670393e-05
4	0x32304123	1.0259359e-08
5	0x35a2d85e	1.2132912e-06
6	0x32f8aa3b	2.8948412e-08
7	0x365ad9b2	3.2611247e-06
8	0x384b16fc	4.8420377e-05
9	0x380bd983	3.3342756e-05
10	0x362faefb	2.6178884e-06
11	0x37d6acfb	2.5591338e-05
12	0x35d2cc7f	1.5705735e-06
13	0x36d4f4a8	6.346574e-06
14	0x34804cd2	2.3897752e-07
15	0x3781d9c4	1.5479403e-05
16	0x34e289da	4.219608e-07
17	0x36d03ca6	6.2059435e-06
18	0x340c6764	1.307613e-07
19	0x3778e9c6	1.48363815e-05
20	0x3884fe77	6.341648e-05
21	0x3828bb77	4.022891e-05
22	0x36637f85	3.3899862e-06
23	0x381dd5fa	3.7630998e-05
24	0x35b35db6	1.3363813e-06
25	0x3739c2ff	1.107226e-05
26	0x34a4bae9	3.0683375e-07
27	0x37d421e8	2.5288158e-05
28	0x362b828a	2.555697e-06
29	0x37c15873	2.304858e-05
30	0x3545c1d1	7.367026e-07
31	0x3880406e	6.1155166e-05
32	0x3706f2f8	8.043593e-06
33	0x37eb5c10	2.8057053e-05
34	0x358080e9	9.574261e-07
35	0x387c7157	6.0187038e-05
36	0x391a4200	0.00014711171
37	0x38ac8af1	8.227479e-05
38	0x36b68233	5.43918e-06
39	0x38a8bf4d	8.046497e-05
40	0x386e81d6	5.686454e-05
41	0x380d70c2	3.3722034e-05
42	0x36233dfd	2.4324975e-06
43	0x37d8a362	2.5825288e-05
44	0x34151bf0	1.388687e-07
45	0x35f79b13	1.8448067e-06
46	0x333f4fed	4.4543345e-08
47	0x36a14f88	4.8074326e-06
48	0x36176872	2.2561549e-06
49	0x37d4c129	2.5362317e-05
50	0x357e4146	9.471736e-07
51	0x3894f8e6	7.103551e-05
52	0x35232586	6.0776836e-07
53	0x36bcdf53	5.628835e-06
54	0x33dbbae8	1.023198e-07
55	0x375ed908	1.3282763e-05
56	0x35dc5d45	1.6418422e-06
57	0x37c3fac0	2.3362576e-05
58	0x35a89411	1.2560068e-06
59	0x38893526	6.542569e-05
60	0x36804d30	3.823683e-06
61	0x367a1cd8	3.7269692e-06
62	0x342fb86a	1.6365235e-07
63	0x369e29d7	4.7136377e-06
64	0x3403a0a3	1.2258765e-07
65	0x36bd32c7	5.63855e-06
66	0x341e31a1	1.4732952e-07
67	0x37805000	1.5296042e-05
68	0x3790b360	1.7249666e-05
69	0x380b2992	3.3178898e-05
70	0x36089bf0	2.0356347e-06
71	0x387fbf19	6.097471e-05
72	0x38478f95	4.757902e-05
73	0x3808d87b	3.262654e-05
74	0x3652516f	3.133984e-06
75	0x382ce93e	4.122522e-05
76	0x3876ec56	5.8871075e-05
77	0x386c21a9	5.6298133e-05
78	0x367bea44	3.7538275e-06
79	0x38b5ce55	8.669185e-05
80	0x35151ea0	5.555139e-07
81	0x355d1bed	8.2369553e-07
82	0x330fcba7	3.3480003e-08
83	0x35e9a5ce	1.7408108e-06
84	0x30808860	9.351986e-10
85	0x33ee22f8	1.10890994e-07
86	0x310309b9	1.9068536e-09
87	0x349354e4	2.744265e-07
88	0x33d367cd	9.8443344e-08
89	0x366c1efa	3.5184771e-06
90	0x33b828ba	8.575576e-08
91	0x371f2b8f	9.48728e-06
92	0x35919896	1.084775e-06
93	0x37108637	8.614318e-06
94	0x344df778	1.9182141e-07
95	0x37a58aa0	1.9734085e-05
96	0x34092919	1.277407e-07
97	0x368496da	3.951468e-06
98	0x33a59270	7.710048e-08
99	0x3720b107	9.577961e-06
100	0x36a01d1e	4.7717613e-06
101	0x370d0d28	8.407318e-06
102	0x34a48963	3.0647342e-07
103	0x376f7fb2	1.42752415e-05
104	0x38a2d630	7.7646575e-05
105	0x3857b5c5	5.142928e-05
106	0x3680cb56	3.8383687e-06
107	0x382c8a2d	4.1136682e-05
108	0x35b7a1b4	1.3681624e-06
109	0x373a4696	1.11028985e-05
110	0x34b7590f	3.4151205e-07
111	0x37f30330	2.8969342e-05
112	0x36d205d3	6.2591657e-06
113	0x371e57e7	9.438e-06
114	0x3529729b	6.312418e-07
115	0x377c590e	1.5041105e-05
116	0x36796fb1	3.7168904e-06
117	0x378310db	1.5624266e-05
118	0x3511dfee	5.434257e-07
119	0x3821dce5	3.8591115e-05
120	0x37b331fc	2.1361739e-05
121	0x37c5d19a	2.3581833e-05
122	0x35c64092	1.4770942e-06
123	0x3815369e	3.5575235e-05
124	0x37c9b09d	2.404331e-05
125	0x378092c0	1.5327125e-05
126	0x352755ee	6.233739e-07
127	0x37331852	1.0674894e-05
128	0x3781e9e7	1.5486918e-05
129	0x37a21c89	1.9325193e-05
130	0x36108be0	2.153909e-06
131	0x380d0a5c	3.3626668e-05
132	0x36264e46	2.4781489e-06
133	0x36f1d68e	7.207337e-06
134	0x34cafcec	3.7809457e-07
135	0x37831767	1.5627314e-05
136	0x3417e95e	1.414787e-07
137	0x35f37517	1.8138988e-06
138	0x33802c4e	5.9685235e-08
139	0x36ad9492	5.1730976e-06
140	0x379641cc	1.7912032e-05
141	0x3826d6db	3.9777584e-05
142	0x368d7458	4.2156717e-06
143	0x38b7de9a	8.767583e-05
144	0x34b5c942	3.3860312e-07
145	0x350dd202	5.2832195e-07
146	0x3300975c	2.9939983e-08
147	0x358f05ee	1.0656056e-06
148	0x36a3b819	4.8792103e-06
149	0x3784c19e	1.5825786e-05
150	0x354bf0d2	7.597383e-07
151	0x381cdf35	3.7401176e-05
152	0x33d2b310	9.811458e-08
153	0x34d33db6	3.9346713e-07
154	0x328055e3	1.4940218e-08
155	0x355e3e05	8.2791695e-07
156	0x377413ac	1.45481135e-05
157	0x37bec1b4	2.2739965e-05
158	0x3528d60e	6.289637e-07
159	0x37cef997	2.4673338e-05
160	0x38ad6a6d	8.269106e-05
161	0x387100d8	5.7459663e-05
162	0x36a210de	4.82994e-06
163	0x3859e814	5.195297e-05
164	0x31c6f660	5.790568e-09
165	0x35bf3201	1.4245162e-06
166	0x32e56ff5	2.671002e-08
167	0x36852e8d	3.969128e-06
168	0x386b5bdb	5.6113913e-05
169	0x38333dca	4.273447e-05
170	0x367896fb	3.7042762e-06
171	0x380d4df7	3.368963e-05
172	0x363a9fda	2.7809206e-06
173	0x3662276d	3.3699573e-06
174	0x34181c82	1.4166474e-07
175	0x36b1317d	5.2807723e-06
176	0x391a5ffd	0.00014722343
177	0x38be6939	9.079505e-05
178	0x36e9c368	6.9666894e-06
179	0x387dd339	6.0516617e-05
180	0x35007500	4.7853973e-07
181	0x377ef070	1.5195561e-05
182	0x35059256	4.975931e-07
183	0x38340e51	4.2928677e-05
184	0x368ff5d9	4.2903525e-06
185	0x36ac2c6f	5.131172e-06
186	0x34d46140	3.9558836e-07
187	0x3702c65a	7.794786e-06
188	0x39336afc	0.00017110625
189	0x39009a85	0.00012264594
190	0x3709a486	8.204142e-06
191	0x3908d6e4	0.00013050024
192	0x363a00ef	2.7716703e-06
193	0x36913712	4.327748e-06
194	0x33b714cf	8.5253866e-08
195	0x371e5e2f	9.439463e-06
196	0x36245b29	2.4490967e-06
197	0x35303e7f	6.5656053e-07
198	0x321db3f3	9.1795185e-09
199	0x347c0947	2.3472704e-07
200	0x3791dadf	1.7387267e-05
201	0x37a5a693	1.97471e-05
202	0x35e2f8b3	1.6910693e-06
203	0x37ecfa67	2.8249995e-05
204	0x3907e8a4	0.00012961269
205	0x38e3c514	0.00010860912
206	0x37050244	7.927945e-06
207	0x39083d4c	0.00012992806
208	0x33a242b0	7.555843e-08
209	0x32ee0200	2.7707756e-08
210	0x2f272c28	1.5204249e-10
211	0x32c39d8c	2.2772632e-08
212	0x36aaceff	5.0904923e-06
213	0x3792c035	1.749406e-05
214	0x353eed06	7.112543e-07
215	0x382b6d97	4.087164e-05
216	0x380dfea6	3.385418e-05
217	0x37bd0118	2.2531065e-05
218	0x35a709a4	1.2445275e-06
219	0x3783cf94	1.5713078e-05
220	0x36c719e6	5.933677e-06
221	0x36e1d24a	6.7300034e-06
222	0x3490bbaa	2.6958634e-07
223	0x3722b079	9.697041e-06
224	0x38420b99	4.6264006e-05
225	0x383f8a8a	4.5666973e-05
226	0x368fd374	4.2863485e-06
227	0x386db9e1	5.6678316e-05
228	0x38735323	5.8013142e-05
229	0x384adf21	4.8368358e-05
230	0x368aa7bf	4.1322487e-06
231	0x3855d3c3	5.0980376e-05
232	0x374c1018	1.2163095e-05
233	0x373fa467	1.1422765e-05
234	0x35e66c81	1.7167914e-06
235	0x37a6aa5d	1.9868074e-05
236	0x3621e47f	2.4123872e-06
237	0x3689e440	4.10949e-06
238	0x34f26235	4.5147468e-07
239	0x36f6b430	7.352348e-06
240	0x350eaa24	5.314671e-07
241	0x360f9725	2.1396638e-06
242	0x332c447b	4.0109153e-08
243	0x3697be17	4.52228e-06
244	0x38e4e983	0.00010915382
245	0x38bca514	8.995287e-05
246	0x36959a61	4.458518e-06
247	0x38c2bdcf	9.2859955e-05
248	0x381555a4	3.5604127e-05
249	0x386847b3	5.5379885e-05
250	0x369aed66	4.6171945e-06
251	0x38c58f82	9.4204224e-05
252	0x37f8a0af	2.9638728e-05
253	0x37e47bb1	2.7237316e-05
254	0x3619d0e2	2.2920362e-06
255	0x37e9164d	2.7786149e-05

exp_avg f4 [128]
0	0xbb931187	-0.0044881734
1	0xb3de672e	-1.0356449e-07
2	0xbb949126	-0.0045339046
3	0xbaef9300	-0.0018278062
4	0x34d0be85	3.888164e-07
5	0x3bdb93e7	0.006700981
6	0xb9ccf04a	-0.0003908894
7	0xb8da1144	-0.00010398266
8	0xbb36da74	-0.0027901204
9	0x3c33a7f5	0.010965337
10	0xbb98e883	-0.0046663894
11	0x353bb685	6.992853e-07
12	0x372e82c9	1.0401659e-05
13	0x34f73ccb	4.6051568e-07
14	0xba65e534	-0.00087698107
15	0x3b869ed4	0.0041082893
16	0xb7d78362	-2.5691177e-05
17	0x3a48ce8a	0.0007660171
18	0x3b84b59b	0.0040499694
19	0xbb6983d6	-0.003563156
20	0xb5a93caf	-1.2609142e-06
21	0x00000004	6e-45
22	0x35a86aff	1.2548115e-06
23	0xb9c28e50	-0.00037108595
24	0xb6779cb8	-3.689709e-06
25	0x361f0e54	2.3701186e-06
26	0xbbc9b895	-0.006156037
27	0x3a1d0a09	0.000599057
28	0xb9f39be9	-0.00046464734
29	0x3ade5e34	0.001696533
30	0x3b941555	0.0045191445
31	0xbbba61a2	-0.0056879083
32	0x3a769f8e	0.0009407931
33	0xba52689c	-0.0008026452
34	0x3868dcc1	5.5518703e-05
35	0xb9f833ce	-0.00047340844
36	0x3479e0aa	2.3271664e-07
37	0xbafa0ee7	-0.0019077928
38	0x378e0e4e	1.693438e-05
39	0xbba46018	-0.005016338
40	0xbb8b13da	-0.00424431
41	0x80000004	-6e-45
42	0xbb7ffa19	-0.0039058982
43	0x3b097565	0.0020974514
44	0xbbe4891d	-0.006974353
45	0x3641c139	2.8871711e-06
46	0xbabe48e2	-0.001451757
47	0x3be8d06b	0.0071049235
48	0xa95f2dd3	-4.9555693e-14
49	0x28c2f01d	2.164246e-14
50	0xbac76cd5	-0.001521493
51	0x3ba52223	0.00503947
52	0x00000004	6e-45
53	0xba87a967	-0.0010350168
54	0xbb9d7e58	-0.004806321
55	0x3b262a85	0.0025354933
56	0xbb5ccb45	-0.0033690494
57	0x3b594b76	0.003315655
58	0xbaa3f4cc	-0.0012508868
59	0x3a35a968	0.00069298455
60	0xb98c06c0	-0.0002670791
61	0xbc519efe	-0.012794254
62	0x3b4d9eec	0.0031375242
63	0xbb6387fa	-0.00347185
64	0xb7846dce	-1.5786758e-05
65	0x80000004	-6e-45
66	0x39f5e976	0.00046903983
67	0xbb290c4b	-0.002579468
68	0xbb0d195d	-0.002153001
69	0x379bed58	1.8587962e-05
70	0x34462454	1.8453403e-07
71	0x3b857ae9	0.00407349
72	0x3b9557dc	0.004557593
73	0x33b1d9df	8.281835e-08
74	0xbb96132d	-0.0045799227
75	0x3b39ba78	0.0028339904
76	0x3b078264	0.0020677084
77	0xbb5c4da3	-0.003361561
78	0x3a246d3a	0.00062723795
79	0x80000004	-6e-45
80	0x00000000	0.0
81	0x3b345911	0.0027518908
82	0xbbafda6b	-0.0053666136
83	0x3b620582	0.0034488146
84	0xb8223c9d	-3.868026e-05
85	0x3aee2366	0.0018168509
86	0x3b1f38dc	0.0024295365
87	0x3b2aead0	0.00260799
88	0x00000000	0.0
89	0x3c1a620b	0.009422789
90	0x392e294c	0.00016609317
91	0xbb1e271b	-0.0024132195
92	0x399050f2	0.0002752613
93	0xbbb71d94	-0.005588243
94	0x3bbcadb8	0.0057580136
95	0xb70c9f1c	-8.381696e-06
96	0x3c1eeb16	0.009699604
97	0xbad77ec7	-0.0016440981
98	0xb877c63e	-5.9074016e-05
99	0x378b739e	1.662393e-05
100	0x3b534725	0.003223845
101	0x3a69c1cf	0.00089171244
102	0xbb659456	-0.0035031042
103	0xbb224e70	-0.002476599
104	0x39f9cf72	0.0004764754
105	0x38582b0b	5.15385e-05
106	0xbb8b2079	-0.0042458144
107	0x3bc9bf9a	0.006156874
108	0x31dfbe1d	6.5117676e-09
109	0xb9d07411	-0.00039759328
110	0x3aaf0ace	0.001335466
111	0x338f3123	6.667894e-08
112	0xb8bad083	-8.9080095e-05
113	0x3384059a	6.147748e-08
114	0xbb4ce843	-0.0031266368
115	0xbb83338d	-0.004003948
116	0x34f86831	4.626941e-07
117	0x3acf5662	0.0015818591
118	0xbae90b13	-0.001777979
119	0x3ba6d878	0.005091723
120	0x3a8820e2	0.0010385776
121	0x3c0c0080	0.008545041
122	0x3b0e18c2	0.0021682237
123	0x37c64a65	2.3638082e-05
124	0x38d03c80	9.929482e-05
125	0xb2a7f3ea	-1.9552278e-08
126	0x328325c9	1.526759e-08
127	0x3b85b669	0.004080583
