demo/base/ac/a2c.pt (torch, 26717 bytes, 21 tensors)

fc1.weight f4 [128, 4]
00000000: 4084 163d 1017 a03e 40b7 11bf c1ad 0abf
00000010: 265d 2cbe 042e 1d3e 3d01 04bd 0e0c c03e
00000020: 4263 3abd c085 f33d 7e0a bcbe 241b 96be
00000030: b82a e8be f245 a8be bce4 3abe 4e87 0f3d
00000040: c962 313e ec33 883e 29a3 a1be 86d5 3cbe
00000050: e70f 413e b516 dd3e 8ddc 2a3d 7722 fc3e
00000060: 90e7 23be 487b 8cb9 2097 e93e 789d ddbe
00000070: 8880 98be f4f6 c8bd c7df 78be f778 ca3e
00000080: 0312 c7be 45ba 90be da2b 9cbe 354e d5be
00000090: 04cc 67be 5f6e 013f b668 5a3e 3ea8 473e
000000a0: 8af0 dcbc af3a 9ebe af1c 83bd ee7a 0abf
000000b0: 6b16 b1be bb9a 74be c646 953e d4c6 8a3e
000000c0: 5618 42be 689b 023c b30d 903e 704c ee3e
000000d0: 5a81 383e 50ae 263d 206d b53e e6b0 88be
000000e0: d4e2 4e3d d178 ddbe c00e 72be a645 37be
000000f0: 3c11 4e3e 3189 363e b38a 99be 1746 143e
00000100: da47 923e cb1f 26bd 7fbd 2fbc eaef b83d
00000110: 734c b93e c562 0b3f 34b4 fbbe 874d 95be
00000120: 95c6 1d3e d338 c23e 70ba 1c3f 0b3f 143f
00000130: fa73 e73d 933f cabe 3089 dbbd dbc4 d8be
00000140: b8ce f4be d308 f23e cbb2 9e3e 9660 0fbf
00000150: ad7d b83d fce5 b5bd eab9 a3bd 2e93 66be
00000160: 9cf8 5b3e 649e 8bbe 7fff 273e 9aed 6a3e
00000170: 5427 a03e de10 1b3e 0399 fcbe dd87 99be
00000180: 5d74 603e 0c9d 9e3d 7a2f bebe 7624 86be
00000190: d827 023f f58d c93e 9f0c 93be a4c3 4fbe
000001a0: b8df e9be 085e 043d 452b 0cbf 3ba3 10bf
000001b0: bdce 6b3c 9ddc bd3d cd76 67be af6f 913e
000001c0: d3bd 85be fcdd 073f a26f 543e f4ee 11bf
000001d0: 6022 8ebd 538c 403d e10e 263d e861 c83d
000001e0: 69c3 5c3e b5cd a13c 4a29 1cbe 5be5 983e
000001f0: c0c9 07bf 72aa b2be 7a0b e9bd 35fc 60be
00000200: 0ca1 32be 3b85 d8be b7d8 493d 2013 6d3e
00000210: 149e 9bbe fadb b33c 8284 653e fe40 19be
00000220: 2563 94bb 6026 8dbd 4c0c 013e 4bab b03e
00000230: 5ec0 073f 5e6b bc3e 9090 a03e 1d27 32be
00000240: ad27 e3be d3d8 74be 3e78 c13e c8ea cf3c
00000250: 0358 a4be 9e12 e8be f8e9 c1be 4a20 aebe
00000260: 4e71 a0bd c7f6 9c3e 05dc 693e 7f60 06bf
00000270: 2eb0 9f3e 8a52 c8be f07b d8bd 1c9a 4fbe
00000280: cd28 96bd df84 11bd db2e 27bf 7e3e 25bf
00000290: 07fe 75bd b4e8 c03c 1bb1 77be 8517 303e
000002a0: 43c6 d8be 1a79 8bbc 2dd8 733e 19f9 ccbe
000002b0: 23a1 023f d9f7 533e d332 dcbe 8d06 a03e
000002c0: 2445 cabc a241 44be 381c 523e 1554 19bf
000002d0: 700a ae3d cfd3 a4bd 6259 a53e 8f73 e63d
000002e0: 653e 403e f3e0 0e3e 6f7f 81be f05e 32be
000002f0: 0086 cebe 64d9 893e 98be 093f 60a3 db3e
00000300: c5bc a9be 6caa 4f3d 3018 c2be b59f 9bbe
00000310: 7e4c 9ebe 0574 1d3e c3aa 8fbe b8e4 c53b
00000320: 6807 943d 8e2e c03e 91d2 09bf 47f7 00bf
00000330: 277d 9bbe 6b20 a53e aa3e d8bc 4e2d 093f
00000340: 64c5 253e 05bc 433d 8060 2f3c 07a3 acbd
00000350: d633 ad3d 9e42 92bd 14ef d3bd 4ca6 02bc
00000360: 1308 02bf 9921 a6be e98b 9a3e 7cd4 debe
00000370: 9661 53bd 4867 f33e 0677 283e 6a1e b43c
00000380: 3d75 ccbe c4fe a13e dc2c 0dbf 037f aebe
00000390: 0649 29be 12bb 84bd 00d8 373e b42f 093f
000003a0: 9dc2 cb3d f00d ff3e 9303 f03d a55b 05bf
000003b0: eafb 793e be6a adbe f93d 7dbd a63a 873e
000003c0: 91c2 183e 9336 b73e d828 17be 1a8d 953c
000003d0: d1c7 973e ccbf f0be 6273 ba3e 6c34 c5be
000003e0: c88c fd3c 4498 b2bd 63b8 04be 6e70 243e
000003f0: 091b de3e 99e7 c9bd d126 01bf 2a7c bdbe
0.036747217 0.31267595 -0.5692024 -0.5417138 -0.16832408 0.15349585 -0.032227743 0.37509197
-0.045504816 0.11890745 -0.36726755 -0.29317582 -0.45345092 -0.32865864 -0.18251318 0.035041146
0.1732284 0.26602113 -0.31569794 -0.18440828 0.18853723 0.43181387 0.04171424 0.49245045
-0.16006303 -0.00026794733 0.45623112 -0.43284202 -0.29785562 -0.098127276 -0.24304114 0.39545414
-0.3888093 -0.28267112 -0.30502206 -0.4166123 -0.2263642 0.5055904 0.21329007 0.19497773
-0.026970167 -0.30904147 -0.06401955 -0.54093826 -0.34587416 -0.2388715 0.29155558 0.2710482
-0.18954596 0.007971622 0.28135452 0.46542692 0.18018094 0.04069358 0.35434818 -0.26697463
0.05050929 -0.43256238 -0.23638439 -0.17897663 0.20123762 0.17825772 -0.29988632 0.14479862
0.28570443 -0.040557664 -0.010726332 0.09030135 0.3619114 0.54447585 -0.49160922 -0.2916071
0.15407784 0.37933978 0.6122198 0.57908696 0.11301418 -0.39501628 -0.10719526 -0.4233769
-0.47813964 0.47272357 0.30995783 -0.56006753 0.09008346 -0.08881757 -0.07994445 -0.22517082
0.21481556 -0.2726928 0.16406058 0.229422 0.31280005 0.15143153 -0.4933549 -0.29986468
0.21919389 0.07744798 -0.37145597 -0.26199692 0.50842047 0.39366117 -0.28720567 -0.20289475
-0.45678496 0.032316238 -0.54753524 -0.5649907 0.014392552 0.09270594 -0.22603913 0.2840552
-0.26121387 0.53073096 0.2074571 -0.5700524 -0.0694015 0.047008824 0.040541533 0.09784299
0.21558918 0.01975141 -0.15250126 0.29862484 -0.5304222 -0.34895664 -0.11379142 -0.2197121
-0.17444247 -0.42289147 0.04927894 0.23151827 -0.30394042 0.021955479 0.22413829 -0.14966199
-0.0045284205 -0.06892085 0.12602347 0.34505686 0.53027904 0.36800665 0.31360292 -0.17397733
-0.44366208 -0.23910837 0.3778705 0.025380507 -0.32098398 -0.45326704 -0.37873816 -0.3400901
-0.07834111 0.30657026 0.22837837 -0.5249099 0.31189102 -0.39125472 -0.10570514 -0.20273632
-0.07332001 -0.035527106 -0.6530587 -0.6454848 -0.060056712 0.023548461 -0.24188654 0.17196472
-0.42338762 -0.01702552 0.23812933 -0.40033796 0.51027125 0.20700015 -0.43007526 0.31254998
-0.024691172 -0.19165662 0.20518577 -0.59893924 0.084980845 -0.08048212 0.32294756 0.1125251
0.18773802 0.13952999 -0.25292537 -0.17419028 -0.4033661 0.26923668 0.5380645 0.42898083
-0.33151832 0.050699636 -0.3790908 -0.30395284 -0.30917734 0.15376289 -0.28059968 0.0060392283
0.07227975 0.37535518 -0.53836924 -0.50377315 -0.3036892 0.32251295 -0.026397068 0.53584754
0.1618858 0.04778673 0.01070416 -0.084295325 0.084571525 -0.071416125 -0.10348335 -0.007974219
-0.5079357 -0.32447508 0.30184868 -0.43521488 -0.051606737 0.47539735 0.16451654 0.021987159
-0.39933196 0.31639683 -0.55146575 -0.34081277 -0.16531762 -0.06480993 0.17953491 0.53588414
0.09949229 0.4981532 0.11719432 -0.52092963 0.24412504 -0.338705 -0.06182668 0.26411933
0.14917971 0.35783824 -0.14761674 0.018255759 0.29644635 -0.4702133 0.36416155 -0.38516557
0.030950919 -0.087204486 -0.12960963 0.16058514 0.4338 -0.09858627 -0.50449854 -0.37008792

fc1.bias f4 [128]
00000000: fd65 743d ffb5 62be c3c3 253e 84e9 033e
00000010: 4f63 91be f0e2 1c3e cc61 8b3e 1de6 f6bd
00000020: 0cea ed3d 65f9 b2bd 1931 5b3e 704f cabe
00000030: d674 b1be 07fb 90be a46f ec3e 378c 19be
00000040: 05e1 54bd 5f27 e3bd 8c0f 023f a876 ef3e
00000050: 4202 94be 2323 d1be 9258 d2be b8a1 09bd
00000060: f1a2 25be 975b 76be a2cb 7f3d 94fd 113d
00000070: 085c d6bd 0c78 8f3d 7024 913c f1e7 63be
00000080: 4cea 243e 37cc c13e 455f 97be 3e64 b23d
00000090: e22f 29be 1393 fb3e 75f6 d0be d26a f5be
000000a0: 3709 fa3e 8ec4 a9be bdb6 103e 2ce9 d6bc
000000b0: 6694 f43d 548a 1ebe 62a9 993e 1649 273e
000000c0: 1443 e8be 6112 a0be a88a 953c 3870 923e
000000d0: b663 adbe f47f e53e 6b92 85bb 5d26 e1bd
000000e0: 02de c53e 1f12 a43e 222d cf3e 4e47 8a3e
000000f0: cd76 2bbe b19e b3be 89e8 463d 654d ba3e
00000100: 16dc 37be 197a eabe 4a67 2b3e 25ed eb3e
00000110: 8d53 c0bd 47ea dcbe 90ca fbbe 3a4c fc3d
00000120: 5a57 b13d 5e95 92be 5ade b33d 6241 453e
00000130: c440 da3e eca4 b23e 05bd 99bc 4fda e2be
00000140: d853 e7be e69d f13e f1ef 873e 4cdb 6b3e
00000150: e156 e1be 7ea8 dc3e efec d33e 6b1f e33e
00000160: 30f5 d7be cfe5 3cbe a153 92be dddb ff3e
00000170: 0b68 13be 1f0a 84be 5a9d 9b3e c5b6 8fbe
00000180: f5d7 f1bd eead 043d 6445 8dbd 8176 b9be
00000190: 9ea0 e13e 5a06 acbd acbb 603e 97c8 d03e
000001a0: c1c1 4a3e 2459 b13c bc0c cc3e b339 e53d
000001b0: a590 80be 93a5 f53e 5231 763e c92d f7be
000001c0: 725c 4cbe b3f7 b8be fbde da3e 2dc8 8fbd
000001d0: 7348 f3be 2f1a 6b3d 2821 9b3e 1c03 1e3e
000001e0: 17ff 593e 6cb4 1d3e 9d27 4f3e 455c 16be
000001f0: bd38 02be ac56 e9be 4188 d3be 0558 623e
0.059667576 -0.22139739 0.16187958 0.12882048 -0.2839608 0.15320945 0.2722305 -0.120556094
0.116169065 -0.087389745 0.21405448 -0.3951373 -0.3465945 -0.2831652 0.46178925 -0.14994894
-0.051972408 -0.11091494 0.5080497 0.46770215 -0.28907973 -0.4084712 -0.410832 -0.033601493
-0.16175438 -0.24058376 0.06245006 0.03564222 -0.10466772 0.07005319 0.01771757 -0.22256447
0.16105002 0.37851116 -0.29564872 0.08710526 -0.16522172 0.49135646 -0.40813032 -0.4793306
0.48835155 -0.33157772 0.14132209 -0.026234232 0.11942367 -0.15482455 0.3001204 0.16336474
-0.45363677 -0.31264022 0.018254593 0.2860124 -0.33865136 0.44824183 -0.0040762923 -0.10993645
0.3864594 0.32045075 0.4046412 0.27007526 -0.16744538 -0.3508201 0.048561607 0.36387172
-0.1795505 -0.45796278 0.1673862 0.46079364 -0.09390936 -0.4314749 -0.4917798 0.123192266
0.08659239 -0.28629583 0.087826446 0.19263223 0.42627537 0.3489145 -0.01876689 -0.4430718
-0.45181155 0.4719078 0.26550248 0.23032874 -0.44011596 0.430973 0.41391703 0.44359908
-0.4217925 -0.1844704 -0.2857943 0.4997243 -0.14395158 -0.25788972 0.30393487 -0.2806913
-0.11808769 0.032392435 -0.06898001 -0.36223224 0.44067854 -0.08399649 0.21946591 0.40778038
0.19800474 0.02164895 0.39853466 0.11192646 -0.25110355 0.47977886 0.24042252 -0.4827712
-0.1995714 -0.3612648 0.42748246 -0.070206024 -0.47516212 0.057398017 0.30298734 0.15430874
0.21288715 0.15400857 0.20229955 -0.14683636 -0.12716956 -0.45573938 -0.4131489 0.2210389

fc2.weight f4 [2, 128]
00000000: 9abb 323d 1cab 99bb 5a61 f93d c602 f9bc
00000010: 9628 dabc 6832 25bd 6cf7 b23c 8ad3 263d
00000020: e89b 043d 1b1b aebd 07a5 1d3e 0347 4cbd
00000030: 7cc5 5e3d 0dff 0fbd 0aa4 57bd 3b01 02bd
00000040: 8d3f 52bc 142f 143e a75e 02be c2a0 853d
00000050: 796c cb3c 0bad 45bc 30b6 643d 72a5 ceba
00000060: 1a35 523d b453 f93d 4b93 ed3d 4658 d13a
00000070: 8c29 303d a17a 98bb 1700 12be 17b6 3d3d
00000080: 1257 8cbd 3a6a d03c 000d be3c 0528 023e
00000090: 22f4 97bb 9123 483d 646f c73d 78ea c3bc
000000a0: 24d7 2b3e 3f0d 1dbd 4963 dd3d 2c44 44bd
000000b0: 3d07 493e ea3f 2e3d 88ca 053d c747 3ebe
000000c0: 1154 813d f50b 1b3d 82c1 ff3d 4d4b 1ebe
000000d0: 46ba 933d 4c48 643d 7e63 d93d 9c1f 73bd
000000e0: acc5 0d3e f61d 1abe d0b7 b73d 6e6f 40bd
000000f0: f4ed 94bc 0cee b93c 08d9 0bbe 3fb2 a23d
00000100: 0f64 28bc e33b b23b 04b2 4fbd d379 163e
00000110: e36d aa3c e2a4 6f3d 8a64 abbc e6e3 43bd
00000120: 2336 19be b56c 6bbd 992e b33d f80c a2bd
00000130: f741 84bd cd1a 883d 677d ab3c 4f8e 953d
00000140: 4fcf 923d 1f81 92bd 6320 c03d d6d3 aebd
00000150: 69cf 6dbd 8f39 57bd 747a 333d a354 17be
00000160: 7e1b 5b3d f251 12bd 7933 20bd 8384 0f3e
00000170: 50cc 3ebd 3fdd ab3d ab8c 2abe 8c6d 563d
00000180: 9e59 6ebd f721 60ba abfc 52bb d1bf 8fbd
00000190: 232e 1dbe e3b2 09bd c02c 233e cca7 df3c
000001a0: 821e 05bd 8a96 f23c c077 f83d 6212 23be
000001b0: ed48 163c bfeb 773c 652a 04be a2d3 a43b
000001c0: f94c 253d a3c1 883d 99e5 a13d 4ce7 cb3d
000001d0: 26e7 53bc 27c1 8b3c 7bc7 303d 77a5 2cbe
000001e0: 84a3 49bd bb58 b3bd b01f 15be 7efe 983d
000001f0: 2239 5f39 2d62 96bd e8a1 a9bc f9ff a8bc
00000200: a2b7 27be baaa 0abc cb3a 84bd 9709 27bd
00000210: 1ba4 913c 83f8 2e3e b8f0 96bc 61bb c7bc
00000220: 8617 70bc 0a16 3a3c ec67 90bc 798b 91bd
00000230: 8035 71bd 9370 ea3c a434 4abc fbc0 45bb
00000240: c5ca b2bc 53a0 cdbd 4cc9 723d 353b f5bd
00000250: b0a9 2dbd acbe 0b3c a8c2 143c 4434 1dbd
00000260: 3ec4 2b3d 4db7 77bc 9d5b 24be 1220 fb3c
00000270: 7dd2 01be bb0f 6e3c da7b 2f3d 01f6 98bd
00000280: cf12 bd3d fa9f 0dbd cad0 a73d 3757 f8bd
00000290: 79a9 07bc 9ae5 dd3c 4510 513d 20b7 51bd
000002a0: 99bf 98bd 9eee 24bc 72ec 22be 32f4 4e3c
000002b0: 8420 08be 467b 32bd d870 03bd eb75 1a3e
000002c0: 18f0 5dbd 9ff9 7d3d 0ff4 c2bd e986 0f3e
000002d0: 4c0a 943d de78 7d3a c9a0 4ebd 8297 46bd
000002e0: a4e9 b6bd ec56 8f3d 383b 8fbd eb8e d83c
000002f0: 0802 22bb c9f2 3a3c 4888 e83d 511b 9ebd
00000300: 9b1c 17bd 4a1a 44bd d0b4 43bc 33f6 12bd
00000310: ff9f 53bd 14b3 18bd 5f67 a5bc ed41 ed3c
00000320: a91e 683d c2d4 0b3d 9c6b 7b3b 3d48 b93d
00000330: 362b dc3d b771 83bd 307e 9e3d 0585 8a3d
00000340: 9048 853b ff41 bf3c 288d d6bd 200b c13d
00000350: dbc8 f3bc e04e d93c de0d 9f3d cc13 5138
00000360: 80bd b93a 1fe2 4fbd 4d52 a43d 12f1 1bbe
00000370: 3a37 a43d b6b0 3d3c 2030 fb3d f543 8b3c
00000380: 02fb 083e f300 d0bd 295e b43c b074 00bd
00000390: 6abb 913d 5a70 6e3d 00a7 9ebd 5154 8dbd
000003a0: 12d9 69bc fa59 503d 55c4 85bd bf35 013e
000003b0: 8727 483d 1bff 2f3d b0fa b53b 201d 2cbc
000003c0: 3bcc 17bc 9914 97bd 2c5d 0abe 0474 633b
000003d0: fda9 d63c eaef c63d b873 fcbc 4e76 173d
000003e0: abb4 933d 8929 643e d011 883c dfac ab3d
000003f0: b685 603d ffe9 963d 3643 14bd 3960 0d3e
0.043635942 -0.0046895873 0.121767715 -0.03039683 -0.026630681 -0.040331274 0.021846496 0.040729083
0.032375246 -0.08501264 0.15394984 -0.04987241 0.054387555 -0.035155345 -0.052646674 -0.031739455
-0.0128325345 0.14471084 -0.1273142 0.06524803 0.024831997 -0.012065182 0.05583781 -0.0015765859
0.051320173 0.12174168 0.116003595 0.0015971742 0.043008372 -0.0046532904 -0.14257847 0.046316233
-0.06852545 0.025441278 0.023199558 0.12710579 -0.004637257 0.048862044 0.09738043 -0.023915514
0.16781288 -0.03834271 0.10809953 -0.047916576 0.19631667 0.042541422 0.032663852 -0.18582068
0.063148625 0.0378532 0.124880806 -0.15458412 0.07213263 0.05573301 0.1061468 -0.059356317
0.13844937 -0.15050492 0.08970606 -0.046981268 -0.018179871 0.022696517 -0.1365701 0.07944154
-0.010277762 0.005439268 -0.05070688 0.1469491 0.020804351 0.058506854 -0.020921964 -0.047824763
-0.14962058 -0.057476718 0.08749122 -0.0791263 -0.06457894 0.06645737 0.02093382 0.07302534
0.07168447 -0.07153534 0.09381177 -0.08536498 -0.05805913 -0.052545127 0.043817952 -0.1477838
0.053493015 -0.03572268 -0.03911159 0.14015393 -0.046581566 0.08391809 -0.16655223 0.052350566
-0.058190934 -0.0008549983 -0.003219406 -0.07019008 -0.15349631 -0.033617865 0.1593504 0.027301691
-0.032499798 0.029612798 0.121322155 -0.15924981 0.00917266 0.01513189 -0.12906797 0.0050301114
0.04035661 0.06677558 0.079051204 0.09956226 -0.012933528 0.017059876 0.04315899 -0.16859995
-0.049228206 -0.08757158 -0.14562869 0.074704155 0.00021288221 -0.07342944 -0.020707086 -0.02062987
-0.16378644 -0.008463556 -0.06456526 -0.04078063 0.017778447 0.17086987 -0.01842533 -0.024381341
-0.014654046 0.011357794 -0.017627679 -0.071066804 -0.058888912 0.028618133 -0.012341652 -0.003017484
-0.021825204 -0.10040345 0.059274003 -0.119741835 -0.042398155 0.008529346 0.009079613 -0.038379923
0.041935198 -0.015119386 -0.16050573 0.03065494 -0.12677951 0.014530118 0.042842723 -0.074687965
0.09232103 -0.034576394 0.0819412 -0.1212601 -0.0082801515 0.027087022 0.051040906 -0.051200032
-0.07458419 -0.010066656 -0.15910509 0.012631463 -0.13293654 -0.043574594 -0.032090038 0.15084045
-0.05418405 0.062005635 -0.09519207 0.14016308 0.072285265 0.00096691947 -0.050446305 -0.048484333
-0.08931282 0.06999001 -0.06993717 0.026435336 -0.002472045 0.011410424 0.113541186 -0.07720054
-0.036892515 -0.047876634 -0.0119449645 -0.035879325 -0.051666256 -0.037280157 -0.020190893 0.0289621
0.056669865 0.03413845 0.00383637 0.090469815 0.10750429 -0.06418174 0.07738912 0.06763653
0.004067488 0.0233469 -0.10476142 0.0942595 -0.029758861 0.026526868 0.07766317 4.984792e-05
0.0014170855 -0.050752755 0.0802351 -0.1522868 0.08018346 0.011577776 0.122650385 0.017000178
0.13377002 -0.10156431 0.022017555 -0.031361282 0.071158245 0.058212616 -0.077466965 -0.06900848
-0.014272945 0.05086706 -0.06531588 0.12618159 0.04886582 0.042967897 0.005553566 -0.010504991
-0.009265001 -0.073769756 -0.13512105 0.0034706602 0.026204104 0.09713729 -0.030816898 0.03697806
0.07212194 0.2228147 0.016610056 0.08382582 0.054815017 0.0736885 -0.03619691 0.13806237

fc2.bias f4 [2]
00000000: e90d babd 8c6c e13b
-0.090846844 0.006879395

fc1.weight f4 [128, 4]
00000000: 6edc f53e b3b6 db3e 3735 363e 53ff 383e
00000010: 573b 813e c329 b33d 705c dd3e 083d 993d
00000020: 65d4 0abf dc26 86be aced a2bd d745 93be
00000030: 1c9b 033e eab5 fe3d 43c5 c03d b8ae 073e
00000040: e918 933e 0160 80bc beb6 b1be df50 67be
00000050: 642b 1cbc a5eb 77be 4ad1 db3e 32c3 75be
00000060: b626 20bf 4720 2f3d 7010 ea3e 1314 83be
00000070: d484 ac3d 2931 9cbe 867e 313f 39d6 5e3e
00000080: ac3d f23e 7361 aebe 9fd8 8bbe a5d9 9d3e
00000090: 9483 fd3d fd37 2ebe faec 053f 090a a3bd
000000a0: 1cae 9c3d 48c5 c2bf e2fa dcbf 512c 86bf
000000b0: 8eef 5bbe 4e74 c83d 3798 9cbd 964d 04bc
000000c0: f572 74bf 366e b3bf 288e 96bf 0879 81bf
000000d0: 8761 d8be 63ae 8dbf 562b 0fc0 8d6c 53bf
000000e0: a503 213e 7ec7 09be b48d 81bf f39f 04bf
000000f0: ba5b 2a3e bf70 0a3c 8786 c6be 6c77 9f3d
00000100: 61ad 053f b3d0 c8be 10fa 0cbf 0ba4 2fbd
00000110: c630 2a3f 9146 86bd 1ad2 15be d6a2 773d
00000120: 1f03 9d3f 1172 c53f 46ee 0740 2816 873f
00000130: afd5 08bf 2eae 063f 1155 0d40 ee7c 7d3f
00000140: e092 a2be bfa5 81be 8474 f8bf 5149 6ebf
00000150: 5871 c1be 13e1 b0bf 38fa adbf d665 72bf
00000160: d72d bcbe d9af 363d 8cd2 86be e81a 0b3e
00000170: 5550 a43d 50f7 723e 1872 4fbe 76dd 46be
00000180: c0f0 193f 5f82 d3be 911a f0bf 6651 39bf
00000190: 005a 883e 6b4e 27bf b547 06c0 74dd 65bf
000001a0: fef8 633e d76a afbe 75d2 d7be cd03 203e
000001b0: aec3 c4bd 23e3 f4bd e1a9 1a3e 7fb4 2abe
000001c0: 8e1c a93e 1976 c7be bd36 cbbf 0528 55bf
000001d0: 4512 84be 6e15 523d 3fa1 003f b0e4 f63d
000001e0: 336f 61bd 7e2f cfbe 10a0 cdbf 0ef7 43bf
000001f0: cd7a 4ebf 676e 80be fa14 cd3d 86c6 76be
00000200: 4674 a9be e289 963e 738c 81be b494 643e
00000210: 8719 3c3f c001 77be 9074 fbbf 1d86 43bf
00000220: 943d 42be 6b47 75bd 2583 aabe d7b2 ecbc
00000230: 3090 fcbe 8cd9 e13e f027 e7be 7551 863e
00000240: a440 683d 8a60 dabd c5a7 033e 8981 ebbd
00000250: ef30 023f 1650 5e3e 77a7 2ebf df56 863e
00000260: b83d 183e 35f2 f0bd d3e0 b83c c33b 3d3e
00000270: 840d 12bf 5d0c 7b3e 2e79 0d40 9f05 4e3f
00000280: 7516 183f 1b50 903d cacc e5be 167b 053e
00000290: ab30 663c a67d 483e 05d5 8bbd 194d cdbd
000002a0: d3f0 1a3e 3925 22be 6a7c c3bc eff9 313b
000002b0: 578c 04be 9efd 95be d383 9d3e 885f 46be
000002c0: 1530 f33e 823b dbbe 7111 0abf 36ff 4fbe
000002d0: 05bf b33e a1e7 24bf e9c1 cebf 9742 3fbf
000002e0: 0813 993e 9dcc b63c 46dd bc3d 69d1 8f3e
000002f0: 3a64 40be de9d 8fbf e15f d5bf 6ad8 41bf
00000300: 7793 bc3e 09ef e53f 6d14 e43f 45d4 9d3f
00000310: 6e2e ddbe 9694 a3be e316 583d 5dd4 b8be
00000320: 0098 a3bb 006e 4ebd 20fc 37bd b0b3 ccbd
00000330: 18e9 a53f ade3 b43f bb6d 953f a1be 7c3f
00000340: 5570 41be 515b aabe fb54 9b3a a425 9cbd
00000350: 4da9 1fbf 85bd d8be 8bdd 103e 1b7c 513e
00000360: 4e84 dfbe 92ed c5bf e66e 01c0 2a23 8cbf
00000370: 4557 80bf 4eab b7bf ef95 c5bf c73b 85bf
00000380: 7bd6 c8be 9c90 27bc 368a f4be 2e6f a3bd
00000390: ac95 1cbf 3337 f9be 226f 1b3e 9b5b ccbe
000003a0: a50e c8be 6ce1 d33e 3916 d1bc 458a 933e
000003b0: 5e42 c8be 30d1 ab3b 13e6 ce3f c0aa 033f
000003c0: a1fa 353f b65b d3be 28ab b3be a93a 8b3d
000003d0: ad11 1dbf ff90 07bf 47f4 8d3e c7dd c7be
000003e0: 0e04 d3bd 69d2 0ebf 327f 983e 4fe0 abbe
000003f0: ea33 8e3e f132 e3be 8d98 e8be 57b7 87bd
0.48019737 0.42912826 0.17793737 0.18066148 0.25240585 0.087482 0.43234587 0.07482344
-0.5423034 -0.26201522 -0.079554886 -0.2876422 0.12852138 0.12437041 0.09412625 0.13250244
0.28729942 -0.015670778 -0.34709734 -0.22589444 -0.0095318295 -0.24210985 0.42933112 -0.24000242
-0.6255907 0.04275539 0.45715666 -0.25601253 0.084237725 -0.30506256 0.69333684 0.21761407
0.47312677 -0.34058723 -0.27313706 0.30830112 0.12378612 -0.17013545 0.5231472 -0.079608984
0.07650396 -1.5216455 -1.7264063 -1.0482274 -0.21478102 0.09787808 -0.0764622 -0.008075139
-0.9548791 -1.4018009 -1.1762133 -1.0115061 -0.42261907 -1.1068844 -2.23702 -0.8258751
0.15724047 -0.13455006 -1.0121369 -0.51806563 0.16636553 0.008449732 -0.3877451 0.0778645
0.5221768 -0.39221725 -0.55069065 -0.042881053 0.6648067 -0.06556428 -0.14630929 0.060458027
1.2266577 1.5425435 2.123918 1.0553637 -0.53451055 0.5260953 2.208317 0.9901875
-0.31752682 -0.25321767 -1.9410558 -0.9308062 -0.37781787 -1.3818687 -1.3591986 -0.9468664
-0.36753723 0.044601295 -0.2633251 0.13584483 0.080231346 0.23727155 -0.20258367 -0.19420418
0.6013298 -0.41310403 -1.8758107 -0.7238983 0.26631165 -0.6535403 -2.0981266 -0.89791036
0.22262952 -0.342612 -0.42152753 0.1562645 -0.096076354 -0.119573854 0.15103866 -0.16670416
0.33029598 -0.3895729 -1.587608 -0.8326419 -0.2579519 0.05128997 0.5024604 0.120553374
-0.05503769 -0.4046592 -1.6064472 -0.7654885 -0.8065613 -0.2508423 0.100137666 -0.24099168
-0.33096522 0.2940207 -0.25302467 0.2232235 0.7347645 -0.24121761 -1.9644947 -0.76376516
-0.18968803 -0.059882563 -0.3330318 -0.028893871 -0.49328756 0.44111288 -0.45147657 0.26234022
0.05670227 -0.106629446 0.12856968 -0.11499316 0.50855917 0.21710238 -0.6822428 0.26238152
0.14867294 -0.11764947 0.022568142 0.18479829 -0.57051873 0.24516435 2.2105212 0.8047733
0.59409267 0.07046529 -0.44882804 0.13035235 0.014049689 0.19579181 -0.068277396 -0.10024471
0.1513093 -0.15834512 -0.023863036 0.0027157029 -0.1294416 -0.29295057 0.30764636 -0.1937238
0.4749762 -0.42818838 -0.53932863 -0.20312199 0.35106674 -0.6441594 -1.6152927 -0.74710983
0.29897332 0.022314364 0.09221892 0.28089455 -0.18788233 -1.1220052 -1.6669885 -0.75720847
0.36831257 1.7963573 1.7818733 1.2330405 -0.43199486 -0.319493 0.0527562 -0.3609952
-0.004992485 -0.050397873 -0.04491818 -0.0999521 1.296176 1.4131981 1.1674112 0.98728377
-0.18890508 -0.33272794 0.0011850888 -0.07624367 -0.6236771 -0.42332092 0.14147012 0.20457499
-0.43655628 -1.5463126 -2.0223937 -1.0948231 -1.0026633 -1.4349153 -1.5436381 -1.0408868
-0.39226136 -0.010227349 -0.47761697 -0.0798019 -0.6116588 -0.48674926 0.15179113 -0.3991364
-0.39073673 0.4138292 -0.025523292 0.2881643 -0.39113134 0.005243443 1.6163963 0.5143242
0.71085554 -0.41280907 -0.3509152 0.06798298 -0.61355096 -0.5295562 0.2772543 -0.3903639
-0.10303508 -0.5578981 0.29784542 -0.3356957 0.27773982 -0.44374803 -0.45428887 -0.06626766

fc1.bias f4 [128]
00000000: 0ff3 843f 9abd 163f 2aee 9b3f 2f22 8f3f
00000010: 8c5b b83f 139c 783f 15c3 9e3f edc1 05bf
00000020: f2f3 f0be e996 063f 19a9 47be 0268 0abf
00000030: b4d3 7fbe 74ba 3bbe 7074 9bbe df9f 713f
00000040: 196d 943f bde8 8e3f b8d5 3a3d 23be 6cbe
00000050: 1944 d9be 3dd6 55be a2a0 9d3f 3ed3 9b3c
00000060: 9d1e 62be 1118 ebbd 5dd4 363f 95e9 38bf
00000070: ee6d b0be cfb1 8b3f af59 23be c117 123f
00000080: 47dd 81be 74ae 99be 71f0 403f 926c 563f
00000090: d614 c5be 45b2 033f 1221 663f 5c73 a8be
000000a0: f01b a13f bcee b63f d760 9b3f b615 5e3e
000000b0: 2167 543f bbcd 65be 819e 9c3d 43c7 50be
000000c0: c31e de3c e913 983f fc4b 69be 4c56 013d
000000d0: fa88 b3bc e709 f8be 71b2 53be 74ac 6cbe
000000e0: 2cf6 953f 92ce 913f abbf 893f 405a a8be
000000f0: b016 673f 8c98 493f 451f 9b3f f26f aa3f
00000100: 68a6 dabe 8baa 80be 6eee cfbe e91f e6bd
00000110: 867b b53f 441a 863f 1321 933f c91d a43f
00000120: 1c1e 803f efdd 00be a981 a03f 6bd7 a53f
00000130: ceea 493f bd3c 88bd c3c3 a33f d61f 583f
00000140: a37a 793f e317 8c3f 7642 a33f 99bb 13bf
00000150: 0722 e2be dff0 963f 3d20 373f 778e dabe
00000160: 9c5e bd3f 174c 713f ae90 a63f 86a4 e5be
00000170: 7c65 803f 5a3c 06be b52e ca3c 90a5 c83e
00000180: ff59 edbd f35e 7b3f 547a 443f 1471 993f
00000190: cad2 753f 6050 233f 3759 17be f762 2fbe
000001a0: 7946 43be eb95 1fbf c2d4 d93e bfe3 523f
000001b0: b803 52bb a2c3 d5be 65a8 8d3f 358e 763f
000001c0: eeca 013e 904a 143c 4936 763f 1aec 883f
000001d0: 4a67 eabe 03de ae3e 9f8b 563f 6016 94be
000001e0: e704 ad3f 60cb 22ba 9e6b 843f ab5d cb3c
000001f0: aa75 393f aa1b 28be aabb 053d 3f82 873f
1.0386676 0.5888306 1.2182057 1.1182307 1.4402938 0.9711315 1.2403284 -0.5224903
-0.47061116 0.5257402 -0.194981 -0.54064953 -0.24983102 -0.18332845 -0.30362272 0.9438457
1.1595794 1.1164776 0.045613974 -0.23119406 -0.42434767 -0.20882507 1.2314646 0.019021627
-0.2208199 -0.114792 0.7141779 -0.7223142 -0.3445887 1.0913638 -0.1595218 0.57067496
-0.25364134 -0.3001591 0.75366884 0.83759415 -0.3849246 0.5144389 0.8989421 -0.32900512
1.2586651 1.4291606 1.2138928 0.2168797 0.8296986 -0.22441761 0.0764742 -0.20388512
0.027114278 1.1881076 -0.22782892 0.03157644 -0.021915901 -0.48445055 -0.20673539 -0.2311266
1.1715751 1.1391165 1.0761617 -0.32881355 0.90268993 0.78748393 1.2118918 1.3315413
-0.42705083 -0.25130114 -0.40611595 -0.11236555 1.4178321 1.0476766 1.1494468 1.282159
1.0009189 -0.12584661 1.2539569 1.2956365 0.7887391 -0.0665221 1.2794117 0.8442358
0.97452754 1.094479 1.2754657 -0.57708126 -0.44166586 1.1792258 0.71533567 -0.42686817
1.4794497 0.9425673 1.3012903 -0.44852084 1.003097 -0.1310896 0.024680475 0.39188814
-0.11589431 0.98191756 0.7674916 1.1987634 0.96024764 0.6379452 -0.14780127 -0.17127596
-0.19069852 -0.6233813 0.42545134 0.8237876 -0.0032045674 -0.41750818 1.1067015 0.9631074
0.12675068 0.00905098 0.9617658 1.0697052 -0.45781928 0.34153756 0.83806795 -0.2892332
1.3517121 -0.0006210115 1.0345342 0.024824938 0.72445166 -0.16416803 0.032649674 1.0586623

fc2.weight f4 [1, 128]
00000000: d449 1b3f 5531 523e 273e 4b3f ab18 163f
00000010: c707 2d3f e87e f83e 1986 0e3f f63e 19be
00000020: ae4e babd fdc1 1e3e ff1c e2bf 3a7e ba3c
00000030: 98c3 b7bf 9f93 76bf 2979 94be 925e 3e3f
00000040: 1e74 2b3f 05a4 1a3f 16ab d9bf cb99 57bf
00000050: 0186 21bf 90c6 adbf 6f12 353f 5f0c 4e3d
00000060: d67b 35bf 4feb 63bf 9c8e 7d3e 6e4f 8ebd
00000070: 68ed 28bf 210d 013f eb06 22bf 8865 5e3e
00000080: 9db3 2f3c 31f0 36bf 314a de3e 8b09 003f
00000090: a8b3 293d 8155 873e faef a43e 46a6 45bf
000000a0: c08f 2f3f 2538 213f 7810 193f f950 d03d
000000b0: 96a7 063f 5e87 11bf cab0 833b 1c60 45bf
000000c0: 8317 0cc0 d663 2c3f ca3e 6c3d 19ad adbf
000000d0: 7a09 16bc c0a9 edbd 87c7 debf b1c3 cdbf
000000e0: 96f3 493f b674 363f 633e 093f 82aa 06bf
000000f0: 74a4 c83e cef4 023f 0bbb 1c3f 0162 463f
00000100: 3910 79bd 0a5a 39bf 0bd3 7bbe 3d43 42bf
00000110: 937c 1e3f 1fa1 2c3f f9af 1c3f e6eb 383f
00000120: d821 b73e 68f5 5abf 0a79 223f 6020 333f
00000130: fc7d 063f ee65 17be 87dd 3f3f 0138 a93e
00000140: ce6e 133f 2ac1 2f3f 513e 243f 30b8 f3be
00000150: 9418 14bb caf6 443f e099 e93e 686e aaba
00000160: 511f 243f 3b5b c13e 1949 393f 2ede 09be
00000170: 5c9e 1b3f 18d9 e5be ccf0 e5be 33dd 023e
00000180: 0a85 1fbf 704b de3e 6b43 b53e c2d5 463f
00000190: cccf 3e3f fa5c ba3e 8ad0 3bbe c928 55bf
000001a0: a2d7 31bf f62a 9a3d 28fe 363e c34a 063f
000001b0: 9921 e6be 22c1 553e ad61 1c3f 5313 f13e
000001c0: f0df 9d3d 1ce4 92bf a9a5 e63e 3ada 063f
000001d0: babf 293d ffb6 1c3e deba cb3e cbae 85bc
000001e0: 59d6 363f 7c11 26bd 4b6a 033f 2a3e e0bf
000001f0: e763 f33e 1d7c 3abf 26b5 c8bf 3767 373f
0.6065953 0.20526631 0.7939171 0.5863139 0.6758999 0.48534322 0.55673367 -0.14965424
-0.09097038 0.15503688 -1.7665099 0.022765268 -1.4356565 -0.96319 -0.28998688 0.7436305
0.66974056 0.60406524 -1.7005336 -0.84219044 -0.630951 -1.3576221 0.7073125 0.050304767
-0.70892084 -0.8903093 0.24761432 -0.06948744 -0.65987253 0.5041066 -0.63291806 0.21718419
0.0107239755 -0.71460253 0.4341598 0.5001456 0.0414311 0.26432422 0.32214338 -0.7720684
0.6857872 0.62976295 0.59790754 0.10171694 0.52599466 -0.5684718 0.0040188776 -0.77099776
-2.188935 0.6733984 0.057677068 -1.356845 -0.009157533 -0.11604643 -1.7404641 -1.6075345
0.7888731 0.71271837 0.5361082 -0.52603924 0.39187968 0.5115479 0.61222905 0.7749329
-0.060806487 -0.72403014 -0.24592225 -0.7588385 0.61908835 0.6743335 0.6120601 0.7223495
0.35768008 -0.8553071 0.6346594 0.69971275 0.52535987 -0.14784977 0.749474 0.3305054
0.5759095 0.6865412 0.6415759 -0.4760146 -0.0022597658 0.7693907 0.4562521 -0.0013002874
0.64110285 0.37764916 0.72377163 -0.13463661 0.6078851 -0.44892192 -0.44910276 0.12779693
-0.62312376 0.4341693 0.35402998 0.7766992 0.7453582 0.3639906 -0.1834127 -0.8326536
-0.69469655 0.075277254 0.1787039 0.5245783 -0.44947508 0.20874456 0.6108654 0.47085056
0.07708728 -1.1475863 0.45048264 0.5267674 0.04144261 0.15304182 0.39791006 -0.0163187
0.7142082 -0.04054402 0.51334065 -1.7518971 0.47537157 -0.7284563 -1.5680282 0.7164187

exp_avg f4 [128, 4]
00000000: b60f 823b 969e 2a3c a6bd f93a e3d4 1b3b
00000010: b249 b4b6 3273 4fb6 703d 4fb4 6ade 1d36
00000020: 7ff2 043c 8169 883c 9f79 473b c8cb 8f3b
00000030: 8f1a 5e39 a48e ad39 d22e 7c38 1e0c fc38
00000040: 8a30 18ba d238 7cba 226a d5b8 097e 16b8
00000050: f61a 2bbb a99b 14bc 59b7 17bb 184e 81bb
00000060: 4137 043b 1a9a 803b b3c9 3c3a 964f 8e3a
00000070: 515a 003b 45e1 203b c0d6 b539 3dcd 253a
00000080: e528 b13a db2d 153b 5b9e c939 4275 153a
00000090: 23bf 8aba 3307 74bb a003 38ba 140e 1aba
000000a0: 254e b83b ab89 283c d5eb f93a 1322 293b
000000b0: 98b6 023a 28f7 0c3a 6d57 5738 386f d937
000000c0: a326 133a d27e 0a3a e7b0 8238 5524 a037
000000d0: 609a 1fba c0f4 63ba bd63 adb8 553d a9b8
000000e0: d0c3 c6ba cbb3 44bb 32e3 28ba a06d 92ba
000000f0: fc3f 5eb9 861d ccb9 1a46 3db8 c82a 55b8
00000100: ddf1 2339 b3e7 5e39 ab5d c037 3c25 8038
00000110: 1d58 7c3b e273 2c3c b05e ed3a 4c99 d83a
00000120: 8fce 74bb 4835 3dbc 2caf 2abb 9c83 88bb
00000130: 7d3f e13b e01e 643c 5474 3c3b b811 9a3b
00000140: e2f8 063a ae32 c83a 43fd 6c39 124c 0839
00000150: 11ac c525 86bb e027 ef48 42a6 f00b 2da8
00000160: 2494 fcb6 41d8 2eb7 cdec a4b4 3add 4036
00000170: 3cdf 1c3a 1d2d ad3a f21f 6039 fc03 6d39
00000180: 77b7 0e39 3942 5239 6a75 b737 cea7 e637
00000190: 7b13 183b 42c0 993b 215b 1c3a bbdd cd39
000001a0: 2d2a 123c 3247 833c 9ab3 223b 9ff5 253b
000001b0: bd72 e2b9 0b6b b5ba 1800 a5b9 e2dc f3b9
000001c0: 2cdf 253b ea0b f43b 821d af3a fa47 a63a
000001d0: ad37 65ba 1171 d9ba 1d4f 9fb9 4b58 fcb9
000001e0: c1c2 4abb f235 fabb f19c e6ba 720a 59bb
000001f0: dbc3 643b 7222 963b c3c9 023a 73bc 0b3a
00000200: 30c7 bcbb a29e 21bc 091c 0fbb 35b3 90bb
00000210: 3be6 203b d010 a53b 4703 833a 512e cf3a
00000220: f0ad fab6 72df f6b6 a4ed e5b5 33a7 22b7
00000230: 0fe8 843b e74f 483c d23d 373b fdd1 883b
00000240: 0e7b 34b9 c95b 80b9 a9f8 03b8 8ddf 1cb8
00000250: 33ba 2c3a 4461 ac3a ad48 9639 899a 003a
00000260: 279e ff39 e94a 6f3a 6302 ce38 c5c9 a237
00000270: 0000 0000 0000 0000 0000 0000 0000 0000
00000280: b736 443c c809 be3c 96b2 8c3b cdc8 db3b
00000290: 5645 8927 7497 9429 7a7f d5a7 8df4 dfa9
000002a0: 783e 173c 5995 a33c fdac 833b 2d74 ac3b
000002b0: f328 6fba bbc7 08bb a305 e7b9 6cc1 5eba
000002c0: ad14 363c b616 ac3c 1f9c 663b 6c22 543b
000002d0: 9d22 9438 2260 6f38 2768 0437 28fe 5538
000002e0: f9ce 013b 7e93 a43b 254d 8c3a 1387 f53a
000002f0: 00c4 7fbc 6ef4 ecbc a8ff a9bb 2f09 f6bb
00000300: 46ad c53a edd3 943a f461 d638 855c 8c39
00000310: 8df7 96b9 b498 60b9 ea68 b0b7 60e7 fcb7
00000320: 247c 753b 2812 253c 5d46 e83a 8eaa 083b
00000330: d050 66bc 4561 debc 0127 a5bb 8f58 f9bb
00000340: 1e38 1d37 3ba5 5737 60cc a435 5ff1 ca35
00000350: 76b2 353b 0177 ae3b 78db 813a 8dd3 cd3a
00000360: c6c7 9b3b 9224 f63b f374 8e3a a3da b43a
00000370: 0483 11b8 c621 2ab9 b1b7 e2b7 ba5e 66b7
00000380: 5bd4 363c 6c17 b23c 6aab 833b b9d0 c53b
00000390: 8483 2ebc 7249 a8bc 8c8e 7bbb a9a0 c4bb
000003a0: 252c 763b e525 253c db5b 173b 3cc7 8c3b
000003b0: 18b4 3bbb d81a a6bb c5c6 8cba b5a8 06bb
000003c0: 1617 14b9 1d77 c4b9 157f 5db8 2b02 09b8
000003d0: 018d b937 367f 4038 6d40 f436 3e34 f336
000003e0: 8845 17bc dcd4 79bc 8bfe 4dbb 940d d3bb
000003f0: e041 bb3b bc10 543c 8655 293b ce60 8d3b
0.003969158 0.010413786 0.0019053712 0.0023778013 -5.3729973e-06 -3.0912456e-06 -1.9300728e-07 2.3524285e-06
0.008114456 0.01665187 0.0030437482 0.0043883063 0.00021181464 0.00033103407 6.0125087e-05 0.000120185534
-0.0005805573 -0.0009621504 -0.000101764 -3.5880166e-05 -0.00261086 -0.009070315 -0.0023150055 -0.003946077
0.0020174535 0.0039246203 0.00072016864 0.0010857459 0.0019585083 0.0024548334 0.00034683011 0.00063248334
0.0013516216 0.0022762928 0.00038455692 0.00057013717 -0.0010585528 -0.0037235736 -0.0007019583 -0.00058767316
0.00562455 0.010286729 0.0019067476 0.0025807663 0.0004986315 0.00053774053 5.1341416e-05 2.5920206e-05
0.00056133623 0.000528318 6.231834e-05 1.9090405e-05 -0.00060883723 -0.00086958334 -8.2678605e-05 -8.069972e-05
-0.0015164558 -0.0030014392 -0.0006442546 -0.0011171587 -0.00021195406 -0.0003893191 -4.51264e-05 -5.0823e-05
0.00015634992 0.00021257885 2.2931801e-05 6.110451e-05 0.0038504668 0.0105256755 0.0018109884 0.0016525178
-0.0037354564 -0.011548348 -0.0026044352 -0.0041660797 0.0068740235 0.013923377 0.002875586 0.0047018193
0.0005148781 0.0015273893 0.00022601061 0.00012998309 3.429065e-16 6.2375803e-15 -6.7406114e-16 -9.606018e-15
-7.527431e-06 -1.0421559e-05 -3.0719676e-07 2.8739e-06 0.0005984192 0.0013212297 0.00021374205 0.00022603566
0.00013610521 0.0002005183 2.1869975e-05 2.7496277e-05 0.002320497 0.0046921084 0.0005964507 0.0003926585
0.008921188 0.01602516 0.002482629 0.0025323404 -0.00043191566 -0.0013841105 -0.00031471322 -0.00046513142
0.0025310023 0.0074477093 0.0013360234 0.0012686246 -0.0008743953 -0.0016589483 -0.00030385787 -0.0004813097
-0.0030938836 -0.0076358253 -0.001759438 -0.0033117798 0.0034906778 0.004581743 0.0004989171 0.00053305103
-0.0057610497 -0.009864481 -0.0021836779 -0.0044158944 0.002455129 0.0050374046 0.0009995484 0.001580665
-7.4708296e-06 -7.3573838e-06 -1.7130992e-06 -9.694882e-06 0.004055984 0.012226081 0.0027960432 0.004175423
-0.00017211979 -0.00024482448 -3.1464417e-05 -3.7401496e-05 0.0006589025 0.0013151546 0.00028664377 0.000490584
0.00048755223 0.0009128289 9.82329e-05 1.9405861e-05 0.0 0.0 0.0 0.0
0.011975936 0.023198023 0.00429375 0.006707287 3.8100313e-15 6.598793e-14 -5.9257586e-15 -9.945612e-14
0.009231202 0.019968675 0.0040184245 0.0052628727 -0.00091232284 -0.0020871002 -0.00044063953 -0.000849745
0.011113328 0.021006923 0.003518827 0.003236915 7.063637e-05 5.707157e-05 7.892063e-06 5.101986e-05
0.0019807203 0.0050224653 0.0010704143 0.0018732272 -0.015610695 -0.028925147 -0.0051879473 -0.007508419
0.0015081547 0.0011354663 0.000102225604 0.00026771813 -0.0002879467 -0.00021419191 -2.102969e-05 -3.0148483e-05
0.0037458027 0.01007513 0.0017721165 0.0020853612 -0.014057353 -0.027145991 -0.00504005 -0.007609434
9.370995e-06 1.2853469e-05 1.2278433e-06 1.5120421e-06 0.002772478 0.005324245 0.0009907326 0.0015703306
0.0047540395 0.0075116837 0.0010868594 0.0013798069 -3.469271e-05 -0.00016225045 -2.7026837e-05 -1.37311235e-05
0.011159028 0.021739684 0.004018237 0.0060368446 -0.010651473 -0.020542834 -0.0038384525 -0.0060005975
0.0037562933 0.010079836 0.0023095522 0.0042962115 -0.002864128 -0.005069118 -0.001074039 -0.0020547335
-0.0001412298 -0.0003747278 -5.280886e-05 -3.2665364e-05 2.2119379e-05 4.589484e-05 7.279267e-06 7.248046e-06
-0.009232886 -0.015248504 -0.0031432237 -0.0064408276 0.00571464 0.012943443 0.002583833 0.0043145185

exp_avg_sq f4 [128, 4]
00000000: 51fe ed36 be49 0938 cbdd a236 b08d 9638
00000010: a907 5133 af9b d536 9a07 2334 f98d 8f37
00000020: 1113 1f37 63aa 2238 7674 b436 d48d 7c38
00000030: ec25 9334 2b86 e437 c343 6b35 647f 9c38
00000040: bdd1 0635 cc23 0438 ab9c 3235 c8d5 a238
00000050: dc85 9f36 048b 9937 b161 f835 4132 bb37
00000060: 823b 8735 f740 6638 3d17 be35 bf12 0a39
00000070: 14fb dc35 3543 ef38 de26 7736 0c11 a739
00000080: 7782 fc35 8bc3 f838 e3f2 5036 dde2 9839
00000090: 3399 2335 237e 2d36 1f9a 5d34 c656 0c36
000000a0: a041 8336 1dd5 c837 9775 0036 94f7 3538
000000b0: b1fa cf33 bb3b 1d37 066b 7334 253c d337
000000c0: e124 f335 5c57 0639 7bae a036 a63d c239
000000d0: b24d fa34 8fb7 ee37 1d59 0e35 02f4 9138
000000e0: e968 5536 3f75 f938 f0bf d536 0281 b239
000000f0: e3cd cc32 5276 6a33 e728 2531 4e2a 1a33
00000100: d3ee 8834 67e0 f637 646f 4c35 2b1f a838
00000110: 00f8 5537 3d82 fe38 6144 1637 6e1b 9d39
00000120: 2780 e736 855e 6838 77c6 dc36 a85a 1139
00000130: 13fd 1537 10c3 1c39 3730 2337 1378 c939
00000140: 3089 e533 cd06 6136 0b18 1b34 3a5b 1337
00000150: d9a0 a831 2c36 1c35 3bea 2b32 a04a c135
00000160: 3d4d 0934 9866 9937 d40c ea34 c7d1 4f38
00000170: d6fa 2035 de58 3038 1cc8 6835 2b69 d438
00000180: 6e92 6b34 060c ac37 98d5 d534 252d 5238
00000190: 3854 8036 8f1b 0a38 70fa af35 c1f8 9638
000001a0: 4667 3237 b25c 3438 e1a9 d536 f4f4 be38
000001b0: 5db9 1535 d4bd 6438 4ddf ce35 6aee 1c39
000001c0: 5b4a 8336 a097 0138 763c 3636 7faa 9538
000001d0: e510 5435 0a04 9438 fbcb 0b36 7ca6 4a39
000001e0: e240 ad36 42a4 4b38 ab42 5636 46ea 0339
000001f0: 17dd 5535 1e1a d935 9bfa a133 2e47 d034
00000200: ee2f ed36 9516 7238 06bf 1b37 707f 2d39
00000210: bda3 b435 2847 0138 d994 cf35 a126 a538
00000220: ef85 fd33 447a 1437 015a 9c34 a7dc dd37
00000230: 1ef1 9e37 ad9a 2a39 fa1a a237 6020 e839
00000240: 3a44 e433 34d2 fe35 95c8 0e34 1b8c b836
00000250: d1ae a235 1908 8f38 4e59 3e36 4096 3f39
00000260: 5056 0834 99e9 d435 d9ae 9b33 e6dd 8a36
00000270: 0000 0000 0000 0000 0000 0000 0000 0000
00000280: 9ef4 8937 7896 c138 7611 4d37 1522 4239
00000290: 9783 0233 90d6 fa36 5181 1634 46ba ae37
000002a0: 6c44 4237 9dff 7a38 48c8 2137 9299 df38
000002b0: 0b16 a434 f554 0337 3f14 4f34 2358 9d37
000002c0: 5491 8437 2478 8b38 e02b 2337 3577 fe38
000002d0: 3d9c 8335 a035 a638 cc09 2c36 c76d 6b39
000002e0: 726e ae35 055c 6937 e106 9035 75cd 0438
000002f0: 8017 f937 4c85 4c39 a343 8537 d70e e839
00000300: d754 2135 a685 a437 45e6 da34 365a 4e38
00000310: 335e a332 5b39 cc34 43a8 7f31 704d 4e35
00000320: a46f 0b37 1572 3f38 00f4 d436 850d f338
00000330: fc3f eb37 ce0a 7c39 490b a137 8561 0c3a
00000340: 5a03 0530 29e3 5e33 57d6 1c30 5e66 f933
00000350: 81cf 0836 aff8 a638 c7cf 4336 ad9d 5a39
00000360: 1df4 0c36 704d 1737 78a6 ae34 8417 4737
00000370: ec3f 0c34 e58e 1837 3e4b 4034 3f86 b337
00000380: 6be5 9937 5b61 e338 fb30 7437 39ee 8039
00000390: d6b0 8c37 0d51 d338 d162 4f37 48d8 5b39
000003a0: 959a f336 ff9b 1838 d395 ef36 39d5 c538
000003b0: 2f7e fc35 3705 6337 f16c 0636 0403 1938
000003c0: d54a ce33 df67 1d37 ab86 2b34 e6ad bd37
000003d0: 361c d531 1892 2f33 d31c 9b31 b5dd 4e33
000003e0: e3b8 8437 63be 2f39 2482 9d37 773f ec39
000003f0: 1af8 e736 6227 2e38 e478 a336 f30a b738
7.0927567e-06 3.2732023e-05 4.8537963e-06 7.178949e-05 4.866857e-08 6.3660186e-06 1.5183323e-07 1.711304e-05
9.481578e-06 3.8782495e-05 5.377976e-06 6.021357e-05 2.7408475e-07 2.7242195e-05 8.764293e-07 7.462388e-05
5.02241e-07 3.150459e-05 6.653815e-07 7.764582e-05 4.7541525e-06 1.8303755e-05 1.8505872e-06 2.2315538e-05
1.0075603e-06 5.4896776e-05 1.4162866e-06 0.00013167689 1.6464351e-06 0.000114089264 3.6828492e-06 0.00031865423
1.8813433e-06 0.00011861984 3.1135794e-06 0.00029160726 6.0945166e-07 2.585243e-06 2.0638298e-07 2.0912134e-06
3.911744e-06 2.3941097e-05 1.9141933e-06 4.3384338e-05 9.684789e-08 9.371836e-06 2.2670073e-07 2.5181167e-05
1.8115644e-06 0.0001281178 4.788684e-06 0.00037048495 4.662266e-07 2.8457287e-05 5.30288e-07 6.959589e-05
3.180054e-06 0.00011895084 6.370239e-06 0.00034046924 2.3842352e-08 5.4589982e-08 2.403391e-09 3.5894395e-08
2.5505742e-07 2.942998e-05 7.6158017e-07 8.01667e-05 1.2753531e-05 0.000121359226 8.956617e-06 0.0002996581
6.8992554e-06 5.540114e-05 6.5796153e-06 0.0001386205 8.9400155e-06 0.00014949986 9.726783e-06 0.0003842717
1.0688598e-07 3.3531571e-06 1.4444247e-07 8.783123e-06 4.90773e-09 5.819336e-07 1.0006768e-08 1.4401339e-06
1.2787218e-07 1.8286795e-05 4.359523e-07 4.9548016e-05 5.996966e-07 4.2044434e-05 8.671793e-07 0.00010128537
2.1939351e-07 2.0509597e-05 3.9829752e-07 5.0109946e-05 3.8245016e-06 3.292743e-05 1.3111403e-06 7.1988914e-05
1.0633672e-05 4.3001673e-05 6.367671e-06 9.105532e-05 5.5776565e-07 5.4536227e-05 1.5413185e-06 0.00014966135
3.9127603e-06 3.089721e-05 2.7155306e-06 7.136631e-05 7.900074e-07 7.057942e-05 2.0831346e-06 0.00019326241
5.163355e-06 4.855195e-05 3.192729e-06 0.00012580407 7.967041e-07 1.6175361e-06 7.5427316e-08 3.879481e-07
7.06873e-06 5.7718327e-05 9.283196e-06 0.0001654604 1.3458699e-06 3.0822266e-05 1.5466022e-06 7.875008e-05
1.1805593e-07 8.849955e-06 2.912275e-07 2.6448002e-05 1.8947347e-05 0.00016270085 1.9324467e-05 0.0004427461
1.0629488e-07 1.8985652e-06 1.3297752e-07 5.4999377e-06 1.2120819e-06 6.82028e-05 2.8364188e-06 0.00018271152
1.2697387e-07 1.5863217e-06 7.2495546e-08 4.138553e-06 0.0 0.0 0.0 0.0
1.6445581e-05 9.230984e-05 1.2223018e-05 0.00018513978 3.0387664e-08 7.475559e-06 1.4016884e-07 2.0829157e-05
1.1579232e-05 5.9842703e-05 9.642979e-06 0.00010662073 3.056342e-07 7.827989e-06 1.9285743e-07 1.87569e-05
1.58033e-05 6.6504144e-05 9.7257725e-06 0.00012133868 9.805732e-07 7.925485e-05 2.56357e-06 0.00022452242
1.2996154e-06 1.3909307e-05 1.0730838e-06 3.16626e-05 2.9694056e-05 0.00019504613 1.5886331e-05 0.00044261545
6.010063e-07 1.9612558e-05 4.0773207e-07 4.9198243e-05 1.9018534e-08 3.8039693e-07 3.720303e-09 7.6853667e-07
8.311039e-06 4.5644196e-05 6.3464977e-06 0.00011589661 2.8043978e-05 0.00024036618 1.919795e-05 0.0005355108
4.838988e-10 5.1895004e-08 5.7057065e-10 1.16135865e-07 2.0386362e-06 7.961818e-05 2.9178207e-06 0.00020848839
2.1003718e-06 9.018331e-06 3.2531148e-07 1.18667995e-05 1.306177e-07 9.093176e-06 1.7908766e-07 2.1400976e-05
1.8345852e-05 0.00010842337 1.45549375e-05 0.00024591552 1.6771646e-05 0.00010076361 1.2361169e-05 0.00020966039
7.25996e-06 3.6384907e-05 7.140197e-06 9.433408e-05 1.8812187e-06 1.35314685e-05 2.0030968e-06 3.648085e-05
9.6062344e-08 9.382114e-06 1.5974608e-07 2.2611533e-05 6.202323e-09 4.0878234e-08 4.5143707e-09 4.8164754e-08
1.582172e-05 0.00016760225 1.877646e-05 0.00045060713 6.9132193e-06 4.152151e-05 4.871852e-06 8.7281594e-05

exp_avg f4 [128]
00000000: 7d1c a23b 3e5f b836 a0b5 8d3b 78d5 d9b8
00000010: fd00 1aba 7b81 93bc 9429 8e3a 482e 9dba
00000020: a0fa ddba 5761 b0bb 1bf1 4bbb 06f7 c9b9
00000030: da2d 76b9 4654 dbb9 9cb1 fcb9 5381 98b9
00000040: 0fd2 4c39 57f7 233c 2d0a 23bc 142b 443b
00000050: 6aae 813a 0b48 9e27 08ab 8136 5743 e439
00000060: e33a c838 83de 6d3b 9e8c 4dbc 9ab2 0dbb
00000070: 6ba6 df3b dc74 e9b9 615b 48bc de96 95bb
00000080: 8241 9f39 dc7d b23a 6b1d e2b6 050b 953c
00000090: 3efc 8a39 1ac4 8d39 79f2 0c3a 0000 0000
000000a0: 37ec d83b 3216 3aa9 1d90 8d3a 09a1 6cbb
000000b0: e33b 2dbc 637e 5d38 0ff1 3b3b aaaa 81bc
000000c0: e145 70ba e7ee 1a39 7dd1 bb3b 6065 13bc
000000d0: 9ca2 c736 09b3 cf3a 0a82 10bc e6a3 5ab9
000000e0: e6ca c13b 30a0 c6bb b924 103c 2911 22ba
000000f0: 6a5d b6b9 56a6 21b8 b8a5 e7b7 d0aa b23b
00000100: 8431 1aba c76e 8c37 5b05 a3ba 3456 083c
00000110: 7c56 51bb 6f08 b036 5679 9636 3fc1 bcbb
00000120: 90b4 9abb 0f95 3634 e544 1abb e43d 6abb
00000130: fc7e 38bb 2b86 7d3b 6007 10bb 6f50 9db6
00000140: 0000 0000 151c adbb 1e8a 45bb e6f0 43bc
00000150: b88b beb9 697e 0bbb 4008 9eba 6c39 83bb
00000160: 0000 0000 dc00 c539 5508 a43b f032 863c
00000170: 69e6 553b 658e 1fbb 2cbc aabc d56a 033a
00000180: da9e 49bc 4708 473b d08d 6d3a 0e50 54b9
00000190: 2dab 09bc f3be abb8 fd7a 033c d7d3 6e3b
000001a0: ae15 f1b9 e4ef c539 c4a5 953a 8e49 1dbc
000001b0: 75eb aeb9 05a0 fcb9 8c87 ca38 5f85 1438
000001c0: cf98 b0ba 749b 1d3b 7b7f 023c ca0b acbb
000001d0: d379 9fb9 860f eaba 6803 013b 22ff e3bb
000001e0: 3218 5dba acf5 dabc 0eb6 14bb afad bc38
000001f0: 0d77 383a 1c6f 8cb9 510d 1137 f03f b4bb
0.0049472437 5.494715e-06 0.00432463 -0.00010387128 -0.0005874781 -0.018006077 0.0010846131 -0.0011991942
-0.0016935654 -0.0053826976 -0.0031119052 -0.00038521754 -0.00023477469 -0.00041833724 -0.00048197515 -0.00029088053
0.00019533209 0.010007701 -0.009951157 0.0029932903 0.0009893898 4.393192e-15 3.8644102e-06 0.0004353772
9.547712e-05 0.0036295957 -0.012545733 -0.0021621347 0.0068252585 -0.0004452829 -0.012228818 -0.004565104
0.0003037565 0.0013617831 -6.7387496e-06 0.018193731 0.00026509346 0.00027039723 0.00053767074 0.0
0.006619956 -4.1319548e-14 0.0010800395 -0.0036106727 -0.01057336 5.2808213e-05 0.0028677618 -0.01582845
-0.0009165686 0.00014775583 0.00573176 -0.008996338 5.9495924e-06 0.0015846203 -0.008820066 -0.00020851157
0.00591408 -0.0060615763 0.008797818 -0.00061823666 -0.00034783344 -3.8540304e-05 -2.7614515e-05 0.0054524913
-0.0005882012 1.6740885e-05 -0.0012437509 0.008321334 -0.0031942418 5.2461905e-06 4.4844737e-06 -0.0057603414
-0.0047212318 1.7004298e-07 -0.00235396 -0.0035742456 -0.002815186 0.0038684707 -0.0021977052 -4.6883283e-06
0.0 -0.0052828887 -0.0030142139 -0.01195929 -0.00036343723 -0.0021285063 -0.0012056902 -0.004004648
0.0 0.00037575408 0.005005876 0.01638171 0.0032638556 -0.0024346348 -0.02084168 0.00050131726
-0.01230594 0.0030369924 0.0009061964 -0.00020247718 -0.008402628 -8.1894825e-05 0.008024928 0.0036442184
-0.00045983255 0.000377535 0.00114172 -0.009600056 -0.00033363295 -0.0004818441 9.657358e-05 3.541016e-05
-0.0013473275 0.0024048956 0.007964964 -0.005250429 -0.0003041761 -0.001785741 0.0019685868 -0.0069579044
-0.00084340863 -0.026728474 -0.002269152 8.99689e-05 0.0007036783 -0.00026785664 8.645774e-06 -0.005500786

exp_avg_sq f4 [128]
00000000: 899b 9939 6aeb ec36 2419 b539 da22 8838
00000010: c994 2638 e66e 0839 a5c4 1939 2baf 6f39
00000020: c5a2 a639 2226 e136 d385 2439 a7a1 1f37
00000030: 2340 5639 8bab d237 1326 de39 e11b 8e33
00000040: ef0f 6038 6e64 033a d0bc db39 218e 2c3a
00000050: 7953 0a37 3c04 8a34 43b8 9237 2e72 c138
00000060: 8e2f 0a38 8716 7d38 787b d739 4a85 f938
00000070: 0e8d 2939 0943 3439 0fe3 2439 6cfe 4736
00000080: 9f6c 0d3a 2a4f e138 d3d3 2e37 a1f1 9b3a
00000090: d2f3 9036 f2a9 6339 2025 3d36 0000 0000
000000a0: e5df 4e3a a782 9136 1612 1e3a 0baf 4637
000000b0: 7dd3 293a 4f08 ee38 f932 a238 ce60 933a
000000c0: 4ce9 5137 faf3 f933 fea2 c739 7110 ba3a
000000d0: f5b8 8a32 4efc 5e39 4f63 cc37 9bb0 7537
000000e0: 5ab3 6d3a 8994 4b3a 6776 d839 1fc3 f338
000000f0: 7294 3637 5dd7 f633 dd98 843a feb5 a339
00000100: eab1 b537 aad2 1736 f5e5 a238 6f50 0d3a
00000110: fb0e ed37 d097 b537 9475 9f35 1908 9838
00000120: 89b9 f239 3462 4738 c92f 8738 07f0 343a
00000130: 7e65 2d3a 5e8b 6d39 d155 7d37 7264 742e
00000140: 0000 0000 8c32 8a39 d390 6f39 ca99 393a
00000150: c332 d534 1081 d138 f2f8 c637 0a40 ad39
00000160: 0000 0000 1d35 0034 8627 dd38 d425 f33a
00000170: 6ea7 d838 e9cc 5d37 034e 823a 4f0b 5938
00000180: 98a6 c837 9111 9f38 78a0 9537 01c8 8936
00000190: 4a66 7c3a 5b6f 0c38 0e63 513a 4f00 e238
000001a0: a252 4539 e0f6 7c38 ec3c c639 d5e5 853a
000001b0: 2810 2d37 3375 f639 7c7a 8f39 b727 0b2f
000001c0: 8e3b 0239 1196 8038 c74d 613a d9c0 ed37
000001d0: 274c 4437 5e9f 1c38 8e34 0439 2fdf c339
000001e0: 10b5 8739 d1b7 0d3a d55e 203a d12f db34
000001f0: c0d4 3437 bb4b a133 660e af35 5e16 5439
0.00029298317 7.060754e-06 0.00034541741 6.491477e-05 3.971605e-05 0.00013011284 0.00014664473 0.00022858071
0.0003178326 6.709962e-06 0.00015690112 9.514776e-06 0.00020432523 2.5113832e-05 0.00042371507 6.6174614e-08
5.34206e-05 0.00050122186 0.0004191161 0.0006582458 8.244876e-06 2.5707584e-07 1.749036e-05 9.224225e-05
3.2946053e-05 6.034088e-05 0.00041099987 0.00011898072 0.00016169643 0.0001719111 0.00015724845 2.9801404e-06
0.0005394909 0.000107435815 1.0420527e-05 0.0011897573 4.319919e-06 0.00021711717 2.8184804e-06 0.0
0.0007891639 4.3365467e-06 0.00060299167 1.1842475e-05 0.00064783526 0.00011350272 7.734256e-05 0.001124406
1.2511689e-05 1.1639345e-07 0.00038077676 0.0014195574 1.6149423e-08 0.0002126556 2.436494e-05 1.4644257e-05
0.0009067558 0.0007765969 0.00041286947 0.00011623487 1.0882608e-05 1.1494442e-07 0.0010116358 0.00031225377
2.165973e-05 2.2623376e-06 7.767595e-05 0.00053907087 2.8259577e-05 2.1647575e-05 1.1880643e-06 7.249433e-05
0.0004629607 4.7536756e-05 6.446202e-05 0.0006902222 0.000661455 0.00022654 1.5099956e-05 5.556839e-11
0.0 0.00026359071 0.00022846767 0.00070801063 3.9711276e-07 9.9899364e-05 2.3719364e-05 0.00033044844
0.0 1.1940251e-07 0.00010545463 0.0018550702 0.00010330869 1.3220336e-05 0.0009941462 5.1747364e-05
2.3919434e-05 7.584983e-05 1.7836908e-05 4.1062017e-06 0.00096282794 3.348231e-05 0.00079874776 0.00010776577
0.00018818167 6.0311402e-05 0.00037810893 0.001021559 1.0315365e-05 0.00047008097 0.00027366343 1.2656086e-10
0.00012419952 6.131468e-05 0.00085946586 2.8342403e-05 1.1700241e-05 3.734172e-05 0.00012608079 0.00037359583
0.0002588411 0.0005406114 0.00061176467 4.082672e-07 1.0778371e-05 7.510922e-08 1.3042707e-06 0.00020226228
