demo/base/ac/a2c.pt (torch, 26717 bytes, 21 tensors)

fc1.weight f4 [128, 4]
00000000: 4784 58bd 8a6a 7e3d de0f 7bbf a8bc 11bf
00000010: 3b08 1fbe 7604 1d3e 51ef 05bd 000d c03e
00000020: c18d e8bd 41a6 46be 6151 73bf 14af bbbe
00000030: 373e 03bf 157e bfbe 6548 0fbf cc78 c1ba
00000040: 56f3 363e 4db8 8a3e 8e65 97be 9381 3abe
00000050: 5c67 433e 618a 2e3f 9730 583f aa58 383f
00000060: c861 50be 5540 59bd 0ef0 763e e2e9 e4be
00000070: ed3c 9abe f634 f1bd 28de a2be 0103 c73e
00000080: 008f d2be 880e c0be 5d00 3cbf 35ae debe
00000090: b115 1dbe cf42 483f 184e a53f 73a3 243f
000000a0: ea3a 43bd 0196 10bf 0b45 4abf 49e4 31bf
000000b0: 0193 a2be 907f 74be a079 8b3e b436 893e
000000c0: 3c57 0cbe 97ef cb3c 3a4a 8a3e 1508 ea3e
000000d0: 34ab 503e 361a 393d d5df bb3e 6213 88be
000000e0: 4252 7ebd f22e e4be 375f a7be 2522 3dbe
000000f0: 05f4 a83e 5597 d53e 8fc6 543f 28dd 933e
00000100: 34ac 8c3e 05cf 38bd 180c bfbc f065 b53d
00000110: 8e0b af3e 840b f13e e06e 23bf f479 9cbe
00000120: 0378 2c3e f56b 163f ea85 913f 15e0 2d3f
00000130: c8ba 903d 24ed 0dbf 52f4 10bf 0edb f9be
00000140: fe1d e1be 483d d23e 0af5 4d3e 55db 0ebf
00000150: ad7d b83d fce5 b5bd e9b9 a3bd 2e93 66be
00000160: 54ff 4c3e 5629 8bbe 9cde 1e3e 4725 683e
00000170: 0afa 863e 59af ed3d 6149 27bf b1ae 9dbe
00000180: 28c6 5c3e 007f 9e3d 3530 c9be c3e7 87be
00000190: 111f f53e e5ce b33e c218 c6be 601f 5abe
000001a0: d565 f7be bd27 8fbe b6c8 90bf 7c9f 14bf
000001b0: d00c a33d f893 183e de25 c93c 6861 973e
000001c0: 81f1 81be 82c3 dd3e f6fb fb3c 384f 15bf
000001d0: 141e 653d e672 023e bf3f cc3e 7d6f fb3d
000001e0: 68f2 8c3e 98cd 543e 497c cd3e 5357 ad3e
000001f0: 9901 18bf 68f3 0dbf f3d5 69bf c06c e7be
00000200: 9da3 17be 4f32 a4be 37fc 863e c56d 903e
00000210: 8a64 aebe 755b 89bd 4589 79bd a5c1 36be
00000220: 48ae 0ebd f948 cabd d678 1f3e 0f8f ba3e
00000230: 7ef1 023f 9514 953e 5133 2e3e 96f4 49be
00000240: 020f c2be e04e 52be e4bb df3e 9f76 1c3d
00000250: d74a c4be bf53 09bf 56ec 3dbf fb1f bdbe
00000260: 67b6 84bd 6f09 863e a404 363e bb34 05bf
00000270: 2303 5b3e 0875 38bf 9a74 50bf 3092 39bd
00000280: e9bb eebd 7323 84be 623a 90bf f449 3cbf
00000290: 1e11 76bd 63e6 c03c 08b1 77be a317 303e
000002a0: 96b0 e4be e1a1 7abe 731f 61be 3ae1 f2be
000002b0: 03bf 133f 20e1 b63e bb2f 4f3e 179a b13e
000002c0: e65f 47bd f83e fabe bbb3 d5be 50d4 2bbf
000002d0: f1e5 843d 2974 98bd 1da4 a13e 2d9e dc3d
000002e0: c099 a33d 8452 7dbd 7625 3cbf c8fe 74be
000002f0: faff 9bbe 9afa f53e ca46 8c3f d378 073f
00000300: 14dc b4be 228d d03c 08a9 d2be 02f5 9cbe
00000310: 81b6 8ebe c9c0 783e 93e8 f5bd 3c91 5b3c
00000320: eb00 953c 2edf 543e 28cc 56bf 004d 09bf
00000330: 03a7 7cbe 0820 013f b2f6 e13e 758e 1d3f
00000340: d9d3 243e 9006 ce3c 2d0b 7c3c e13c b2bd
00000350: fed4 0e3d a886 17be 233d c5be acab 07bd
00000360: 805d 09bf f33d 16bf 9042 05bf fda7 14bf
00000370: 90ad 133d 2cda 1d3f 409a 763f fbd5 b03d
00000380: bbfc dfbe 1a00 f93d 5fa1 6bbf 0c4b c8be
00000390: bfe8 e0bd a4e8 133e f766 173f c96b 1b3f
000003a0: ef7a 8a3d 7f23 a53e 6ddf 1cbe 9d42 11bf
000003b0: 7af7 9b3e ccbe 68be f50f 213e 1cc0 9b3e
000003c0: 4d37 2b3e 6a30 d83e e116 333d 1659 f93b
000003d0: aed8 a93a 07c1 55bf 1db7 3ebf 424b 26bf
000003e0: 16b9 b83d 7ed4 203d 28a7 1e3e a4a7 4a3e
000003f0: fcaa 823e 3af3 b8be 4759 85bf 7a65 f5be
-0.052860525 0.062113322 -0.98071086 -0.5692849 -0.15530483 0.15333733 -0.032698933 0.37509918
-0.113551624 -0.19399358 -0.9504605 -0.36657012 -0.5126681 -0.3740088 -0.5596984 -0.0014760732
0.17866263 0.27093735 -0.29569668 -0.18213491 0.19082397 0.681799 0.8444914 0.7201029
-0.203498 -0.053039867 0.24115011 -0.44709688 -0.30124608 -0.117776796 -0.31810117 0.3886948
-0.41124725 -0.37511086 -0.73438054 -0.43492284 -0.15340306 0.7822694 1.2914457 0.64311904
-0.047663607 -0.5647889 -0.790116 -0.6948896 -0.3175278 -0.23876786 0.2724123 0.26799548
-0.13705152 0.024894519 0.27009755 0.4570929 0.20377809 0.045191012 0.36694208 -0.26577288
-0.062090166 -0.44567066 -0.3268983 -0.18470056 0.32998672 0.4171702 0.83115476 0.28879666
0.2747513 -0.045119304 -0.023321196 0.08857334 0.34188503 0.47079098 -0.63841057 -0.30561793
0.16842656 0.5875848 1.1368992 0.6792005 0.07066876 -0.5543997 -0.56622803 -0.48799938
-0.43968195 0.4106238 0.20113006 -0.55803424 0.09008346 -0.08881757 -0.07994444 -0.22517082
0.20019275 -0.27179974 0.15514606 0.2267047 0.2636264 0.116057105 -0.6534634 -0.3079734
0.21559966 0.07739067 -0.39294592 -0.26544008 0.47875264 0.35118786 -0.38690764 -0.21301031
-0.4831988 -0.27960005 -1.1311252 -0.58055854 0.07961428 0.14900196 0.02455419 0.29566503
-0.25379565 0.43313223 0.030759793 -0.58324003 0.055936888 0.12739143 0.39892384 0.12277124
0.2752869 0.20781553 0.40133885 0.33855686 -0.5937744 -0.55449533 -0.91342086 -0.45200157
-0.14808507 -0.32069632 0.263643 0.28208748 -0.3406108 -0.06706897 -0.060921926 -0.17847307
-0.034834176 -0.098772 0.15573439 0.3643727 0.5114974 0.29117265 0.17011763 -0.19722208
-0.37902075 -0.20537901 0.43698037 0.038199063 -0.38338348 -0.5364341 -0.74188745 -0.36938462
-0.06480103 0.26179072 0.17775208 -0.52033585 0.21387915 -0.72053576 -0.8142792 -0.04530543
-0.11656935 -0.25808296 -1.1267817 -0.73550344 -0.060074918 0.023547357 -0.24188626 0.17196517
-0.44665974 -0.24475814 -0.21984653 -0.4743746 0.57713336 0.35718632 0.20233051 0.34687874
-0.04867544 -0.48876166 -0.41738686 -0.6712084 0.0648917 -0.07444031 0.3157052 0.10772357
0.0798831 -0.06184627 -0.7349466 -0.23925316 -0.30468732 0.48042756 1.0959103 0.5291874
-0.35324156 0.025457922 -0.41144586 -0.30655676 -0.27873614 0.24292292 -0.12007251 0.013401326
0.018188914 0.20788261 -0.8390527 -0.5363312 -0.24673085 0.504395 0.44133526 0.615455
0.16096438 0.025149614 0.015383524 -0.08703018 0.034871094 -0.14797461 -0.38523206 -0.033122703
-0.53658295 -0.58688277 -0.5205469 -0.5806883 0.036054194 0.6166103 0.96329117 0.086345635
-0.43747506 0.121582225 -0.9204311 -0.39119756 -0.10981893 0.14444214 0.59141487 0.6071134
0.06761729 0.32253644 -0.15319605 -0.5674227 0.30462247 -0.22729033 0.15728743 0.30420005
0.16720314 0.42224437 0.04372299 0.007609497 0.0012958252 -0.8349766 -0.7449816 -0.64958584
0.09019677 0.03926515 0.15493453 0.19790512 0.25521076 -0.36123067 -1.041787 -0.47928983

fc1.bias f4 [128]
00000000: f952 0d3e 8c6c 63be 5ca9 413e 8f3f 2a3e
00000010: bfd1 91be d3c7 8c3e 1840 853e acc7 d8bd
00000020: fa51 1f3e d6ae 693e 2a01 7b3e c016 cebe
00000030: 2720 babe c23e 90be f35b e63e db4f f33d
00000040: 03b0 4cbd f0c4 04be 012e 073f 6dd2 eb3e
00000050: 5c7a aabe 2323 d1be 1045 d4be 4033 81bc
00000060: 0467 1dbe eb98 84be 1747 4d3e a08d 873d
00000070: fdcb 14be 63fd 9a3d 3386 033e cf17 fe3d
00000080: 6f9b 123e 5539 b83e 5cad 83be 119c 143d
00000090: 9a02 3dbe 2681 f63e c8d4 dfbe 930f 7fbd
000000a0: e6c1 f83e 7bc4 a9be c29e 2c3e 1e31 ef3d
000000b0: f29d 463e 9c36 27be aff9 923e 0430 6f3e
000000c0: 4d7e dfbe e0d9 9dbe 330e 693d 5715 983e
000000d0: 3dca b9be 55d6 dd3e 9fe3 223e 1d41 1d3e
000000e0: 5bd0 c83e f119 ab3e 9bbe c93e 3b31 853e
000000f0: 45e4 99bd 9eda 1a3e 9c20 883d b38d c13e
00000100: 8296 34be 0573 f3be 412f 263e ba99 ef3e
00000110: d361 a03d 1c56 dcbe d8c3 fbbe 7537 4b3e
00000120: aef3 f83d b56e 92be 391d 3a3e e15b 483e
00000130: ba2f da3e 5b1b b03e 6194 ea3d c2ff f7be
00000140: d853 e7be 9d8d f93e 5b58 9a3e 7fdf 813e
00000150: fb91 8bbe f66a dc3e 8888 dc3e 8977 e43e
00000160: 30f5 d7be c42f 143e 897c a1be 713f fb3e
00000170: 9ca0 22be 6717 f53d 7fdd b63e 9452 95be
00000180: 4aa6 6d3e 576b 823d 0349 9cbd 761b b6be
00000190: e63b e53e 91aa 6c3c 2bb3 723e 1eaf d23e
000001a0: fb32 4b3e 998b 823c 77ca cc3e d55f 123e
000001b0: f175 85be 85c3 f03e 5515 6a3e ee42 dabe
000001c0: 42ae 49be 217e c4be f43b dc3e bfc1 fe3d
000001d0: 9a0b f3be 76d9 203e 92ec 983e 1f44 4c3e
000001e0: 0069 513e 28b0 723e 9420 523e cea1 ecbd
000001f0: 7a2a 81bd 75c8 8cbe 70ef d6be 4111 763e
0.13801183 -0.22209376 0.18912262 0.16625808 -0.28480336 0.27496204 0.26025462 -0.105849594
0.15558615 0.22820601 0.24512163 -0.40251732 -0.36352655 -0.2817288 0.44992027 0.118804656
-0.049972545 -0.1296575 0.5280457 0.4605898 -0.33296478 -0.4084712 -0.4145894 -0.015771508
-0.15371329 -0.25897917 0.2004665 0.0661881 -0.1453094 0.07567861 0.12844162 0.12406885
0.14317106 0.3598124 -0.257182 0.03628165 -0.18458024 0.48145407 -0.43717027 -0.062270712
0.48585433 -0.33157715 0.16857436 0.1167929 0.19396189 -0.16329426 0.28706118 0.2335816
-0.43651047 -0.30830288 0.056898307 0.2970378 -0.36287108 0.43327585 0.15907143 0.1535687
0.39221463 0.3341823 0.39403233 0.26014122 -0.07514242 0.15122458 0.06646845 0.3780342
-0.17635539 -0.4754869 0.16228963 0.46796972 0.078311585 -0.43034446 -0.49172854 0.19845374
0.12155853 -0.28600088 0.1817521 0.19566299 0.42614537 0.3439587 0.11454082 -0.48437315
-0.45181155 0.48740855 0.30145535 0.25365826 -0.27259812 0.43050355 0.43072915 0.44622448
-0.4217925 0.14471346 -0.31540325 0.4907184 -0.1588158 0.11967354 0.35715863 -0.29164565
0.23207965 0.0636813 -0.076311134 -0.35567826 0.4477226 0.014444963 0.2370116 0.4114923
0.19843666 0.015935706 0.39998218 0.1429437 -0.26066545 0.4702417 0.228597 -0.42629188
-0.1969538 -0.3837748 0.4301449 0.12439298 -0.4746979 0.15707955 0.2986799 0.19947861
0.2045021 0.23700011 0.2052024 -0.11554299 -0.0630693 -0.27496687 -0.4197955 0.2403002

fc2.weight f4 [2, 128]
00000000: 00ef b93d 0d0d f7bb b4ad 703e 3557 193d
00000010: 4ef2 debc f113 7bbe 728f b53c 291a 283d
00000020: 5043 0b3e dd5e 08bf 55e6 8f3e cbdc 6dbd
00000030: 9b49 503d 8c7e 1ebd 365e ac3b ac51 72be
00000040: 6681 d5bc 3479 063e 5fe5 65be 3e2e 0b3e
00000050: 659c 883b f9ac 45bc a04a 5b3d d2c0 703c
00000060: bc11 713d c747 d83d c802 873e 0aaf e6bc
00000070: ef97 6c3c e722 99bd 6b42 87be 6e6f 5b3e
00000080: 2a04 51bd beb8 ff3c 8199 813c 4528 653d
00000090: c5d7 8bbc b959 fd3d a5a0 bf3d b59b 773e
000000a0: 2d98 773e 860d 1dbd a1b8 303e 5791 00be
000000b0: 8e6c b23e eaf3 223d 691c 853d f1d0 b2be
000000c0: 067a 8e3d 2a25 efbb 582f 173e 68fe 79be
000000d0: 5fd7 813d c1d9 953d b5e2 7f3e a0eb 60be
000000e0: deb1 383e 2424 4abe 5cbc 903d 1eb0 3cbd
000000f0: 4eb1 6bbd fa3e 143f ca95 30be bc39 233e
00000100: 146c 92bb f9ef e7bb fd47 6cbd e946 2f3e
00000110: 7402 a93d 7d9f 613d 6593 a2bc 1c6e 49be
00000120: 72cb 87be 28b5 6ebd 2384 7f3e b9a3 03be
00000130: 3d0c 9fbd 03b7 1c3e 0b83 d3bc 61c5 b43d
00000140: 4fcf 923d ef10 1dbe 58c3 753e 8bbe 24be
00000150: 7ccb f6bd 3f1c cbbd b0c6 54bd a6e4 4abe
00000160: 7e1b 5b3d d060 febe ec05 dabc 176d ee3d
00000170: 01db 59bd 78ce 963e 4883 94be e68b 293d
00000180: e7f9 c8be 85f9 bc3c f371 6e3c bd09 98bd
00000190: 62ef 47be 301e 8ebd fdbd 543e 896b ba3d
000001a0: 96b3 4bbd 0148 0c3d 8ad9 633e fb42 9dbe
000001b0: 4602 403c f1c5 3d3d 8b52 f9bd d506 c5bd
000001c0: d85b 173d a7a9 1c3d 9b7f e83d 562f 563e
000001d0: c7ea 71bc 124d 04bd 92a7 b23d f3bb 9cbe
000001e0: 36c7 2dbd 4299 a7be db0c 2ebe dcb8 853d
000001f0: 4a79 04bd 54e4 40be c895 dabc 0128 0abe
00000200: 3d00 58be 8ef3 b7bb 6b1a 36be 2671 debd
00000210: cc6d 963c ff5f c03e c288 99bc e148 cabc
00000220: b23b f2bd 9707 eb3e bb34 14be 91c0 80bd
00000230: a1b9 62bd c2b7 033d 74de 8fbd 54ba 4e3e
00000240: 49d2 0cbc 7234 b2bd 0539 203e 6ffb 42be
00000250: 190e b2bc 97be 0b3c 9a70 3a3c 9ed9 5fbd
00000260: 9ce7 0c3d c53e 853a c2cb 9dbe 4072 773d
00000270: 2423 c9bd 435d ad3d a563 283e e57c 78be
00000280: c73d 993d 3b47 25bd a6ed b63d 9c36 4dbd
00000290: f817 883b 119d 43bd f8ad 603d 6643 a2be
000002a0: d120 18be 73ed 24bc 6df3 64be 07df b83d
000002b0: 3af9 91be 492f 27bd 8cef 83bd 00e8 a03e
000002c0: 153c 78bd 2575 db3d 3291 f1bd 023a 6b3e
000002d0: 37ed a53d 06eb 86bc 3fd9 46be b1fb e43d
000002e0: 0d61 06be 0b63 ef3d 9a7f 50bd 8010 d13c
000002f0: 3d1a 173d be83 0bbf eb00 193e 46ee 20be
00000300: 22e8 2ebd c5d4 10bd 7fb9 a2bb 462a 76bd
00000310: fc36 e8bd abad 0abd 8538 aebc 541d 363e
00000320: 7c68 303e 321d 0f3d 30ff 21be 5541 0f3e
00000330: 7cf5 f63d 7762 1abe 503e fe3d f39b 563d
00000340: 9048 853b 4471 d73d d97c 80be 39da 2d3e
00000350: f9e2 053d 45d3 953d 4797 313e 2d74 4e3d
00000360: 80bd b93a 471a d23e 00ba 8a3d 23a3 03be
00000370: 83be b13d 35d3 4bbe 1b12 7c3e 3207 e53c
00000380: 35ac ef3e ce7f 00be 8f16 8b3b 65c1 dfbc
00000390: cd3d e73d fe7c c03d bae4 00be feea 07be
000003a0: a7ed 413b 485d 3d3d cc7f 2abe ad54 8c3e
000003b0: 3cb9 3d3d 31d0 403c 8fae e8ba 6cd0 b93d
000003c0: fa0e c0bb 974f 39bd 1faa 2dbe d15b d9bd
000003d0: c6ab e53c 5d03 163e c760 99bd dcaf 323e
000003e0: 87c6 853d e3d7 ec3e 98bd 273d 77f2 be3d
000003f0: 18ef b23d 3c28 413e aa92 f7bc 1734 813e
0.09078789 -0.0075393976 0.23503762 0.037436683 -0.02721515 -0.24519326 0.022163127 0.041040573
0.13599896 -0.5326975 0.28105417 -0.058071893 0.050851446 -0.038694903 0.0052602543 -0.23663968
-0.026062679 0.13132173 -0.2245078 0.13591859 0.0041690343 -0.012065166 0.053537965 0.014694409
0.058854803 0.105605654 0.2636931 -0.028159637 0.014440521 -0.0747736 -0.2641786 0.21429226
-0.05102936 0.031216022 0.015820267 0.055946607 -0.01707066 0.12370629 0.093568124 0.24180491
0.24179144 -0.038342975 0.1725793 -0.12555443 0.34848446 0.039783396 0.064995594 -0.34925035
0.06956868 -0.0072981315 0.14764154 -0.24413455 0.06339907 0.07316924 0.24988826 -0.21964884
0.18036601 -0.19740349 0.07067177 -0.046066396 -0.057542138 0.57908595 -0.1724464 0.15939993
-0.0044684503 -0.0070781675 -0.05768584 0.17116894 0.08252421 0.05508374 -0.019845674 -0.1967091
-0.26522404 -0.058278233 0.2495275 -0.12855424 -0.07766006 0.15304188 -0.025819322 0.088267095
0.07168447 -0.15338491 0.24000299 -0.16088311 -0.1205053 -0.09917497 -0.051947296 -0.19813785
0.053493015 -0.49683237 -0.026614152 0.11641901 -0.053187374 0.29454398 -0.2900641 0.041393183
-0.3925316 0.023068199 0.014553535 -0.074237324 -0.19524911 -0.069393516 0.207756 0.09102542
-0.049731813 0.034248356 0.22250953 -0.30715165 0.011719292 0.04633135 -0.12173947 -0.09620444
0.036952823 0.03824773 0.11352464 0.20916495 -0.014765448 -0.032300062 0.08723368 -0.30612144
-0.04242631 -0.32734114 -0.16997091 0.065294 -0.032342233 -0.188371 -0.02668275 -0.13491823
-0.21093841 -0.005613751 -0.17783515 -0.10861425 0.018362902 0.3757324 -0.018741969 -0.024692954
-0.11827792 0.45904228 -0.1447324 -0.06286729 -0.05535281 0.032157667 -0.070248514 0.20188266
-0.008595058 -0.087014094 0.15646751 -0.19041227 -0.021735238 0.008529327 0.011379385 -0.054650895
0.034400567 0.0010165802 -0.30819517 0.06041169 -0.09821156 0.08465054 0.16444261 -0.24266393
0.07482486 -0.040351134 0.089320466 -0.050100908 0.004153248 -0.047757212 0.05485341 -0.31692046
-0.14856268 -0.010066378 -0.22358485 0.09026914 -0.28510457 -0.04081658 -0.06442174 0.31427002
-0.060604174 0.10715703 -0.11795272 0.22971347 0.08101886 -0.01646949 -0.1941881 0.11180819
-0.1312296 0.11688813 -0.05090294 0.025520563 0.036890257 -0.544979 0.14941756 -0.15715894
-0.042701848 -0.035359163 -0.0049659605 -0.06009891 -0.113386124 -0.03385703 -0.021267185 0.17784625
0.17227358 0.034939952 -0.15820003 0.13989766 0.12058541 -0.15076624 0.12414229 0.05239482
0.004067488 0.105196506 -0.2509525 0.16977777 0.03268716 0.07315687 0.17342864 0.050403763
0.0014170855 0.41035673 0.06773758 -0.128552 0.08678915 -0.19904788 0.24616282 0.027957533
0.4681107 -0.12548754 0.0042446326 -0.027313897 0.112910844 0.0939884 -0.12587252 -0.13273236
0.0029591115 0.046231538 -0.16650313 0.27408352 0.04631923 0.011768387 -0.0017752218 0.090729564
-0.0058611603 -0.04524192 -0.16959427 -0.10613216 0.02803601 0.1464972 -0.07489162 0.17449898
0.06532007 0.46258458 0.040952295 0.0932359 0.0873701 0.18863004 -0.030221302 0.25235054

fc2.bias f4 [2]
00000000: d54e c1bd b4bd 2a3c
-0.09438864 0.010421205

fc1.weight f4 [128, 4]
00000000: 7e18 c13d 01ad e73e bad1 143d 34db 3e3e
00000010: 2dbd 143b d345 0b3e cbb3 a93e 8ecc fe3d
00000020: 7a07 bbbe 85bb 68be 9f47 88be 3e8c 87be
00000030: d44e 443e c81e 253e f167 cdbd 41a3 173e
00000040: 4018 ac3e 9434 623c 7d21 09bf 1b29 4ebe
00000050: 4884 853d 78b4 47be d108 693e 59d1 61be
00000060: 4912 0abf 3a16 8c3d 5def 7f3e 3206 6ebe
00000070: ad80 f43f b7aa e1bd 53da 3140 229f 45bd
00000080: c7f2 3140 568f 1bbc a883 d83f 2b69 943d
00000090: 9eb3 383e f899 dcbd bac9 b33e 7348 52bd
000000a0: 476e 35bd 484c 93bf 2dc0 20c0 8912 7fbf
000000b0: 4077 cdbd 31f2 3f3e 7cdb 93bc c334 0cbc
000000c0: b581 d8bf 0d29 95bf ec60 dcbf 0f50 47bf
000000d0: 9f91 8ebf 79fa 19bf 085c 54c0 bc5a 03bf
000000e0: d7d1 473f 49ad d1bd 16d3 93bf 91d5 d2be
000000f0: 5b47 6a3e 84e7 2f3d 6f2f 13bf d7fd bd3d
00000100: 4c9e f33e 76df b9be e34e 38bf ded6 9bbc
00000110: b5b0 e43e f34b babd 83ab 86be fc22 f33d
00000120: a792 0040 e5e4 913f 2856 4440 0745 613f
00000130: 78fe 55bf 6673 f23e b78e 2d40 c0bf 513f
00000140: a97d 62bf a5ca a6be 22ba 29c0 2a95 33bf
00000150: 6dbe 7cbf 05ce 87bf 571f f8bf 80d7 59bf
00000160: b4a4 97be 15c5 a53d b076 eabe 2638 173e
00000170: eaee dbbd d1e7 9f3e 4f68 92bd 1cbb 0cbe
00000180: 16f6 e23f e63f afbe 46f1 cfbf bc29 00bf
00000190: ceca f4be 4845 20bf 6c35 3cc0 e956 d5be
000001a0: 1e80 953e e1cd 97be bff2 1fbf 889b 203e
000001b0: bd31 82bb 2646 e2bc 00e8 6c3e 88ae 6abe
000001c0: 9b2c 663f 4956 9ebe f5f4 dcbf 0263 30bf
000001d0: 22eb 3bbe 1d90 bd3d d14f 993e c70c 073e
000001e0: fc69 73bf 6977 bbbe 3d18 1fc0 d3d9 cbbe
000001f0: 4369 c8be ef61 84be 9524 71bd 8ebe 70be
00000200: b3f3 103e aae3 583f edcd 133e 4cad 443f
00000210: de58 843f 9235 9fbe 76fb 02c0 c74b 1bbf
00000220: 3a95 d9bd 5931 24bc 8fad 09bf 9fc0 09bc
00000230: 04a3 c3be ffb0 ef3e f884 29bf fe7a 8c3e
00000240: a640 683d 8c60 dabd c5a7 033e 8881 ebbd
00000250: 8c9d 8f3d 5f7e cb3e e73a 2fbf 1f46 ad3e
00000260: 3f59 613e 093c 8cbd 1d3b 3abe ea0e 483e
00000270: a7d6 1ebe c399 ba3e d4d6 3b40 c894 473f
00000280: b673 d83e 1f8a 403d 1ef5 13bf acc7 393e
00000290: a53d a03d f785 6e3e 377f 86be e32f a4bd
000002a0: f2f4 5f3e bccf efbd 4590 63be 80bd 963c
000002b0: 1498 483c 00e1 b7be f73b 0b3e f8d1 61be
000002c0: 9402 ce3e b4c3 e3be fed2 33bf b130 20be
000002d0: 71d1 af3f b27e 9bbe 266a c6bf b5d1 11bf
000002e0: fc2c 053d 4cb9 533d ac2d 853d 32b0 8e3e
000002f0: 0f99 98be 6778 48bf 480a 1dc0 259c 2ebf
00000300: e7ee 8f3f 80cd b03f fc78 2040 bd0a 8a3f
00000310: 0bd2 9ebe bd15 97be 245c 1ebe 9732 b0be
00000320: 0098 a3bb 006e 4ebd 20fc 37bd b0b3 ccbd
00000330: bf24 0740 401f 883f c257 0140 531f 4e3f
00000340: 7d82 84bc e77c b1be 32da 49bd 9ca8 81bd
00000350: 6c6b 8fbf 119c 9ebe fe9c 303e a04b d93d
00000360: ed1b 86bf f61d 9fbf 1276 2dc0 80fe 69bf
00000370: 6bb9 e8bf b6ee 8ebf 8e63 07c0 ad71 5dbf
00000380: d83d a4be 6056 cc3c 153a 2bbf c950 87bd
00000390: be2c 68be 16d8 d6be 748f 00bd 6643 c5be
000003a0: c9c3 a3be 9061 e63e b44f 67be e385 9a3e
000003b0: d3ef 0b3e d786 463e 08aa 2140 8467 063f
000003c0: adb0 023f b4e8 ebbe a75c 0fbf 7df4 963d
000003d0: 9b36 a1be 9503 06bf 5a27 fc3d 4f43 b1be
000003e0: 868c c0bd 46d9 0dbf f955 a53d ca8d a6be
000003f0: 47b0 af3e 5e5e d0be 34b2 24bf e511 5bbd
0.094285 0.4524918 0.036332823 0.18638307 0.0022695765 0.13600855 0.33144984 0.124413595
-0.36529142 -0.22727783 -0.26617143 -0.26474184 0.19170696 0.16125023 -0.10029591 0.1480837
0.3361225 0.013806481 -0.53566724 -0.20132868 0.06519371 -0.19502437 0.2275727 -0.22052516
-0.5393415 0.06840177 0.24993654 -0.23244551 1.9101769 -0.110188894 2.7789505 -0.048247464
2.780443 -0.009494623 1.6915178 0.07246622 0.18037269 -0.10771555 0.35114843 -0.051338624
-0.04429462 -1.1507654 -2.5117295 -0.9963766 -0.10032511 0.18744732 -0.018048994 -0.008557501
-1.6914583 -1.1653153 -1.7217078 -0.77856535 -1.113819 -0.60147816 -3.3181171 -0.51310325
0.78054565 -0.1023813 -1.1548793 -0.41178563 0.22878782 0.0429454 -0.5749425 0.09276932
0.47581708 -0.363033 -0.7199537 -0.019023355 0.44666067 -0.090965174 -0.26302728 0.11871907
2.008951 1.1397978 3.0677586 0.8799595 -0.83591413 0.47353667 2.7118356 0.8193321
-0.8847299 -0.3257648 -2.6519856 -0.7014948 -0.98728067 -1.0609747 -1.9384564 -0.8509445
-0.29617846 0.08094231 -0.45793676 0.14767513 -0.107389286 0.3123155 -0.071488015 -0.13743252
1.773135 -0.34228438 -1.6245506 -0.5006368 -0.47810978 -0.62605715 -2.9407606 -0.4166787
0.29199308 -0.2964926 -0.62479776 0.1568433 -0.0039732144 -0.02762134 0.23135376 -0.22918141
0.8991181 -0.30925205 -1.7262255 -0.68901074 -0.18351415 0.09256003 0.29943708 0.13188468
-0.95083594 -0.3661454 -2.4858544 -0.39814624 -0.39142808 -0.25855967 -0.058872778 -0.23510191
0.14155464 0.8472239 0.14434023 0.7682693 1.033962 -0.31095558 -2.046598 -0.606625
-0.10624166 -0.010021531 -0.53780454 -0.008407741 -0.3821031 0.46814725 -0.6621852 0.27437586
0.05670228 -0.10662946 0.12856968 -0.114993155 0.070124716 0.3974485 -0.6844925 0.3384256
0.22006701 -0.06847388 -0.18186612 0.1953694 -0.15511571 0.36445436 2.934987 0.779614
0.4227578 0.047006723 -0.57795894 0.18142575 0.07824258 0.23293291 -0.26268932 -0.08016946
0.21870783 -0.11709544 -0.22223003 0.018400908 0.0122432895 -0.3591385 0.13597094 -0.22052753
0.40236342 -0.44485247 -0.70243824 -0.15643574 1.3735791 -0.30370098 -1.5501144 -0.5696061
0.032513604 0.051690385 0.06502852 0.278688 -0.29804274 -0.7830872 -2.4537525 -0.6820701
1.1244782 1.3812714 2.5073843 1.0784527 -0.31019625 -0.29508772 -0.15464836 -0.34413597
-0.004992485 -0.050397873 -0.04491818 -0.0999521 2.1116178 1.0634537 2.0209813 0.80516547
-0.016175503 -0.34665605 -0.049280353 -0.06330988 -1.1204658 -0.30978444 0.17247388 0.106101274
-1.0477272 -1.2431018 -2.7103314 -0.9140396 -1.8181585 -1.1166599 -2.1154513 -0.8650158
-0.32078433 0.02494353 -0.668855 -0.066072054 -0.22673318 -0.41961735 -0.031386808 -0.38527983
-0.3198531 0.4499631 -0.22588998 0.30180272 0.13665704 0.19387375 2.526003 0.525017
0.51050836 -0.46075976 -0.5600075 0.07370851 -0.31486973 -0.52349216 0.12312193 -0.34621665
-0.09401803 -0.5540966 0.080730386 -0.3253005 0.34314176 -0.40696996 -0.64334416 -0.053483862

fc1.bias f4 [128]
00000000: 03c4 953f 651f 2a3f 7f16 a93f dc05 9b3f
00000010: 709f c43f 6208 873f 0789 aa3f c1aa ad3c
00000020: 69c9 c03d 8e60 083f 55a7 d3be fe46 20bf
00000030: cd81 55be 1763 0dbe 1c4a edbe de97 843f
00000040: e18e a33f 00d3 a13f 1f71 4a3d 8919 2bbf
00000050: 57bf 03bf 2e34 85be 3b9d a93f 6be1 d63d
00000060: f8fc 41be af16 bbbd 5118 4a3f 5e9f 4fbf
00000070: 7a05 18bf bc7d 973f ba33 bbbd 4472 183f
00000080: 0406 c9bc 9b21 14bf ada3 553f f959 6f3f
00000090: d614 c5be 92c8 083f 55ac 7b3f 1f3a 22bf
000000a0: 36be b23f 2fa5 c23f e088 a73f 6f27 6e3d
000000b0: a12d 713f fc8c c8be 5ad9 acbd 5075 b6be
000000c0: 9487 59bd e82b a43f fc4b 69be 9028 cd3c
000000d0: 131b 55bd c5fa 17bf 6a87 32be f18a 98bd
000000e0: f7e1 a13f 37c9 a13f 9488 953f 79bc d7be
000000f0: 7b0f 853f 2a1f 593f 8161 a53f 3976 b63f
00000100: 29c9 833d 119b e5be ee05 ccbd 3352 a0be
00000110: 742d c13f bd02 923f c80b a03f 354f b03f
00000120: 8682 8a3f d8b0 2cbf 0651 ac3f a19e b53f
00000130: 477b 5f3f 2047 a3bc 9d9a af3f f938 723f
00000140: b53e 883f 0ff8 973f 7c21 af3f 7a8f 35bf
00000150: 4bcb efbe fa0a a53f c9cc 483f d3bc 12bf
00000160: a5e7 c83f fdd7 823f 22ec b53f 0866 023e
00000170: 78a3 8b3f e1d5 22bd bfcb 3f3d b5d0 a93e
00000180: 0fe8 463e 2c12 893f 757f 593f 4e14 a63f
00000190: 5adc 893f 3b8c 2a3f f38e 98bd 5063 3b3e
000001a0: 9cbb 9cbd b2b2 1fbf b5a5 013f 5337 6b3f
000001b0: e71b 9ebe 0096 d6be 59be 993f 2ca1 863f
000001c0: 27f0 e13d 41f1 04bf 685c 863f 2d8b 973f
000001d0: 21cc 1fbf e773 db3e 7694 6c3f de1c 94be
000001e0: 21c7 b83f d282 393d 9997 903f b2ff e4be
000001f0: f16b 523f 91bd 9ebe 14d3 abbe e047 933f
1.1700443 0.66454154 1.320999 1.2111163 1.5361156 1.0549433 1.3323067 0.021199586
0.09413416 0.5327233 -0.41338602 -0.62608325 -0.20850296 -0.13807331 -0.46345603 1.0358846
1.2777978 1.2642517 0.049424287 -0.6683584 -0.51463836 -0.26016372 1.3251108 0.10492214
-0.18944156 -0.09135186 0.78943354 -0.8110255 -0.59383357 1.1835246 -0.091407254 0.59549356
-0.024539001 -0.5786378 0.83452874 0.9349666 -0.3849246 0.53431046 0.9830983 -0.63369936
1.3964298 1.520666 1.3088646 0.058143076 0.9421025 -0.39170063 -0.08439894 -0.35636377
-0.053107813 1.2825899 -0.22782892 0.025043756 -0.052027773 -0.5936702 -0.17434469 -0.07448376
1.2647084 1.2639531 1.1682305 -0.4213598 1.0395349 0.8481318 1.2920381 1.4254829
0.06434853 -0.4484487 -0.099620685 -0.31312713 1.5091996 1.1407086 1.2503595 1.3774172
1.0821083 -0.6745734 1.3462226 1.4189035 0.8729748 -0.019931376 1.3719059 0.94618183
1.0644137 1.1872576 1.3682094 -0.7092205 -0.46834788 1.2893975 0.7843748 -0.5731937
1.5695692 1.0222164 1.4212687 0.12734234 1.0909262 -0.039754752 0.046825167 0.33167043
0.19424461 1.0708671 0.8496011 1.2974946 1.0770371 0.66620225 -0.074491404 0.18299603
-0.07652971 -0.6238204 0.50643474 0.91881293 -0.30880663 -0.41911316 1.2011214 1.0517936
0.110321335 -0.51930624 1.049695 1.1839348 -0.6242085 0.42861864 0.92414033 -0.28928274
1.4435769 0.045290776 1.1296264 -0.4472633 0.82195956 -0.31004003 -0.33559477 1.150631

fc2.weight f4 [1, 128]
00000000: a754 263f e783 423e e397 553f 8b53 243f
00000010: 7633 3e3f f3ac 003f e47f 173f f627 6dbf
00000020: d88b 31bf f0ea cd3d 08f9 d9bf 99d7 023e
00000030: cc65 d6bf 8240 9bbf 6d5d d4be d2e9 4f3f
00000040: b2e1 3c3f e479 283f 4986 01c0 87bc 85bf
00000050: 7acf 5ebf b373 b4bf 867d 453f 1bd7 6d3d
00000060: ffa9 65bf 458f 6bbf e89a 8a3e 6310 813c
00000070: acfe 47bf 730e 0a3f f4a3 61bf c522 fb3d
00000080: db57 003f acc9 53bf f920 f03e 66bd 113f
00000090: a8b3 293d 3195 513e 6ada b43e e223 86bf
000000a0: 8a78 423f 3b1d 313f 842d 273f a45a 123c
000000b0: b71b 143f 8caa 34bf e43f b23c da8a 50bf
000000c0: ada4 0cc0 b9f4 353f ca3e 6c3d 7c15 d6bf
000000d0: 7707 363d ebf8 a6be c033 e7bf 4b36 efbf
000000e0: 8b36 5b3f e8a3 393f 50c7 183f 8e06 5bbf
000000f0: de5a e13e 6af7 e33e b466 253f fdbc 563f
00000100: 767b fcbe f560 5dbf ff9d 1fbf 18f5 46bf
00000110: d07e 2e3f bced 373f 22be 253f 1014 473f
00000120: 18c3 bd3e 30a0 7dbf fdde 2b3f 9e52 453f
00000130: 518c 103f ee42 0ebf 6c2f 4a3f f007 ab3e
00000140: e09a 1c3f 591f 403f 3fa0 2f3f 1cf5 11bf
00000150: e1b1 c8bd 9151 583f c818 e83e feac 693d
00000160: d72f 313f 3857 c53e f08a 4e3f c1f4 a0bf
00000170: a5e0 273f 64e7 71bf d8ee 5dbf 2e54 893d
00000180: 18d2 4bbf 3904 f13e 141e c63e f104 463f
00000190: 32e8 4c3f 3f88 c13e 7bcb 87bf e18e 88bf
000001a0: a1f6 7dbf 4911 9b3d 3cd4 473e af2b 0b3f
000001b0: e0b8 31bf 53ed 70bd 3ebb 2c3f a0ff 053f
000001c0: 6031 b83c 5e56 91bf 7445 003f e2af 143f
000001d0: 29b3 0cbe 9687 e83d e42d e23e 60db 85bc
000001e0: 2862 423f d949 8fbe 4a71 153f c514 e1bf
000001f0: 5779 f93e 647b 4dbf 23fb cdbf 8824 423f
0.6497292 0.18995629 0.83434886 0.64189976 0.74297273 0.502639 0.5917952 -0.926391
-0.6935401 0.100545764 -1.7029123 0.12777556 -1.6749816 -1.2129061 -0.41477528 0.81216156
0.73781884 0.6581099 -2.023821 -1.0448159 -0.87035334 -1.4097809 0.7714466 0.05806647
-0.8971252 -0.92015487 0.2707131 0.015754884 -0.78122973 0.539283 -0.881408 0.12262491
0.50134057 -0.827296 0.46900156 0.56929624 0.0414311 0.20467068 0.35322887 -1.04797
0.7596518 0.6918523 0.65303826 0.008932743 0.5785479 -0.70572734 0.021758981 -0.8146187
-2.197551 0.7107654 0.057677068 -1.6725307 0.044440713 -0.32611784 -1.8062668 -1.8688444
0.856301 0.72515726 0.59679127 -0.85556877 0.4401464 0.445247 0.6460984 0.83882123
-0.49312943 -0.8647607 -0.6235046 -0.77717733 0.6816225 0.7184713 0.64743245 0.7776499
0.37062907 -0.9907255 0.6713713 0.7707919 0.56464106 -0.55570877 0.7897861 0.33404493
0.6117382 0.7504783 0.6860389 -0.5701463 -0.09799553 0.8449946 0.45331407 0.057049744
0.6921362 0.38543105 0.8068075 -1.2574693 0.65577155 -0.944937 -0.8669257 0.06705509
-0.7961745 0.47073534 0.38694823 0.7735129 0.800418 0.3779926 -1.0608972 -1.0668603
-0.9920445 0.07571656 0.19514555 0.5436353 -0.6942272 -0.05882008 0.6747321 0.5234318
0.022484481 -1.1354482 0.5010598 0.58080876 -0.13740219 0.11353986 0.44175637 -0.016339958
0.75931025 -0.2798603 0.5837599 -1.7584463 0.48725387 -0.80266404 -1.6092266 0.7583699

exp_avg f4 [128, 4]
00000000: 6d64 ba3a e2cc edb9 2041 0239 deee f939
00000010: ca42 1b33 55f7 fa33 d9cb a3b1 af31 14b4
00000020: 3f95 013b f5f5 9fba 014b 3739 c63f b33a
00000030: 1684 373a e8e1 f5b9 e911 7c38 5049 083a
00000040: 3de4 2eb4 c02c 37b5 97f8 54b4 529b 1735
00000050: 278c 42bb 6822 f03a 925a 88b9 827a 06bb
00000060: 5122 4e39 b05c ffb8 a6fd 9237 6a2a 0f39
00000070: dcb2 8738 e49b 99b8 4696 d4b6 5b4e be38
00000080: 8979 9f3a d942 45ba acbc e138 c20d 5d3a
00000090: afc5 9bbb 2f43 413b ac43 d7b9 6f22 58bb
000000a0: 08a7 053b dc3f a5ba 812b 3d39 872c b93a
000000b0: cc33 9fb3 680e 62b4 90f2 b932 f6a8 8c34
000000c0: b33d 0cb6 7c31 f8b6 77b9 8f34 a64b 1037
000000d0: c002 a533 b09d 2cb5 20c6 f0b3 611f 4735
000000e0: 2c87 be39 b398 6db9 eb98 0a38 d550 8539
000000f0: 1000 d5ba b0ab f13a 7857 17b9 875d f7ba
00000100: 43d5 91b5 7593 9637 42bd e334 86f7 8eb7
00000110: f4d6 0c39 62fe 29b8 a69c 2238 0e49 24b7
00000120: 77bf eeba a954 933a a33a 27b9 4906 a5ba
00000130: a701 cd3a 53ea 7dba 6b94 1139 dd4d 8e3a
00000140: 5f4f 4a37 a080 07b7 4c47 6a36 67ab 8036
00000150: 0400 0000 0400 0000 0400 0080 0400 0080
00000160: 3921 4ab2 6890 f2b3 a0cd 06b1 ec4d 2734
00000170: a248 7a38 f8cd d9b6 131c a637 dc1b a935
00000180: 32da 1db6 0c0c 2a37 8979 7d35 a826 3bb7
00000190: 7b7f c9b4 0636 b437 8f63 9d35 52d5 b4b7
000001a0: 28d8 343b 18df d0ba ae84 7539 c5cb e73a
000001b0: ddc0 c2b9 6830 5439 522e d7b7 4766 81b9
000001c0: 94cf c239 b31f 58b9 f0bc 0338 4906 3039
000001d0: 5aa4 47ba 592b f639 995a 8bb8 fcd7 09ba
000001e0: 88d9 04bb 0ed6 aa3a 82be 33b9 dc30 bcba
000001f0: 780e 0f3b 1bbc b2ba de2e 4a39 cf77 c73a
00000200: de68 0dba 29a5 b239 fd5b 1eb8 d9dc d4b9
00000210: 3b19 b439 e12f 60b9 2ab6 0238 1c9a 7b39
00000220: 763b 1135 32f7 0236 01df e1b5 04bb 87b6
00000230: 69f7 bb38 e34a 35b7 2f3d 2838 1358 be36
00000240: 5ed1 2db5 5020 c1b4 dd40 ccb4 6ddd 29b4
00000250: c17a 573a 15a0 05ba 92c6 9938 34d1 153a
00000260: 5cae 9bb6 2146 9337 90c4 c235 02e4 a7b7
00000270: c02d 9839 923c 7bba 6985 76b7 582b 993a
00000280: a717 f53a 8469 97ba 6571 2d39 93aa a93a
00000290: 0400 0000 0400 0000 0400 0080 0400 0080
000002a0: 085e f83a 2089 98ba a73c 2f39 cb7a aa3a
000002b0: 3422 7eb9 4e71 e239 46b3 adb8 80bf ecb9
000002c0: a4a6 483b db34 ebba 06b1 8839 93aa 023b
000002d0: f2aa e6b3 6ff6 8634 3560 3633 edd8 89b4
000002e0: 96c1 223a 7bdb c9b9 2dec 6838 4a5d e239
000002f0: cf1f 50bb b175 003b f7fc 91b9 64e1 0fbb
00000300: 2759 f731 ad76 0eb3 a618 3330 3ed7 2933
00000310: 7f10 1da7 5587 4d28 3be2 8d26 366b 7ca8
00000320: dd48 883a 040a d3b9 0493 fd38 f714 d239
00000330: 7591 14bb 2672 b73a a986 50b9 9d7e cdba
00000340: 0400 0080 0400 0080 0400 0080 0400 0000
00000350: 1ffd e139 6fa6 8cb9 ab83 2338 24ce 9d39
00000360: 0530 0b3b 5d40 acba e35f 4539 eed8 c03a
00000370: a136 cdba 595f 153a 33ef 36b9 5b83 1dba
00000380: 717d c33a 7e7d 70ba 67a5 0a39 cbb9 863a
00000390: eda1 c4ba 797b 723a 8bf4 08b9 02b5 87ba
000003a0: 768d 173a 11ef 8bb9 ef64 4e38 d292 a739
000003b0: 18ce a1b9 2921 2739 0642 d4b7 84d5 4eb9
000003c0: 366c 43b8 ed94 c036 7cc1 70b7 6b86 7737
000003d0: 117c 9e3b bcb8 13bb 3ecd f339 e697 353b
000003e0: 9fcf b0ba ce78 3a3a cbb3 e4b8 d60e 5fba
000003f0: 03df c63a b541 76ba 422e 0d39 1403 8a3a
0.0014220603 -0.00045356812 0.00012422027 0.0004767095 3.6149494e-08 1.16865216e-07 -4.767099e-09 -1.3801649e-07
0.0019772795 -0.0012204038 0.00017480181 0.0013675622 0.00070005783 -0.00046898355 6.0098162e-05 0.00051989127
-1.6288045e-07 -6.823793e-07 -1.9834475e-07 5.6477904e-07 -0.0029685588 0.0018320801 -0.00026007422 -0.0020519798
0.00019658475 -0.00012176612 1.752267e-05 0.00013653343 6.470617e-05 -7.3246454e-05 -6.3355865e-06 9.074501e-05
0.0012166958 -0.00075249147 0.00010763979 0.0008432531 -0.0047537903 0.0029489507 -0.00041058415 -0.0032979508
0.0020393748 -0.0012607533 0.00018040651 0.001412765 -7.413436e-08 -2.1053131e-07 2.164714e-08 2.6199967e-07
-2.089754e-06 -7.3967367e-06 2.677077e-07 8.600682e-06 7.6839115e-08 -6.430446e-07 -1.12119096e-07 7.417894e-07
0.00036340335 -0.00022658966 3.304418e-05 0.0002542796 -0.0016250629 0.0018438008 -0.00014433067 -0.0018872478
-1.0865409e-06 1.7950058e-05 4.2419748e-07 -1.7042981e-05 0.00013431517 -4.0529652e-05 3.87697e-05 -9.792171e-06
-0.001821502 0.0011240441 -0.00015948205 -0.0012590374 0.0015640751 -0.0009686101 0.00013883568 0.0010856945
1.2058618e-05 -8.076575e-06 3.4910217e-06 3.834651e-06 6e-45 6e-45 -6e-45 -6e-45
-1.17655015e-08 -1.12952705e-07 -1.961645e-09 1.5581435e-07 5.967229e-05 -6.491082e-06 1.9801815e-05 1.2599589e-06
-2.352183e-06 1.01355945e-05 9.44267e-07 -1.1155069e-05 -3.7531922e-07 2.1482829e-05 1.1726387e-06 -2.1557007e-05
0.002759466 -0.0015935628 0.00023414448 0.001768463 -0.00037146258 0.00020235928 -2.5651567e-05 -0.00024681
0.0003715722 -0.00020611174 3.1408796e-05 0.0001678701 -0.0007615738 0.00046953073 -6.6449116e-05 -0.00052583194
-0.002027126 0.0013033764 -0.0001714174 -0.0014357823 0.0021828692 -0.0013636382 0.0001928168 0.0015218201
-0.00053943496 0.0003407386 -3.7755806e-05 -0.00040600335 0.00034351074 -0.00021380141 3.116407e-05 0.00023994636
5.4103236e-07 1.9515396e-06 -1.6828709e-06 -4.045085e-06 8.9629386e-05 -1.0805877e-05 4.0111303e-05 5.6726944e-06
-6.475219e-07 -3.5972562e-07 -3.8045155e-07 -1.5819906e-07 0.0008219891 -0.00050974014 7.332595e-05 0.00057150726
-4.639658e-06 1.7556422e-05 1.4511334e-06 -2.0014126e-05 0.00029025786 -0.0009583916 -1.4693805e-05 0.0011685891
0.0018699066 -0.0011551832 0.00016540808 0.0012944512 6e-45 6e-45 -6e-45 -6e-45
0.0018948922 -0.0011637546 0.00016711895 0.0013006566 -0.0002423607 0.00043190498 -8.282675e-05 -0.00045156106
0.0030616904 -0.0017944829 0.00026071834 0.0019938096 -1.07413044e-07 2.513875e-07 4.2462677e-08 -2.5676073e-07
0.0006208656 -0.00038501233 5.5533066e-05 0.00043175585 -0.003175724 0.00196014 -0.0002784503 -0.0021954412
7.1987816e-09 -3.3169886e-08 6.515485e-10 3.954414e-08 -2.179707e-15 1.14091315e-14 9.84516e-16 -1.4012058e-14
0.0010397692 -0.00040252518 0.00012091364 0.0004006994 -0.0022669707 0.0013995811 -0.0001988659 -0.0015677992
-6e-45 -6e-45 -6e-45 6e-45 0.00043103934 -0.00026826884 3.8984854e-05 0.0003009896
0.0021238339 -0.001314174 0.00018823105 0.0014713088 -0.001565654 0.0005698107 -0.00017445981 -0.0006008648
0.0014914704 -0.0009173973 0.00013222323 0.0010278759 -0.0015001871 0.0009249966 -0.0001306107 -0.0010353627
0.0005781272 -0.00026690264 4.920823e-05 0.00031962112 -0.00030861865 0.00015938714 -2.5303114e-05 -0.00019725232
-4.6592402e-05 5.739383e-06 -1.4350164e-05 1.4753644e-05 0.004836567 -0.002254053 0.0004650149 0.0027708947
-0.001348961 0.0007113338 -0.00010905376 -0.00085089856 0.0015172664 -0.00093939464 0.0001346404 0.0010529482

exp_avg_sq f4 [128, 4]
00000000: 4a13 bb37 7fb4 9837 a584 cb35 5404 a437
00000010: 4b83 3032 70d8 a235 4faa f832 a0d9 5a36
00000020: fa65 5138 13ba 0a38 1bfc 2a36 8070 c937
00000030: 1920 d935 72d9 d336 8cfa 8234 4fcc 8037
00000040: a38a eb34 1f82 d036 3171 0a34 91c2 7837
00000050: 4e76 8838 579f 2738 9975 6136 a1f4 0c38
00000060: a621 c135 ec8c 3a37 4203 a734 ee67 d437
00000070: f8aa 2c36 0495 c037 a8b0 4635 5f19 8038
00000080: b080 1337 84e3 e937 5a2a 8235 57cf 7938
00000090: 462b 2539 0e94 a538 c147 b436 505e 8d38
000000a0: e3c8 7138 3b44 0838 4636 2736 b5e2 c937
000000b0: 99c1 0e34 5e31 f735 30f0 3e33 6e42 a136
000000c0: 1de6 1a36 b3aa d437 7cda 7d35 acdc 9438
000000d0: fd2a 2435 febc bd36 198c dc33 61ff 5e37
000000e0: a7e5 d935 fda9 c337 5049 a835 c30c 8938
000000f0: 35d8 9836 489e af36 1e41 5a34 d9c3 c936
00000100: 680c fe33 4d58 bd36 d357 1e34 9f54 8037
00000110: 5858 8637 6b0c 0b38 62a9 0436 7702 7c38
00000120: 1905 5538 a577 0938 1458 5736 0c34 2738
00000130: d7c5 7c38 534c 6a38 cfaf 8036 052f b338
00000140: e837 1735 683f 5b35 05bd 0c33 bb96 e735
00000150: 5f88 8030 e822 ee33 b909 0331 e454 9334
00000160: 68a6 cd33 cbee 6b36 6fb0 b733 3c0c 1f37
00000170: db53 7235 3ab3 0e37 799a 4534 a807 a437
00000180: d3ff c833 5110 8436 2819 a433 5f63 2037
00000190: d9aa 8d36 9b9a 0b37 b3b8 9e34 8f02 6c37
000001a0: 846b ae38 5728 5838 9c70 8036 7a5e 2238
000001b0: 360e cb35 aadf 3a37 c0ae bc34 1d1f f337
000001c0: 2b66 da36 bb37 1e37 ea80 2535 da1e 7937
000001d0: c609 8536 f3a1 8237 a3df 1335 ae22 2138
000001e0: 1d37 b237 ca9a cb37 3c49 ce35 7842 1338
000001f0: f75a de37 ce11 8737 25d8 4b35 0759 3b37
00000200: 1a43 8737 402b a137 90e7 1336 7e0e 0d38
00000210: 2ce0 2a36 6f34 f236 0224 cc34 6af1 8237
00000220: f2b3 2934 7fe6 f535 8e16 8133 c42c ae36
00000230: 42fd 9337 865d 2738 2d0e 8c36 267f b638
00000240: dffd c434 69a4 0e35 8c9d 0333 e37d 8f35
00000250: 5178 aa36 d3c3 8337 1735 4b35 acb1 1b38
00000260: 4e8d d033 e3a3 d234 bf17 8032 0c72 5c35
00000270: 4395 1737 d12c 7337 4d6d e634 f6a7 7137
00000280: dc88 b138 1d51 6f38 5f4e a636 57e2 5338
00000290: 6af6 c631 fd31 bf35 ed6f e532 8d2e 8536
000002a0: 5cfe 7738 faf7 3338 ff93 7f36 4ffd 0a38
000002b0: af39 5136 d296 8036 7238 2334 e5e3 bb36
000002c0: e3bf 1e39 da29 b738 edeb ef36 f3f4 6838
000002d0: 307a 0635 4012 7f37 0104 0635 3d02 3438
000002e0: ed3c 9936 77ca ab36 66f8 d934 2360 fe36
000002f0: a535 3c39 a330 0039 a212 1537 cc5f 0639
00000300: eb29 4336 936f 9136 464c b933 b3dc 1e37
00000310: e5e9 3036 10f2 2935 4ffd 4432 2939 8b34
00000320: 22cf 9437 58f8 a537 9808 dd35 6be6 e237
00000330: 01fd 0c39 e50b e238 633c 0837 58c4 0539
00000340: 4646 9b33 85e1 e432 1b39 262f 7c86 c232
00000350: d8bd ac36 e443 9237 6112 4035 cedb 2a38
00000360: 794e 1a38 8aea c237 07d0 be35 0b78 7e37
00000370: 3589 b436 4654 cd36 5ce5 6b34 b4aa 0537
00000380: 75c9 4738 2cd9 3e38 77c6 9036 8b67 6938
00000390: 25a5 7d38 3810 4938 6f5d 9136 6426 5338
000003a0: df8b 5437 74ab 4237 0223 e735 0bd3 a437
000003b0: ddc4 2736 4bd5 8a36 3209 f534 3041 f736
000003c0: bb66 1235 55e9 1636 c349 2f33 f107 9a36
000003d0: 2202 e838 e498 a538 8ee6 9736 91a7 a038
000003e0: e3eb 1938 8ba4 6838 9c19 a036 af3c c538
000003f0: b97e 0438 57f7 e437 187c 1f36 4fd0 de37
2.230112e-05 1.8203862e-05 1.5163283e-06 1.9552339e-05 1.0274401e-08 1.2132932e-06 2.8948447e-08 3.2611206e-06
4.9924456e-05 3.307506e-05 2.5478719e-06 2.4013454e-05 1.6177102e-06 6.313604e-06 2.4396684e-07 1.5353928e-05
4.3873032e-07 6.214031e-06 1.289343e-07 1.4827253e-05 6.507021e-05 3.99643e-05 3.3596064e-06 3.360643e-05
1.4389414e-06 1.1119275e-05 3.1108544e-07 2.5320765e-05 2.5729514e-06 2.2957574e-05 7.4017817e-07 6.108241e-05
8.791845e-06 2.788171e-05 9.698081e-07 5.9559326e-05 0.00015751747 7.8953904e-05 5.3727713e-06 6.740971e-05
5.7645968e-05 3.248847e-05 2.491653e-06 2.4066636e-05 1.3295211e-07 1.8417302e-06 4.445627e-08 4.8059073e-06
2.3081732e-06 2.5351857e-05 9.456778e-07 7.098293e-05 6.1157317e-07 5.6546405e-06 1.0270032e-07 1.3291691e-05
1.6234598e-06 2.3324968e-05 1.2538312e-06 6.535046e-05 4.555123e-06 5.233833e-06 2.0326522e-07 6.0130665e-06
1.18300534e-07 5.6429185e-06 1.4746847e-07 1.5298194e-05 1.6015183e-05 3.3151748e-05 1.9768127e-06 6.0083777e-05
5.0787905e-05 3.2774773e-05 3.2088765e-06 3.9864375e-05 6.0265735e-05 5.586103e-05 3.835164e-06 8.544143e-05
5.633324e-07 8.1676126e-07 3.2768202e-08 1.725471e-06 9.351985e-10 1.1089088e-07 1.9068536e-09 2.744265e-07
9.5763255e-08 3.5156725e-06 8.5536946e-08 9.479987e-06 9.027405e-07 8.505589e-06 1.8403252e-07 1.9553889e-05
9.35976e-08 3.935806e-06 7.641421e-08 9.55988e-06 4.2220167e-06 8.3210425e-06 2.956418e-07 1.4067292e-05
8.316993e-05 5.1535982e-05 3.8278067e-06 3.8711798e-05 1.5128815e-06 1.113854e-05 3.5144876e-07 2.8982346e-05
6.5088e-06 9.43051e-06 6.1654885e-07 1.484874e-05 3.9648467e-06 1.5572621e-05 5.50872e-07 3.841769e-05
2.1244918e-05 2.4271565e-05 1.536951e-06 3.5109435e-05 2.6506821e-05 1.6101545e-05 7.5937925e-07 1.1166797e-05
1.61245e-05 1.9212835e-05 2.2039494e-06 3.3630517e-05 2.546246e-06 7.218266e-06 3.802416e-07 1.5609625e-05
1.5804815e-07 1.8321006e-06 6.011133e-08 5.1908155e-06 1.7641698e-05 3.9903003e-05 4.1739754e-06 8.7021195e-05
3.669256e-07 5.313837e-07 3.0644102e-08 1.0690968e-06 5.0804015e-06 1.5707605e-05 7.570065e-07 3.712035e-05
9.711458e-08 3.923479e-07 1.491196e-08 8.2122347e-07 9.035054e-06 1.4494363e-05 4.2920365e-07 1.4403826e-05
8.46551e-05 5.7057583e-05 4.956309e-06 5.0517116e-05 5.7905725e-09 1.4245157e-06 2.6710007e-08 3.969128e-06
5.912628e-05 4.2907872e-05 3.8084106e-06 3.3137676e-05 3.1177003e-06 3.832255e-06 1.5201093e-07 5.5995647e-06
0.00015139538 8.7339155e-05 7.1502204e-06 5.5541237e-05 5.0096696e-07 1.5203434e-05 4.9924716e-07 4.291743e-05
4.566848e-06 5.119767e-06 4.0600133e-07 7.5809817e-06 0.00017949061 0.0001222515 8.88543e-06 0.00012814923
2.9081664e-06 4.3343257e-06 8.628608e-08 9.468919e-06 2.6362188e-06 6.3309653e-07 1.1466297e-08 2.5932357e-07
1.7739429e-05 1.9785177e-05 1.6468284e-06 2.7048596e-05 0.00013445692 0.00010778735 8.120292e-06 0.00012757012
7.2305326e-08 2.6645248e-08 1.51179e-10 2.2645729e-08 5.1481e-06 1.743617e-05 7.155232e-07 4.0735868e-05
3.6789545e-05 2.3235818e-05 1.4216647e-06 1.5167529e-05 5.380391e-06 6.119287e-06 2.1969521e-07 7.967163e-06
4.763292e-05 4.5501787e-05 4.3146388e-06 5.564796e-05 6.0473703e-05 4.793724e-05 4.332214e-06 5.0342074e-05
1.2668751e-05 1.1603221e-05 1.722103e-06 1.9648598e-05 2.4999529e-06 4.137551e-06 4.5641497e-07 7.3687625e-06
5.453873e-07 2.248756e-06 4.081245e-08 4.590482e-06 0.00011063019 7.896291e-05 4.526991e-06 7.660606e-05
3.669773e-05 5.5466353e-05 4.771353e-06 9.404995e-05 3.1589272e-05 2.7294895e-05 2.3765078e-06 2.6561464e-05

exp_avg f4 [128]
00000000: 205f 18bb f397 2cb4 543b b5ba c530 0dba
00000010: f7a6 5fb5 c361 0f3b b52a edb8 953d 1139
00000020: 407f 5fba 2925 603b 0be8 baba ab79 9f34
00000030: 041b 2837 78f9 67b5 239a 62b9 9f37 13ba
00000040: 99df 30b8 be76 1d38 fc8d b03a b0e8 8cba
00000050: 5ba2 6bb7 0400 0000 75f2 4034 406f 0b38
00000060: 66b3 8a37 9985 2138 28ed 0abb 9a16 4439
00000070: b9ba 96ba e311 163a 418d c23a e00f ceba
00000080: c557 e439 fb1f 59b9 63cb 88b6 b3a5 003a
00000090: a1d4 9d35 7c0f 10ba 6cd7 fa37 86ea 4e3b
000000a0: 2205 abba 0400 0080 336e b1ba e8d3 05bb
000000b0: 887c 15bb 4bae 8db4 ee8b d5b9 5257 173b
000000c0: 5a76 12b3 4009 3128 aca3 1abb 148d d93a
000000d0: 0400 0080 caee 8ab9 0838 c4ba bd80 213b
000000e0: a4a3 88ba a556 913a 0f9f 15ba f5cf 3a39
000000f0: a7c9 87b8 857a f4ba 9458 093a b5c8 88ba
00000100: d4bf d8b9 0400 0000 859c 0139 899c 4bba
00000110: 755a f9ba b70a f6b3 f7a2 fa32 b4fb a93a
00000120: dd96 c93a a5c5 d631 099c bbba 4225 7b3a
00000130: 408f 3c3a 9431 83ba e454 5aba 0400 0000
00000140: 0000 0000 5b7d 733a bf81 dcba ad2e 9a3a
00000150: 50ec 87b1 1453 243a 0181 543a d15a 693a
00000160: 0000 0000 9bfe 403b 501e 96b9 2df1 53ba
00000170: 33ea 6bb8 6b05 deba d898 f63a 23d7 2436
00000180: 2955 3c3b fa5a 9cba 95b0 1738 b5d7 5636
00000190: 974b 8d3a 0d46 adba de05 9dba 3093 3eba
000001a0: a5f8 1239 5700 8fb8 104e a9ba 1c85 053b
000001b0: 1745 0531 7630 9fb8 ea99 e739 0b53 9936
000001c0: e46b a338 0721 f02f dd48 7aba 2031 8cba
000001d0: 7fe3 4934 5f5d 5f3a 66df 09ba cdda dd3a
000001e0: e109 0a3a 4ce4 343b 7b69 463a 5b5d 55b8
000001f0: 392b 21ba cbec 4e3a 1fd1 94b2 9673 b33a
-0.0023250058 -1.6074027e-07 -0.0013826885 -0.00053859904 -8.331694e-07 0.002187834 -0.000113089955 0.00013851219
-0.00085257366 0.0034201837 -0.0014259828 2.9704583e-07 1.001987e-05 -8.641723e-07 -0.0002161046 -0.0005615893
-4.216991e-05 3.7542304e-05 0.0013470049 -0.0010750499 -1.4044893e-05 6e-45 1.7969599e-07 3.3243792e-05
1.653442e-05 3.8509814e-05 -0.0021198485 0.00018700436 -0.001149974 0.0005724711 0.0014843122 -0.0015721284
0.00043552942 -0.00020706646 -4.076793e-06 0.00049075036 1.1759295e-06 -0.00054954714 2.9902636e-05 0.0031572892
-0.0013047794 -6e-45 -0.001353687 -0.0020420495 -0.0022809822 -2.6390111e-07 -0.00040730782 0.0023092818
-3.4100914e-08 9.8274795e-15 -0.0023596091 0.0016597831 -6e-45 -0.00026499323 -0.0014970312 0.0024643384
-0.0010424745 0.0011088444 -0.00057076005 0.00017815812 -6.474862e-05 -0.0018652236 0.00052393344 -0.0010435792
-0.00041341654 6e-45 0.00012360707 -0.0007767161 -0.0019024151 -1.1457217e-07 2.9177938e-08 0.001296869
0.0015380044 6.2506893e-09 -0.001431347 0.0009580442 0.0007192977 -0.0010009282 -0.000832869 6e-45
0.0 0.0009288394 -0.0016823335 0.0011763178 -3.9558827e-09 0.0006268483 0.0008106381 0.00089017773
0.0 0.0029448632 -0.00028632814 -0.0008084949 -5.624648e-05 -0.001693887 0.0018813862 2.456313e-06
0.0028737283 -0.0011928969 3.616566e-05 3.2014043e-06 0.0010779974 -0.0013219729 -0.0011979898 -0.00072698575
0.00014016272 -6.818835e-05 -0.0012916941 0.0020373529 1.939332e-09 -7.5907374e-05 0.00044174428 4.569423e-06
7.792542e-05 4.3679213e-10 -0.00095476006 -0.0010695793 1.8802346e-07 0.0008520688 -0.0005259424 0.001692617
0.00052657543 0.0027601896 0.00075688184 -5.08701e-05 -0.0006148103 0.0007893561 -1.7324565e-08 0.0013691064

exp_avg_sq f4 [128]
00000000: 1cd8 5e39 88a7 b435 a47b ed39 6465 3b38
00000010: 7630 0237 45e5 513a 58bc 1138 6d74 4338
00000020: a786 3a39 eff2 f23a 739d f539 65f9 fb35
00000030: 83cd 2738 4ead a636 22d7 c438 138e 3339
00000040: 9203 2d37 14e7 0c39 583c e139 478e e739
00000050: 21d1 0636 4966 5233 727d 6336 126c b737
00000060: f3fe d436 fbb7 8137 80bf 3c3a 8ba3 1638
00000070: 49a9 3938 2b8c a038 6616 af39 ae7c 9939
00000080: 8fd9 1c39 3af7 1738 1f8d 1736 ad61 9039
00000090: 887a 9535 14e7 da38 0c33 2835 d8c0 0739
000000a0: 59cb 193a d8d2 5d35 1b02 ff39 9ada 7138
000000b0: 7602 953a 348b b737 2951 7038 08aa b13a
000000c0: afcd 5a36 2c80 8435 11d2 2e39 1a51 733a
000000d0: a061 b632 b2b0 8b38 5021 c139 8b87 ec38
000000e0: 5fd7 e539 8ebd e439 390a 0e39 7c7b 0d38
000000f0: a754 aa36 2f05 0c3b fe33 d239 410f ad39
00000100: 3d02 9536 df27 0935 8aac a037 f033 8e39
00000110: 87c1 3438 27ca a236 c338 7334 35e6 8939
00000120: 89db 093a 88ba 1837 230f c539 0b49 b239
00000130: 5d04 7e39 d7fd 9039 4944 d637 4817 f033
00000140: 0000 0000 0a6b 4339 dbbf 263a b5b4 c039
00000150: 1efe db35 57f2 b238 7604 db38 f724 7939
00000160: 0000 0000 670e 9d3a b833 d637 7a5e 163a
00000170: e9c1 0338 95ce 9f39 2cd3 5e3a 6e70 2837
00000180: 94dd a43a 413f 3d38 2ad4 6f36 6f45 7135
00000190: d68e ea39 e58c ca37 8bcc e239 5c59 1c39
000001a0: 674e 2c38 742f 4337 be75 003a 08a7 8c3a
000001b0: e4d1 0f36 eb0f c538 d1cb c438 f457 3236
000001c0: e74c d037 f118 5f37 ad96 d439 5e8f 2239
000001d0: 2a11 1936 0f12 7d38 f085 cb38 91d7 2b3a
000001e0: 71ba bc38 cbeb c73a c629 7839 afe6 7034
000001f0: 6b79 4237 45a0 f137 9584 9734 046a ce39
0.00021252077 1.3459803e-06 0.00045296282 4.46787e-05 7.759887e-06 0.0008006881 3.4746103e-05 4.6600053e-05
0.00017788504 0.0018535535 0.0004684735 1.8773541e-06 4.00073e-05 4.967361e-06 9.38608e-05 0.00017123697
1.0312435e-05 0.00013437524 0.00042960304 0.00044165758 2.0089285e-06 4.8987463e-08 3.3898655e-06 2.1865624e-05
6.3477723e-06 1.5463671e-05 0.00072001666 3.5915098e-05 4.4265096e-05 7.655503e-05 0.0003339529 0.00029275328
0.00014958366 3.6231453e-05 2.2582897e-06 0.00027538594 1.1137026e-06 0.00010438092 6.265916e-07 0.00012946443
0.0005866788 8.2635734e-07 0.0004863896 5.7662466e-05 0.0011368531 2.1880121e-05 5.7296045e-05 0.0013554702
3.2604255e-06 9.872069e-07 0.00016672189 0.00092817994 2.1231983e-08 6.6609486e-05 0.00036836648 0.00011278604
0.00043838748 0.00043628778 0.00013545984 3.3732023e-05 5.0762496e-06 0.0021365394 0.00040093058 0.00033008496
4.4408066e-06 5.10945e-07 1.9153831e-05 0.00027123047 4.309558e-05 4.85151e-06 2.2651788e-07 0.00026302194
0.00052588485 9.103336e-06 0.00037586046 0.00034005227 0.00024224953 0.00027654946 2.5542586e-05 1.1180106e-07
0.0 0.00018636524 0.0006360986 0.0003675573 1.6390729e-06 8.532841e-05 0.00010443565 0.00023760261
0.0 0.0011982442 2.5534871e-05 0.0005736124 3.1413427e-05 0.0003048076 0.0008500095 1.0039757e-05
0.0012578242 4.512002e-05 3.573727e-06 8.9880535e-07 0.0004473838 2.4145886e-05 0.00043258475 0.00014910608
4.1081013e-05 1.1633954e-05 0.00049003575 0.0010730932 2.1430833e-06 9.396657e-05 9.383972e-05 2.6575262e-06
2.4831343e-05 1.3297643e-05 0.00040548053 0.00015502932 2.2808767e-06 6.033672e-05 9.704742e-05 0.0006555254
8.999266e-05 0.0015252767 0.00023666685 2.2435664e-07 1.1591571e-05 2.880407e-05 2.8222408e-07 0.0003937037
