demo/base/ac/a2c.pt (torch, 26717 bytes, 21 tensors)

fc1.weight f4 [128, 4]
000000 4a 45 e3 bb 3e 98 3b 3e 34 0f 59 bf 96 0b 1c bf
       -0.00693575 0.18319795 -0.84788823 -0.6095518
000010 78 a2 77 be 6f f8 0b 3e 24 9b c8 bb 1e 1a c9 3e
       -0.2418307 0.13668989 -0.00612201 0.39277738
000020 20 d9 98 bd 32 b0 94 bd 11 b6 2a bf 09 b9 b1 be
       -0.07463288 -0.07260169 -0.6668406 -0.34711483
000030 aa 5f d9 be 1f cc c4 be 32 65 e4 be 49 0d bf bc
       -0.42455798 -0.38436982 -0.44608456 -0.023321765
000040 9b 66 18 3e 16 9d 8c 3e 5d fb 91 be 76 1f 3e be
       0.14882891 0.27463597 -0.28512087 -0.18566689
000050 38 1e 6a 3d 3f 42 0d 3f 6e 41 f5 3e ce ac 2e 3f
       0.057157725 0.5517921 0.4790148 0.6823243
000060 44 5c d0 bd f2 fe eb 3a ea 6c e4 3e 3a 80 dd be
       -0.10173848 0.0018005057 0.44614345 -0.43261892
000070 7c 6c ab be 2a e8 e7 bd ce 99 91 be 49 85 c5 3e
       -0.33481205 -0.11323579 -0.28437656 0.3857825
000080 d7 e7 a4 be a6 37 9c be 03 1e e1 be 92 26 dd be
       -0.3220813 -0.30511206 -0.4396821 -0.4319349
000090 2a f0 87 be 41 86 24 3f d3 4e 60 3f 74 ba 12 3f
       -0.26550418 0.64267355 0.87620276 0.57315755
0000a0 1f b1 9a 3c 49 15 e1 be 4d 70 ec be e4 3f 1d bf
       0.018883286 -0.43961552 -0.4617943 -0.61425614
0000b0 55 dc ae be ea 86 7a be 64 c6 8d 3e 74 2c 8c 3e
       -0.34152475 -0.24465528 0.27690423 0.27377665
0000c0 ef 78 35 be 2f f7 61 3c 2e 6e 90 3e dd 03 ee 3e
       -0.17721914 0.013791843 0.2820906 0.46487322
0000d0 5a ff 22 3e d2 7b 28 3d 38 a1 bb 3e 5d 2d 8a be
       0.15917721 0.04113371 0.36646438 -0.26987734
0000e0 57 d3 f7 3d 41 28 dd be f6 78 b2 be 91 cf 58 be
       0.12100857 -0.43194774 -0.3485791 -0.2117293
0000f0 31 e7 50 3e c9 73 ac 3e 3f 2d 85 bc 7e 3d 92 3e
       0.20400693 0.33682087 -0.016256927 0.2856254
000100 ac b2 a8 3e 80 35 40 bd 7a 1d 9a bd d6 d7 a0 3d
       0.32948816 -0.04692602 -0.075251535 0.078536674
000110 27 47 bd 3e fa 23 f6 3e de 94 18 bf 58 a6 8e be
       0.36968347 0.48074323 -0.59602153 -0.27861285
000120 24 f4 07 3e 60 55 07 3f 99 9b 6d 3f 4a c2 24 3f
       0.13276726 0.52864647 0.9281555 0.6435896
000130 97 94 01 3e 22 76 00 bf 0c 03 ca be f5 13 ff be
       0.12654339 -0.50180256 -0.3945545 -0.49819914
000140 de 21 01 bf 5d 10 d3 3e 53 19 91 3e da e2 03 bf
       -0.504423 0.41223422 0.28339633 -0.51518023
000150 da f5 a1 3d a6 1e ce bd ad 1e 87 bd 06 7d 59 be
       0.079082206 -0.100644395 -0.06597648 -0.21239099
000160 cf c5 6c 3e 3b ae 92 be d6 d3 25 3e 0f 75 73 3e
       0.23122333 -0.28648552 0.1619409 0.23775123
000170 66 7a b9 3e ef 79 12 3e 3d b0 05 bf f5 bc 98 be
       0.36226195 0.14304326 -0.52222043 -0.29831663
000180 74 e0 60 3e 30 df a4 3d 03 bb bc be fd 89 85 be
       0.21960622 0.08050382 -0.3686143 -0.2608184
000190 70 57 04 3f e2 9d af 3e c1 89 c2 be 91 3e 3e be
       0.5169592 0.34300143 -0.37995723 -0.18578555
0001a0 13 9c 05 bf 2e d7 0c be 66 b8 64 bf e6 93 1b bf
       -0.52191275 -0.1375396 -0.8934387 -0.6077255
0001b0 91 d8 11 bd 54 9d 40 3e 76 b3 ad 3d 8d e6 a0 3e
       -0.035606924 0.18810016 0.08481495 0.31425896
0001c0 14 5a 9e be fe 15 e6 3e 19 1a aa 3d 3f 00 13 bf
       -0.309281 0.44938654 0.08305759 -0.5742225
0001d0 c1 85 9b bd b9 30 bf 3d 0f 11 4a 3e 8f f0 df 3d
       -0.07593871 0.09335465 0.1973307 0.10934555
0001e0 e3 11 10 3e e6 e1 15 3e 47 f5 20 3e e7 ee bf 3e
       0.14069323 0.14636955 0.15718566 0.37486956
0001f0 33 c7 22 bf 25 2c 08 bf 35 4b 28 bf 0d a2 ee be
       -0.63585204 -0.5319236 -0.65739757 -0.4660801
000200 58 f4 1c be 1c 2a b1 be 70 e1 36 3e f7 58 84 3e
       -0.15327585 -0.3460244 0.17859435 0.25849125
000210 ea d7 a2 be df d0 90 bd dc a6 0d ba f7 76 69 be
       -0.31805354 -0.07071089 -0.0005403587 -0.22799288
000220 5e bc 54 bb c2 1c 99 bd c8 78 05 3e b4 1a b3 3e
       -0.0032460908 -0.07476188 0.13034356 0.3498131
000230 05 0b 0f 3f 4a a3 95 3e 75 64 50 3e f8 d9 32 be
       0.5587619 0.29226142 0.20350821 -0.17465961
000240 b2 f5 c3 be d9 4b 73 be 45 07 b6 3e b2 1a d7 3c
       -0.38273388 -0.23759402 0.3555242 0.026257847
000250 10 11 5f be fd 7f ee be 56 d0 26 bf c1 b3 d5 be
       -0.21783853 -0.46582022 -0.65161645 -0.41738704
000260 aa 81 9b bd d9 66 8d 3e 0e 24 6a 3e 8b 17 fe be
       -0.07593091 0.2761753 0.22865316 -0.49627337
000270 24 8b c5 3e 20 93 f8 be 35 03 87 be 24 0b b0 bd
       0.38582718 -0.48549747 -0.26369634 -0.08595875
000280 69 ce a4 bd 55 1d 46 be 28 1c 73 bf bc a5 36 bf
       -0.08047182 -0.19347127 -0.9496484 -0.7134664
000290 3a a1 f3 bd f0 bf 17 bb ca 80 64 be 50 49 46 3e
       -0.11895986 -0.0023155175 -0.22314754 0.19363904
0002a0 b6 a1 e6 be d7 25 29 be 6e f3 75 bd 83 8e 00 bf
       -0.4504525 -0.16518341 -0.060046606 -0.50217456
0002b0 0f 4c df 3e b6 eb 9b 3e 34 d9 fc bd aa d1 d2 3e
       0.43612716 0.3045327 -0.12346116 0.41175586
0002c0 c2 a8 0a bd 3e 24 bf be 2c 3f 41 be d3 b3 2d bf
       -0.033852346 -0.37332338 -0.18871754 -0.67852515
0002d0 40 aa bf 3d e7 88 a6 bd f4 a3 a8 3e c2 32 e9 3d
       0.093586445 -0.08131581 0.32937586 0.113866344
0002e0 3d 08 48 3e f5 11 10 3d b6 bd fa be f6 66 55 be
       0.19534393 0.035173375 -0.48972863 -0.20840058
0002f0 05 0d a2 be 32 8f dc 3e c3 ba 5f 3f a1 1c 06 3f
       -0.31650558 0.43078 0.8739435 0.52387434
000300 79 d0 cf be 18 4f 14 3d 19 12 d2 be 7f 42 9f be
       -0.4058874 0.036208242 -0.41029432 -0.3110542
000310 12 2a 71 be 1d 50 2e 3e 3c e7 93 be 05 0c 6d 3b
       -0.23551205 0.17022748 -0.28887355 0.0036170494
000320 f4 cb 2a 3d fc f0 91 3e 75 28 37 bf bf 38 05 bf
       0.04169841 0.2850417 -0.7154611 -0.5203971
000330 80 13 94 be 07 51 e9 3e 3c 9b 90 3e 48 7c 19 3f
       -0.28921127 0.4556963 0.28243434 0.59955263
000340 99 e2 1e 3e 3f 71 05 3d 7a 08 d5 3c b3 da 94 bd
       0.15516128 0.032578703 0.026005019 -0.07268276
000350 7d 06 bd 3d 78 b3 12 be 2b 1b 9e be 09 00 4f bd
       0.09229753 -0.14326274 -0.30880103 -0.050537143
000360 d5 2f 02 bf 4c dd de be ce 4d 1f bd 93 d0 fa be
       -0.50854236 -0.4352821 -0.03889256 -0.48987255
000370 ef f4 b6 bd ef 36 0b 3f b1 0f f1 3e 4c 21 79 3d
       -0.08933436 0.54380697 0.47082284 0.06082277
000380 05 e7 dc be 14 7d 37 3e d8 81 45 bf 52 05 c1 be
       -0.43145004 0.17918807 -0.7715125 -0.37699372
000390 89 c3 12 be ad ef cb 3d c4 82 e5 3e 12 21 17 3f
       -0.14332403 0.09957824 0.4482633 0.59034836
0003a0 0c 39 02 3e a0 f6 c2 3e 24 e8 d9 bd 88 d2 19 bf
       0.12717074 0.38078785 -0.106399804 -0.6008687
0003b0 4d fd 91 3e 30 bb 81 be b8 c3 6d 3d a2 02 9e 3e
       0.28513566 -0.25338125 0.05804798 0.30861384
0003c0 6c b6 db 3d fc 2e c1 3e 4f de 6e bd b5 0c e1 3c
       0.107281536 0.3773116 -0.05831748 0.02747188
0003d0 ca a0 b7 3d 67 0f 41 bf 6d b0 53 be 1f 81 16 bf
       0.08966215 -0.7541413 -0.2067277 -0.58790773
0003e0 5c fe 93 3c 26 51 0e bc 47 45 30 3d d5 c3 48 3e
       0.018065624 -0.0086863395 0.043034818 0.19605954
0003f0 98 8a d6 3e fa ad 72 be 74 e8 54 bf 37 4c fd be
       0.41902614 -0.2369918 -0.83167195 -0.4947221

fc1.bias f4 [128]
000000 f5 a2 dc 3d 08 f8 33 be 0c 51 39 3e 27 f5 2c 3e
       0.10773269 -0.17575085 0.18097323 0.16890393
000010 d8 4e 91 be d6 57 7f 3e bd 29 8a 3e b3 a9 e1 bd
       -0.28380466 0.2493585 0.2698497 -0.11018696
000020 ef c3 0c 3e e8 1c 6d 3e 3f 41 76 3e 71 84 c6 be
       0.13746618 0.23155558 0.24048327 -0.3877292
000030 9b 74 b1 be 24 2a 90 be 39 4f e7 3e 19 f7 8e 3c
       -0.34659275 -0.2815715 0.4517763 0.01745181
000040 94 ff 44 bd ac b6 19 be 97 80 05 3f 31 91 f4 3e
       -0.0480953 -0.1501109 0.5214934 0.47767022
000050 9b f2 be be bc c8 d7 be 00 d7 c6 be 5d aa 4b bd
       -0.37294468 -0.42145336 -0.38835907 -0.049723018
000060 57 97 2a be b5 2e 91 be 1b dd 13 3e 6d 26 be 3d
       -0.16659294 -0.28355947 0.14439814 0.09284673
000070 46 f4 14 be 2a c8 b7 3d 97 18 df 3d 87 0b a7 3d
       -0.14546308 0.08973725 0.10893362 0.081564955
000080 08 b7 0d 3e 7f 5d c5 3e af ee 97 be 96 e3 06 3d
       0.13839352 0.38547894 -0.2967429 0.032931887
000090 8e 27 3d be 02 86 f8 3e 10 49 ec be 73 ed be be
       -0.1847212 0.4853974 -0.46149492 -0.37290534
0000a0 dc 5c fe 3e da 9b 9e be f1 06 1e 3e ee 6a b1 3d
       0.4968022 -0.3097828 0.15432335 0.08662973
0000b0 0b d4 47 3e 92 29 15 be 0a 35 9a 3e 6b 0b 72 3e
       0.19514482 -0.14566639 0.3011859 0.23637168
0000c0 89 5c d9 be ed 68 ae be 27 df ad 3c 83 98 93 3e
       -0.4245341 -0.34064427 0.021224571 0.28827295
0000d0 85 2f b7 be 95 25 e8 3e 2e 99 8f 3d 81 f5 5b 3d
       -0.35778442 0.45341173 0.070116386 0.053700928
0000e0 3e 2f c7 3e 61 82 a4 3e 82 14 d0 3e 54 fa 8c 3e
       0.3890323 0.3213072 0.40640646 0.27534735
0000f0 6f 04 1c be 19 17 01 3e e5 26 42 3d 1d a4 cb 3e
       -0.15236066 0.12606467 0.047400374 0.39773646
000100 2b 39 46 be b1 51 f0 be 85 71 2d 3e e8 20 f9 3e
       -0.19357745 -0.46937326 0.16937836 0.48657918
000110 2a 91 d0 bd db cf cb be 7c 99 e7 be 97 1a 3a 3e
       -0.10183938 -0.3980702 -0.45234287 0.18174206
000120 ae 10 e9 3d b4 03 8f be c3 d2 41 3e a0 c9 4d 3e
       0.113801345 -0.27932513 0.18928055 0.20096445
000130 83 59 d8 3e 9b 5c bc 3e 33 8e c4 3d e9 60 dc be
       0.42255792 0.36789402 0.09597435 -0.43042687
000140 d8 53 e7 be a4 2d f3 3e b1 c4 9f 3e 44 72 7f 3e
       -0.45181155 0.4749576 0.3120475 0.24945933
000150 85 9b a5 be e8 b0 e2 3e 97 e2 e4 3e 71 47 e6 3e
       -0.32345214 0.44275594 0.44704124 0.4497638
000160 30 f5 d7 be f4 0d 57 be 5b 03 a1 be 0d 1a fb 3e
       -0.4217925 -0.21001416 -0.31447873 0.49043313
000170 d3 e9 1b be 98 14 53 3d 40 2a ac 3e a0 ad 8a be
       -0.15225916 0.05153331 0.33625984 -0.2708559
000180 17 ba c6 3d c8 aa 58 bc 63 a6 69 bd 82 ab c2 be
       0.097034626 -0.013224311 -0.057043444 -0.38021475
000190 a5 9c e4 3e 9f 10 0f bd 83 53 69 3e 5c 10 d9 3e
       0.4465076 -0.03492796 0.22785763 0.42395294
0001a0 bb 7b 59 3e c6 e5 e5 3c b8 ae d6 3e 5b 31 0b 3e
       0.21238606 0.028063666 0.41930175 0.13593046
0001b0 e4 29 80 be e5 d4 ee 3e b8 79 68 3e 09 c0 fe be
       -0.2503196 0.466468 0.22702682 -0.49755886
0001c0 dd b0 38 be bb 0c c0 be a4 e9 df 3e 4f d9 be 3c
       -0.18036218 -0.37509713 0.4373294 0.02329698
0001d0 fe 82 f2 be f0 3b 2b 3e fb 3f 9c 3e 2f 51 50 3e
       -0.47365564 0.16722083 0.30517563 0.20343469
0001e0 09 bd 66 3e 1d 92 66 3e 89 51 4b 3e ba 2a 3b bd
       0.22533049 0.22516675 0.19855322 -0.045695044
0001f0 01 1f 07 bd 20 c7 c7 be 32 53 ce be 4c a0 74 3e
       -0.032988552 -0.39019108 -0.40297848 0.23889273

fc2.weight f4 [2, 128]
000000 19 34 72 3d b1 67 91 bc fd e0 2d 3e 4b 02 ca 3c
       0.059131715 -0.01774964 0.16980357 0.024659296
000010 a2 85 ab bc 5a b8 3f be 78 a1 c4 3b 7a bb 23 3d
       -0.020937745 -0.18722668 0.006000694 0.039973713
000020 36 4d a9 3d 77 7b cf be ff 2e 63 3e 33 29 64 bd
       0.0826668 -0.40523884 0.22185896 -0.055703353
000030 b8 c5 4a 3d 5b e0 ec bc 60 e9 00 3c 09 09 cb bd
       0.049504966 -0.028915575 0.007868141 -0.09913833
000040 5a 33 2e 3c 7e 60 08 3e b7 b5 43 be 78 12 07 3e
       0.01063236 0.13318059 -0.19112287 0.13190639
000050 1d 04 5d 3b 1c 91 c0 ba d4 59 49 3d 08 39 1c 3c
       0.0033724376 -0.0014691683 0.049157932 0.009535082
000060 f9 93 77 3d 5e 0e 08 3e 43 90 39 3e 05 b9 4f bd
       0.060443852 0.1328673 0.18121438 -0.050713558
000070 0b 4c 39 3c 85 fa 31 bd db 2a 56 be 4d 47 4d 3e
       0.011309634 -0.043451805 -0.20914786 0.2004673
000080 5f 11 48 bd 43 c3 1b 3d 63 a6 62 3c 38 b9 c8 3d
       -0.04884469 0.038028013 0.013833615 0.09800953
000090 83 a6 10 3a d7 5d e7 3d 4d bf b9 3d df ac 8e 3d
       0.0005517976 0.112971954 0.09069691 0.06966566
0000a0 e8 78 59 3e d4 ed 81 bd e3 0c 12 3e 80 9d a6 bd
       0.21237528 -0.0634419 0.14262728 -0.081355095
0000b0 ee 3a 92 3e 4c d7 24 3d 7f 47 3e 3d c3 be a4 be
       0.28560585 0.040244386 0.046454903 -0.3217679
0000c0 35 82 b8 3d 84 14 3c 3d 85 9b f6 3d a8 40 72 be
       0.0900921 0.045918003 0.12041382 -0.23657477
0000d0 31 7d 91 3d 74 86 a3 3d 37 47 2a 3e e7 68 10 be
       0.071039565 0.07984629 0.16628729 -0.14102517
0000e0 58 bb 15 3e 18 df 40 be ca 98 91 3d 2f aa e9 bc
       0.14622247 -0.18835104 0.0710922 -0.028523533
0000f0 5e 6f ff bc 40 87 96 3e c8 b6 0a be 63 6a 17 3e
       -0.031181034 0.29400063 -0.13546288 0.14786677
000100 24 67 19 bc d0 71 69 bc cf 39 f9 bc 7f a2 29 3e
       -0.00936297 -0.014248326 -0.030423073 0.16565894
000110 cf 07 eb 3c 9d 64 8b 3d b1 0d dc bc dd fd 03 be
       0.028690247 0.068063 -0.026861997 -0.1288981
000120 34 f8 5b be 4d 3f 61 bd c7 af 67 3e 1e 1f e8 bd
       -0.214814 -0.05499201 0.22625647 -0.1133406
000130 f4 fb 7d bd 2d 6b 0e 3e 09 91 23 bc eb 97 ab 3d
       -0.06200786 0.13908072 -0.00998331 0.083785854
000140 4f cf 92 3d 9f 75 e7 bd 19 d5 3c 3e 56 50 d1 bd
       0.07168447 -0.11301731 0.18440665 -0.10220401
000150 38 94 db bd 7e 6c a2 bd 7d 35 7a bb c6 fe 40 be
       -0.1072163 -0.079308495 -0.0038178854 -0.18847188
000160 7e 1b 5b 3d 74 a9 7d bd 2c 62 bd bc a2 3e f4 3d
       0.053493015 -0.06192918 -0.023118101 0.11926009
000170 63 08 43 bd 7f e8 62 3e c2 55 75 be fa bc 64 3d
       -0.04761542 0.22159003 -0.23958495 0.055844285
000180 36 5a 3a be c0 95 c0 bc b0 f8 a4 3b 68 fa 92 bd
       -0.18198475 -0.023508906 0.0050345287 -0.071766675
000190 95 db 32 be 80 89 3e bd 24 01 2e 3e 4a 3b 96 3d
       -0.17466576 -0.04651785 0.16992623 0.07335527
0001a0 bb d0 4d bd fd ae 11 3d 73 e4 57 3e ac 3f 90 be
       -0.05024789 0.035567272 0.2108324 -0.28173578
0001b0 9d 39 58 3d 82 33 5e 3d b1 35 fa bd 27 d4 0f bd
       0.05278932 0.05424834 -0.12217272 -0.035114434
0001c0 f1 78 32 3d 3e 30 3f 3d 07 95 ba 3d 48 15 1b 3e
       0.04357237 0.046676867 0.09110456 0.15144837
0001d0 2f a0 90 bb 41 1d e2 bc 34 91 79 3d 86 b7 91 be
       -0.0044136266 -0.02760184 0.060929492 -0.2846033
0001e0 aa f3 3b bd 24 0e 81 be c8 1a 16 be 9f 3c af 3d
       -0.045886673 -0.252061 -0.14658654 0.085564844
0001f0 66 48 e4 bc e9 95 02 be f3 06 aa bc cb 14 d9 bd
       -0.027866554 -0.12752499 -0.020755267 -0.10599669
000200 ce 95 37 be 53 9e 96 3b 6f 9b e6 bd 0d 46 c4 bd
       -0.1792824 0.0045965104 -0.11260115 -0.095836736
000210 64 02 46 3c 22 b2 a2 3e 8a 0d 29 bb 61 8b c1 bc
       0.012085531 0.3177653 -0.0025795423 -0.023626031
000220 37 02 85 bd 5a c5 a9 3e 1b 2e af bd 65 9a 85 bd
       -0.06494563 0.3315838 -0.08553716 -0.06523589
000230 bb 35 5d bd d7 52 b7 3c c3 35 95 bd 65 da 83 3d
       -0.05400632 0.022378368 -0.07285645 0.0643814
000240 20 82 39 bd 1a 03 b6 bd a6 12 fc 3d b2 df 3e be
       -0.045290112 -0.0888731 0.123082444 -0.1864002
000250 67 87 ab bc eb 70 07 bb 30 1a 81 3c 9d b7 4a bd
       -0.020938588 -0.002066667 0.015759557 -0.049491514
000260 71 65 06 3d ca ff d6 bc 48 22 67 be ea e9 a9 3d
       0.032811586 -0.026245017 -0.22571671 0.08296569
000270 b8 b9 c2 bd 1d 6f 5a 3d 90 13 e0 3d c8 54 6a be
       -0.09508079 0.053328622 0.10941231 -0.22883904
000280 6e c4 94 3d 23 2e 41 bd 3d ff ba 3d 68 c0 bc bd
       0.072640285 -0.04716314 0.09130714 -0.09216386
000290 02 ae 5c bc 6c a5 17 bd 78 70 6c 3d 81 41 14 be
       -0.013469221 -0.037022993 0.057724446 -0.14478113
0002a0 27 03 f4 bd 62 4b 76 3c a0 47 46 be f0 b3 3c 3d
       -0.11914664 0.015032621 -0.1936326 0.04607004
0002b0 1e 8f 63 be ac 12 29 bd ce ed 3b bd d4 d5 92 3e
       -0.22222564 -0.041277573 -0.045881085 0.28678763
0002c0 32 26 a6 bd fc f0 5c 3d 1d ce b9 bd 49 7c 63 3e
       -0.08112754 0.053940758 -0.09072516 0.2221538
0002d0 61 47 96 3d 71 9d bd bc 65 7b e2 bd 54 ec 07 3d
       0.07337833 -0.023146363 -0.11058692 0.033184364
0002e0 e5 d4 c6 bd 08 d9 dc 3d 78 38 52 bd 8c b4 02 3c
       -0.09708575 0.10783583 -0.051323384 0.007977616
0002f0 2f 82 2c 3c cd 10 85 be d7 43 e6 3d ed 1e 15 be
       0.010529085 -0.2598938 0.11243408 -0.14562578
000300 cc db 1a bd ad ec e6 bc 45 02 04 bd da 98 5f bd
       -0.03780727 -0.028189028 -0.032228727 -0.05458913
000310 fa ec 73 bd 7b d7 3f bd 6a 7c 69 bc 48 5a e1 3d
       -0.05955217 -0.046836358 -0.014250854 0.11003548
000320 88 93 f9 3d 5a a7 01 3d d6 2a 0a be 60 5a ff 3d
       0.121863425 0.03165374 -0.13492903 0.124684095
000330 36 e7 d6 3d a0 16 0c be a9 cf dd 3d ea f6 68 3d
       0.10493319 -0.13680506 0.10830624 0.0568761
000340 90 48 85 3b fb c4 84 3d 7c 0b 48 be 9e 87 e3 3d
       0.004067488 0.064828835 -0.19535631 0.11109851
000350 53 e9 9e 3c f1 46 5a 3d 62 4e 00 3e f2 dc 26 3d
       0.019398367 0.05329031 0.125299 0.040738054
000360 80 bd b9 3a 16 15 c9 bc 16 91 83 3d df 8b 06 be
       0.0014170855 -0.024546187 0.06424157 -0.13139294
000370 46 55 a6 3d dd 1e 01 be 29 61 48 3e 4d 4a 5d 3c
       0.08121733 -0.1260943 0.19568314 0.013506484
000380 68 df 83 3e c7 9b a1 bd b2 80 61 3c 06 ff f3 bc
       0.25756383 -0.0789104 0.0137635935 -0.02978469
000390 35 16 bd 3d 7e a3 91 3d d2 4f b4 bd ad a5 eb bd
       0.09232751 0.07111262 -0.08804287 -0.115062095
0003a0 d3 be 63 3b 38 f6 37 3d b4 8a 1e be 9a a2 7e 3e
       0.0034751191 0.044912547 -0.15482599 0.24866715
0003b0 c1 00 ac 3b c5 69 7c 3b 3e d5 af ba b0 ce f2 3c
       0.0052491133 0.0038515192 -0.0013414992 0.029639572
0003c0 c2 7b 4c bc 2c d6 5b bd da b4 16 be 69 4f 46 bd
       -0.012480678 -0.053671047 -0.14717427 -0.048415575
0003d0 7d de 90 3c c3 33 11 3e 96 03 47 bd 18 a7 1c 3e
       0.017684216 0.14179902 -0.048587404 0.15298116
0003e0 a7 dc 8c 3d ba 4c c6 3e 75 eb 8f 3c bc 6e 95 3d
       0.068780236 0.38730413 0.01756833 0.072965115
0003f0 92 c4 a9 3d d2 d9 02 3e b2 10 14 bd 99 ca 64 3e
       0.08289446 0.12778404 -0.036148734 0.2234291

fc2.bias f4 [2]
000000 6e 43 ae bd f5 13 93 3a
       -0.08508955 0.0011221158

fc1.weight f4 [128, 4]
000000 e2 e9 49 3e a0 58 ec 3e 46 23 2f 3e 11 d2 7c 3e
       0.19718125 0.46161366 0.171033 0.24689509
000010 7f ed 5d 3d 12 3b bb 3e 06 b6 19 3f cf 07 4f 3e
       0.054181572 0.36568505 0.6004337 0.20217822
000020 25 0a 72 be 71 2c fe bd 3a b3 d5 bc 6f 70 89 be
       -0.23636682 -0.1241082 -0.026086438 -0.26843593
000030 62 ae b0 3e 5b ae 70 3e 76 df 26 3e 80 48 29 3e
       0.34508044 0.23504011 0.16296181 0.16531563
000040 a6 8d e3 3e 91 2e 01 3e cb e6 98 be 25 63 4d be
       0.44444007 0.1261542 -0.2986358 -0.20057352
000050 ff 59 4f 3d ae c5 51 be bd 97 01 3f 4b 31 33 be
       0.050622936 -0.20485565 0.5062216 -0.17499273
000060 65 61 cf be ac a0 0b 3e fe 51 fa 3e 0d 37 63 be
       -0.40503994 0.1363551 0.4889068 -0.22188969
000070 00 64 18 bf 95 36 f7 be 90 1e 16 3f 26 0b 32 3e
       -0.5952759 -0.4828383 0.58640385 0.17387065
000080 31 68 86 3e e2 63 bc be 78 d3 9b be 62 6a a1 3e
       0.26251367 -0.36794955 -0.30434775 0.31526476
000090 be 9d 78 3e 7f 8f 6a 3e 53 a1 53 3f 50 99 ef 3d
       0.24278924 0.22906302 0.82668036 0.11699164
0000a0 92 b0 f5 3e b2 35 c4 be bd a9 78 3e 99 ef 00 be
       0.47986275 -0.38322216 0.242835 -0.12591399
0000b0 4d d2 28 be 0c 1a 23 3d 76 30 fe bd b3 fd 99 bc
       -0.16486473 0.039819762 -0.12411587 -0.018797731
0000c0 c4 49 b4 bf bc bd 29 bf 24 71 43 3f 13 22 a0 3d
       -1.4085011 -0.66305137 0.76344514 0.07818999
0000d0 5b 03 4b bf 02 65 8f bf f1 0c 58 c0 01 fb 66 bf
       -0.79301995 -1.12027 -3.3757899 -0.9022675
0000e0 67 01 05 3f 06 22 12 be 24 14 d4 bf c7 10 ee be
       0.51955265 -0.14270791 -1.6568646 -0.46497175
0000f0 72 43 a6 3e bd 8e f1 3d a4 f1 a2 be 40 73 f5 3d
       0.32473332 0.11794803 -0.31824982 0.11984873
000100 61 3e 1d 3f 8c 09 99 be 43 be 0b bf 67 4a 6a bd
       0.6142331 -0.29890096 -0.5458719 -0.05719986
000110 88 22 ef 3e 00 6d 94 3d d4 9b 3b be 8d a3 3e 3d
       0.46706033 0.072473526 -0.18321162 0.046542693
000120 87 a3 74 3f ea c4 aa 3f 06 df 39 40 57 08 87 3f
       0.9556202 1.3341343 2.9042373 1.054942
000130 90 68 71 bf 3d 1e 91 3e 59 dc 0a 40 f7 f9 52 3f
       -0.94300175 0.28343382 2.169699 0.82412666
000140 d4 f4 02 bf c3 fc c2 be 9c 2c 35 c0 a2 43 65 bf
       -0.5115483 -0.38083467 -2.8308477 -0.89556324
000150 1d 0e 91 bf 3d 76 b6 bf 8a 36 1d c0 62 f2 83 bf
       -1.1332432 -1.4254833 -2.4564538 -1.0308344
000160 2a 39 a7 be ba ab 8f 3d 58 e7 5b be e1 8f 2f 3e
       -0.326608 0.07015176 -0.2147497 0.17144729
000170 f2 50 bf bd 5c de b2 3e f0 6d 22 3e 49 d9 0a be
       -0.09341611 0.34935272 0.1586225 -0.1355945
000180 4c ed ee 3e 3c 31 06 3f 99 f9 30 3f 21 5b 6d 3e
       0.46665418 0.52418876 0.69130856 0.23179294
000190 f8 d3 e2 3e a1 92 16 bf 37 df 34 c0 7d 29 5f bf
       0.44302344 -0.5881749 -2.826124 -0.8717268
0001a0 39 fc e8 3e 9d 7f ae be 40 32 e2 be 64 72 6d 3e
       0.4550493 -0.34081736 -0.44178963 0.23188168
0001b0 a3 c4 77 be 6d 69 16 bf fe 32 f2 be bf ab 8c be
       -0.24196105 -0.58754617 -0.4730453 -0.27474782
0001c0 cc 90 f5 3e a5 45 e5 be ce a9 14 c0 9c 8f 56 bf
       0.47962034 -0.44779697 -2.322864 -0.8381288
0001d0 10 a7 66 bd e7 08 d2 3d 2f ae 07 3f 14 15 f9 3d
       -0.056311667 0.10255604 0.5300016 0.121622235
0001e0 f4 11 ab bd 58 5c aa be af 20 76 be eb 9f 49 bf
       -0.08353034 -0.33273578 -0.24035905 -0.7875964
0001f0 9a 10 28 be a2 37 a7 3d 27 ff b5 3d 44 d2 9f be
       -0.16412583 0.08164908 0.08886557 -0.31215107
000200 fb 42 01 3f 7a f9 ae 3f 04 4e 10 40 d8 cf 8b 3f
       0.5049283 1.3669884 2.2547617 1.0922804
000210 ac 38 a6 3f f3 e0 67 be 1d 3e 0b c0 aa 90 13 bf
       1.2986045 -0.22644405 -2.175666 -0.57642615
000220 7a 68 9e bd c7 fd f6 bb 8d 62 5d be a2 41 66 3d
       -0.07734771 -0.007537577 -0.21619625 0.056214936
000230 9d 57 88 3c e0 cb 1d 3f d0 18 17 bf b3 65 8f 3e
       0.01664334 0.61639214 -0.59022236 0.28007278
000240 cb ab 13 3d c0 8d eb bd 84 a6 47 3d 1a 0b cd bd
       0.036052506 -0.11501646 0.048742786 -0.10011883
000250 b0 8f 75 3e 51 f0 bb 3e 2d bb ef be c4 08 e5 3e
       0.23980594 0.36706784 -0.4682249 0.4473325
000260 56 f8 37 3e 1c 1d 17 be db c9 5c 3c be 88 84 3e
       0.17965826 -0.14757198 0.0134758605 0.25885576
000270 90 38 b9 be 0a 12 4b 3e 82 cc 1a 40 02 67 3f 3f
       -0.36175966 0.198311 2.4187322 0.7476655
000280 90 bc de 3e 53 e1 e4 3d a6 71 bc be ec 62 72 3e
       0.43503237 0.1117579 -0.36805457 0.23670548
000290 ac d6 29 3d b4 68 38 3e f0 3b 2b 3a b0 ab ba bc
       0.041464493 0.18008691 0.00065320637 -0.022786945
0002a0 cf 1b 65 3e 8e 17 fb bd 5b 19 04 be 0a 43 19 3b
       0.2237389 -0.12260352 -0.12900297 0.0023385906
0002b0 86 ce 99 3e d4 01 86 be c0 7e ca 3d 96 7a 79 be
       0.30040377 -0.2617327 0.09887457 -0.24363169
0002c0 69 8c 12 3f 95 25 c8 be 94 71 fc be df c3 16 be
       0.572455 -0.39091173 -0.49305403 -0.14723156
0002d0 48 b4 0c 3f 87 b0 19 bf 6c b9 11 c0 57 0d 40 bf
       0.5496259 -0.60034984 -2.2769423 -0.75020355
0002e0 88 12 ed 3e 25 14 ad 3d 8e 0d 1f bb 93 49 b1 3e
       0.463032 0.08451108 -0.0024269554 0.34626445
0002f0 41 8c 26 bf 6c 21 8d bf 05 1a 2e c0 65 85 6c bf
       -0.6505776 -1.1025825 -2.720338 -0.92391044
000300 ef 71 fa 3e 02 1c a5 3f dd 14 1c 40 91 d7 88 3f
       0.4891505 1.2899172 2.4387734 1.0690786
000310 78 4f fc bd 40 40 29 be 41 43 fd 3d 93 72 a8 be
       -0.12319845 -0.16528416 0.12366343 -0.32899913
000320 00 98 a3 bb 00 6e 4e bd 20 fc 37 bd b0 b3 cc bd
       -0.004992485 -0.050397873 -0.04491818 -0.0999521
000330 06 5e 8e 3f 18 a6 ac 3f 70 0a e7 3f c2 52 89 3f
       1.1122444 1.3488188 1.805006 1.0728381
000340 9a 8c 05 3e 25 11 f6 be b9 d4 88 be a7 00 31 bd
       0.13041916 -0.48059955 -0.26724795 -0.043213513
000350 c7 4d 86 3e 15 3b 24 be 32 e6 53 3e 58 71 6f 3e
       0.26231214 -0.16038163 0.20693281 0.23383081
000360 18 b5 a0 bf ba 2c cd bf 06 e9 33 c0 9c 4c 91 bf
       -1.2555265 -1.6029274 -2.8110976 -1.1351504
000370 06 a0 c5 be ea e1 82 bf 58 e5 51 c0 7e bf 60 bf
       -0.3859865 -1.0225194 -3.279623 -0.87792194
000380 bc c8 ad be ce ac 7b 3c ca 2e df be d8 57 65 bd
       -0.3394221 0.015361024 -0.43590385 -0.055991977
000390 ff 3d 3c be b5 24 ab be 4a 08 4c 3e 6e 7c c1 be
       -0.18383025 -0.33426443 0.19925037 -0.37790245
0003a0 28 24 52 be 7b b5 da 3e 72 21 8b bd e4 90 8c 3e
       -0.20521605 0.42716584 -0.067934886 0.27454293
0003b0 64 6d d7 3f 88 e9 6c 3e d9 08 93 3f 54 74 9c 3e
       1.6830258 0.2313596 1.1487075 0.305575
0003c0 0b f3 04 3f f3 38 b7 be 0e c3 b5 be 13 5a df 3d
       0.51933354 -0.35785636 -0.35500377 0.10905852
0003d0 5a 51 c7 bd 40 5f c0 be 67 30 95 3e e0 64 b7 be
       -0.097323135 -0.3757267 0.2913849 -0.3581915
0003e0 ac 1f f9 3d 96 77 14 bf 5c c5 ca 3e 7e a9 71 be
       0.12164244 -0.57994974 0.39603698 -0.23599812
0003f0 1d 79 9c 3e 6f 12 e4 be 17 31 c9 be 6b 89 7b bc
       0.30561152 -0.44545314 -0.39295265 -0.015352587

fc1.bias f4 [128]
000000 11 db 8f 3f 77 7b 15 3f 83 da af 3f 8b 88 91 3f
       1.1238729 0.5839152 1.373856 1.1369795
000010 6b 98 b8 3f 3b 14 88 3f 7f c4 ac 3f d9 07 2f bf
       1.4421514 1.0631174 1.3497466 -0.6837135
000020 0d 61 25 bf 93 8b d0 3e 4d 46 65 3f 3d ec ec be
       -0.6460121 0.40731487 0.89560395 -0.46273986
000030 a5 30 ec be 17 32 1e be 2f e9 e2 be 57 69 7c 3f
       -0.46130863 -0.15448795 -0.4431853 0.98598236
000040 4b 35 a1 3f 2b d0 9f 3f 1e ca 7c be bb c7 29 bf
       1.2594389 1.2485403 -0.24686477 -0.6632039
000050 89 ab eb be 9f 0e 92 be 81 92 b0 3f 15 a2 4d 3d
       -0.46029308 -0.2852678 1.379471 0.0502034
000060 06 be 5d be 90 fe 02 bf e8 b2 56 3f 77 de 9b 3d
       -0.2165452 -0.5116968 0.8386674 0.07610791
000070 20 4c 2a bf a8 ff a0 3f e4 4a 8c bd bc b5 24 3f
       -0.6652241 1.257802 -0.06850222 0.64339805
000080 6c fe b5 be 39 94 2e be 56 89 61 3f fc 2b 6d 3f
       -0.3554567 -0.1704873 0.88100183 0.9264524
000090 9e d8 ab be 95 7a 5e 3f a6 05 76 3f 72 e6 27 bf
       -0.33563703 0.86905795 0.9610237 -0.65586007
0000a0 66 2e a8 3f c4 7d c4 3f f6 04 ae 3f a4 15 df 3e
       1.313916 1.5350881 1.3595264 0.43571198
0000b0 03 e0 84 3f d0 2d 07 bf 2d 32 d9 3e ed 95 a7 be
       1.0380863 -0.5280428 0.42421094 -0.32731572
0000c0 17 ef a1 be b4 4d a6 3f fc 4b 69 be 06 ce a1 be
       -0.31627724 1.2992463 -0.22782892 -0.31602496
0000d0 7b 2f 1f 3f 31 44 31 bf fb e0 74 be cb e2 99 be
       0.62181824 -0.69244677 -0.23913948 -0.30055842
0000e0 f6 16 a3 3f 9d 44 a9 3f 97 cc 9c 3f c3 76 5e bd
       1.2741382 1.3224064 1.2249936 -0.05431248
0000f0 94 76 7e 3f c5 a4 81 3f 50 38 ab 3f 43 1d ba 3f
       0.99399686 1.0128409 1.337656 1.454018
000100 43 af f0 be 14 87 09 bf db e8 91 be c7 1b ea be
       -0.47008714 -0.5372174 -0.28497967 -0.45724317
000110 45 f2 c5 3f e3 03 96 3f 9d af a7 3f 7c 89 b2 3f
       1.546456 1.1719936 1.3100468 1.3948207
000120 0b ce 7e 3f 8f 22 f8 be f4 01 b2 3f 5e df a8 3f
       0.99533147 -0.48463866 1.3906846 1.3193166
000130 39 90 72 3f b3 a4 3e 3d 58 f1 b6 3f 8a 5c 84 3f
       0.94751316 0.04654379 1.4292402 1.0340741
000140 36 ff 8a 3f 59 34 98 3f 3e 3e a7 3f eb 9c 0f bf
       1.0859134 1.1890975 1.306587 -0.5609881
000150 42 54 90 be 7c 04 9b 3f 48 70 56 3f 4c 3c 97 bd
       -0.28189284 1.2110744 0.8376508 -0.073845476
000160 2f 0d ca 3f e4 04 77 3f 98 72 af 3f 67 82 e9 be
       1.5785273 0.9649184 1.3706846 -0.45607302
000170 a6 19 8a 3f d4 58 f3 3d 78 ec 26 be 4b 94 4e 3e
       1.0789077 0.11882177 -0.16301143 0.20173757
000180 16 af 96 be 42 d0 87 3f 52 22 4d 3f 5c f1 b1 3f
       -0.29430455 1.061043 0.80130494 1.3901782
000190 59 7a 85 3f d0 65 4d 3f bf 87 58 3d 09 72 e6 be
       1.0427963 0.8023348 0.052863833 -0.45008877
0001a0 73 0f 82 bd 41 26 a2 be e1 bc 3d 3f 31 e2 87 3f
       -0.06350603 -0.3166981 0.7411633 1.0615903
0001b0 0a 4e 02 be ba 76 e6 3e 87 dc 9a 3f 1a 90 82 3f
       -0.12725082 0.45012456 1.209855 1.0200226
0001c0 5c 37 4c 3e 01 b7 9f be ac 64 89 3f da 75 9a 3f
       0.19942993 -0.31194308 1.0733848 1.2067215
0001d0 fe f7 ec be aa a3 30 3f bc 2b 85 3f 9e f2 98 be
       -0.46282953 0.6899973 1.0403972 -0.29872602
0001e0 d9 47 b7 3f e9 1f 09 3f 30 74 94 3f 66 de 62 be
       1.4318801 0.53564316 1.1597958 -0.22155151
0001f0 ef 95 97 bd f9 40 0e 3d b0 c3 ab 3e 68 04 94 3f
       -0.074016444 0.03472993 0.33547735 1.1563845

fc2.weight f4 [1, 128]
000000 d9 d2 2f 3f 9c 6a 0d 3e eb ba 58 3f b5 20 1e 3f
       0.68681103 0.138102 0.84660214 0.61768657
000010 d6 d9 25 3f ab 1c ed 3e b0 55 17 3f 35 84 54 be
       0.64785516 0.46310934 0.59115124 -0.20753558
000020 0b 7e cc bd b6 71 07 bc e7 f4 d3 3e 97 73 0b 3e
       -0.09984978 -0.008266857 0.41397783 0.13618313
000030 21 7a de be 1a f9 8c bf 5b b1 e3 be a5 77 37 3f
       -0.43452552 -1.101352 -0.4447125 0.7166694
000040 63 22 43 3f e1 55 44 3f 23 aa fa bf c8 4c 62 bf
       0.76224345 0.7669354 -1.9583172 -0.8839841
000050 c8 ec 63 bf ff 03 d5 bf 5d 8d 48 3f 4a 86 d2 3c
       -0.89033175 -1.6641845 0.78340703 0.0256988
000060 1b b7 28 be 66 26 8f bf e7 ea 91 3e 95 5d 8e bc
       -0.16476099 -1.1183593 0.2849953 -0.017378608
000070 f0 74 82 bf bc 06 13 3f df c4 5d 3e f3 71 f0 3d
       -1.0191936 0.5743215 0.21657132 0.11740484
000080 27 5a f5 bf 4f 37 65 bf 25 04 db 3e 92 14 12 3f
       -1.9168137 -0.8953752 0.427766 0.5706264
000090 16 14 2a bd f3 f2 c6 3e 62 a0 b7 3e ec 1f 5a bf
       -0.04152306 0.3885723 0.3586455 -0.8520496
0000a0 e3 9c 3a 3f 13 e3 22 3f 34 b3 3f 3f 4d 7d 00 3e
       0.7289564 0.6362774 0.7488282 0.12547798
0000b0 9c b2 1b 3f 72 37 40 bf ab b3 52 3d 8d 65 6c bf
       0.6081941 -0.750846 0.051440876 -0.92342454
0000c0 79 ca e6 bf 0d 63 2b 3f ca 3e 6c 3d aa a6 d1 bf
       -1.803054 0.66948014 0.057677068 -1.6378987
0000d0 45 5c 5e 3e 50 00 11 be 41 38 e4 bf 22 8e ad bf
       0.21714886 -0.14160275 -1.7829667 -1.3559
0000e0 de e2 54 3f 73 a5 41 3f c1 f3 22 3f ef 56 9f bf
       0.8315867 0.7564308 0.6365319 -1.2448405
0000f0 a2 e0 d8 3e ae 1d 0b 3f 54 07 24 3f 30 e2 4f 3f
       0.4235888 0.5434216 0.6407368 0.8120451
000100 a5 60 84 bd 89 ce 9d bc 3b ed 9f be b5 56 81 bf
       -0.06463746 -0.019263523 -0.3123568 -1.0104586
000110 84 a3 24 3f 6e 4a 3a 3f b5 01 2a 3f 08 29 43 3f
       0.64312005 0.7276982 0.66408855 0.76234484
000120 1b a6 92 3e 09 cc 7a bf 92 a3 30 3f c1 cb 3f 3f
       0.28642353 -0.9796758 0.6899959 0.7492028
000130 ab 98 18 3f 58 7e 3e be ca f7 4b 3f 8b 2e c8 3e
       0.5960795 -0.18602884 0.7967497 0.3909801
000140 4f a5 1e 3f 2f 62 3f 3f 68 55 1e 3f 40 00 29 bf
       0.6197099 0.7475919 0.6184907 -0.66016006
000150 bd a4 25 bf cf e4 53 3f 52 85 bf 3e 70 9c 9c 3e
       -0.64704496 0.8277101 0.37406403 0.30588102
000160 4a df 25 3f bb ac 9d 3e cd b5 40 3f ab dd 07 be
       0.6479384 0.30795845 0.75277406 -0.13268153
000170 d9 4e 2e 3f 4c 85 39 bf b6 8c d9 be 7c 8b 26 bd
       0.6808906 -0.7246902 -0.42490166 -0.040660366
000180 b7 13 a8 bc a6 5f e6 3e 10 2f aa 3e 88 74 54 3f
       -0.020517213 0.4499485 0.3323903 0.8299031
000190 49 a7 4c 3f 79 03 d3 3e 19 11 ef be cd ad 89 bf
       0.79942757 0.41213587 -0.46692732 -1.0756165
0001a0 bb 25 73 bf bb da 9d be b8 29 8a 3e 4b 12 1b 3f
       -0.9497945 -0.3083094 0.26984954 0.6057479
0001b0 f9 06 01 bf 15 ab b4 3e d4 c9 29 3f 66 52 fe 3e
       -0.50401264 0.35286775 0.6632359 0.4967224
0001c0 b8 72 df 3c 04 3a 93 bf de 33 fd 3e e0 3d 1d 3f
       0.027276382 -1.150208 0.49453634 0.6142254
0001d0 7a ef 8f bf e9 7a 45 3e d1 e2 f4 3e df 3f e8 bd
       -1.1244957 0.19285168 0.47829297 -0.113403074
0001e0 0e 6a 3a 3f 60 49 bd 3d 1b a0 15 3f a2 f3 c6 bf
       0.72818077 0.09242511 0.58447427 -1.5543101
0001f0 0c 57 ae bf 17 4e 50 bf 12 28 4a bf 97 b4 3a 3f
       -1.3620315 -0.81369156 -0.7896739 0.7293181

exp_avg f4 [128, 4]
000000 34 2d a4 3a 5a c3 9f b9 16 f5 13 3a 68 47 50 3a
       0.0012525679 -0.00030472392 0.00056441256 0.00079452107
000010 e2 1e 34 b6 10 da e1 35 19 50 71 b7 c8 e2 3f 36
       -2.6840066e-06 1.6827271e-06 -1.4383369e-05 2.8593222e-06
000020 86 ad ce 3a c6 0b af 3a 26 6d 82 3a 2c 63 1d b9
       0.0015768267 0.0013354949 0.0009950742 -0.00015009631
000030 4c ae 05 3a e7 17 c6 39 90 0c c5 39 b4 3f db 38
       0.00050995196 0.00037783312 0.00037584128 0.000104545994
000040 c2 8b a8 37 25 8e eb 37 50 d5 68 b7 43 00 53 b7
       2.009224e-05 2.8080374e-05 -1.3877943e-05 -1.2576641e-05
000050 84 77 34 bb ec 10 ff ba 26 9b f1 ba d0 01 7e b9
       -0.0027537057 -0.0019459999 -0.0018433079 -0.00024224003
000060 dc 51 34 38 99 7e 0b 38 91 6e e6 37 45 bb 4d b4
       4.299158e-05 3.3258086e-05 2.7469623e-05 -1.9160241e-07
000070 37 28 68 38 fb 35 ae 39 fd 16 de 38 4e a9 75 b9
       5.5350563e-05 0.00033228085 0.00010590067 -0.00023428092
000080 62 14 ec 39 59 62 f8 39 38 4e 0d 3a 1d f5 c8 37
       0.00045028614 0.0004737552 0.00053903786 2.3955998e-05
000090 4d 7d 8c bb 84 09 20 bb 08 8d 2a bb dc 0b 22 ba
       -0.004287398 -0.0024419734 -0.0026024003 -0.0006181577
0000a0 bc 3d e2 3a 7a 8b 9d 3a 71 41 91 3a 82 29 0d 39
       0.001726083 0.0012019717 0.0011082125 0.0001346227
0000b0 65 dc 89 b5 5c dd a6 b6 18 7e 96 35 b2 39 b8 36
       -1.0271439e-06 -4.972955e-06 1.1212569e-06 5.490344e-06
0000c0 55 89 88 b7 70 ae a2 b8 80 41 b4 36 8f eb b0 38
       -1.6276414e-05 -7.7572535e-05 5.3720432e-06 8.43621e-05
0000d0 1a 70 90 32 83 87 08 b7 07 f1 2c b5 0e 33 c2 36
       1.6814784e-08 -8.137783e-06 -6.4425734e-07 5.787594e-06
0000e0 7a 80 e9 39 e5 6b 9f 39 a5 2a 96 39 e2 73 4b 38
       0.00044536946 0.0003040723 0.00028642002 4.8506896e-05
0000f0 3a 0e 6c b9 6a 98 a6 38 8c a2 8c b9 cf 78 71 b9
       -0.00022512014 7.943886e-05 -0.00026823988 -0.00023028556
000100 fa 34 42 38 1e de 12 38 6e 4f 26 38 d4 a1 c1 36
       4.6302543e-05 3.5015975e-05 3.965146e-05 5.7706875e-06
000110 40 73 f2 39 58 6c cc b9 b3 7e 38 39 82 99 09 3a
       0.00046243705 -0.00038990634 0.00017594807 0.00052490097
000120 b1 4f e7 ba d7 0a 9e ba 6b 78 96 ba 23 0c 54 b9
       -0.0017647651 -0.0012057674 -0.0011479979 -0.00020222417
000130 ae a3 e8 3a 21 0b 9f 3a 11 01 97 3a 09 0e 52 39
       0.0017748976 0.0012134054 0.0011520704 0.00020032389
000140 8d 23 29 38 a2 25 cf b7 4f 41 24 37 30 f6 1b 38
       4.032585e-05 -2.4693847e-05 9.790368e-06 3.718416e-05
000150 04 00 00 00 04 00 00 00 04 00 00 80 04 00 00 80
       6e-45 6e-45 -6e-45 -6e-45
000160 f5 e4 80 b6 4c 5b 2f b7 4f bb a2 35 a7 39 5b 37
       -3.8413514e-06 -1.045207e-05 1.2124455e-06 1.306684e-05
000170 b4 56 e1 38 28 81 d3 b8 7d 6f 74 38 71 96 24 39
       0.00010744986 -0.00010085321 5.8277965e-05 0.00015696303
000180 86 b8 2a 38 6a 39 59 b7 32 e9 fc 36 84 bc 9b 37
       4.070301e-05 -1.2947576e-05 7.5373327e-06 1.8565224e-05
000190 19 d2 68 39 b0 4a 0d b8 5a 34 53 38 5c c4 54 38
       0.00022203512 -3.3686578e-05 5.0355076e-05 5.0727613e-05
0001a0 a3 cb c0 3a 21 d6 b0 3a 41 72 b7 3a a0 2d b0 b6
       0.0014709126 0.001349155 0.0013995842 -5.25052e-06
0001b0 b4 b8 3f ba 24 9b 15 ba 3c 57 fe b9 3c a9 0a 37
       -0.00073135947 -0.00057070167 -0.0004851165 8.264844e-06
0001c0 1c 59 ae 39 42 02 c3 b9 fe 03 1d 39 17 2d e2 39
       0.00033254258 -0.0003719498 0.00014974174 0.00043139674
0001d0 59 c8 0f ba 98 7c c3 b9 37 92 b9 b9 a7 f1 82 b8
       -0.0005484871 -0.00037286128 -0.00035394888 -6.243894e-05
0001e0 58 bb 4e ba c5 fa ee ba ce 71 8e ba 44 c6 2c 3a
       -0.0007886193 -0.0018232694 -0.0010867657 0.0006590823
0001f0 cd 8d ef 3a 2d 99 a3 3a e5 41 a4 3a df c1 23 39
       0.0018276513 0.0012481563 0.0012531845 0.00015617114
000200 62 d3 b5 b9 b8 c4 39 ba d8 c3 bb b9 64 c1 6f 39
       -0.00034680503 -0.00070865033 -0.00035813334 0.0002286486
000210 75 6e f5 39 d7 63 a8 39 10 95 9f 39 6c 0c 59 38
       0.00046812338 0.00032117844 0.00030437903 5.17484e-05
000220 94 a8 9c 36 28 97 1e 38 c2 66 58 b6 b4 33 2f b8
       4.6687874e-06 3.781091e-05 -3.224632e-06 -4.1771404e-05
000230 75 9a b0 39 af 9b 7d b9 6e 63 8a 39 82 38 05 3a
       0.00033684415 -0.00024185957 0.00026395492 0.00050819677
000240 3f 33 b8 b7 f4 4a ab 37 d1 e2 21 37 80 2f a1 34
       -2.1958373e-05 2.0419691e-05 9.649158e-06 3.0023148e-07
000250 b4 39 5a 3a 4c 29 15 3a 8e 3e 0d 3a ec 82 c2 38
       0.00083246385 0.00056900526 0.00053880445 9.275027e-05
000260 36 48 24 37 4d d6 64 b6 42 0f 0b 36 48 ad 0a 37
       9.791975e-06 -3.4099387e-06 2.0721495e-06 8.265786e-06
000270 25 52 05 b8 e1 e8 51 38 e0 42 64 35 0a b7 19 b8
       -3.1786174e-05 5.004637e-05 8.5033935e-07 -3.664851e-05
000280 ba 86 f2 3a 7f d3 b5 3a 4b c5 9b 3a cd 46 9d 38
       0.0018503286 0.0013872235 0.0011884359 7.499531e-05
000290 ca 26 be ac de b4 a1 2c 89 0a cc 29 7d 7a a5 ac
       -5.4044312e-12 4.5959755e-12 9.0612474e-14 -4.703181e-12
0002a0 32 eb c0 3a d2 07 bd 3a 9f 43 8a 3a d9 0d 7c b8
       0.0014718531 0.0014421886 0.0010548717 -6.009438e-05
0002b0 89 9e b6 b9 9c bc fe b9 7f 99 ae b9 47 06 82 39
       -0.00034831863 -0.0004858718 -0.0003330223 0.0002480021
0002c0 7a d0 34 3b 60 f6 19 3b 3a d5 e7 3a ee ab 7a b9
       0.0027590082 0.0023492798 0.0017687448 -0.00023905907
0002d0 70 f9 38 36 5f 95 03 b8 3b 45 2f 36 75 05 36 38
       2.7563328e-06 -3.1371947e-05 2.611733e-06 4.3397264e-05
0002e0 1f 91 08 3a a3 d0 bc 39 80 fb ab 39 4c 04 3a 38
       0.0005209613 0.000360136 0.00032803044 4.4349857e-05
0002f0 e0 4e 65 bb c9 8c 19 bb 8e 42 0f bb e8 81 a8 b9
       -0.003498964 -0.0023429862 -0.0021859738 -0.00032140245
000300 dc d7 33 38 e4 7c 5e b8 cd 2b 39 35 8b 03 43 38
       4.287796e-05 -5.3045238e-05 6.898161e-07 4.6494923e-05
000310 02 8e 83 b2 63 d0 27 32 1f 69 fc 2c 20 fb f0 b1
       -1.5314985e-08 9.768061e-09 7.1739416e-12 -7.013469e-09
000320 f8 43 a1 3a 30 e1 0e ba e8 2b b2 39 d6 98 7a 3a
       0.0012303581 -0.00054504257 0.00033983518 0.00095595175
000330 ed 44 29 bb c7 d9 e6 ba a5 74 db ba c5 51 98 b9
       -0.0025828436 -0.001761251 -0.0016743137 -0.00029052622
000340 f6 f3 30 27 d9 7f cb 26 22 9b 10 a6 92 c8 a2 24
       2.4557158e-15 1.4120608e-15 -5.017028e-16 7.059608e-17
000350 5a 62 15 3a ae 2d cc 39 47 de c0 39 b7 c8 83 38
       0.00056985545 0.00038943946 0.00036786703 6.283953e-05
000360 2f 27 a1 3a 90 a6 7e 3a 10 f8 53 3a de 52 6e 37
       0.0012295003 0.0009714151 0.00080859754 1.42051995e-05
000370 84 21 48 ba ad 44 13 3a fa ea a9 b9 e9 02 69 ba
       -0.0007634389 0.00056178385 -0.00032409263 -0.0008888678
000380 d4 d3 ae 3a c5 94 8a 3a 84 80 62 3a 0a 1d b3 b7
       0.0013338276 0.0010572901 0.0008640366 -2.1351985e-05
000390 7e 0a d9 ba c0 8d 9c ba 26 91 8c ba 96 b9 fa b8
       -0.0016558913 -0.00119441 -0.001072441 -0.00011955497
0003a0 15 52 0a 3a 42 6f ed 38 3c 3b c7 39 6b 5c 99 39
       0.00052765134 0.00011321764 0.0003800037 0.0002925129
0003b0 f2 ea 0e b9 47 51 4f b9 28 68 07 b9 54 7a 2f 38
       -0.00013629699 -0.00019771337 -0.00012913404 4.183718e-05
0003c0 78 aa 9c b8 68 53 da 36 c3 9a b3 b7 9b 18 85 b7
       -7.470412e-05 6.506616e-06 -2.141053e-05 -1.5866293e-05
0003d0 4c 77 49 3b b5 12 21 3b 7c 7b bc 3a 90 16 d2 37
       0.0030741272 0.00245778 0.0014380063 2.5044457e-05
0003e0 5b 6c 40 ba 2f 09 c8 ba 0a 54 45 ba 7e 6a 25 3a
       -0.0007340365 -0.0015261526 -0.00075274764 0.0006310119
0003f0 98 1b e2 3a 9d ac 96 3a af 99 88 3a d0 d0 11 39
       0.0017250655 0.0011495535 0.0010421778 0.00013906066

exp_avg_sq f4 [128, 4]
000000 42 f2 3a 38 23 24 2b 38 f8 4a 32 36 17 8a cb 37
       4.4571476e-05 4.0803232e-05 2.6567704e-06 2.4263789e-05
000010 bc 85 ff 33 95 3b 18 36 60 59 9d 33 07 9f cc 36
       1.1898689e-07 2.2684446e-06 7.3271394e-08 6.098187e-06
000020 7b 01 91 38 98 3f 80 38 ed e1 93 36 43 21 d9 37
       6.9144146e-05 6.115361e-05 4.4072426e-06 2.5883905e-05
000030 a1 f1 94 36 0f b5 28 37 30 62 0a 35 cf 2b b2 37
       4.438873e-06 1.0055736e-05 5.155189e-07 2.1239654e-05
000040 e4 73 60 36 48 e5 c2 37 8e 3e 14 35 4a dc 58 38
       3.3446058e-06 2.323337e-05 5.5225325e-07 5.1703573e-05
000050 20 d8 57 39 fc 5a fd 38 d9 9b 37 37 19 5b 67 38
       0.0002058451 0.00012080927 1.0943936e-05 5.5159533e-05
000060 06 98 9c 35 35 16 0b 38 56 eb a1 35 21 fe b2 38
       1.166715e-06 3.3160864e-05 1.2063927e-06 8.5350366e-05
000070 d6 1b 94 36 60 12 37 38 7b 39 c3 35 35 95 dd 38
       4.4139842e-06 4.3647713e-05 1.4545361e-06 0.00010565893
000080 b5 68 15 37 c4 2e 92 38 f6 46 1c 36 34 af 32 39
       8.905471e-06 6.970533e-05 2.3287116e-06 0.00017040671
000090 b4 4c 9b 39 54 30 fc 38 50 6c 28 37 fc 28 40 38
       0.00029621052 0.00012025298 1.0038799e-05 4.5814537e-05
0000a0 9e 93 ab 38 af 09 83 38 b7 27 82 36 20 d2 15 38
       8.181411e-05 6.2483705e-05 3.8789253e-06 3.5720062e-05
0000b0 7d 23 cf 34 8c bd 5c 36 ff 06 b7 33 c5 d5 06 37
       3.8582576e-07 3.2892885e-06 8.522874e-08 8.0367945e-06
0000c0 2f 72 e1 36 2f 97 5e 38 67 5f f4 35 dd 66 0e 39
       6.7188153e-06 5.3069725e-05 1.8207182e-06 0.00013580495
0000d0 77 b2 4f 36 07 7d b5 37 96 94 00 35 71 51 4c 38
       3.0949284e-06 2.1635102e-05 4.7899937e-07 4.871324e-05
0000e0 50 34 a4 36 28 4e 7d 38 43 95 1b 36 f9 99 20 39
       4.893671e-06 6.039269e-05 2.3183682e-06 0.00015316148
0000f0 91 77 ee 37 d4 8b a8 37 04 00 8b 35 7c c2 bc 36
       2.8427488e-05 2.0092273e-05 1.0356312e-06 5.6254776e-06
000100 b5 4e 13 36 e7 05 2c 37 0c 1a ac 34 a2 93 d2 37
       2.195052e-06 1.0253373e-05 3.2056448e-07 2.5102698e-05
000110 18 5e 6b 38 73 da b7 38 2d f7 6c 36 8c c9 f5 38
       5.6115998e-05 8.766809e-05 3.5310616e-06 0.000117200514
000120 c0 af de 38 9e e7 b6 38 20 c8 e3 36 b9 66 9e 38
       0.00010618521 8.721578e-05 6.788425e-06 7.553161e-05
000130 6e 90 2e 39 ca 26 39 39 15 4c 34 37 a9 d0 44 39
       0.00016647737 0.00017657425 1.074655e-05 0.00018769749
000140 72 eb e6 34 c3 74 eb 35 46 cc 37 33 87 04 64 36
       4.3012147e-07 1.7542847e-06 4.2793793e-08 3.3977283e-06
000150 1d 30 e5 2f 33 b8 2f 33 71 9b dd 2f 4f e0 b5 33
       4.1689044e-10 4.091289e-08 4.0310114e-10 8.469271e-08
000160 40 aa 25 34 92 25 c2 36 12 3b 06 34 f5 13 79 37
       1.5428759e-07 5.7860243e-06 1.2501212e-07 1.4846203e-05
000170 e6 17 db 35 0d 35 be 37 73 1b 26 35 0d 78 6d 38
       1.6323727e-06 2.2674469e-05 6.187976e-07 5.661701e-05
000180 95 e9 f5 34 cc cb 3e 37 2a 22 a1 34 2e 59 f2 37
       4.580476e-07 1.1372333e-05 3.0013445e-07 2.8890176e-05
000190 7b 5e a6 37 fa e8 ce 37 56 f7 33 35 62 93 fe 37
       1.9832738e-05 2.4665602e-05 6.704262e-07 3.034779e-05
0001a0 a8 0a d1 38 f1 38 c8 38 50 9a ab 36 5a b3 19 38
       9.9678815e-05 9.547349e-05 5.1141615e-06 3.6645077e-05
0001b0 70 8d 80 37 de 14 c3 37 16 63 96 35 01 5c 40 38
       1.5324651e-05 2.3255529e-05 1.1204709e-06 4.5862053e-05
0001c0 57 86 2a 37 03 85 aa 37 13 21 89 35 a3 09 a4 37
       1.0164068e-05 2.0327518e-05 1.0216921e-06 1.9554811e-05
0001d0 d2 b3 b4 36 1d 04 e9 37 62 e3 95 35 91 d9 91 38
       5.385352e-06 2.777768e-05 1.1167542e-06 6.954664e-05
0001e0 5f e4 b8 38 8e b1 a4 38 45 b7 c0 36 a8 b0 8c 38
       8.816341e-05 7.8532015e-05 5.7433813e-06 6.708625e-05
0001f0 9b ae c0 38 82 ba 9a 38 9e 37 3d 36 08 ba 6d 37
       9.187796e-05 7.378032e-05 2.8195568e-06 1.4169615e-05
000200 33 d2 e5 37 96 ca 6b 38 ce 90 8b 36 50 52 94 38
       2.7396809e-05 5.621704e-05 4.1593803e-06 7.072522e-05
000210 40 89 3a 37 5c 09 e4 37 36 58 e8 35 b3 2b 15 38
       1.111842e-05 2.7184076e-05 1.731102e-06 3.5565066e-05
000220 bc 08 b8 34 ae e5 b9 36 fa da 65 34 8b 2d 78 37
       3.4279026e-07 5.540168e-06 2.140695e-07 1.4792556e-05
000230 ef 5a 8b 38 94 dc de 38 30 54 09 37 00 17 2a 39
       6.644974e-05 0.00010626871 8.185438e-06 0.00016221032
000240 7a be 4a 35 65 d8 35 36 2b 99 0a 34 ef 1f b7 36
       7.5528044e-07 2.709706e-06 1.2907974e-07 5.4575426e-06
000250 cd 96 64 37 6f f2 6d 38 5a d2 0f 36 56 74 0b 39
       1.362497e-05 5.6730987e-05 2.1431101e-06 0.00013299412
000260 e0 b3 17 34 58 68 70 35 6c a0 9f 32 94 02 d6 35
       1.4128409e-07 8.955881e-07 1.8582988e-08 1.5944993e-06
000270 fa ad 83 36 9a 84 19 35 75 97 5b 32 f1 38 73 34
       3.9243578e-06 5.71899e-07 1.2781915e-08 2.2651854e-07
000280 76 87 2f 39 e6 39 25 39 cc 57 31 37 bf 1d bd 38
       0.00016739764 0.00015757195 1.0570464e-05 9.017763e-05
000290 84 2b 85 35 87 17 9e 36 22 1e b2 33 e6 39 3e 37
       9.921937e-07 4.711506e-06 8.294252e-08 1.1338363e-05
0002a0 f2 fb b9 38 cf a2 f2 38 23 5f 02 37 a6 db 45 38
       8.868416e-05 0.00011569785 7.770755e-06 4.7173024e-05
0002b0 69 84 a2 37 3f f2 8f 37 0e 15 93 35 2b f9 49 37
       1.9373563e-05 1.7159733e-05 1.0958481e-06 1.20385475e-05
0002c0 31 2f 6c 39 2d 1a 4b 39 31 78 47 37 14 e5 87 38
       0.00022524294 0.0001936934 1.1889309e-05 6.479971e-05
0002d0 34 3c 04 36 4a 33 05 38 6f b7 93 35 77 ea b1 38
       1.9704576e-06 3.1757438e-05 1.100574e-06 8.48369e-05
0002e0 c1 9b 07 37 83 b6 43 37 31 83 4e 35 c8 49 90 37
       8.082891e-06 1.16654e-05 7.693189e-07 1.7200495e-05
0002f0 97 53 a3 39 65 96 9d 39 5d 5d 9f 37 88 69 60 39
       0.00031152062 0.00030057426 1.8997753e-05 0.00021401618
000300 11 bd 45 37 91 9c 8c 37 41 a1 cd 34 b1 4e 1a 38
       1.17861355e-05 1.6762207e-05 3.8301553e-07 3.678975e-05
000310 e4 e4 42 33 5e d7 a3 33 ed 88 1c 30 02 d3 01 34
       4.537732e-08 7.629454e-08 5.694705e-10 1.2090825e-07
000320 b3 23 23 38 b5 8c 36 38 bc 66 25 36 0c d2 16 38
       3.8895476e-05 4.3523225e-05 2.4646715e-06 3.595841e-05
000330 39 54 96 39 30 46 99 39 ea 77 9c 37 7f 5c 8b 39
       0.0002867298 0.00029234728 1.8652489e-05 0.0002658106
000340 2c 60 82 34 5c 8b 1f 34 ec e9 88 30 8f 8c 9e 33
       2.428436e-07 1.4858728e-07 9.961787e-10 7.383016e-08
000350 5c 20 a4 37 53 02 44 38 88 4f 1a 36 9f bf bc 38
       1.9565392e-05 4.6732206e-05 2.2994082e-06 9.000231e-05
000360 58 53 17 38 6d 88 ef 37 43 2b a8 35 d4 d4 5a 37
       3.6078825e-05 2.8554548e-05 1.2529566e-06 1.30433655e-05
000370 53 21 07 37 bd b4 48 37 ef f2 03 35 ab f9 9b 37
       8.054386e-06 1.196301e-05 4.915482e-07 1.85937e-05
000380 fd 57 a2 38 07 59 ff 38 7c 2f 14 37 19 95 dc 38
       7.741151e-05 0.0001217593 8.832543e-06 0.00010518189
000390 78 a8 05 39 cc 79 11 39 a2 27 20 37 6f fa cc 38
       0.00012746628 0.0001387365 9.545971e-06 9.774125e-05
0003a0 55 c1 ff 37 b4 b9 f7 37 3f 92 52 36 6b c0 e8 37
       3.0488396e-05 2.953117e-05 3.1377565e-06 2.7746157e-05
0003b0 ea 32 c4 36 0b 04 34 37 79 ec 49 35 03 e1 18 37
       5.8471824e-06 1.0729777e-05 7.522245e-07 9.112296e-06
0003c0 4f 5a 36 36 d8 68 13 37 8c b4 6e 34 96 b6 86 37
       2.717268e-06 8.786294e-06 2.223116e-07 1.6059068e-05
0003d0 6c 57 df 38 94 7b a2 38 5a d1 30 36 5a ac 65 37
       0.00010649752 7.74778e-05 2.6347902e-06 1.3689592e-05
0003e0 99 bd d8 38 08 17 2b 39 fc ef 21 37 2c 3b 47 39
       0.00010334998 0.0001631641 9.6522235e-06 0.00019000162
0003f0 b2 ed af 38 05 80 a0 38 18 78 cf 36 14 43 5f 38
       8.3889245e-05 7.65324e-05 6.1830615e-06 5.3229815e-05

exp_avg f4 [128]
000000 a3 23 d7 bb 41 16 a7 37 97 9f 2f bc 4e 68 98 bb
       -0.0065655275 1.9918314e-05 -0.0107192015 -0.004651106
000010 ca 6c 68 38 86 ae 96 3c 99 c3 8d b9 d6 ca 65 ba
       5.5414428e-05 0.018393766 -0.00027039347 -0.00087658816
000020 0f 37 c8 bb 00 34 d6 3c 3e 1b 39 bc 80 13 e6 36
       -0.006110079 0.026147842 -0.011297999 6.8568042e-06
000030 e4 bd de 38 87 ec dc b6 e9 02 3d bb 1c bf 91 3a
       0.00010621155 -6.5840463e-06 -0.0028840846 0.0011119577
000040 63 12 04 b9 fe 7e 89 ba 2c d8 3d 3c 52 1a 3e bc
       -0.0001259535 -0.0010490117 0.011587184 -0.011602955
000050 09 bb 93 b8 04 00 00 00 31 ff 40 37 d1 75 fd b9
       -7.044344e-05 6e-45 1.1503508e-05 -0.000483437
000060 e0 1f 82 37 e8 51 21 39 bf 02 88 bc 67 34 9c 3b
       1.551205e-05 0.00015384669 -0.016602872 0.004766989
000070 5a fc cc ba 76 82 6b 3b bb cd 17 3c 0e 60 94 bc
       -0.0015639171 0.0035935915 0.009265359 -0.018112209
000080 8f 23 83 3b 51 a2 47 bb ca 47 4b b8 84 f7 d6 ba
       0.0040020416 -0.0030461738 -4.846583e-05 -0.001640067
000090 26 43 ba 36 bf c0 b1 bb e2 d0 37 b7 b2 2f a2 b8
       5.551049e-06 -0.0054245885 -1.0956284e-05 -7.733646e-05
0000a0 8f 8f 48 bc e8 83 29 ab 3d 72 51 bc e4 97 34 3b
       -0.012241258 -6.022392e-13 -0.012783584 0.0027556354
0000b0 03 20 9f bc 5b 87 4b 38 eb 9d 5a bb 5d dd b4 3c
       -0.019424444 4.852503e-05 -0.0033358287 0.02207821
0000c0 f1 94 97 b8 d8 aa 72 32 28 e3 96 bb 80 57 8a 3c
       -7.2279836e-05 1.4125099e-08 -0.004604716 0.016887426
0000d0 c1 37 0e 24 ad 97 72 bb ec 8c 2f bc b4 6b 3f 3b
       3.0838567e-17 -0.0037016675 -0.010714751 0.0029208483
0000e0 68 a5 14 bc d0 4a 31 3c 5a 1c 79 bb 3c e7 a1 3a
       -0.009072639 0.010821059 -0.0038011284 0.0012352238
0000f0 6e eb 65 b8 8f 40 a3 bc 6d b2 e1 3b 29 bc 31 bc
       -5.4817116e-05 -0.019928245 0.006887725 -0.0108480835
000100 2f 3b 37 b9 d6 c2 4e 2c 88 f8 89 b7 82 94 07 bc
       -0.00017474288 2.9382516e-12 -1.6447404e-05 -0.008275153
000110 5b da b0 ba dd ef d6 b7 3d b5 86 b6 82 d7 07 3c
       -0.0013492809 -2.5622483e-05 -4.01461e-06 0.008291127
000120 c8 00 45 3c 0a 47 c7 34 4e 16 5c bc 94 4e 10 3c
       0.012024112 3.7118326e-07 -0.013433052 0.008807797
000130 ee 4f c8 3b 41 41 24 bc f6 8a 19 3b f2 a4 23 2d
       0.006113044 -0.010025323 0.0023428774 9.3021025e-12
000140 00 00 00 00 cf 3a d8 3b b8 e5 69 bc 38 28 07 3c
       0.0 0.0065988074 -0.014275961 0.008249335
000150 83 ae f2 b9 a6 d0 a0 3b de 49 9d 3b 27 e6 0a 3c
       -0.00046287858 0.0049076853 0.0048000654 0.008477724
000160 00 00 00 00 5b db 70 37 aa f2 30 3a 6c 9a 01 bc
       0.0 1.4356187e-05 0.0006750027 -0.007910352
000170 70 0a 86 3a 70 e5 78 bc 87 fe 82 3c 5f d1 26 39
       0.0010226499 -0.015191421 0.015990509 0.0001590899
000180 f6 63 06 3c 05 38 56 ba 04 ae 27 39 fe d8 5d b7
       0.0082025435 -0.00081718 0.00015991187 -1.3223149e-05
000190 aa f2 1f 3c 35 b1 05 3b 3f 32 1e bc d6 d4 e0 bb
       0.009762445 0.0020399813 -0.009655534 -0.0068613095
0001a0 f0 e5 fa 3a 3e 08 3c 39 c7 aa 5a bc 14 66 9f 3c
       0.0019142013 0.00017932148 -0.013346381 0.019457854
0001b0 dc c5 87 38 65 28 e9 ba 16 f2 88 3b 37 35 96 37
       6.474156e-05 -0.0017788528 0.0041792495 1.7906174e-05
0001c0 ca c5 28 ba 88 a5 a3 39 bf b6 10 bc d1 70 ef bb
       -0.0006438164 0.00031213113 -0.008832633 -0.00730715
0001d0 04 a0 bb b4 c2 ea b0 3b f7 85 83 bb 93 c9 82 3c
       -3.494789e-07 0.005399079 -0.0040137726 0.015965259
0001e0 05 81 8d 3b d5 2b bf 3c 6e 9b c5 3b 11 7b e8 b8
       0.004318359 0.02333633 0.0060304916 -0.00011085545
0001f0 9b d5 e9 3a 31 57 5b b8 8f ef f0 b5 89 b3 45 3c
       0.0017840149 -5.2294872e-05 -1.7951114e-06 0.01206673
