demo/base/ac/a2c_cnn.pt (torch, 26717 bytes, 21 tensors)

fc1.weight f4 [128, 4]
-0.22775161 0.3591989 0.07465614 -0.06832711 0.24598344 0.50644344 0.95964825 0.5076445
-0.2649075 -0.25859848 0.45527732 0.18029298 -0.36542794 0.36556563 -0.23355858 0.1596555
-0.25653598 -0.0745411 0.38755473 0.093869865 -0.19670257 -0.031972438 -0.20407988 -0.28563076
0.03226659 -0.18216757 -0.61849874 -0.5440037 -0.20505363 0.44208655 0.15674014 0.10027427
-0.5089351 -0.27570653 -0.24173881 0.06125864 0.07841874 -0.4694783 -0.38435644 0.09645713
0.44985947 0.07083848 0.7290169 0.3981837 0.029407978 0.1326599 0.55180985 0.47307014
0.075591095 -0.42727244 -0.23751347 -0.62525 -0.04643513 0.12545727 -0.2306004 -0.044967722
-0.27153698 0.15007575 0.26280198 0.3741737 0.43632382 0.3490026 0.45987517 0.36144704
0.060678165 0.13724157 -0.2372038 0.0017025565 0.30252406 -0.29825455 -0.13662767 0.4041914
0.13397108 0.511589 0.53614587 0.21657375 0.056741428 0.010697295 -1.0046976 -0.40152377
0.31162253 -0.38213992 -0.59833384 0.16049074 0.20483746 0.107685655 0.18249781 0.43393004
0.15789366 -0.2502754 -0.18549396 -0.64107114 0.4085757 -0.073944695 -0.23237467 -0.62897277
-0.42963916 -0.28081045 -0.31329116 0.08724267 0.43700176 -0.106971376 -0.1669334 0.27673975
0.024181107 0.25456244 -0.18828948 -0.29248583 0.37081096 -0.68417436 -0.8258984 -0.7855083
0.24179198 -0.34434584 0.0040991125 0.35917485 -0.011171712 0.053897265 -0.50977427 0.17284971
-0.112088844 -0.44916704 -1.1328102 -0.7311114 0.49043489 0.13362269 0.15878475 -0.44006714
0.11153007 0.1115713 1.0323577 0.24577425 0.102772474 -0.25692645 -0.2849681 -0.5894162
0.07802028 0.1871198 0.09684536 0.70633507 -0.3741794 0.010874908 -0.11180192 0.09073685
0.06346571 0.5073741 0.38594335 0.21316649 0.3956606 0.3812225 0.7797896 0.13178854
-0.40933806 0.5003543 0.2560186 -0.067764536 0.3555836 -0.19083533 -0.05473611 -0.4905801
-0.012265787 0.2357807 0.58795154 0.49640304 0.008903075 0.18970707 -0.8291324 -0.33072025
0.21236195 0.22164585 -0.031867407 -0.35699007 -0.34344363 -0.1121567 -0.19362831 0.10272272
0.29142275 0.37428895 0.90502286 0.76792616 0.4625063 0.43318546 -0.16347836 -0.36075962
0.04027331 0.36894512 -0.40224886 -0.40109766 -0.17380427 0.48452708 0.1907082 0.28524843
-0.4252855 0.47883967 0.09537293 0.54521847 0.3239878 0.06301819 -0.17514288 -0.38640314
-0.37586004 -0.21198684 0.39068624 -0.4286853 -0.27847016 0.4714837 1.2438934 0.12876636
0.11234138 -0.07586796 0.13703242 0.223636 -0.03075999 0.2973734 -0.54165554 -0.18346351
0.30234572 0.045844637 -0.019724151 0.34599832 -0.4811009 -0.4791792 -0.39960298 -0.46815774
-0.21111509 -0.24532011 -0.08345277 0.28533807 0.11025142 0.3001754 -0.19471225 0.014656444
-0.24895045 -0.13238454 0.43690112 0.17604005 -0.15185909 0.18998978 -0.002198463 -0.29096654
-0.01946035 -0.3881068 -0.021800708 -0.15526497 -0.43487185 -0.4715416 -1.1484544 -0.44150633
-0.03834059 0.106546044 0.20417115 0.49663302 -0.41041696 0.14192899 -0.528687 -0.39189097
00000000: b837 69be ebe8 b73e 51e5 983d 15ef 8bbd
00000010: 15e3 7b3e 47a6 013f 82ab 753f fdf4 013f
00000020: f5a1 87be 0567 84be 1c1a e93e b99e 383e
00000030: 5f19 bbbe 6b2b bb3e fb29 6fbe bb7c 233e
00000040: af58 83be 01a9 98bd 936d c63e d83e c03d
00000050: 666c 49be 88f5 02bd 51fa 50be 323e 92be
00000060: f929 043d 238a 3abe ef55 1ebf d443 0bbf
00000070: 94f9 51be 2b59 e23e 7d80 203e 995c cd3d
00000080: 9249 02bf 6829 8dbe 618a 77be 57ea 7a3d
00000090: 019a a03d 765f f0be 5eca c4be 518b c53d
000000a0: fb53 e63e c413 913d daa0 3a3f bcde cb3e
000000b0: 00e9 f03c ffd7 073e 6943 0d3f 4036 f23e
000000c0: 81cf 9a3d 74c3 dabe bb36 73be 6210 20bf
000000d0: c332 3ebd df77 003e 8322 6cbe 1330 38bd
000000e0: e506 8bbe 75ad 193e fb8d 863e b293 bf3e
000000f0: d665 df3e 78b0 b23e c274 eb3e 960f b93e
00000100: ab89 783d 0e89 0c3e 8ee5 72be 5128 df3a
00000110: 6fe4 9a3e d2b4 98be 20e8 0bbe 2df2 ce3e
00000120: b72f 093e 7ff7 023f db40 093f 82c5 5d3e
00000130: b369 683d b543 2f3c ee99 80bf 8694 cdbe
00000140: fd8c 9f3e d8a7 c3be 682c 19bf af57 243e
00000150: e9c0 513e 4c8a dc3d b5e0 3a3e 142c de3e
00000160: e0ae 213e 1924 80be 21f2 3dbe 3d1d 24bf
00000170: d630 d13e 5170 97bd a0f3 6dbe 5c04 21bf
00000180: aaf9 dbbe 63c6 8fbe b367 a0be 49ac b23d
00000190: b2be df3e cf13 dbbd 97f0 2abe d5b0 8d3e
000001a0: 7517 c63c 0256 823e f5ce 40be b4c0 95be
000001b0: efda bd3e 0d26 2fbf 146e 53bf 1217 49bf
000001c0: 5198 773e 194e b0be d951 863b c4e5 b73e
000001d0: 8e09 37bc 61c3 5c3d 9180 02bf 84ff 303e
000001e0: d68e e5bd 39f9 e5be edff 90bf 1e2a 3bbf
000001f0: 481a fb3e 63d4 083e 7898 223e 7b50 e1be
00000200: e169 e43d 7e7f e43d 4c24 843f 3fac 7b3e
00000210: 607a d23d dd8b 83be 57e7 91be fbe3 16bf
00000220: 19c9 9f3d 559c 3f3e dc56 c63d 60d2 343f
00000230: 7194 bfbe ac2c 323c 68f8 e4bd 3ed4 b93d
00000240: 4ffa 813d 45e3 013f 5e9a c53e 5148 5a3e
00000250: 0794 ca3e 982f c33e 4ba0 473f 93f3 063e
00000260: c294 d1be 3817 003f df14 833e 22c8 8abd
00000270: 0e0f b63e 566a 43be f932 60bd 512d fbbe
00000280: 71f6 48bc 7f70 713e fe83 163f 8a28 fe3e
00000290: 34de 113c 9242 423e 0542 54bf 2a54 a9be
000002a0: 6975 593e 21f7 623e 6687 02bd 67c7 b6be
000002b0: d8d7 afbe 69b2 e5bd 8046 46be 4a60 d23d
000002c0: 5d35 953e cda2 bf3e 94af 673f cf96 443f
000002d0: a0cd ec3e 7cca dd3e df66 27be 7cb5 b8be
000002e0: a0f5 243d 60e6 bc3e 90f3 cdbe ac5c cdbe
000002f0: bff9 31be ef13 f83e 0349 433e 150c 923e
00000300: 05bf d9be 792a f53e e252 c33d 7093 0b3f
00000310: bbe1 a53e ae0f 813d a858 33be a2d6 c5be
00000320: ba70 c0be 1413 59be 0708 c83e a47c dbbe
00000330: a493 8ebe 5066 f13e e637 9f3f 54db 033e
00000340: 3d13 e63d a960 9bbd 3a52 0c3e d600 653e
00000350: 60fc fbbc 5441 983e f0a9 0abf dcdd 3bbe
00000360: 0fcd 9a3e 96c7 3b3d 8b94 a1bc b126 b13e
00000370: db52 f6be fa56 f5be c398 ccbe 5fb2 efbe
00000380: 8e2e 58be 3235 7bbe 49e9 aabd d517 923e
00000390: 7fcb e13d 97b0 993e a662 47be 9521 703c
000003a0: deec 7ebe d08f 07be 81b1 df3e d843 343e
000003b0: f380 1bbe ae8c 423e 1714 10bb 91f9 94be
000003c0: 506b 9fbc efb5 c6be 6697 b2bc c8fd 1ebe
000003d0: 86a7 debe e76d f1be 8e00 93bf 1e0d e2be
000003e0: 060b 1dbd d034 da3d 3e12 513e af46 fe3e
000003f0: 2c22 d2be d555 113e 0858 07bf efa5 c8be

fc1.bias f4 [128]
-0.45603204 0.4005391 -0.35165113 0.33767003 -0.10554063 0.10071838 0.28821814 0.07709997
-0.27181816 -0.24596392 0.41294628 0.15349932 0.1757289 0.2677874 -0.5074287 -0.19919111
0.45970777 0.004920553 0.34269118 0.21191715 0.06053296 -0.32770318 0.45928112 0.14005914
-0.34505248 -0.208703 -0.35939297 0.26068205 0.3034418 -0.267717 0.2732462 -0.22997466
0.28624612 0.21459064 0.43184242 0.47855827 0.4218653 -0.17451513 0.406267 0.018070359
0.31067166 0.34778285 0.07447621 0.2710878 0.47179368 0.24833815 0.31018567 0.25988063
0.41533476 -0.31021863 -0.19382489 0.15425912 0.4430726 -0.002974761 -0.37995523 -0.21823995
-0.23695715 -0.4371825 0.3673027 0.13500333 0.28992358 0.18983287 0.18323229 0.14543682
0.2201698 0.23273332 0.28400767 0.16916056 0.10038263 -0.44115716 -0.433504 -0.3251559
0.37617585 0.26421908 -0.076065466 0.409938 -0.048311595 0.25161344 -0.4455654 0.26933455
-0.054380782 0.084999874 0.18179785 0.15688413 0.37392327 0.044595208 0.01857734 -0.19463101
-0.24700685 0.39188683 0.31561473 -0.3546578 0.16914721 0.17844307 -0.5013474 0.40497908
0.33234683 -0.09363711 0.23022075 0.3320529 -0.41010597 0.104501985 0.41959584 -0.0060046497
0.025906637 0.20106949 0.082189515 0.009121037 -0.0044246847 -0.32358155 0.34817877 -0.20741856
-0.3518618 0.23239388 -0.5140852 -0.011698343 0.30390653 0.3925911 -0.35050327 -0.2603717
-0.3642254 0.23726574 0.23621444 0.38479993 -0.05662785 -0.24267934 0.338723 0.2592411
00000000: 087d e9be 7613 cd3e 9e0b b4be 16e3 ac3e
00000010: b025 d8bd 7045 ce3d 5491 933e 97e6 9d3d
00000020: c02b 8bbe f7dd 7bbe b26d d33e ed2e 1d3e
00000030: 47f2 333e 6e1b 893e d9e6 01bf c1f8 4bbe
00000040: d15e eb3e 973c a13b 3875 af3e cf00 593e
00000050: 69f1 773d b6c8 a7be e526 eb3e aa6b 0f3e
00000060: b8aa b0be 3db6 55be 5b02 b8be 1e78 853e
00000070: b95c 9b3e 3412 89be ede6 8b3e 7a7e 6bbe
00000080: da8e 923e a6bd 5b3e 731a dd3e 9705 f53e
00000090: bbfe d73e 18b4 32be 3a02 d03e 4a08 943c
000000a0: 5b10 9f3e 9810 b23e fc86 983d 05cc 8a3e
000000b0: f18e f13e 5b4c 7e3e a8d0 9e3e 130f 853e
000000c0: c2a6 d43e fad4 9ebe 087a 46be 1af6 1d3e
000000d0: 69da e23e 35f4 42bb 7e89 c2be 4b7a 5fbe
000000e0: e5a4 72be 62d6 dfbe 190f bc3e 503e 0a3e
000000f0: dd70 943e 8c63 423e 3fa1 3b3e 64ed 143e
00000100: 3174 613e a551 6e3e 7469 913e 6d38 2d3e
00000110: 6995 cd3d 5adf e1be 3cf4 ddbe d67a a6be
00000120: 1f9a c03e b947 873e 36c8 9bbd 65e3 d13e
00000130: 61e2 45bd 7ad3 803e 2621 e4be 38e6 893e
00000140: 62be 5ebd 6a14 ae3d 3729 3a3e 3ca6 203e
00000150: df72 bf3e 77a9 363d 812f 983c 5a4d 47be
00000160: 5def 7cbe 64a5 c83e 4198 a13e b595 b5be
00000170: ed34 2d3e c8b9 363e 4e58 00bf 6b59 cf3e
00000180: 5d29 aa3e d0c4 bfbd fdbe 6b3e d602 aa3e
00000190: 69f9 d1be 2305 d63d 44d5 d63e a7c2 c4bb
000001a0: 283a d43c 29e5 4d3e fa52 a83d 6770 153c
000001b0: f2fc 90bb 7bac a5be 7d44 b23e 8865 54be
000001c0: 3b27 b4be a9f8 6d3e 169b 03bf 68aa 3fbc
000001d0: a399 9b3e b301 c93e 2a75 b3be 714f 85be
000001e0: c07b babe caf5 723e 33e2 713e 7f04 c53e
000001f0: 9bf2 67bd ef80 78be 1a6d ad3e 40bb 843e

fc2.weight f4 [2, 128]
0.08451132 -0.11545062 -0.0031436165 -0.03264494 -0.06016137 0.015168651 0.1789129 -0.038062293
0.13201576 -0.014991982 -0.016408596 -0.10405486 0.2774748 -0.0066147097 0.017387718 -0.08183035
-0.014317803 -0.10485997 -0.15890788 0.08851238 0.049178094 0.025897063 0.11941525 0.15822062
0.10279969 0.04382631 0.066744104 0.32776183 0.008226753 -0.040247884 0.26334783 -0.027060436
-0.10265984 0.16663177 -0.104134284 -0.048625145 -0.14114614 -0.11234104 -0.007362278 0.014026488
-0.12452016 0.100735724 -0.029027542 -0.042297494 -0.11919535 -0.044958126 0.10441925 -0.034664083
-0.18726088 0.008952314 0.07316988 -0.20248249 -0.013909154 0.031536683 -0.03014685 0.1813674
-0.069494806 -0.020237094 -0.05934624 0.058000926 -0.012503343 0.3274422 -0.059414454 0.16593385
0.26842585 -0.28297895 0.26002887 0.25456747 -0.025429312 -0.06284194 -0.048272323 -0.011762515
-0.09560525 0.16430666 -0.23343816 0.13081484 0.02928062 -0.083720796 0.028670698 0.030914249
-0.013399121 -0.045411367 0.3531783 0.4184674 -0.15143844 -0.06766284 0.14867966 -0.04718017
0.03226008 0.14372808 -0.13518322 0.076288715 0.42244047 0.029469917 0.05157442 0.081997536
-0.12756659 -0.027351042 -0.045074955 -0.08860517 -0.06818637 -0.0899488 -0.11819738 -0.15066512
0.10561409 -0.2574256 0.16412203 0.0777204 0.07803462 0.0988225 -0.14073473 0.10312598
-0.07793941 0.0404999 -0.016360084 -0.028194418 0.0041538943 -0.004072684 0.06679969 0.03160208
0.076263055 -0.04506228 0.21464133 0.11921608 0.103347756 0.018616857 -0.025633283 -0.3617141
-0.050572276 0.18112361 0.07175224 0.0057196585 0.04504209 -0.10112361 -0.17603987 0.08366279
-0.14154872 -0.002437639 0.11865253 0.054598264 -0.24745649 -0.029122123 -0.05411592 0.022164004
0.059712075 0.056079328 0.024145586 -0.14895646 -0.04217991 0.014945664 -0.11641069 -0.08193355
-0.116174914 0.05939704 -0.062072203 -0.3449957 0.07926858 -0.037881292 -0.20427893 -0.08956653
0.1828121 -0.15602157 0.12546651 0.046650913 0.052120052 0.19033888 0.036051374 -0.07647717
0.077500276 -0.11038312 0.0037998313 -0.061541416 0.15327218 -0.034562293 -0.11759642 0.09496459
0.17467816 0.052575104 0.00926352 0.24642739 0.11933899 -0.12684576 -0.021785205 -0.13942413
0.027451262 -0.024770435 0.12445341 -0.025439948 -0.06975451 -0.21695894 0.1608962 -0.17319283
-0.29156175 0.27565503 -0.21441051 -0.31880838 0.041051585 0.082257114 -0.0778689 -0.025047012
0.123633176 -0.14988835 0.14968109 -0.066099815 -0.06619426 0.061617777 -0.03415614 0.0023133042
0.08735664 0.11728202 -0.31718874 -0.35399774 0.2354277 0.14640494 -0.00782425 0.0920817
-0.006601137 -0.09924611 0.13743617 0.050536845 -0.35703987 -0.10163494 0.054379445 -0.12562814
0.04410369 0.007946305 0.048060503 0.20293029 0.056812864 -0.015311142 0.15563725 0.156691
-0.18330295 0.22585016 0.0031853896 0.06198429 0.038139466 0.026170185 0.11734783 -0.11489724
-0.07196909 -0.14135833 0.002047527 -0.12802517 0.029174645 -0.040919837 0.012317146 -0.020402588
-0.06596704 0.07165033 -0.21717855 0.020894319 -0.1382666 0.0064223264 -0.062716365 0.49119595
00000000: 4514 ad3d 6071 ecbd 2205 4ebb b3b6 05bd
00000010: c56b 76bd ef85 783c f134 373e 35e7 1bbd
00000020: 242f 073e eea0 75bc 526b 86bc b71a d5bd
00000030: 2d11 8e3e 35c0 d8bb b070 8e3c ac96 a7bd
00000040: 3895 6abc d3c0 d6bd bfb8 22be fb45 b53d
00000050: f86e 493d 1426 d43c fc8f f43d 9604 223e
00000060: a588 d23d 3883 333d 22b1 883d 66d0 a73e
00000070: 81c9 063c f7da 24bd 87d5 863e d9ad ddbc
00000080: 523f d2bd 85a1 2a3e 5b44 d5bd 292b 47bd
00000090: 9d88 10be 0f13 e6bd 443f f1bb 5bcf 653c
000000a0: 6d04 ffbd 884e ce3d 2bcb edbc 2340 2dbd
000000b0: b11c f4bd 0326 38bd c2d9 d53d edfb 0dbd
000000c0: 51c1 3fbe baac 123c 17da 953d 9257 4fbe
000000d0: 38e3 63bc 9c2c 013d 87f6 f6bc 60b8 393e
000000e0: 4b53 8ebd 43c8 a5bc 0b15 73bd 6192 6d3d
000000f0: d2da 4cbc 81a6 a73e 925c 73bd 90ea 293e
00000100: 1d6f 893e 9ee2 90be 8122 853e ab56 823e
00000110: 2251 d0bc 46b3 80bd 33b9 45bd 90b7 40bc
00000120: afcc c3bd 0140 283e 6a0a 6fbe 53f4 053e
00000130: e9dd ef3c cf75 abbd d0de ea3c e13f fd3c
00000140: fd87 5bbc 4501 3abd c9d3 b43e 5c41 d63e
00000150: ae12 1bbe d192 8abd 7b3f 183e fe3f 41bd
00000160: 2523 043d 742d 133e 786d 0abe 423d 9c3d
00000170: 1e4a d83e e56a f13c b33f 533d 53ee a73d
00000180: d1a0 02be 4b0f e0bc 84a0 38bd a176 b5bd
00000190: 4ca5 8bbd 1437 b8bd 7811 f2bd f547 1abe
000001a0: 334c d83d 4acd 83be 9b0f 283e e02b 9f3d
000001b0: 9dd0 9f3d 7363 ca3d c41c 10be b733 d33d
000001c0: b39e 9fbd 39e3 253d 9505 86bc fbf7 e6bc
000001d0: 641d 883b 2674 85bb 47ce 883d 2f71 013d
000001e0: ce2f 9c3d 3a93 38bd f0ca 5b3e 8f27 f43d
000001f0: fda7 d33d 6182 983c e4fc d1bc 9732 b9be
00000200: e024 4fbd 7878 393e d7f2 923d f96b bb3b
00000210: 0e7e 383d e519 cfbd cc43 34be 6657 ab3d
00000220: 26f2 10be ccc0 1fbb 1900 f33d 6ea2 5f3d
00000230: 3c65 7dbe 8591 eebc a8a8 5dbd 4991 b53c
00000240: a694 743d 70b3 653d f7cc c53c 0b88 18be
00000250: d7c4 2cbd a9de 743c ba68 eebd c7cc a7bd
00000260: 1ded edbd 504a 733d 6c3f 7ebd 47a3 b0be
00000270: 9157 a23d 6a29 1bbd 7f2e 51be a86e b7bd
00000280: 1833 3b3e 1ec4 1fbe 4b7a 003e 0715 3f3d
00000290: d67b 553d 32e8 423e 9baa 133d 10a0 9cbd
000002a0: 77b8 9e3d 8c10 e2bd 9706 793b da12 7cbd
000002b0: 62f3 1c3e 3191 0dbd 64d6 f0bd cc7c c23d
000002c0: d5de 323e fe58 573d 05c6 173c 7657 7c3e
000002d0: 0068 f43d dbe3 01be e376 b2bc 33c5 0ebe
000002e0: 78e1 e03c 5eeb cabc 6ee1 fe3d 7067 d0bc
000002f0: 74db 8ebd 7c2a 5ebe f9c1 243e 7659 31be
00000300: 9547 95be a822 8d3e 6e8e 5bbe da3a a3be
00000310: b525 283d 6b76 a83d bb79 9fbd 642f cdbc
00000320: 6433 fd3d 557c 19be 0046 193e 575f 87bd
00000330: db90 87bd ec62 7c3d 4fe7 0bbd ce9a 173b
00000340: 0ae8 b23d 8e31 f03d 9066 a2be 313f b5be
00000350: f613 713e 2deb 153e 4831 00bc 5595 bc3d
00000360: 5a4e d8bb 8b41 cbbd 11bc 0c3e b9ff 4e3d
00000370: eecd b6be fb25 d0bd fbbc 5e3d aaa4 00be
00000380: 12a6 343d 3831 023c 17db 443d f5cc 4f3e
00000390: 9bb4 683d 96db 7abc 5f5f 1f3e 9b73 203e
000003a0: c5b3 3bbe 4445 673e f8c1 503b 3de3 7d3d
000003b0: 2138 1c3d db62 d63c 0f54 f03d 3f4f ebbd
000003c0: 8864 93bd 3dc0 10be ce2f 063b 0819 03be
000003d0: aaff ee3c 8f9b 27bd dbcd 493c 5423 a7bc
000003e0: ba19 87bd 69bd 923d 0e64 5ebe 902a ab3c
000003f0: c295 0dbe 6172 d23b 7071 80bd 097e fb3e

fc2.bias f4 [2]
-0.04662468 -0.035458133
00000000: 85f9 3ebd 8c3c 11bd

fc1.weight f4 [128, 4]
0.10619194 -0.03454701 -0.3341353 -0.0824514 -0.42423445 0.31988347 -0.13254753 0.1633375
0.78341514 -0.3801416 -1.69097 -0.51441264 0.28396872 -0.15757985 -0.46519694 0.0700018
0.19937249 -0.10514069 -0.51727945 0.15617904 0.22150244 -0.06359731 0.23606034 -0.18547139
0.25096133 -0.79943985 -0.13858171 -0.26251778 0.2204588 0.18319035 0.09325948 0.117425494
-0.26110023 0.11176915 -0.20006587 0.027737735 0.020676326 0.29965606 2.3807685 0.7046664
0.119341806 -1.0189288 -2.4143467 -1.0775772 -0.23066047 0.31169534 2.8820856 0.8923528
-0.7725891 0.14312677 1.3769516 0.7602677 0.3606717 -0.30054942 -0.31417102 -0.030616522
-0.9656591 0.40656066 2.015449 0.55465823 -0.5794395 -0.15951446 -0.3234095 0.10259713
0.31711927 0.1480741 2.6422179 0.3241019 -0.17635514 -1.0136533 -2.2470114 -1.0113392
0.016043594 0.02760383 -0.10539287 0.14253195 0.20764816 0.44375065 3.164711 0.4949217
0.823237 0.5549577 1.9496796 0.23260175 0.9023661 -0.39054304 -2.044542 -0.61194396
0.19475247 1.1730646 2.264527 0.95491016 0.38107342 -0.1505977 -0.83057004 -0.2141179
-0.30969664 -0.12358141 0.06528559 -0.22624068 0.34525236 -0.074128464 0.019554203 0.0414819
-0.11380689 -0.30423498 -0.2987448 -0.10597591 0.4798264 -0.025287341 0.033703264 -0.01359132
0.2479382 -0.13661528 -0.046913315 0.036089107 0.013048336 -0.2936331 -0.012155261 -0.0036583226
-0.30033842 -0.093976416 0.2066525 -0.162825 -0.11159493 -0.41434264 -0.4462787 -0.11562776
-0.059687972 0.25014254 0.41736636 -0.006379032 -0.55023146 -0.15964723 -1.5773312 -0.13492323
0.0983111 0.03175857 1.7686685 0.015147277 -0.3107174 -0.038094115 -0.5165634 -0.027734783
-0.050961934 -0.87885386 -3.2571135 -0.94878364 0.18651177 0.56129813 2.7230093 0.5694835
0.052358124 -0.25428662 0.36722636 -0.31710836 -0.19056162 -0.11181834 -0.45538628 -0.073782094
0.19622388 0.026462756 0.3288547 -0.14246519 -0.22431476 0.5103242 2.9993908 0.6993153
-0.17682211 0.36948377 0.2807162 0.11704532 -0.10663118 -0.22919983 0.0052945316 0.3032279
-0.16996482 0.31321505 -0.2045489 -0.13382371 -0.6760125 0.08102432 0.7397574 0.22512439
-0.45322028 -1.1284987 -3.410052 -1.0941607 0.55184525 -0.495408 -1.8045018 -0.44829005
0.34787512 -0.035341788 0.3621005 -0.12750502 -0.05304679 -0.013230468 0.26963958 -0.25148952
0.16333981 -0.42000607 -0.12255165 0.09413896 -0.8490764 -0.11039809 -2.6759298 -0.22545367
-0.3957896 0.06546419 -0.6764495 0.14915274 -0.0427147 -0.41930595 0.10259027 -0.25573057
0.20204672 1.2514739 2.6717055 1.0160686 0.2808028 0.14402847 -0.41332138 0.08276935
-0.2650724 0.15615754 1.4236634 0.52473843 0.0015771069 0.5180507 -0.07129635 0.2845968
0.39889628 -0.20741224 -0.07074829 0.081026316 0.076737545 0.0997491 0.30634335 0.1324144
-0.13913965 -0.41024134 -0.38720924 -0.0044184364 -0.2956283 0.22143275 -0.20750894 -0.02018034
-0.31756106 -0.30986235 -0.1338913 -0.121841416 -0.16415384 0.097536735 0.30627754 -0.09968706
00000000: 297b d93d 2a81 0dbd c813 abbe 48dc a8bd
00000010: 4235 d9be c4c7 a33e 8aba 07be f241 273e
00000020: e58d 483f eba1 c2be b471 d8bf 8cb0 03bf
00000030: 5964 913e 9d5c 21be 4b2e eebe 1b5d 8f3d
00000040: 4d28 4c3e 0154 d7bd 6d6c 04bf 66ed 1f3e
00000050: 89d1 623e 4e3f 82bd cdb9 713e 36ec 3dbe
00000060: 017e 803e 17a8 4cbf 5de8 0dbe bb68 86be
00000070: f4bf 613e 4096 3b3e d4fe be3d c77c f03d
00000080: eeae 85be 39e7 e43d 11de 4cbe 3f3a e33c
00000090: 6661 a93c 856c 993e 835e 1840 0465 343f
000000a0: 7a69 f43d 426c 82bf a884 1ac0 0dee 89bf
000000b0: 4232 6cbe 8896 9f3e 1774 3840 3c71 643f
000000c0: 66c8 45bf d38f 123e f33f b03f e7a0 423f
000000d0: f6a9 b83e 9de1 99be 06db a0be 80cf fabc
000000e0: 6f35 77bf b828 d03e 1efd 0040 15fe 0d3f
000000f0: 2656 14bf c257 23be ee95 a5be 721e d23d
00000100: 755d a23e bda0 173e 191a 2940 aff0 a53e
00000110: 7196 34be 64bf 81bf 09cf 0fc0 9073 81bf
00000120: db6d 833c 6d21 e23c 38d8 d7bd e5f3 113e
00000130: b8a1 543e 4933 e33e a08a 4a40 6166 fd3e
00000140: a9bf 523f b511 0e3f 1a8f f93f 272f 6e3e
00000150: 7701 673f 42f5 c7be c7d9 02c0 5ca8 1cbf
00000160: 316d 473e fb26 963f 03ee 1040 fe74 743f
00000170: 0e1c c33e 4936 1abe 3da0 54bf b941 5bbe
00000180: 8f90 9ebe 4018 fdbd 74b4 853d a3ab 67be
00000190: ebc4 b03e aad0 97bd 2330 a03c ede8 293d
000001a0: 9613 e9bd b0c4 9bbe 14f5 98be e609 d9bd
000001b0: ceab f53e 6627 cfbc 6f0c 0a3d 21ae 5ebc
000001c0: 83e3 7d3e e0e4 0bbe 2d28 40bd 2cd2 133d
000001d0: b0c8 553c 1457 96be dc26 47bc 78c0 6fbb
000001e0: f5c5 99be b576 c0bd b79c 533e 99bb 26be
000001f0: e28b e4bd b824 d4be a47e e4be 3fce ecbd
00000200: 607b 74bd af12 803e 0bb1 d53e 3307 d1bb
00000210: f8db 0cbf 907a 23be fde5 c9bf 5129 0abe
00000220: 5457 c93d 4615 023d bb63 e23f 492c 783c
00000230: 5a16 9fbe 9308 1cbd 803d 04bf 0e34 e3bc
00000240: 76bd 50bd 91fc 60bf 8c74 50c0 7ce3 72bf
00000250: f1fc 3e3e 3cb1 0f3f c945 2e40 acc9 113f
00000260: 7975 563d db31 82be 1805 bc3e 075c a2be
00000270: 9622 43be 0401 e5bd 6428 e9be 111b 97bd
00000280: eaee 483e 6cc8 d83c a55f a83e 65e2 11be
00000290: c5b2 65be 9ba4 023f 05f6 3f40 5406 333f
000002a0: db10 35be fa2c bd3e 09ba 8f3e 75b5 ef3d
000002b0: 7361 dabd 5cb3 6abe c07d ad3b b040 9b3e
000002c0: 420b 2ebe b95d a03e 4475 51be 1509 09be
000002d0: 280f 2dbf 14f0 a53d be60 3d3f 0287 663e
000002e0: 7d0c e8be a572 90bf 4b3e 5ac0 750d 8cbf
000002f0: bb45 0d3f 1ea6 fdbe eaf9 e6bf 4686 e5be
00000300: b01c b23e 8dc2 10bd 3d65 b93e ad90 02be
00000310: 9747 59bd 9bc4 58bc 330e 8a3e 3cc3 80be
00000320: 8d42 273e 090b d7be 5cfc fabd edcb c03d
00000330: 125d 59bf 6518 e2bd 6f42 2bc0 54dd 66be
00000340: efa4 cabe 1712 863d cb2b 2dbf 7fbb 183e
00000350: 9cf5 2ebd 45af d6be d91a d23d 1eef 82be
00000360: 56e5 4e3e 4c30 a03f 39fd 2a40 890e 823f
00000370: 62c5 8f3e 337c 133e dc9e d3be fa82 a93d
00000380: 92b7 87be c3e7 1f3e 9a3a b63f 4255 063f
00000390: edb6 ce3a f89e 043f d203 92bd acb6 913e
000003a0: 223c cc3e e063 54be 7be4 90bd 20f1 a53d
000003b0: 9328 9d3d 4249 cc3d 09d9 9c3e a497 073e
000003c0: a07a 0ebe 270b d2be 4a40 c6be 88c8 90bb
000003d0: 985c 97be 44bf 623e 397d 54be 3e51 a5bc
000003e0: 5d97 a2be 47a6 9ebe cd1a 09be fe87 f9bd
000003f0: f217 28be 57c1 c73d 69d0 9c3e bb28 ccbd

fc1.bias f4 [128]
-0.4638675 1.0996693 -0.7958528 1.318807 1.290903 1.2948434 0.8681679 1.2284455
1.188327 -0.44125995 -0.4783048 -0.8245984 -0.6834716 0.1648156 -0.4338174 -1.3439883
-0.38021022 -0.5824945 -0.2811256 -0.27109715 -1.5840045 -0.5695664 -0.43689814 -0.6456383
1.2300849 1.1747959 1.1260505 1.553395 0.8069862 1.3818364 1.1339896 1.3366663
0.96757126 -1.1408978 -0.097960025 1.1682458 -0.44182494 -0.3173553 1.4234643 1.0704441
1.0996782 -0.6616354 1.1163168 -0.4204667 -0.7915606 -0.29967225 -0.21787573 -0.68997216
1.3292627 0.6403822 -0.09127426 -1.586299 1.1557639 1.1149405 -0.35234725 1.3306231
-0.69390076 1.1329213 0.8660771 -0.4918846 1.4300357 0.74999964 -0.7485779 1.5244411
1.380223 1.4277627 -0.28802174 -0.76120067 1.3202376 -0.55306774 -0.41884866 0.9605154
-0.36675325 1.5269774 -0.64561045 1.0841386 -3.334905 -0.61310685 -0.20061344 -0.39206138
-0.500232 1.2761521 -0.42395172 1.1374104 1.1974875 1.2964407 -0.6067463 1.1421722
1.2974366 -0.26386333 -0.6747235 1.2239515 1.2549624 0.6022296 0.92608863 0.8162802
1.5674136 -0.56542164 1.2425715 0.8310537 -0.7173642 1.496863 1.2823507 1.2778343
1.3801011 1.2907184 -0.39898962 1.1376944 -0.4447898 -0.6653895 0.5230005 -0.68760014
1.2544566 1.1052631 0.89193326 1.5480893 -0.45161122 1.5806539 1.194415 -1.2043897
-0.5771162 -0.4785143 1.1636138 1.134501 -0.68022066 -0.4852775 -2.0582147 -0.41419762
00000000: 0a80 edbe f7c1 8c3f 02bd 4bbf abce a83f
00000010: 4f3c a53f 6ebd a53f 4040 5e3f b43d 9d3f
00000020: 191b 983f d3ec e1be 5ee4 f4be e118 53bf
00000030: fff7 2ebf 6cc5 283e 501d debe cf07 acbf
00000040: eaaa c2be 5c1e 15bf b2ef 8fbe 3fcd 8abe
00000050: a9c0 cabf 1bcf 11bf 1db1 dfbe 8d48 25bf
00000060: 6c73 9d3f b65f 963f 6c22 903f a6d5 c63f
00000070: a696 4e3f 04e0 b03f 9226 913f e217 ab3f
00000080: c0b2 773f f008 92bf 449f c8bd 1489 953f
00000090: e136 e2be 657c a2be 1434 b63f 5004 893f
000000a0: 41c2 8c3f f060 29bf 78e3 8e3f 6947 d7be
000000b0: b7a3 4abf a46e 99be d11a 5fbe 04a2 30bf
000000c0: 4825 aa3f 16f0 233f 00ee babd d80b cbbf
000000d0: 12f0 933f 5fb6 8e3f dc66 b4be dc51 aa3f
000000e0: 7ba3 31bf 9103 913f 3bb7 5d3f 4cd8 fbbe
000000f0: 690b b73f faff 3f3f cda2 3fbf e320 c33f
00000100: 26ab b03f eec0 b63f 9677 93be 0cde 42bf
00000110: 8cfd a83f d995 0dbf 5573 d6be 56e4 753f
00000120: 15c7 bbbe ff73 c33f ba46 25bf 0ec5 8a3f
00000130: 156f 55c0 92f4 1cbf 9c6d 4dbe 45bc c8be
00000140: 340f 00bf f458 a33f 3310 d9be aa96 913f
00000150: 4547 993f c5f1 a53f ba53 1bbf b332 923f
00000160: 6712 a63f 1819 87be aeba 2cbf 71aa 9c3f
00000170: 9ca2 a03f b82b 1a3f 2514 6d3f bdf7 503f
00000180: 02a1 c83f 79bf 10bf 950c 9f3f efbf 543f
00000190: 2ea5 37bf 3599 bf3f 1124 a43f 1390 a33f
000001a0: 27a7 b03f 4336 a53f 5e48 ccbe f89f 913f
000001b0: 7dbb e3be f756 2abf 5ce3 053f 9006 30bf
000001c0: 0992 a03f 4379 8d3f bd55 643f ca27 c63f
000001d0: 9639 e7be de52 ca3f 97e2 983f 7129 9abf
000001e0: e3bd 13bf d4ff f4be 4cf1 943f 5437 913f
000001f0: f122 2ebf 4b76 f8be cab9 03c0 b611 d4be

fc2.weight f4 [1, 128]
-0.03375238 0.7064837 -0.66931266 0.7446996 0.73194957 0.6382746 0.5282765 0.6070502
0.62903994 -0.58642024 -1.1104908 -0.8689032 -0.35237968 0.09547155 -0.78498644 -1.07226
-0.7094094 -1.7068976 -0.091554105 -0.8656401 -2.317176 -0.72933316 -1.6855104 -0.3361312
0.64923155 0.7185915 0.72442955 0.7947997 0.2960723 0.7429824 0.5226931 0.6867649
0.5493769 -1.5744536 -0.36690998 0.594603 -1.6931169 -0.7240378 0.6178685 0.568256
0.53476685 -1.1975936 0.7841619 -0.07575074 -0.026367966 -0.018267177 -1.9723947 -0.6086161
0.5973643 0.20304552 0.07524407 -1.6503282 0.7501219 0.5558227 -1.912542 0.69111055
-0.43486658 0.63565844 0.43170547 -0.10033169 0.66385967 0.32717258 -0.24352579 0.69757307
0.6981168 0.70379156 -1.0705197 -0.5492266 0.6510609 -0.23677704 -0.2401626 0.523128
-0.16100353 0.61607236 -0.51655227 0.52648824 -5.302446 -0.982246 -1.6172645 -0.7939743
-1.0877954 0.6583457 -1.9167252 0.6246153 0.74300385 0.6672565 -0.8041883 0.7027433
0.6835921 -0.48013714 -0.89138657 0.6976341 0.6505926 0.29651862 0.47635144 0.3707908
0.6671543 -0.6969097 0.73136085 0.30139783 -0.70452607 0.7748386 0.62134296 0.8117706
0.63103485 0.5976405 -1.125446 0.4740466 -0.8169775 -0.09902698 0.2245209 -0.20386389
0.753241 0.66302305 0.48910666 0.7275159 -0.15701924 0.80231535 0.7208956 -1.8404887
-1.7114985 -0.8228931 0.6313203 0.6176494 -0.8638445 -1.790948 -2.0352747 -1.6258674
00000000: f03f 0abd 1edc 343f 1358 2bbf a2a4 3e3f
00000010: 0c61 3b3f f765 233f 213d 073f a467 1b3f
00000020: c308 213f a31f 16bf 9024 8ebf 7170 5ebf
00000030: 1c6b b4be 9786 c33d dff4 48bf d13f 89bf
00000040: db9b 35bf 9f7b dabf b880 bbbd 979a 5dbf
00000050: 9d4c 14c0 94b5 3abf cebe d7bf 6319 acbe
00000060: 0a34 263f 9df5 373f 3774 393f fe77 4b3f
00000070: ca96 973e 1834 3e3f 37cf 053f d3cf 2f3f
00000080: f7a3 0c3f b287 c9bf a0db bbbe e737 183f
00000090: 0eb8 d8bf 8b5a 39bf a12c 1e3f 3a79 113f
000000a0: 7be6 083f bf4a 99bf d6be 483f 3423 9bbd
000000b0: a201 d8bc 0ca5 95bc 6e77 fcbf 44ce 1bbf
000000c0: deec 183f 2aeb 4f3e 9019 9a3d f43d d3bf
000000d0: fd07 403f 654a 0e3f 2dce f4bf 9fec 303f
000000e0: d5a6 debe 83ba 223f 8008 dd3e b37a cdbd
000000f0: b5f2 293f 2a83 a73e d35e 79be 2694 323f
00000100: c8b7 323f af2b 343f ca06 89bf 1d9a 0cbf
00000110: edab 263f ae75 72be 2fed 75be b7eb 053f
00000120: 1cde 24be ebb6 1d3f c53c 04bf efc7 063f
00000130: a3ad a9c0 7974 7bbf 8602 cfbf e641 4bbf
00000140: e13c 8bbf 5889 283f 4057 f5bf cae6 1f3f
00000150: 8035 3e3f 52d1 2a3f 49df 4dbf fce6 333f
00000160: e4ff 2e3f 89d4 f5be e931 64bf 2698 323f
00000170: 3d8d 263f 4ad1 973e 56e4 f33e 4bd8 bd3e
00000180: a0ca 2a3f ad68 32bf 773a 3b3f d150 9a3e
00000190: d25b 34bf d35b 463f 5510 1f3f 33d0 4f3f
000001a0: 808b 213f f8fe 183f 9d0e 90bf 3cb6 f23e
000001b0: 7025 51bf a8ce cabd cfe8 653e b2c1 50be
000001c0: 67d4 403f e1bb 293f 306c fa3e 7b3e 3a3f
000001d0: a7c9 20be 8a64 4d3f 9d8c 383f 2295 ebbf
000001e0: 6212 dbbf 1fa9 52bf 359e 213f 451e 1e3f
000001f0: ea24 5dbf c93d e5bf f141 02c0 6c1c d0bf

exp_avg f4 [128, 4]
-1.1943515e-05 9.78922e-06 2.3025832e-06 -7.060521e-06 -6.4696476e-05 -0.00048065057 -0.0005109423 -0.00022846788
7.579562e-05 4.3313186e-05 -8.274101e-06 -5.0846338e-05 0.00012914668 -4.6696998e-05 -5.8165377e-05 -2.6218973e-05
0.00057977304 -5.1788753e-05 -8.820018e-05 -5.20627e-05 -0.0004357709 0.00015773796 0.00016843606 4.5387762e-05
0.00018985545 0.00069270516 0.00060853723 0.00014598733 0.000417613 -0.00012500044 -0.0001641207 -7.2696275e-05
-0.0009244264 2.3237762e-06 0.00018808128 0.00021015706 -5.40276e-06 -7.6240275e-07 -1.7418342e-06 -2.0770835e-06
-2.6986772e-05 -0.00022210124 -0.00021477805 -8.191763e-05 5.4611926e-05 -0.00032412517 -0.00025188152 -2.303835e-05
0.00077057234 0.0011653688 0.0008821478 -5.7798272e-05 1.0312826e-05 3.84806e-05 4.0073777e-05 1.7598848e-05
-1.7866041e-06 -9.778763e-07 1.13375606e-07 1.1853061e-06 -0.00042219958 -6.437848e-05 -2.9355026e-05 -5.6917506e-06
-1.9529041e-05 -0.000119774006 -0.00012711437 -5.692752e-05 -0.0005948079 -6.851949e-05 -0.00010424323 -0.00012151295
-3.918652e-05 -0.00028271828 -0.00031348088 -0.0001520152 0.00038104603 0.0006328824 0.00038207325 -0.0001024273
0.00042535792 7.426943e-05 7.004174e-05 4.8807582e-05 3.7747777e-05 1.512691e-06 1.290657e-06 3.031229e-06
0.000100939564 0.00041145828 0.00040896697 0.0001554091 0.0011904807 0.0003148065 0.00020318314 1.6331798e-05
-0.00032817994 -7.2065624e-05 6.186315e-05 0.00014317507 -5.3910688e-05 -5.4889824e-06 -3.9129964e-06 -3.18911e-06
4.399228e-05 1.5338968e-05 3.5330497e-06 -1.0722211e-05 0.004742989 0.0011579957 0.000861311 -6.020572e-05
-9.549784e-05 -7.0735405e-05 -0.000102050246 -7.8000936e-05 -6e-45 -6e-45 6e-45 6e-45
-0.0016149705 0.000795107 0.00076463487 0.00012464862 0.0002696692 5.9683738e-05 2.0707219e-05 -1.32316845e-05
-8.27077e-05 -0.00046690094 -0.0004929356 -0.000219076 0.00050354964 0.0007711159 0.0005328492 -6.828058e-05
-5.7159268e-05 -0.00039088874 -0.00039526736 -0.00015729928 0.00032477197 -0.000114890434 -0.00014896468 -7.262411e-05
-5.610246e-05 -0.00031461756 -0.00033342655 -0.00014924961 -0.0012769619 -0.00025380013 -9.166458e-05 4.1113937e-05
0.00012552354 -5.890418e-05 -6.625575e-05 -2.4935158e-05 0.00043231383 8.322531e-05 4.5904006e-05 7.902141e-06
-6.003512e-05 -0.00033150747 -0.00034907623 -0.00015414413 9.8181765e-05 0.00042257278 0.00035928286 8.074892e-05
-0.00011154067 -5.4544835e-05 -2.910421e-05 9.793949e-06 -7.1414244e-05 2.1272817e-05 2.932682e-05 1.4665331e-05
-5.630895e-06 -0.0004917329 -0.00046620367 -0.00014937668 -3.060575e-05 -1.6142527e-05 -9.875018e-06 1.3436243e-06
0.00022163472 0.00048552625 0.00035104365 5.2609385e-06 0.00011399923 -0.00020702078 -0.00021350473 -8.130131e-05
0.00114026 -0.00044620162 -0.00055784156 -0.00026132455 -0.00015627868 -2.5098083e-05 -9.056213e-06 2.8414456e-06
-0.00024948467 2.719249e-05 4.5406916e-05 1.6770577e-05 0.0013604455 -0.0004245689 -0.0006181277 -0.00036192173
-3.8408965e-05 -0.00021704398 -0.00022980376 -0.00010265791 0.00016069783 0.00030091018 0.00014069925 -0.00011464772
-2.7753555e-05 -2.4339115e-06 -1.1630351e-06 -8.576368e-07 -0.0008873637 9.62051e-05 0.00028556152 0.00019256574
0.0001377929 3.603144e-05 -2.982639e-05 -7.3579315e-05 1.5071618e-06 5.1990224e-07 2.0260307e-08 -4.747178e-07
0.00048473125 -0.00021735647 -0.00029267106 -0.0001561949 -0.00021026673 0.00014016891 0.00012084026 1.0932142e-05
1.4196476e-05 9.213534e-05 9.978706e-05 4.7957365e-05 -0.0021939396 0.000502702 0.0007774685 0.00041733807
4.458006e-05 -0.00035634203 -0.00035873867 -0.00013881238 -0.001269468 0.00045349848 0.00047967426 0.00011656394
00000000: 0261 48b7 613c 2437 1486 1a36 6ae9 ecb6
00000010: a8ad 87b8 d4ff fbb9 c2f0 05ba e190 6fb9
00000020: 77f4 9e38 2eab 3538 fed0 0ab7 d743 55b8
00000030: 8c6b 0739 85dc 43b8 99f6 73b8 d1f0 dbb7
00000040: e9fb 173a c037 59b8 1cf8 b8b8 e65d 5ab8
00000050: 2e78 e4b9 7666 2539 369e 3039 bd5e 3e38
00000060: ef13 4739 a896 353a 3e86 1f3a 2d14 1939
00000070: 11f3 da39 8d12 03b9 d117 2cb9 8474 98b8
00000080: 3555 72ba 2cf2 1b36 af37 4539 9b5d 5c39
00000090: 5b49 b5b6 eba7 4cb5 f8c8 e9b5 0664 0bb6
000000a0: a761 e2b7 d9e3 68b9 0b36 61b9 31cb abb8
000000b0: 1c0f 6538 58ef a9b9 f70e 84b9 7b42 c1b7
000000c0: 3c00 4a3a 4abf 983a f03f 673a 6c6c 72b8
000000d0: 4005 2d37 3b66 2138 e414 2838 3da1 9337
000000e0: 40cb efb5 933f 83b5 e678 f333 cf16 9f35
000000f0: ab5a ddb9 ef02 87b8 703f f6b7 c4fb beb6
00000100: 4cd2 a3b7 2e2f fbb8 014a 05b9 76c5 6eb8
00000110: e2ec 1bba 1fb2 8fb8 289d dab8 c5d4 feb8
00000120: 355c 24b8 ce39 94b9 b15a a4b9 4566 1fb9
00000130: 22c7 c739 05e8 253a 0151 c839 3dce d6b8
00000140: 9302 df39 19c1 9b38 5fe3 9238 beb6 4c38
00000150: 5e53 1e38 ab07 cb35 a33a ad35 1e6c 4b36
00000160: 84af d338 ffb8 d739 9e6a d639 50f5 2239
00000170: e709 9c3a 9d0c a539 8f0d 5539 4500 8937
00000180: 910f acb9 f021 97b8 87bc 8138 4421 1639
00000190: 291e 62b8 002e b8b6 624c 83b6 7e04 56b6
000001a0: 5a84 3838 2fac 8037 5519 6d36 8ce3 33b7
000001b0: 136b 9b3b e3c7 973a 9ac9 613a 6685 7cb8
000001c0: 0346 c8b8 c857 94b8 cf03 d6b8 6f94 a3b8
000001d0: 0400 0080 0400 0080 0400 0000 0400 0000
000001e0: 6bad d3ba ba6e 503a c771 483a 1cb4 0239
000001f0: 6362 8d39 ed54 7a38 6ab4 ad37 a7fd 5db7
00000200: 5c73 adb8 62ca f4b9 5938 01ba c4b7 65b9
00000210: a500 043a b624 4a3a e8ae 0b3a db31 8fb8
00000220: 4cbe 6fb8 33f0 ccb9 e33b cfb9 b4f0 24b9
00000230: 2846 aa39 55f1 f0b8 6733 1cb9 c64d 98b8
00000240: 8f4f 6bb8 41f3 a4b9 c1cf aeb9 e37f 1cb9
00000250: bb5f a7ba 7a10 85b9 0c3c c0b8 c171 2c38
00000260: f89e 0339 e20f 77b8 c9f2 8ab8 d82b d1b7
00000270: 2ea8 e239 4089 ae38 0d89 4038 7093 0437
00000280: 38ce 7bb8 2ece adb9 3804 b7b9 c0a1 21b9
00000290: efe6 cd38 c28c dd39 215e bc39 bf57 a938
000002a0: f1ea e9b8 12c7 64b8 d124 f4b7 b150 2437
000002b0: 3bc4 95b8 0773 b237 de02 f637 1e0b 7637
000002c0: 05f1 bcb6 a3e7 00ba cc6c f4b9 ffa1 1cb9
000002d0: ad5e 00b8 d069 87b7 e1ac 25b7 9456 b435
000002e0: 9e66 6839 3b8e fe39 480c b839 1e87 b036
000002f0: df12 ef38 b813 59b9 3de0 5fb9 4f80 aab8
00000300: c774 953a 2bf0 e9b9 1d3c 12ba 6302 89b9
00000310: bdde 23b9 b989 d2b7 23f0 17b7 aaaf 3e36
00000320: 44cd 82b9 6d1b e437 4e73 3e38 8aae 8c37
00000330: fa50 b23a ac98 deb9 d909 22ba 50c0 bdb9
00000340: 5019 21b8 4d96 63b9 7af7 70b9 0c4a d7b8
00000350: ff80 2839 7bc3 9d39 ab88 1339 076f f0b8
00000360: 4ed0 e8b7 4856 23b6 9519 9cb5 5a38 66b5
00000370: f89d 68ba b8c1 c938 6bb7 9539 79eb 4939
00000380: 807c 1039 7720 1738 af33 fab7 984e 9ab8
00000390: af49 ca35 698f 0b35 e308 ae32 b8dc feb4
000003a0: 8723 fe39 2fea 63b9 a571 99b9 40c8 23b9
000003b0: 0c7b 5cb9 4efa 1239 9f6b fd38 3169 3737
000003c0: 662d 6e37 c938 c138 c544 d138 d425 4938
000003d0: 33c8 0fbb c3c7 033a 07cf 4b3a 2bce da39
000003e0: 7afb 3a38 6bd3 bab9 1715 bcb9 2a8e 11b9
000003f0: 4764 a6ba 89c3 ed39 ca7c fb39 ca73 f438

exp_avg_sq f4 [128, 4]
1.3325688e-06 3.5541245e-05 5.6742755e-07 8.042919e-05 4.32964e-05 2.6986869e-05 2.3351354e-06 2.8478575e-05
4.2669244e-06 1.7131062e-05 3.8276607e-07 3.983047e-05 2.0159725e-06 2.6785376e-05 9.797144e-07 7.082901e-05
1.4910207e-05 4.3247997e-05 1.1438957e-06 9.585749e-05 7.483196e-06 1.0186815e-05 6.724597e-07 1.3323807e-05
0.00017622736 0.00014403865 1.1217784e-05 0.00013156969 8.138146e-06 0.00010095906 4.968061e-06 0.00028491463
3.2721447e-05 6.535018e-05 1.5575878e-06 0.0001430755 2.370989e-06 3.6841197e-05 1.000899e-06 8.58514e-05
9.219089e-06 2.7165575e-05 1.2070428e-06 5.7436308e-05 1.1190035e-05 8.823694e-06 4.96963e-07 1.35383525e-05
0.00026720474 0.0001959195 1.4088034e-05 0.00020013592 1.8103284e-06 2.039746e-05 8.510464e-07 5.2713996e-05
2.7758736e-06 2.3201148e-05 5.794621e-07 6.103437e-05 2.5592678e-06 1.6655236e-05 5.8902697e-07 4.3537053e-05
1.3121074e-05 8.308066e-05 3.619381e-06 0.00020727981 2.2381106e-05 6.2077524e-05 3.372001e-06 0.00012616096
1.4032306e-05 1.3204607e-05 8.258176e-07 2.3978533e-05 4.0344978e-05 2.7966402e-05 2.4404194e-06 1.6808242e-05
5.263995e-06 5.3878946e-05 1.6473979e-06 0.00013953095 3.1625137e-07 1.1672925e-05 3.3524765e-07 3.1603973e-05
8.9396955e-05 8.42903e-05 6.9785947e-06 0.00010978695 5.070427e-05 4.8059508e-05 3.624061e-06 4.7864807e-05
1.43802035e-05 1.827883e-05 3.8626953e-07 3.628927e-05 1.0982663e-07 3.099748e-06 7.1794e-08 8.039574e-06
2.8131665e-06 2.6338546e-05 7.0154823e-07 6.306045e-05 0.00034270156 0.00020368387 1.4865942e-05 9.30425e-05
8.13227e-06 1.038019e-05 1.2513648e-06 1.6769456e-05 1.2929736e-09 4.0955882e-07 5.673888e-09 1.0092588e-06
0.00014068918 6.205234e-05 6.3578273e-06 2.2148728e-05 3.6000936e-06 3.342801e-06 1.236895e-07 4.158297e-06
7.142174e-05 5.4452412e-05 4.3508053e-06 6.125401e-05 0.00010696627 9.146198e-05 7.1659565e-06 6.691007e-05
7.488097e-05 5.8988247e-05 5.180048e-06 5.581948e-05 1.9498815e-05 9.166939e-05 4.85096e-06 0.00021868119
3.1249274e-05 4.0298946e-05 2.3736034e-06 8.307803e-05 4.3231652e-05 2.1682334e-05 2.616658e-07 1.2773886e-06
1.6784189e-06 9.470964e-06 6.115573e-07 2.5407846e-05 4.5870797e-06 2.2195274e-05 5.500149e-07 5.0405015e-05
4.303501e-05 2.6691649e-05 2.1195008e-06 2.2182463e-05 5.7900565e-05 6.0115373e-05 6.3254774e-06 9.500423e-05
1.8415731e-06 6.6861125e-05 1.9651538e-06 0.00016535907 3.0787078e-07 2.0462005e-05 6.5865726e-07 5.5128537e-05
4.717998e-05 3.1282743e-05 3.2078908e-06 2.1771715e-05 3.5985292e-07 2.9993991e-05 7.4836873e-07 7.353494e-05
7.290348e-05 0.00011147528 1.1023612e-05 0.00021380506 1.3038188e-05 7.47155e-06 5.195478e-07 8.650005e-06
0.00016210352 0.00028742824 1.828195e-05 0.0005229907 2.1058484e-06 3.0187892e-05 7.522917e-07 7.4103526e-05
8.711915e-07 1.5823342e-05 3.637825e-07 3.9250044e-05 4.7870544e-05 1.07540145e-05 1.1160708e-06 7.3051497e-06
3.200192e-05 5.7153273e-05 3.819075e-06 0.00011097141 1.7989985e-05 3.803555e-05 2.0231078e-06 5.9168717e-05
1.0823366e-08 3.265802e-07 7.834087e-09 8.894457e-07 1.2142733e-05 1.6381485e-06 1.7658287e-07 8.903698e-07
1.2768197e-05 4.8165548e-05 1.1756765e-06 0.00010566106 6.005619e-08 1.2796789e-06 1.297822e-08 2.609444e-06
4.5026252e-05 0.00010445892 7.907813e-06 0.00023346883 1.23159125e-05 1.7419597e-05 2.205827e-06 3.076992e-05
2.1948579e-06 2.5316313e-05 1.1949818e-06 6.793641e-05 0.00014559024 6.9811125e-05 5.970517e-06 4.3594297e-05
4.5546534e-05 3.4330253e-05 3.1947154e-06 3.303597e-05 0.00010705303 0.00015715447 1.1260446e-05 0.000231598
00000000: b7da b235 1f12 1538 5351 1835 18ac a838
00000010: 2899 3538 dc61 e237 52b5 1c36 46e5 ee37
00000020: 9a2c 8f36 adb4 8f37 f87e cd34 a40f 2738
00000030: 254a 0736 28b1 e037 bb7e 8335 098a 9438
00000040: da26 7a37 2f65 3538 f587 9935 1907 c938
00000050: 2a18 fb36 0ae8 2a37 1483 3435 5189 5f37
00000060: acc9 3839 1509 1739 0434 3c37 f8f5 0939
00000070: 1289 0837 fcb9 d338 52b3 a636 9860 9539
00000080: 633e 0938 9c0c 8938 4f0e d135 8906 1639
00000090: 481d 1f36 ef85 1a38 a156 8635 1f0b b438
000000a0: b0ab 1a37 a1e1 e337 ad01 a235 c4e7 7038
000000b0: d6bc 3b37 7a09 1437 0a67 0535 c822 6337
000000c0: 9d17 8c39 be6f 4d39 a55b 6c37 94db 5139
000000d0: 69fa f235 361b ab37 7773 6435 3919 5d38
000000e0: 2549 3a36 16a0 c237 558c 1b35 28ff 7f38
000000f0: e3bf 2b36 d9b6 8b37 a01d 1e35 8e9b 3638
00000100: 9522 5c37 973b ae38 7ee4 7236 4059 5939
00000110: 0fbf bb37 9e2f 8238 894a 6236 134a 0439
00000120: 4c6c 6b37 5b89 5d37 c1ad 5d35 8225 c937
00000130: 1738 2938 6499 ea37 16c6 2336 6dff 8c37
00000140: 5fa1 b036 14fc 6138 291c dd35 0e4f 1239
00000150: 42c9 a934 d5d6 4337 16fc b334 828e 0438
00000160: a07a bb38 03c5 b038 ac29 ea36 6c3d e638
00000170: 4cab 5438 8193 4938 e534 7336 72c2 4838
00000180: 8142 7137 7d55 9937 7b60 cf34 4f35 1838
00000190: d4d9 eb33 4405 5036 2b2d 9a33 b5e1 0637
000001a0: d5c9 3c36 99f1 dc37 0752 3c35 523f 8438
000001b0: a0ac b339 f993 5539 bc68 7937 d01f c338
000001c0: d56f 0837 9426 2e37 91f4 a735 22ac 8c37
000001d0: 77b4 b130 56e1 db34 0cf4 c231 de75 8735
000001e0: f785 1339 1922 8238 5255 d536 08cc b937
000001f0: 2399 7136 e254 6036 83cf 0434 8087 8b36
00000200: 41c8 9538 d563 6438 22fd 9136 7f75 8038
00000210: 1453 e038 47cf bf38 1973 f036 1252 8c38
00000220: 6a09 9d38 266a 7738 46d0 ad36 b61f 6a38
00000230: 6391 a337 a13e c038 6ec5 a236 c94d 6539
00000240: a711 0338 aa06 2938 324a 1f36 2d3a ae38
00000250: a253 3538 75e2 b537 137b 8c34 bd72 ab35
00000260: 0946 e135 7be5 1e37 e629 2435 ef22 d537
00000270: b7ea 9936 fd2f ba37 bca4 1335 f969 5338
00000280: 7d80 3438 e1e7 df37 bf3c 0e36 7a14 ba37
00000290: 42da 7238 6424 7c38 703f d436 023d c738
000002a0: f82b f735 cb37 8c38 16e1 0336 3d64 2d39
000002b0: 7049 a534 d2a5 ab37 95ce 3035 d139 6738
000002c0: 1ee3 4538 9735 0338 2547 5736 67a2 b637
000002d0: cf31 c134 9b9b fb37 82e3 4835 c536 9a38
000002e0: c2e3 9838 d6c7 e938 0ef2 3837 dc30 6039
000002f0: 97be 5a37 20b4 fa36 0e77 0b35 7d1f 1137
00000300: 55fa 2939 f7b1 9639 305c 9937 5019 093a
00000310: 3352 0d36 013c fd37 18f1 4935 0768 9b38
00000320: d3db 6935 5ebc 8437 e34d c334 6aa0 2438
00000330: 9bc8 4838 246c 3437 e7cb 9535 c21e f536
00000340: cd39 0638 dcb7 6f38 9b25 8036 52b9 e838
00000350: 33e9 9637 5c88 1f38 bac4 0736 ed2b 7838
00000360: abf1 3932 d754 af34 ae96 0632 3ec2 6e35
00000370: a4b8 4b37 5bde db35 bb9a 3d34 bf01 6f35
00000380: fd36 5637 5d05 4a38 f0cb 9d35 5a96 dd38
00000390: 3df8 8033 6fc1 ab35 d1f6 5e32 e81d 2f36
000003a0: 92da 3c38 f510 db38 ccab 0437 50cf 7439
000003b0: 71a0 4e37 4d20 9237 d207 1436 f30e 0138
000003c0: 5f4b 1336 5e5e d437 4363 a035 1579 8e38
000003d0: 95a9 1839 9067 9238 5a56 c836 05d9 3638
000003e0: 3809 3f38 d4fd 0f38 cb64 5636 1a90 0a38
000003f0: a881 e038 d5c9 2439 3feb 3c37 1dd9 7239

exp_avg f4 [128]
1.3655028e-05 -0.0028750366 -0.00010307349 -0.00029031726 -0.00082920515 0.00078353443 0.003282618 -0.0010240629
0.0010557432 7.2592695e-07 -0.0013452744 -0.0017788402 0.0041243676 0.00022615345 1.4839787e-06 -0.00028945826
-0.00070843095 -0.00055384694 -0.0017802059 0.001728268 0.00020677525 2.0989475e-05 0.0022671416 0.0008436319
0.00036192316 -3.2318272e-05 1.6411283e-05 7.4637583e-06 -0.00057708955 6e-45 0.0034207671 0.00019729753
-0.002756105 0.0025086796 -0.0022440872 -0.00072748534 -0.0018623372 -0.000987554 -0.00034219003 0.00035714623
-0.0019519106 0.0019430156 -0.00017473154 0.00014649375 -0.0027339368 -5.1884937e-05 0.0018672963 -0.0011855935
-0.0028704575 -8.62891e-05 0.00031410155 -0.0041571376 -0.0012828663 0.0004568847 -1.5131654e-05 0.00064969057
-0.00015965487 6.612068e-07 -0.0015023082 0.00063732354 0.0005585978 0.0034774484 -0.0022022463 0.0022027006
0.0050125695 -0.0056122723 0.0043876055 0.0028915885 -0.00044450923 -0.0003327321 2.909443e-05 -1.2439461e-08
-0.0022993856 0.0023048525 -0.0030042198 0.0015741313 0.00028585168 -0.0014229427 4.8621772e-05 0.0002902804
-0.0006256897 -0.0008838606 0.0037576589 0.0070364173 -0.0038363016 -0.0015475858 0.0006160092 -0.0013293974
0.00016556098 0.0017469472 -0.0026657814 7.55173e-07 0.007257967 0.00092783495 -2.1609586e-07 0.00202271
-0.0016113016 -1.9929033e-05 -0.00089091895 -0.0025473419 -0.00035546007 -0.0005289749 -0.0026658024 -0.001767282
0.0012456368 -0.0035460433 0.00054162106 9.301921e-05 0.00020727408 0.00017136293 -0.0026229448 0.0005171388
-9.384324e-06 0.0012981676 -7.0544365e-10 0.0004525227 -0.00022297303 0.00036076677 4.9739047e-05 7.5914686e-05
0.00031496448 -0.0011158721 0.0029282821 0.00095679326 0.00088512595 3.4508557e-05 0.00031103735 -0.007847544
00000000: e617 6537 1c6b 3cbb 2929 d8b8 b935 98b9
00000010: 045f 59ba 1b66 4d3a 3121 573b d939 86ba
00000020: dd60 8a3a 52dd 4235 eb53 b0ba f927 e9ba
00000030: b425 873b 9b23 6d39 1f2d c735 6ec2 97b9
00000040: ffb5 39ba 0a30 11ba cc55 e9ba 0d87 e23a
00000050: cfd1 5839 8e12 b037 5394 143b 2e27 5d3a
00000060: 81c0 bd39 7b8d 07b8 f6aa 8937 3271 fa36
00000070: d347 17ba 0400 0000 f32e 603b a7e1 4e39
00000080: c59f 34bb a968 243b 8911 13bb b7b4 3eba
00000090: ab19 f4ba d070 81ba f867 b3b9 5b3f bb39
000000a0: 40d7 ffba c9ac fe3a 2438 37b9 1e9c 1939
000000b0: d92b 33bb 079f 59b8 11c0 f43a eb65 9bba
000000c0: 491e 3cbb 1cf6 b4b8 ffad a439 9938 88bb
000000d0: da25 a8ba 078a ef39 f6dd 7db7 ff4f 2a3a
000000e0: 0769 27b9 c97d 3135 19e9 c4ba 0f12 273a
000000f0: dd6e 123a e7e5 633b 9053 10bb 2f5b 103b
00000100: 7b40 a43b 27e7 b7bb e7c5 8f3b ce80 3d3b
00000110: 050d e9b9 8c72 aeb9 d00f f437 54b5 55b2
00000120: 4ab1 16bb 020d 173b 72e2 44bb 1553 ce3a
00000130: 5dde 9539 0982 baba 3bef 4b38 c730 9839
00000140: 5305 24ba e1b2 67ba 0e43 763b bf91 e63b
00000150: 766a 7bbb 5dd8 caba ad7b 213a 2d3f aeba
00000160: 709a 2d39 d2f9 e43a 64b4 2ebb 18b7 4a35
00000170: 3dd4 ed3b f339 733a fa07 68b4 718f 043b
00000180: 4f32 d3ba 462d a7b7 8f8c 69ba 4ef1 26bb
00000190: 0b5d bab9 e8aa 0aba beb4 2ebb 25a4 e7ba
000001a0: a344 a33a bc64 68bb 93fb 0d3a 4f13 c338
000001b0: b657 5939 e3af 3339 b6e5 2bbb 9990 073a
000001c0: 5d71 1db7 4727 aa3a 2fe9 41b0 9240 ed39
000001d0: decd 69b9 4c25 bd39 e59e 5038 6334 9f38
000001e0: d121 a539 7442 92ba 6ce8 3f3b 4fd1 7a3a
000001f0: cc07 683a 48bd 1038 ba12 a339 fc92 00bc

exp_avg_sq f4 [128]
1.7190734e-05 0.00014910634 1.5481894e-05 7.888858e-05 4.875349e-05 4.625085e-05 0.00083003053 0.00040788998
5.944765e-05 4.741541e-05 9.249499e-05 3.215714e-05 0.0009003455 6.983808e-05 1.8095488e-05 2.486481e-05
0.0002892523 0.00022583306 5.3181553e-05 0.00017946589 0.00013091521 1.5876409e-05 0.00052330876 0.00026643527
1.43006355e-05 4.607504e-06 2.5267467e-05 0.0010656902 9.199924e-05 1.6689948e-07 0.00036258306 6.704181e-06
0.0002905086 0.00050785113 0.0003597698 0.00036726648 0.0001634014 3.3384436e-05 4.937136e-05 4.140488e-05
0.00013753038 0.00048416067 0.00015903596 5.694276e-05 0.00020806649 6.547096e-05 0.00080787454 3.1513337e-05
0.0013234541 3.6347315e-05 1.7929495e-05 6.0852162e-05 0.00028173224 0.00013416255 3.6372816e-07 6.1894066e-06
6.203639e-05 3.813436e-07 0.0005958811 0.00016242277 9.276913e-05 0.00031742785 0.00021781866 0.0007828638
0.00037340462 0.00030691072 0.000391199 0.00043929674 0.00013747283 3.5621764e-05 7.22962e-06 2.5769152e-08
0.00019068959 0.0005579518 8.232691e-06 0.00020261398 5.0028655e-05 2.5675881e-05 3.2824395e-05 0.0004517175
2.9506964e-05 0.00014605185 0.00010852572 0.0008389931 0.00063774176 3.9685987e-05 5.4603344e-05 1.7422451e-05
4.137657e-07 0.00044719764 0.00016726657 3.4228785e-07 0.0004970954 5.450364e-05 8.6354845e-07 0.00036568823
0.00033489728 0.00012360512 1.7842081e-05 0.00035995076 5.9628765e-05 5.512026e-05 0.00039754665 0.00011309747
2.8028668e-05 0.00055372564 6.495056e-05 8.383755e-05 1.6096012e-05 4.92583e-06 0.00048274707 0.00018446449
1.6689323e-06 0.00025311572 1.894751e-07 1.0030051e-05 3.5199184e-05 5.137809e-05 2.1940436e-06 2.2684304e-05
4.117671e-06 0.00012579918 0.0009341673 4.1610227e-05 3.7756483e-05 7.687641e-06 4.509941e-05 0.0009599042
00000000: d234 9037 6e59 1c39 1ddf 8137 fc70 a538
00000010: a97c 4c38 79fd 4138 6896 593a 11da d539
00000020: 6e57 7938 e9df 4638 dff9 c138 77e0 0638
00000030: 2a05 6c3a 0976 9238 c4cb 9737 c694 d037
00000040: c9a6 9739 9acd 6c39 420f 5f38 022f 3c39
00000050: 4946 0939 542e 8537 a82e 093a 56b0 8b39
00000060: c3ec 6f37 289a 9a36 79f5 d337 a1ae 8b3a
00000070: b7ef c038 fb34 3334 1319 be39 7af4 e036
00000080: 674f 9839 5021 053a 7c9f bc39 ac8d c039
00000090: bb56 2b39 4406 0c38 1814 4f38 27aa 2d38
000000a0: 0836 1039 f2d6 fd39 e4c2 2639 d3d5 6e38
000000b0: 6c2c 5a39 744d 8938 8bc7 533a 302d 0438
000000c0: c077 ad3a a273 1838 4c67 9637 833b 7f38
000000d0: 76b5 9339 fcad 0c39 6b46 c334 99ae cf36
000000e0: 8919 8238 77bb cc34 e734 1c3a 0850 2a39
000000f0: 0c8d c238 726c a639 4066 6439 1a39 4d3a
00000100: 85c5 c339 dce8 a039 d719 cd39 6951 e639
00000110: 9526 1039 9468 1538 f795 f236 f75a dd32
00000120: d9f3 4739 8343 123a 231f 0a37 c774 5439
00000130: dcd5 5138 8962 d737 edac 0938 7fd4 ec39
00000140: b985 f737 7f25 1939 4d98 e338 e0ef 5b3a
00000150: 202e 273a 8174 2638 e505 6538 6e26 9237
00000160: 8623 de34 da75 ea39 4764 2f39 afc3 b734
00000170: 824f 023a d69a 6438 99ce 6735 d8b9 bf39
00000180: 2795 af39 ff9b 0139 94ab 9537 c6b7 bc39
00000190: e619 7a38 ee30 6738 cf6d d039 be2e ed38
000001a0: 1b1f eb37 e627 113a 1136 8838 f1d1 af38
000001b0: ec05 8737 8f48 a536 3719 fd39 cf6c 4139
000001c0: 1400 e035 9eb4 8439 8572 4b34 be46 2837
000001d0: d6a2 1338 ce7e 5738 623d 1336 2c4a be37
000001e0: 862a 8a36 f6e8 0339 e8e2 743a a486 2e38
000001f0: b75c 1e38 2bfa 0037 1f29 3d38 15a2 7b3a
