demo/tianshou/continuous/log/Pendulum-v1/trpo/policy.pth (torch, 42942 bytes, 20 tensors)

actor.preprocess.model.model.0.weight f4 [64, 3]
0	0xbe537174	-0.20648748
1	0x3eb3f978	0.35151267
2	0xbcb6f969	-0.022335725
3	0x3ebadc75	0.3649632
4	0xbe1cee62	-0.15325311
5	0x3e5a21dc	0.21301979
6	0x3dc6611b	0.0968649
7	0x3e4512cc	0.19245452
8	0x3ec162d2	0.37770706
9	0x3d958e54	0.073025376
10	0xbe372774	-0.17886144
11	0x3ddcf0c8	0.10788113
12	0xbe1ff78a	-0.15621772
13	0x3e9b8cb5	0.30380788
14	0xbe5ce177	-0.21570383
15	0x3d755ca3	0.0599028
16	0x3e4d0461	0.20021202
17	0xbd8c6fa7	-0.068572335
18	0xbd3d881d	-0.046272386
19	0xbeb499b9	-0.3527353
20	0xbe13282e	-0.14370796
21	0x3ee0ed7a	0.4393118
22	0x3e9ecc31	0.3101516
23	0x3e8f8d28	0.2803738
24	0xbe14c8ab	-0.14529674
25	0x3ea36a0f	0.31916854
26	0xbe63f865	-0.22262724
27	0x3e8b3c77	0.2719457
28	0xbee0c203	-0.4389802
29	0xbea057bb	-0.31316933
30	0x3e040f24	0.128964
31	0x3e989074	0.2979771
32	0x3e4ef7f5	0.20211776
33	0x3d6e3d4b	0.058163922
34	0x3c8eba4a	0.017422814
35	0x3e25d723	0.1619535
36	0x3cfabe30	0.030608267
37	0xbe44d1aa	-0.19220605
38	0x3dee6f32	0.116423026
39	0xbd3297a1	-0.043601636
40	0xbd533f72	-0.051574178
41	0x3d513600	0.05107689
42	0xbe1e71e9	-0.15473141
43	0x3d850ae6	0.06496219
44	0x3deacfe2	0.11465432
45	0xbe1f59ac	-0.15561551
46	0x3e965243	0.29359636
47	0x3dd7b127	0.10531836
48	0x3eae16a8	0.3400166
49	0xbd1cb542	-0.0382588
50	0xbd17009a	-0.036865808
51	0xbdc6a0e3	-0.096986555
52	0x3dd2eeee	0.102994785
53	0x3e2911da	0.16510716
54	0xbd966672	-0.07343759
55	0xbc1be9d3	-0.009516197
56	0x3e32d7f1	0.17465188
57	0x3d8afd76	0.06786625
58	0x3ee3ce17	0.44493172
59	0xbe69dc3e	-0.22837922
60	0x3e04fe54	0.12987643
61	0x3e631b14	0.22178298
62	0xbca24a5a	-0.019810844
63	0x3d8c6ef4	0.068571
64	0x3e7c5509	0.24641813
65	0xbe7e67c7	-0.24844275
66	0xbdf3f693	-0.11912265
67	0xbe1b3e83	-0.15160565
68	0xbe118959	-0.1421255
69	0x3da4f2a1	0.0805409
70	0xbe55cadc	-0.20878166
71	0x3dd551b7	0.104159765
72	0xbe938fdd	-0.28820696
73	0xbe552803	-0.20816045
74	0xbe74b131	-0.23895718
75	0xbd8b19a3	-0.06791999
76	0xbe6a3576	-0.22871956
77	0x3e7863f0	0.24256873
78	0xbd72ed0d	-0.0593081
79	0x3e066a36	0.13126454
80	0xbd150085	-0.03637745
81	0x3dc21f18	0.09478587
82	0x3eca2c7e	0.3948707
83	0x3e809024	0.2510997
84	0xbde87787	-0.11350923
85	0xbe67600f	-0.22595237
86	0xbd363f86	-0.044494174
87	0x3e052d4a	0.13005558
88	0xbebdb926	-0.3705532
89	0xbf0cd533	-0.55012816
90	0x3db41cbe	0.08794545
91	0xbf0dc2d4	-0.5537541
92	0x3d4ab35e	0.049487464
93	0xbe93bc2d	-0.28854504
94	0xbdb4b695	-0.08823887
95	0xbd3a2b71	-0.045451585
96	0x3e9a088d	0.3008465
97	0xbd628595	-0.055303175
98	0x3dc56c99	0.09639854
99	0x3db36016	0.08758561
100	0xbeeb9b52	-0.46016937
101	0x3d0a2d98	0.033734888
102	0x3de290bf	0.110627644
103	0x3ddf74ee	0.109109744
104	0x3d6287ab	0.055305164
105	0xbe59196b	-0.21201102
106	0xbe4fe25a	-0.2030119
107	0xbd9c325a	-0.07626791
108	0xbe060f53	-0.13091783
109	0x3e42c32d	0.19019766
110	0xbdd4b066	-0.10385208
111	0xbe6653b1	-0.22492863
112	0xbeb208a4	-0.34772217
113	0x3bb3dad0	0.005488731
114	0x3e2779b8	0.16355026
115	0xbd709564	-0.05873622
116	0x3c877e96	0.016539853
117	0xbc5ac9f9	-0.013353818
118	0x3d99766b	0.074932896
119	0xbe36b57c	-0.17842668
120	0x3ea9a65d	0.33134738
121	0x3d1f3304	0.03886701
122	0x3d9e9916	0.077440426
123	0x3d1161f8	0.03549382
124	0xbd03a9b1	-0.032144252
125	0xbe861dc8	-0.26194596
126	0xbd9a79c0	-0.07542753
127	0x3e1e0752	0.1543248
128	0xbd80e2c9	-0.06293256
129	0xbe764a76	-0.24051842
130	0x3e82473c	0.25444973
131	0xbd1e1f39	-0.038603995
132	0xbc61bba0	-0.013777643
133	0xbec2f54d	-0.38077775
134	0xbe331514	-0.1748851
135	0x3e7d34f0	0.24727225
136	0xbcb89d48	-0.022535935
137	0x3d94aa20	0.07259011
138	0xbb513e72	-0.003192809
139	0xbdb65a87	-0.089039855
140	0x3e3bbfb1	0.18334843
141	0x3e9c5764	0.30535424
142	0xbd2c539e	-0.04207193
143	0x3d4517a4	0.04811825
144	0xbdeb7d44	-0.11498502
145	0x3e8f9f44	0.28051198
146	0x3e352794	0.17690879
147	0xbe468045	-0.19384868
148	0xbe90252f	-0.2815337
149	0xbc1f0a1b	-0.009706999
150	0xbe2e87cb	-0.17043988
151	0x3df6c5ca	0.12049444
152	0x3e30ead1	0.17277075
153	0x3e9bad91	0.30405858
154	0x3dd7384d	0.105087854
155	0x3dd921db	0.106021605
156	0xbe2faaba	-0.17154971
157	0xbd880a19	-0.06642551
158	0xbb5cba16	-0.0033680252
159	0x3e7bfa40	0.24607182
160	0xbd1cb8e1	-0.03826225
161	0x3c03f130	0.008053109
162	0x3e63e1f1	0.22254159
163	0xbe99a348	-0.30007386
164	0x3ca97ba4	0.02068884
165	0xbe21ac4e	-0.15788385
166	0xbdda04e0	-0.10645461
167	0x3984a9fa	0.00025303644
168	0xbe6739db	-0.22580664
169	0xbd8cf8c2	-0.06883384
170	0xbd2da9e4	-0.04239835
171	0xbe69db7b	-0.22837631
172	0x3d97ebdc	0.074180335
173	0x3e988d5d	0.29795352
174	0x3d198dc6	0.03748872
175	0x3ea19ff8	0.3156736
176	0x3e5ae2f4	0.21375638
177	0xbddc2ac7	-0.10750347
178	0xbe07ef11	-0.1327479
179	0x3c2dff3f	0.010619937
180	0x3e6ec6c3	0.23318009
181	0xbd598340	-0.053103685
182	0xbde7f2de	-0.1132562
183	0xbe52acf1	-0.20573784
184	0x3e3b2929	0.1827742
185	0xbc5e5302	-0.013569595
186	0xbe764edb	-0.24053518
187	0x3e68ebab	0.2274615
188	0xbc7ca244	-0.0154195465
189	0x3e6490c4	0.22320849
190	0x3d58e8d1	0.052956406
191	0x3d86e7fc	0.06587216

actor.preprocess.model.model.0.bias f4 [64]
0	0x3ca09816	0.01960377
1	0x3eae0b26	0.3399288
2	0xbcd36e68	-0.025809482
3	0xbda44f92	-0.08022989
4	0xbca56900	-0.02019167
5	0xbd5e6386	-0.05429413
6	0x3ba75580	0.005106628
7	0xbec15d19	-0.3776634
8	0xbd3c1d5e	-0.045926444
9	0xbe9dcdc6	-0.30821055
10	0xbe0ce545	-0.13759334
11	0xbd89f275	-0.06735698
12	0xbdd71015	-0.10501114
13	0x3cf179b3	0.029476976
14	0xbde4b567	-0.11167412
15	0x3cd2d53c	0.025736444
16	0xbe49d869	-0.1971146
17	0xbd5ec871	-0.054390375
18	0xbbd2387a	-0.006415424
19	0x3e1a72d7	0.1508287
20	0x3c9bd760	0.019023597
21	0x3dd09d64	0.1018627
22	0xbdcb3e51	-0.09923995
23	0xbd8c2c92	-0.068444386
24	0x3e6d1516	0.23152575
25	0x3bb600f0	0.005554311
26	0xbe08ef22	-0.13372472
27	0xbd53b51f	-0.051686402
28	0xbc6333fa	-0.013867373
29	0xbebd5ec2	-0.36986357
30	0xbdb39489	-0.08768565
31	0x3ca19704	0.01972533
32	0xbdd4c5ba	-0.10389276
33	0x3c61ea68	0.013788797
34	0xbd05e1c2	-0.032686003
35	0x3da539be	0.08067654
36	0x3db0fef9	0.08642382
37	0xbd37b480	-0.044849873
38	0xbd8f930e	-0.0701047
39	0xbd2fcbea	-0.042919077
40	0xbe30af86	-0.17254457
41	0xbcdfd6bc	-0.027324073
42	0xbdce333a	-0.100683644
43	0x3db0694a	0.08613832
44	0xbceebb87	-0.029142154
45	0xbe78fb8d	-0.24314709
46	0xbcd6f6ec	-0.026240788
47	0xbe3e9a5e	-0.18613574
48	0x3e0178a3	0.12643676
49	0x3e33d69e	0.17562339
50	0x3dc3ab9e	0.09554218
51	0xbe9030a5	-0.28162113
52	0xbc7f47b1	-0.015581057
53	0xbe1a2861	-0.15054466
54	0xbc96ffc5	-0.018432507
55	0xbd35689d	-0.04428922
56	0x3d1cd01f	0.038284417
57	0xbddc40f9	-0.1075458
58	0xbca61daa	-0.020277817
59	0x3dba5071	0.09097374
60	0xbd26b954	-0.040704086
61	0xbd159391	-0.036517683
62	0x3d9c9715	0.07646004
63	0x3da8203f	0.082092755

actor.preprocess.model.model.2.weight f4 [64, 64]
0	0x3dcf8326	0.101324365
1	0xbe1fcad4	-0.15604717
2	0x3d88b159	0.066744514
3	0xbd9a17c3	-0.075240634
4	0xbe2e13c2	-0.16999725
5	0xbd92462e	-0.07142292
6	0xbe6e1bdb	-0.23252814
7	0xbdb316d5	-0.08744589
8	0xbcf45900	-0.029827595
9	0xbdddb03e	-0.10824631
10	0x3e4ea1b3	0.20178871
11	0x3de640e0	0.11242843
12	0x3dc015ca	0.09379156
13	0x3de6db99	0.11272354
14	0xbc998dbf	-0.018744348
15	0x3e36884f	0.17825435
16	0xbde63dea	-0.11242278
17	0x3dffe6d8	0.12495202
18	0x3eaf7156	0.34266156
19	0x3e221c15	0.15831025
20	0xbd9e3daf	-0.07726609
21	0x3dc523cd	0.09625969
22	0xbd60dc1f	-0.054897424
23	0xbe084e45	-0.13311107
24	0xbc7e03c5	-0.015503828
25	0xbd9e9ce5	-0.07744769
26	0xbdb107d2	-0.0864407
27	0xbcd388f7	-0.025822146
28	0xbd97156d	-0.073771335
29	0xbe0d6008	-0.13806164
30	0xbca5382d	-0.020168388
31	0x3e0b894b	0.13626592
32	0xbe9cf320	-0.3065424
33	0xbad4fd54	-0.0016249814
34	0x3d3455c8	0.04402712
35	0xbd671fe0	-0.056426883
36	0x3e0b9a21	0.13633014
37	0x3d128c19	0.03577814
38	0xbd4f2e74	-0.05058141
39	0xbe16e4dd	-0.14735742
40	0xbe84a036	-0.2590348
41	0x3d115beb	0.03548805
42	0xbeb12515	-0.34598604
43	0x3d988a9b	0.07448312
44	0xbd2d114f	-0.042252835
45	0xbe318c3d	-0.17338653
46	0x3e7ec93d	0.24881454
47	0xbc905877	-0.017620308
48	0x3dca2322	0.09869982
49	0x3e8de676	0.2771489
50	0x3cf44ea3	0.029822653
51	0xbe1169da	-0.14200535
52	0xbd7a7c30	-0.06115359
53	0xbe0823af	-0.13294862
54	0xbe28f01b	-0.16497843
55	0xbd8ed7b5	-0.069747366
56	0xbd30ccdb	-0.043164115
57	0x3e22106c	0.15826577
58	0x3e16e0d7	0.14734207
59	0xbc7c30b6	-0.015392473
60	0xbd2b0dc3	-0.04176117
61	0xbe4cfcb5	-0.20018275
62	0xbc5ee897	-0.013605258
63	0x3dcece83	0.10097983
64	0x3e800789	0.2500575
65	0x3e37954b	0.17928044
66	0x3e6b630b	0.22987
67	0x3d8d91aa	0.06912549
68	0x3d8b08df	0.067888014
69	0xbe09726b	-0.13422553
70	0x3dbb2ffb	0.09140011
71	0x3ddadae3	0.106862806
72	0x3e86e41c	0.2634591
73	0xbd85ad02	-0.06527139
74	0x3e1c8315	0.15284379
75	0x383ede2e	4.550645e-05
76	0x3cb70d3c	0.022345178
77	0xbe3b7876	-0.18307671
78	0xbe146fa7	-0.14495717
79	0xbda7de78	-0.081967294
80	0xbcdfafd5	-0.027305523
81	0xbde02fb9	-0.109466024
82	0x3df88346	0.121344134
83	0x3e197afd	0.14988323
84	0x3e96b77b	0.2943686
85	0xbd367e7d	-0.044554222
86	0xbdd16456	-0.10224216
87	0xbe15f793	-0.14645223
88	0x3d89ce9c	0.06728861
89	0x3e058a4d	0.13041039
90	0xbe5c42ce	-0.21509859
91	0x3d63f10d	0.055649806
92	0x3db5d66a	0.08878787
93	0x3df2951a	0.11844845
94	0x3d2f704d	0.042831708
95	0x3d4bdb24	0.049769536
96	0x3db90e25	0.09035901
97	0xbdd15726	-0.102217
98	0x3d98abce	0.07454644
99	0xbd527e50	-0.051389992
100	0xbd0673ee	-0.032825403
101	0xbccf84c9	-0.025331872
102	0x3e377d47	0.17918883
103	0xbcc3808c	-0.023865007
104	0xbe0d9b3f	-0.13828753
105	0xbd160e20	-0.036634564
106	0xbe99c2f7	-0.3003156
107	0xbda578b5	-0.08079664
108	0x3cb9f4ee	0.0226998
109	0x3e14521a	0.14484444
110	0xbd894db3	-0.06704273
111	0x3dd60136	0.1044945
112	0x3bb8a0fa	0.0056344243
113	0xbdd79388	-0.10526186
114	0x3d2b29c5	0.04178788
115	0x3c4399ff	0.011938571
116	0xbdb3641b	-0.08759328
117	0xbe1c0cd0	-0.15239263
118	0x3d63edd8	0.055646747
119	0x3d46d86c	0.04854624
120	0xbd6148b5	-0.05500098
121	0x3d1b9de1	0.037992362
122	0x3c959698	0.018260285
123	0x3c73ea0a	0.014887342
124	0x3e36e126	0.17859325
125	0x3e6dea0d	0.23233815
126	0x3dd70259	0.10498495
127	0x3dcce7fd	0.10005186
128	0x3dc64503	0.09681132
129	0x3d6f8f94	0.058486536
130	0xbd648805	-0.05579378
131	0x3e001530	0.12508082
132	0xbe65f8c3	-0.22458176
133	0xbd88753d	-0.066629864
134	0xbedafdb9	-0.427717
135	0x3b7fbab5	0.0039021198
136	0xbe05f904	-0.13083273
137	0xbe0f3d03	-0.13988118
138	0x3e30b79f	0.17257546
139	0x3d597015	0.053085405
140	0x3dc9f7a1	0.098616846
141	0x3e1778ad	0.14792128
142	0x3bec6b2e	0.0072149253
143	0xbb6d6367	-0.0036222578
144	0x3dc1322b	0.09433397
145	0xbe01529c	-0.12629169
146	0xbd89b927	-0.06724768
147	0x3e4dc1a8	0.20093405
148	0xbe29a9fc	-0.1656875
149	0x3b43e6ce	0.002989221
150	0xbd899fbd	-0.06719921
151	0x3cb8fa33	0.022580242
152	0x3e2bb7da	0.16769353
153	0x3dda53e0	0.10660529
154	0xbd95b3bc	-0.07309672
155	0x3df6b0a6	0.12045412
156	0xbc3d4ef9	-0.011554473
157	0xbbd5baf2	-0.0065225298
158	0x3e2a9eb6	0.16662106
159	0xbd1632e3	-0.036669623
160	0xbd12b7e3	-0.0358199
161	0x3db9a818	0.090652645
162	0xbe9efcef	-0.31052348
163	0xbe65b1a8	-0.22431052
164	0x3ccf2afd	0.025289053
165	0x3c800f3c	0.015632264
166	0xbd99253f	-0.07477807
167	0xbd1a5b85	-0.037684936
168	0xbd307f7b	-0.043090325
169	0x3d7f6220	0.06234944
170	0x3b32300f	0.002718929
171	0xbb99bb67	-0.0046915296
172	0xbdf36c4f	-0.118858926
173	0x3e015425	0.12629755
174	0xbe85963e	-0.26091188
175	0xbe0f2325	-0.1397825
176	0x3cde86ed	0.027163947
177	0xbdeed104	-0.1166096
178	0x3dd009fa	0.10158153
179	0x3cd7a468	0.026323512
180	0x3d39c8d5	0.045357544
181	0xbb429f59	-0.002969703
182	0x3e2b7821	0.16745044
183	0x3d1341c9	0.03595141
184	0x3e2b818e	0.1674864
185	0xbdcf88fa	-0.10133548
186	0xbe36f4a8	-0.17866766
187	0x3dd5b4b9	0.10434861
188	0xbd9e5904	-0.07731822
189	0x3d0fe592	0.035131045
190	0x3d97f45c	0.07419655
191	0x3d2365b5	0.039891917
192	0xbeb08e12	-0.3448339
193	0x3d45d1cc	0.04829578
194	0xbe457a3d	-0.19284911
195	0xbdf664c6	-0.1203094
196	0x3e71a3eb	0.23597686
197	0xbe07adb8	-0.13249862
198	0x3cf2730b	0.029595872
199	0xbd4f37cb	-0.050590318
200	0xbe41fd29	-0.18944229
201	0x3d73d8e0	0.059533
202	0xbdb53896	-0.088486835
203	0x3e012381	0.126112
204	0x3d543c81	0.051815514
205	0xbde746a7	-0.11292773
206	0xbd8a6cb0	-0.06759012
207	0x3e10b04f	0.14129756
208	0x3d424799	0.047431562
209	0x3d008ab9	0.031382296
210	0x3e1a407f	0.15063666
211	0x3daa276b	0.083083
212	0xbdb0e250	-0.08636916
213	0x3d612a2f	0.05497187
214	0xbd9a45c6	-0.075328395
215	0xbe106604	-0.14101416
216	0x3dcadbdb	0.09905215
217	0xbd72c5dd	-0.05927073
218	0x3dca4ee7	0.09878331
219	0x3d0a63e8	0.033786684
220	0xbd361201	-0.044450764
221	0x3cf92505	0.03041316
222	0x3e134dbc	0.14385122
223	0xbddccb3d	-0.10780952
224	0xbd80108c	-0.06253156
225	0xbe0dae7d	-0.13836093
226	0xbc9db02a	-0.01924904
227	0x3e1dbcd1	0.15404059
228	0xbdb398e1	-0.08769394
229	0x3d3099f2	0.043115564
230	0xbd944f31	-0.07241667
231	0xbe5f495f	-0.21805333
232	0xbdd9a934	-0.10627976
233	0x3e0a8af9	0.13529576
234	0x3b8f9192	0.004381367
235	0xbd256044	-0.04037501
236	0xbd9885d5	-0.074474014
237	0x3e7d64c5	0.24745472
238	0xbdc6aa7c	-0.09700486
239	0x3e186c7e	0.14885136
240	0xbd8f87e5	-0.07008342
241	0xbd36c1d7	-0.044618454
242	0x3e6a957d	0.22908588
243	0x3e4911db	0.19635718
244	0xbe3b6af5	-0.1830252
245	0xbdd02b92	-0.101645604
246	0x3c4ff287	0.0126921
247	0xbe359ff4	-0.17736799
248	0xbcf0831e	-0.029359397
249	0xbd82c32e	-0.06384884
250	0xbe0eaec7	-0.1393386
251	0xbe169e81	-0.14708902
252	0x3e655869	0.22397007
253	0x3d82cab7	0.06386321
254	0xbdaf97da	-0.08573885
255	0xbc284ae6	-0.010271763

actor.preprocess.model.model.2.bias f4 [64]
0	0x3e8d2ed8	0.275748
1	0x3ad49327	0.0016218171
2	0xbb3dc2e2	-0.002895527
3	0x3bfc3ee3	0.0076979264
4	0x3ccfeaea	0.02538057
5	0x3e4640aa	0.19360605
6	0x3dfe6b28	0.12422782
7	0xbb41170b	-0.0029463198
8	0xbc793d80	-0.015212417
9	0xbe2513a7	-0.16120778
10	0xbe9e85fc	-0.30961597
11	0xbb840a11	-0.0040295203
12	0xbdac9296	-0.084263965
13	0x3b9a8c66	0.004716444
14	0x3a926c72	0.0011171235
15	0xbc8a6bda	-0.01689713
16	0xbcb43a03	-0.022000318
17	0x3c6d569b	0.01448598
18	0xb950f3c0	-0.0001992723
19	0x3a8708d8	0.0010302318
20	0x3c236ed1	0.009975151
21	0x3b0cc62e	0.002148043
22	0x3d1b2f3a	0.037886836
23	0xbd04fd58	-0.03246817
24	0x3c2280fe	0.009918449
25	0x3d3c6a8d	0.046000052
26	0xbbdd48e4	-0.006753074
27	0xbd0b5f55	-0.034026463
28	0xbca3ec3c	-0.020010106
29	0x3cbbdea2	0.022933308
30	0x38f0a98e	0.00011475674
31	0xbd98fc62	-0.07470013
32	0xbcc2d510	-0.023783237
33	0x3c747d05	0.014922385
34	0x3ca2cd3b	0.019873252
35	0x3bb9d8a9	0.00567158
36	0x3d04bb39	0.032405112
37	0x3911f2b0	0.00013918686
38	0xbcdfb1df	-0.027306495
39	0x3c7a990a	0.015295276
40	0xbb2f85a0	-0.0026782528
41	0x3db2f395	0.08737866
42	0x3c3c78d7	0.01150342
43	0xbba3ef81	-0.0050029163
44	0x3e8828e0	0.26593685
45	0xb93629a4	-0.00017372385
46	0xbc631b13	-0.013861435
47	0x3d8c5f19	0.06854076
48	0xbccb660d	-0.024828935
49	0x3d019807	0.031639125
50	0xbbe11bbe	-0.006869762
51	0xbd9dec07	-0.07711034
52	0x3c045358	0.008076511
53	0x3d199b66	0.037501715
54	0xbc68a21a	-0.014198804
55	0x3c5919c3	0.013250771
56	0xbdb6fe0c	-0.08935174
57	0x3e252ea0	0.16131067
58	0x3a5de0c8	0.0008463976
59	0xbd6c48c8	-0.057686597
60	0x3dc7cd35	0.09755937
61	0xb9c262f4	-0.0003707629
62	0xbdbb618e	-0.091494665
63	0x3a01a186	0.00049450283

actor.mu.model.0.weight f4 [1, 64]
0	0xbed21e73	-0.41038856
1	0x3cd803c0	0.026368976
2	0x3cc4a000	0.024002075
3	0xbd77c267	-0.06048813
4	0xbed0335b	-0.4066418
5	0x3ee51fca	0.44750816
6	0x3e88060a	0.26567107
7	0xbdcd3cae	-0.10021339
8	0xbe7d4746	-0.2473422
9	0xbf1f212b	-0.62159985
10	0x3f6c4d3c	0.9230535
11	0xbe05d257	-0.1306852
12	0xbedab026	-0.42712516
13	0xbe8742ad	-0.26418057
14	0xbd9cfc02	-0.07665254
15	0xbe1458f1	-0.14487053
16	0x3e8344d0	0.25638437
17	0xbca9ddbc	-0.020735614
18	0x3ea15481	0.31509784
19	0xbda8e0be	-0.08245991
20	0x3d2f7ec3	0.0428455
21	0x3dffa243	0.12482121
22	0xbe48fe9b	-0.19628374
23	0xbef28ab8	-0.4737146
24	0xbdca05d0	-0.0986439
25	0xbe2f60bf	-0.1712675
26	0xbe13f051	-0.14447142
27	0xbd458306	-0.048220657
28	0xbe4838f4	-0.19552976
29	0x3e8876b3	0.2665306
30	0x3b8d0679	0.00430375
31	0x3e47a465	0.19496305
32	0xbf016e9b	-0.50559396
33	0x3e31c4ab	0.17360179
34	0x3db6e0fc	0.08929631
35	0xbeb1a6b1	-0.34697488
36	0xbf0ba371	-0.54546267
37	0x3d6e203f	0.05813622
38	0x3da73430	0.08164251
39	0xb9ebd556	-0.0004498164
40	0xbdd642ea	-0.104619816
41	0x3e9cd8d7	0.30634186
42	0x3ea6bff2	0.32568318
43	0x3c2cf461	0.010556311
44	0x3f12c506	0.57331884
45	0xbdaa8d30	-0.08327711
46	0xbe93c61f	-0.28862092
47	0xbe59e1f6	-0.21277604
48	0x3e33de59	0.17565288
49	0xbeac28e5	-0.3362495
50	0x3e9de51d	0.30838862
51	0x3ec63526	0.38712424
52	0xbe1abe0c	-0.1511156
53	0x3eb8a284	0.3606149
54	0xbeaf5301	-0.34243014
55	0xbc079006	-0.008274084
56	0xbe6974a7	-0.22798406
57	0xbec32dcc	-0.38120878
58	0xbcdb9c38	-0.02680789
59	0xbe1e9ed8	-0.15490282
60	0x3e75cd1e	0.24004027
61	0xbc8fe95b	-0.017567327
62	0x3e67ab8c	0.22624034
63	0xbd5ba99e	-0.053628556

critic.preprocess.model.model.0.weight f4 [64, 3]
0	0xbd4c8654	-0.049932793
1	0x3d811918	0.063036144
2	0x3d1d6e35	0.03843518
3	0xbdc22900	-0.094804764
4	0xba538079	-0.0008068155
5	0x3e3848e0	0.1799655
6	0x3e869d8e	0.2629208
7	0x3d17b02a	0.037033238
8	0xbdc108fb	-0.09425541
9	0xbd8c74c4	-0.06858209
10	0xbda46c5a	-0.08028479
11	0xbe5af705	-0.21383293
12	0xbe694f1f	-0.22784089
13	0xbc99604e	-0.01872268
14	0xbdcbf2e9	-0.09958441
15	0x3d346d2c	0.044049427
16	0xbe6fec4e	-0.23429987
17	0x3d254eba	0.040358283
18	0xbd713c49	-0.058895383
19	0x3cd91e8a	0.02650382
20	0xbc622a22	-0.013803991
21	0x3e8752ad	0.26430264
22	0xbde6c608	-0.1126824
23	0xbcc5ab5e	-0.024129566
24	0xbe178daa	-0.14800134
25	0x3e07e85b	0.1327223
26	0xbe4b4760	-0.19851446
27	0x3c01d922	0.007925304
28	0x3e817251	0.2528253
29	0xbd3b07d4	-0.045661762
30	0x3aaac888	0.0013029734
31	0x3e9b6caa	0.30356342
32	0xbc22e4c8	-0.009942241
33	0x3e0fcca6	0.14042911
34	0x3e058139	0.13037576
35	0xbdaea3ed	-0.0852736
36	0x3e2a2f36	0.16619572
37	0x3e71d721	0.23617221
38	0x3cd5dfb8	0.026107654
39	0xbe3f74eb	-0.18696944
40	0xbbf412ce	-0.0074485308
41	0x3d366e76	0.044538938
42	0x3ced3187	0.02895428
43	0x3d1752ad	0.03694408
44	0xbc4240cc	-0.011856269
45	0xbbd02c71	-0.006352954
46	0x3d54a7d8	0.05191788
47	0x3c9b5350	0.018960625
48	0x3e101823	0.14071707
49	0xbd80ce16	-0.06289308
50	0xbe68f8f3	-0.22751217
51	0xbdc72fcf	-0.09725916
52	0x3caa5072	0.020790312
53	0xbe5a61b2	-0.2132633
54	0xbe046515	-0.12929185
55	0x3db36a5d	0.087605216
56	0x3d219392	0.039447375
57	0x3d3c177b	0.04592083
58	0x3e1849ba	0.14871874
59	0x3d97e3c5	0.074164905
60	0xbdaf77d6	-0.08567779
61	0x3dbab745	0.09116987
62	0xbd93a067	-0.07208329
63	0xbce1caa7	-0.027562452
64	0x3d73f6dc	0.059561595
65	0x3d8c2731	0.06843413
66	0x3e380910	0.17972207
67	0x3cafad9d	0.02144509
68	0x3dae2640	0.08503389
69	0xbda5fcab	-0.08104833
70	0xbe25896e	-0.16165707
71	0xbdf155dd	-0.11783955
72	0x3e19ad1c	0.15007442
73	0x3e80b093	0.25134715
74	0x3b9d38c1	0.0047980254
75	0x3c12d993	0.008963007
76	0x3e0fc832	0.14041212
77	0xbcc3df75	-0.023910264
78	0x3e42fa66	0.19040832
79	0xbe01f8aa	-0.12692514
80	0xbd09791e	-0.033562772
81	0x3e1051ec	0.1409375
82	0xbdac3e8f	-0.084103696
83	0xbc863fa7	-0.016387774
84	0xbcb3ebc1	-0.021963002
85	0x3e0315ea	0.12801328
86	0xbc3be477	-0.0114680445
87	0x3da773c2	0.08176376
88	0x3d69d492	0.05708749
89	0xbd5f7170	-0.05455154
90	0xbd240926	-0.040047787
91	0xbe2d9dd3	-0.16954736
92	0x3d81d416	0.0633928
93	0xbe071fec	-0.13195771
94	0x3dd60bf0	0.10451496
95	0xbd9c49dd	-0.07631276
96	0xbe6c202e	-0.2305915
97	0x3d932a44	0.07185796
98	0x3e2e8b97	0.17045437
99	0x3d6bf44e	0.057606034
100	0xbdf38c63	-0.11892011
101	0x3d813f63	0.06310918
102	0xbdb513aa	-0.08841641
103	0xbcf4c822	-0.029880587
104	0xbe46253a	-0.19350138
105	0xbdcd4b49	-0.10024125
106	0x3da39e40	0.07989168
107	0xbdc9dd01	-0.09856606
108	0xbbde2a64	-0.0067799557
109	0x3e39ecda	0.18156758
110	0xbe547ecf	-0.20751499
111	0x3e027f28	0.12743819
112	0xbd41a047	-0.047271993
113	0x3dd3b257	0.1033675
114	0x3e052a6c	0.13004464
115	0x3e11343b	0.1418008
116	0xbd86d79e	-0.065840945
117	0xbe086c02	-0.13322452
118	0x3d198227	0.03747764
119	0x3d1838d8	0.037163585
120	0xbd9d4312	-0.07678808
121	0xbcf34472	-0.029695723
122	0xbd8fb2fa	-0.07016559
123	0xbe2112d8	-0.15729845
124	0x3cc2adee	0.023764577
125	0x3e6aa0c9	0.22912897
126	0x3d78e2b8	0.06076309
127	0x3d4cce51	0.050001446
128	0xbc43442a	-0.011918107
129	0xbe126618	-0.14296758
130	0x3dc0f996	0.09422605
131	0x3c852536	0.016253095
132	0xbdafbe87	-0.08581262
133	0xbd289797	-0.041160192
134	0x3da568fd	0.080766656
135	0x3e5a7a69	0.21335758
136	0x3e0e83f6	0.13917527
137	0x3bf91e00	0.007602453
138	0x3dba43db	0.09094974
139	0x3e06575a	0.1311926
140	0xbdc9224d	-0.098209955
141	0xbd87063b	-0.06592985
142	0x3d894b8c	0.067038625
143	0xbe16f976	-0.147436
144	0xbcef0b54	-0.029180206
145	0xbc935dff	-0.017989157
146	0xbce2fe9b	-0.027709296
147	0x3dcb270f	0.09919559
148	0x3c9262d6	0.017869394
149	0x3cab2a4a	0.020894188
150	0xbe5dd551	-0.21663405
151	0xbcb40701	-0.021975996
152	0xbdebe68e	-0.11518584
153	0xbe585043	-0.21124367
154	0x3da17019	0.07882709
155	0x3e6ef150	0.23334241
156	0xbcaf7278	-0.021416888
157	0xbc70190f	-0.014654412
158	0x3c1779b7	0.009245328
159	0xbd892edd	-0.066983916
160	0xbe2e3e04	-0.17015845
161	0xbe26b297	-0.16279064
162	0x3e85644b	0.2605308
163	0xbe3fdc70	-0.18736434
164	0x3d178c49	0.03699902
165	0xbddd95af	-0.108195655
166	0xbd45b1f7	-0.048265424
167	0x3d9c4c5c	0.07631752
168	0xbdf228ae	-0.11824165
169	0xbcabe7b0	-0.0209845
170	0xbe09bfe0	-0.13452101
171	0x3d4fdea2	0.05074943
172	0xbd2dfced	-0.042477537
173	0x3bb2c58e	0.0054556793
174	0x3cf30eda	0.029670168
175	0xbe27923e	-0.1636438
176	0x3db87b27	0.090078644
177	0xbd03ca62	-0.03217543
178	0xbddcbeae	-0.10778557
179	0xbc86fe61	-0.01647872
180	0x3ccc7d6b	0.024962148
181	0x3bbbed15	0.0057350495
182	0x3bdf9002	0.006822587
183	0x3dc6ce52	0.09707321
184	0xbd47d7c9	-0.048789773
185	0x3c71b9c6	0.0147537645
186	0x3dc38507	0.09546857
187	0xbcb090e1	-0.021553459
188	0x3d8f3e26	0.06994276
189	0xbd9e48d0	-0.07728732
190	0xbe1350f8	-0.14386356
191	0x3d103db3	0.03521509

critic.preprocess.model.model.0.bias f4 [64]
0	0x3da27a63	0.079335
1	0xbcb069f3	-0.021534896
2	0xbd76cf9b	-0.06025658
3	0x3cd4f4c2	0.025995616
4	0x3da0fa13	0.07860198
5	0xbaf768ec	-0.0018875874
6	0xbc92f4bb	-0.017938962
7	0xbd7e650a	-0.062108077
8	0xbd065fc6	-0.03280618
9	0x3d791046	0.060806535
10	0xbd7a1ca0	-0.061062455
11	0xbd89f77d	-0.06736658
12	0xbd38516a	-0.044999518
13	0x3d3ad35f	0.045611735
14	0xbd5d21c2	-0.053987272
15	0xbdb474ec	-0.088113636
16	0xbd96c150	-0.0736109
17	0x3d25885d	0.04041325
18	0x3d8b111f	0.06790375
19	0xbda74544	-0.08167508
20	0x3dc6b2d2	0.09702076
21	0x3e0f5699	0.13997878
22	0x3cca5134	0.024696924
23	0x3d62b050	0.055343926
24	0xbd910127	-0.07080298
25	0x3dcf3f56	0.10119502
26	0x3c0f0deb	0.008731346
27	0xbd8710d1	-0.06595004
28	0x3dfb35a6	0.12266092
29	0xbd35db3f	-0.044398542
30	0x3d7628da	0.060097553
31	0x3d673ac8	0.056452543
32	0xbc148254	-0.009064276
33	0xbd802308	-0.06256682
34	0x3d517879	0.051140282
35	0x3d40c490	0.047062457
36	0xbd579cb1	-0.052639667
37	0x3ccf1a55	0.02528111
38	0xbd5e3b52	-0.05425579
39	0x3d855a25	0.06511334
40	0x3d411384	0.047137752
41	0x3da007bc	0.07813975
42	0xbd8fe299	-0.07025642
43	0x3d99899c	0.0749695
44	0x3d34e361	0.044162158
45	0xbd60b5fd	-0.054861058
46	0xbd60c1e5	-0.054872412
47	0xbbf3cc86	-0.0074401526
48	0x3c479919	0.012182497
49	0xbd3286f8	-0.043585747
50	0x3dac9cd6	0.084283516
51	0x3d575a0c	0.05257611
52	0xbd0f1ee9	-0.034941588
53	0x3d212801	0.03934479
54	0xbda4439a	-0.080207065
55	0x3d77462a	0.060369648
56	0x3d60b4e0	0.054859996
57	0x3e51e7a4	0.2049852
58	0xbde50f63	-0.111845754
59	0xbe464f1b	-0.19366114
60	0xbd56377b	-0.052299004
61	0xbd4220c0	-0.047394514
62	0x3c93d502	0.018045906
63	0x3d87500f	0.06607067

critic.preprocess.model.model.2.weight f4 [64, 64]
0	0x3daa91f8	0.083286226
1	0x3df4d70a	0.11955078
2	0xbe49a8c5	-0.19693287
3	0x3d9ee321	0.07758165
4	0x3ddcf868	0.10789567
5	0xbe19f8a4	-0.15036255
6	0xbe1349cf	-0.14383624
7	0xbdc7f939	-0.09764332
8	0xbe9962e0	-0.29958248
9	0x3df2d8dd	0.1185777
10	0xbdd9ff72	-0.106444255
11	0xbd0029ce	-0.031289868
12	0xbc4a80bb	-0.012359793
13	0x3e14bbf8	0.1452483
14	0xbdb5f621	-0.08884836
15	0x3d740e3e	0.059583895
16	0x3d3e5c94	0.046475008
17	0x3dd07b50	0.1017977
18	0x3ea4c2e9	0.32179955
19	0xbe2db293	-0.16962652
20	0xbde7dd4d	-0.11321507
21	0xbda80b20	-0.08205247
22	0x3ca59dea	0.0202169
23	0x3d087b28	0.033320576
24	0xbe046d6c	-0.12932366
25	0x3db8e563	0.09028127
26	0xbcbf2d1e	-0.023336943
27	0xbdb72d4e	-0.08944188
28	0xbcbd13ec	-0.023080789
29	0x3e456c94	0.192797
30	0xbdf11fe6	-0.11773662
31	0x3c6c3e8a	0.014419207
32	0x3d4966e2	0.049170382
33	0x3d2e4eac	0.042555496
34	0x3e5f56fc	0.21810526
35	0x3e79b21e	0.24384353
36	0xbe07bf15	-0.13256486
37	0xbcdd55f9	-0.027018534
38	0x3c45d552	0.012074785
39	0x3d2925f5	0.041295964
40	0x3e952f8e	0.29137844
41	0x3d59844e	0.05310469
42	0xbdbcdd8f	-0.092219464
43	0xbc38fa4c	-0.011290144
44	0x3cb1b280	0.02169156
45	0x3e7cb806	0.24679574
46	0xbd170825	-0.036873
47	0x3e134ba6	0.14384326
48	0x3dd18997	0.10231321
49	0xbd406277	-0.046968903
50	0x3ce01bba	0.027356971
51	0x3e1c8644	0.15285593
52	0xbe4a69bb	-0.19766895
53	0xbd80f9c9	-0.06297643
54	0x3c4475d4	0.011990983
55	0x3cd8a2e1	0.026444854
56	0xbd9d8606	-0.076915786
57	0x3e50611b	0.20349543
58	0x3e460b24	0.19340187
59	0xbe5e6170	-0.21716857
60	0xbd8f4587	-0.06995683
61	0x3de63dc7	0.11242252
62	0xbd185bca	-0.037196912
63	0x3e9094f5	0.28238645
64	0xbe90c619	-0.28276137
65	0xbdfeed52	-0.12447609
66	0x3e4deb1a	0.20109215
67	0x3b795db7	0.0038050243
68	0xbe49444b	-0.19654958
69	0xbc57553d	-0.013142881
70	0xbd8a9a50	-0.06767714
71	0x3d040564	0.032231703
72	0xbe6ee0e0	-0.2332797
73	0x3e689e6e	0.22716686
74	0x3e25f045	0.16204937
75	0x3bb3c5b8	0.0054862164
76	0x3d60b3cb	0.054858964
77	0x3c94cbe4	0.018163629
78	0x3d1bc52e	0.038029842
79	0x3e87d9af	0.26533267
80	0x3def52a4	0.11685684
81	0xbe128fa0	-0.14312601
82	0xbd33e904	-0.043923393
83	0x3ebbd62f	0.36686847
84	0xbe0179e4	-0.12644154
85	0xbdde0823	-0.10841396
86	0x3db84384	0.089972526
87	0xbe38b2f0	-0.18037009
88	0xbce9f672	-0.028559897
89	0xbdee0136	-0.11621325
90	0xbd82f3cb	-0.06394156
91	0x3e4285f6	0.18996415
92	0x3d96cbc2	0.073630825
93	0x3d8a4c13	0.06752791
94	0xbe525e6d	-0.20543833
95	0xbe5cbfbf	-0.2155752
96	0xbd09e53d	-0.033665884
97	0xbe31d050	-0.17364621
98	0xbdae84b1	-0.085214026
99	0x3e358cb7	0.1772946
100	0x3c9973a4	0.0187319
101	0x3c760233	0.015015173
102	0x3ea6eb7a	0.3260153
103	0xbe71f388	-0.23628056
104	0xbd2835b8	-0.041066855
105	0xbc78af72	-0.015178548
106	0x3abef4df	0.0014568827
107	0xbc6d0b40	-0.014468014
108	0xbe32000a	-0.17382827
109	0xba2b6584	-0.00065382593
110	0xb9c6db73	-0.00037929005
111	0xbbc0e5c5	-0.0058867657
112	0x3da0d4a4	0.07853058
113	0xbce6e700	-0.028186321
114	0xbdbe08bd	-0.092790104
115	0xbddf15d7	-0.108928375
116	0x3e252d38	0.16130531
117	0xbc6c85ff	-0.014436244
118	0x3cdd31ab	0.027001223
119	0xbe3140b3	-0.17309837
120	0x3dbe58a6	0.09294252
121	0xbe8156f1	-0.25261644
122	0x3d06c2d6	0.032900654
123	0x3e53a7bd	0.20669456
124	0x3d408154	0.046998337
125	0x3e3bf691	0.18355776
126	0xbd52f818	-0.051506132
127	0xbe1d2add	-0.15348382
128	0x3d41f996	0.047357164
129	0xbd9ef4a9	-0.07761509
130	0xbdbf01df	-0.09326529
131	0x3ded9bd7	0.1160199
132	0xbc8c50cc	-0.01712837
133	0xbda0bb49	-0.07848222
134	0xbdc46c0a	-0.09590919
135	0xbe1949c7	-0.1496955
136	0xbd24f4c4	-0.04027249
137	0xbd54d201	-0.051958088
138	0x3e052aa7	0.13004552
139	0xbcd07238	-0.025445089
140	0xbbad9a55	-0.005297939
141	0x3dcd21df	0.10016226
142	0x3e277b55	0.16355641
143	0x3e4a57c9	0.1976005
144	0x3e45d1d6	0.19318327
145	0x3df65b48	0.12029129
146	0xbe6d383f	-0.23165987
147	0x3dc98812	0.098404065
148	0xbe1c10eb	-0.15240829
149	0xbcc8de98	-0.024520203
150	0xbe15b84c	-0.14621085
151	0xbdee7cd3	-0.11644902
152	0x3d1976a2	0.037466653
153	0xbcbeedcc	-0.02330675
154	0x3e15faea	0.14646497
155	0x3ded5cb8	0.1158995
156	0xbe4f52a0	-0.20246363
157	0xbd875bb4	-0.06609288
158	0x3da8ea3e	0.08247803
159	0xbdbaff2c	-0.091307014
160	0xbe2c82d5	-0.16846783
161	0x3e2ff1de	0.17182109
162	0xbdf7322d	-0.12070117
163	0xbe864321	-0.2622309
164	0xbdeab962	-0.1146114
165	0xbd800d6b	-0.06252559
166	0xbd4dfa77	-0.05028769
167	0xba6006c2	-0.0008545929
168	0xbc201c00	-0.009772301
169	0xbe028a86	-0.12748155
170	0xbd8de8cb	-0.06929167
171	0x3dcb4a44	0.099262744
172	0xbd8893b8	-0.066688
173	0xbd59b3de	-0.05315005
174	0x3e555374	0.20832616
175	0xbe3187b0	-0.17336917
176	0xbb8f60bd	-0.004375546
177	0xbcf4bbb0	-0.029874653
178	0xbe3a6d80	-0.18205833
179	0xbd93af79	-0.07211203
180	0x3d900b54	0.07033411
181	0xbe4c84b6	-0.199725
182	0x3de3554f	0.11100256
183	0xbe133f08	-0.14379513
184	0xbe61574c	-0.22005957
185	0xbe2cdf1d	-0.16881986
186	0xbcc59172	-0.024117205
187	0x3e6bbd41	0.23021413
188	0xbe4aa4be	-0.19789407
189	0x3edb83a5	0.42873874
190	0xbe166734	-0.14687806
191	0xbd796a2b	-0.060892265
192	0x3e2a6190	0.1663878
193	0xbd7f4141	-0.06231809
194	0x3e417073	0.18890552
195	0xbdd21f2a	-0.1025985
196	0xbd5d9734	-0.054099277
197	0xbe405752	-0.1878331
198	0xbe2256ff	-0.15853499
199	0xbe884c09	-0.2662051
200	0x3d4c8645	0.049932737
201	0x3d5fdfd0	0.054656804
202	0x3d9ab01f	0.07553124
203	0xbd781462	-0.060566314
204	0xbe156893	-0.14590673
205	0xbe0991fe	-0.13434598
206	0xbe025007	-0.1272584
207	0xbe457731	-0.19283749
208	0xbe077297	-0.13227306
209	0xbe05d1f2	-0.13068369
210	0x3db3c5dd	0.08777974
211	0xbe1dbad2	-0.15403298
212	0xbcec8034	-0.028869726
213	0x3d11bd64	0.035581008
214	0xbda62228	-0.081119835
215	0x3e1fee7a	0.15618315
216	0x3d13a9ef	0.036050733
217	0xbd0738d1	-0.03301317
218	0x3d82d628	0.06388503
219	0x3d13f1fa	0.03611944
220	0x3e4653f1	0.19367959
221	0xbcf8b6b1	-0.030360552
222	0x3cb804d4	0.02246324
223	0xbe0f8fa0	-0.14019632
224	0xbdf01b6a	-0.11723979
225	0x3e1b8f07	0.1519128
226	0xbdb8a162	-0.09015156
227	0x3e584aa3	0.21122222
228	0x3dc30ad8	0.09523553
229	0xbdc8d87c	-0.09806916
230	0xbe86d584	-0.26334774
231	0x3cebdc5b	0.028791597
232	0x3d86a621	0.06574655
233	0x3dfdae94	0.12386814
234	0x3d9f571f	0.07780289
235	0x3d4f0b15	0.050547678
236	0xbc80c6ca	-0.01571979
237	0xbe3bec6e	-0.1835191
238	0xbe696a94	-0.22794563
239	0x3e8e2598	0.27763057
240	0x3dddd9bf	0.108325474
241	0xbe276f60	-0.1635108
242	0xbd88f8a8	-0.066880524
243	0xbd58b10e	-0.052903228
244	0xbe184f4d	-0.14874001
245	0x3e223783	0.15841489
246	0x3e18b000	0.14910889
247	0x3db078d8	0.08616799
248	0x3d6539ce	0.05596333
249	0x3e5fdd69	0.21861805
250	0xbdd4b795	-0.10386578
251	0xbe9453a2	-0.28970057
252	0xbe894114	-0.26807463
253	0x3da87c3a	0.08226819
254	0xbd773a70	-0.060358465
255	0xbb70f5a6	-0.0036767512

critic.preprocess.model.model.2.bias f4 [64]
0	0x3d166e3c	0.03672622
1	0xbd1bde53	-0.03805382
2	0xbd80ca5f	-0.06288599
3	0x3d1e9f58	0.03872618
4	0x3d193dda	0.037412502
5	0xbd20d450	-0.039264977
6	0x3d112679	0.03543708
7	0x3d168475	0.036747415
8	0xbe27e99a	-0.16397706
9	0xbd1e900c	-0.038711593
10	0xbd278b38	-0.040904254
11	0xbd173bd1	-0.03692228
12	0xbd02ee5c	-0.0319656
13	0xbd1d1ae6	-0.03835573
14	0x3d3344a2	0.043766625
15	0x3d5710a8	0.05250612
16	0xbd186fb0	-0.03721589
17	0xbd365117	-0.044510927
18	0x3cfac8a7	0.030613257
19	0xbd113e15	-0.035459597
20	0xbd20be6a	-0.039244093
21	0xbd3f2836	-0.046669208
22	0xbd0dd2c7	-0.03462484
23	0xbc87fd6a	-0.01660033
24	0x3d17b36d	0.037036348
25	0x3d26d643	0.04073168
26	0xbd28d6c7	-0.041220453
27	0x3d44c801	0.0480423
28	0x3d2c0f11	0.042006556
29	0x3d01aa7e	0.031656735
30	0xbd1998d0	-0.03749925
31	0x3d07eb77	0.03318354
32	0x3d17c95f	0.037057277
33	0x3d11b713	0.035574984
34	0xbd1bf227	-0.03807273
35	0xbd17935d	-0.03700577
36	0x3d1bc305	0.038027782
37	0xbd2f167a	-0.042746045
38	0xbd11e8cb	-0.0356224
39	0x3d0b1673	0.033956956
40	0x3cc74874	0.02432654
41	0x3d3f10b9	0.046646807
42	0x3d09f27a	0.03367851
43	0xbd198481	-0.03747988
44	0x3d169cb7	0.03677055
45	0xbd126fc4	-0.03575112
46	0x3d192f1a	0.037398435
47	0x3d15a806	0.036537193
48	0x3d567a53	0.05236275
49	0x3d230b64	0.039805785
50	0xbd0d70fc	-0.03453158
51	0xbd808348	-0.0627504
52	0x3d0d0c54	0.034435585
53	0xbd1ff7dd	-0.03905474
54	0x3d1ae208	0.037813216
55	0xbd014f92	-0.031570025
56	0xbd1987c6	-0.037483
57	0xbd125ab0	-0.035731018
58	0xbd167205	-0.03672983
59	0xbd1ceca0	-0.0383116
60	0xbe34ff94	-0.1767562
61	0xbd150f0e	-0.03639131
62	0xbd171295	-0.036882956
63	0x3d1fb79f	0.038993474

critic.last.model.0.weight f4 [1, 64]
0	0xbe5882ed	-0.21143694
1	0x3ddd6a07	0.10811239
2	0x3d347a5a	0.044061996
3	0xbe2c1c13	-0.16807584
4	0xbe25333a	-0.16132823
5	0x3e24ba6a	0.16086736
6	0xbeba91ee	-0.3643946
7	0xbe831da6	-0.25608557
8	0x3df2cd24	0.11855534
9	0x3e1fdf35	0.1561249
10	0x3e306b03	0.17228322
11	0x3e8f173a	0.27947408
12	0x3d494427	0.04913726
13	0x3dd438ef	0.10362422
14	0xbe817134	-0.2528168
15	0xbd79f875	-0.061027963
16	0x3e4c6a98	0.19962537
17	0x3dae9f9f	0.08526539
18	0xbd2f989e	-0.042870156
19	0x3da42746	0.08015303
20	0x3dcd577d	0.10026453
21	0x3d5a0c42	0.053234346
22	0x3e06be64	0.13158566
23	0x37458416	1.1772869e-05
24	0xbe10eeeb	-0.1415364
25	0xbd943103	-0.07235911
26	0x3d82e93e	0.06392144
27	0xbd38f3df	-0.04515445
28	0xbe0c3549	-0.13692202
29	0xbd3fd8e3	-0.0468377
30	0x3e0e703d	0.13910003
31	0xbd84f174	-0.06491366
32	0xbe54860e	-0.20754263
33	0xbe2bca9d	-0.1677651
34	0x3e1fe1ba	0.15613452
35	0x3e3415d4	0.17586452
36	0xbe47047f	-0.19435309
37	0x3de4e1ce	0.11175881
38	0x3e8b0104	0.27149212
39	0xbe2d05df	-0.16896771
40	0xbc88e5f8	-0.01671122
41	0xbd81c5fd	-0.063365914
42	0xbdff297d	-0.12459085
43	0x3e118c2a	0.14213625
44	0xbddc6729	-0.10761864
45	0x3ea8318f	0.3285031
46	0xbe144550	-0.14479566
47	0xbe640b6c	-0.22269982
48	0xbd897c50	-0.06713164
49	0xbe1d3ee9	-0.1535603
50	0x3e86d4a8	0.2633412
51	0x3d890cf2	0.06691922
52	0xbdc5189d	-0.09623835
53	0x3e2df3b4	0.16987497
54	0xbdd6ca61	-0.104878195
55	0x3d9f2d59	0.07772321
56	0x3e1d8183	0.15381436
57	0x3e669cff	0.22520827
58	0x3e29626f	0.16541456
59	0x3e01cf04	0.12676626
60	0x3e09d43d	0.13459869
61	0x3e62360a	0.22090927
62	0x3e2adf3b	0.16686718
63	0xbdda7dea	-0.106685475

_actor_critic.actor.preprocess.model.model.0.weight f4 [64, 3]
0	0xbe537174	-0.20648748
1	0x3eb3f978	0.35151267
2	0xbcb6f969	-0.022335725
3	0x3ebadc75	0.3649632
4	0xbe1cee62	-0.15325311
5	0x3e5a21dc	0.21301979
6	0x3dc6611b	0.0968649
7	0x3e4512cc	0.19245452
8	0x3ec162d2	0.37770706
9	0x3d958e54	0.073025376
10	0xbe372774	-0.17886144
11	0x3ddcf0c8	0.10788113
12	0xbe1ff78a	-0.15621772
13	0x3e9b8cb5	0.30380788
14	0xbe5ce177	-0.21570383
15	0x3d755ca3	0.0599028
16	0x3e4d0461	0.20021202
17	0xbd8c6fa7	-0.068572335
18	0xbd3d881d	-0.046272386
19	0xbeb499b9	-0.3527353
20	0xbe13282e	-0.14370796
21	0x3ee0ed7a	0.4393118
22	0x3e9ecc31	0.3101516
23	0x3e8f8d28	0.2803738
24	0xbe14c8ab	-0.14529674
25	0x3ea36a0f	0.31916854
26	0xbe63f865	-0.22262724
27	0x3e8b3c77	0.2719457
28	0xbee0c203	-0.4389802
29	0xbea057bb	-0.31316933
30	0x3e040f24	0.128964
31	0x3e989074	0.2979771
32	0x3e4ef7f5	0.20211776
33	0x3d6e3d4b	0.058163922
34	0x3c8eba4a	0.017422814
35	0x3e25d723	0.1619535
36	0x3cfabe30	0.030608267
37	0xbe44d1aa	-0.19220605
38	0x3dee6f32	0.116423026
39	0xbd3297a1	-0.043601636
40	0xbd533f72	-0.051574178
41	0x3d513600	0.05107689
42	0xbe1e71e9	-0.15473141
43	0x3d850ae6	0.06496219
44	0x3deacfe2	0.11465432
45	0xbe1f59ac	-0.15561551
46	0x3e965243	0.29359636
47	0x3dd7b127	0.10531836
48	0x3eae16a8	0.3400166
49	0xbd1cb542	-0.0382588
50	0xbd17009a	-0.036865808
51	0xbdc6a0e3	-0.096986555
52	0x3dd2eeee	0.102994785
53	0x3e2911da	0.16510716
54	0xbd966672	-0.07343759
55	0xbc1be9d3	-0.009516197
56	0x3e32d7f1	0.17465188
57	0x3d8afd76	0.06786625
58	0x3ee3ce17	0.44493172
59	0xbe69dc3e	-0.22837922
60	0x3e04fe54	0.12987643
61	0x3e631b14	0.22178298
62	0xbca24a5a	-0.019810844
63	0x3d8c6ef4	0.068571
64	0x3e7c5509	0.24641813
65	0xbe7e67c7	-0.24844275
66	0xbdf3f693	-0.11912265
67	0xbe1b3e83	-0.15160565
68	0xbe118959	-0.1421255
69	0x3da4f2a1	0.0805409
70	0xbe55cadc	-0.20878166
71	0x3dd551b7	0.104159765
72	0xbe938fdd	-0.28820696
73	0xbe552803	-0.20816045
74	0xbe74b131	-0.23895718
75	0xbd8b19a3	-0.06791999
76	0xbe6a3576	-0.22871956
77	0x3e7863f0	0.24256873
78	0xbd72ed0d	-0.0593081
79	0x3e066a36	0.13126454
80	0xbd150085	-0.03637745
81	0x3dc21f18	0.09478587
82	0x3eca2c7e	0.3948707
83	0x3e809024	0.2510997
84	0xbde87787	-0.11350923
85	0xbe67600f	-0.22595237
86	0xbd363f86	-0.044494174
87	0x3e052d4a	0.13005558
88	0xbebdb926	-0.3705532
89	0xbf0cd533	-0.55012816
90	0x3db41cbe	0.08794545
91	0xbf0dc2d4	-0.5537541
92	0x3d4ab35e	0.049487464
93	0xbe93bc2d	-0.28854504
94	0xbdb4b695	-0.08823887
95	0xbd3a2b71	-0.045451585
96	0x3e9a088d	0.3008465
97	0xbd628595	-0.055303175
98	0x3dc56c99	0.09639854
99	0x3db36016	0.08758561
100	0xbeeb9b52	-0.46016937
101	0x3d0a2d98	0.033734888
102	0x3de290bf	0.110627644
103	0x3ddf74ee	0.109109744
104	0x3d6287ab	0.055305164
105	0xbe59196b	-0.21201102
106	0xbe4fe25a	-0.2030119
107	0xbd9c325a	-0.07626791
108	0xbe060f53	-0.13091783
109	0x3e42c32d	0.19019766
110	0xbdd4b066	-0.10385208
111	0xbe6653b1	-0.22492863
112	0xbeb208a4	-0.34772217
113	0x3bb3dad0	0.005488731
114	0x3e2779b8	0.16355026
115	0xbd709564	-0.05873622
116	0x3c877e96	0.016539853
117	0xbc5ac9f9	-0.013353818
118	0x3d99766b	0.074932896
119	0xbe36b57c	-0.17842668
120	0x3ea9a65d	0.33134738
121	0x3d1f3304	0.03886701
122	0x3d9e9916	0.077440426
123	0x3d1161f8	0.03549382
124	0xbd03a9b1	-0.032144252
125	0xbe861dc8	-0.26194596
126	0xbd9a79c0	-0.07542753
127	0x3e1e0752	0.1543248
128	0xbd80e2c9	-0.06293256
129	0xbe764a76	-0.24051842
130	0x3e82473c	0.25444973
131	0xbd1e1f39	-0.038603995
132	0xbc61bba0	-0.013777643
133	0xbec2f54d	-0.38077775
134	0xbe331514	-0.1748851
135	0x3e7d34f0	0.24727225
136	0xbcb89d48	-0.022535935
137	0x3d94aa20	0.07259011
138	0xbb513e72	-0.003192809
139	0xbdb65a87	-0.089039855
140	0x3e3bbfb1	0.18334843
141	0x3e9c5764	0.30535424
142	0xbd2c539e	-0.04207193
143	0x3d4517a4	0.04811825
144	0xbdeb7d44	-0.11498502
145	0x3e8f9f44	0.28051198
146	0x3e352794	0.17690879
147	0xbe468045	-0.19384868
148	0xbe90252f	-0.2815337
149	0xbc1f0a1b	-0.009706999
150	0xbe2e87cb	-0.17043988
151	0x3df6c5ca	0.12049444
152	0x3e30ead1	0.17277075
153	0x3e9bad91	0.30405858
154	0x3dd7384d	0.105087854
155	0x3dd921db	0.106021605
156	0xbe2faaba	-0.17154971
157	0xbd880a19	-0.06642551
158	0xbb5cba16	-0.0033680252
159	0x3e7bfa40	0.24607182
160	0xbd1cb8e1	-0.03826225
161	0x3c03f130	0.008053109
162	0x3e63e1f1	0.22254159
163	0xbe99a348	-0.30007386
164	0x3ca97ba4	0.02068884
165	0xbe21ac4e	-0.15788385
166	0xbdda04e0	-0.10645461
167	0x3984a9fa	0.00025303644
168	0xbe6739db	-0.22580664
169	0xbd8cf8c2	-0.06883384
170	0xbd2da9e4	-0.04239835
171	0xbe69db7b	-0.22837631
172	0x3d97ebdc	0.074180335
173	0x3e988d5d	0.29795352
174	0x3d198dc6	0.03748872
175	0x3ea19ff8	0.3156736
176	0x3e5ae2f4	0.21375638
177	0xbddc2ac7	-0.10750347
178	0xbe07ef11	-0.1327479
179	0x3c2dff3f	0.010619937
180	0x3e6ec6c3	0.23318009
181	0xbd598340	-0.053103685
182	0xbde7f2de	-0.1132562
183	0xbe52acf1	-0.20573784
184	0x3e3b2929	0.1827742
185	0xbc5e5302	-0.013569595
186	0xbe764edb	-0.24053518
187	0x3e68ebab	0.2274615
188	0xbc7ca244	-0.0154195465
189	0x3e6490c4	0.22320849
190	0x3d58e8d1	0.052956406
191	0x3d86e7fc	0.06587216

_actor_critic.actor.preprocess.model.model.0.bias f4 [64]
0	0x3ca09816	0.01960377
1	0x3eae0b26	0.3399288
2	0xbcd36e68	-0.025809482
3	0xbda44f92	-0.08022989
4	0xbca56900	-0.02019167
5	0xbd5e6386	-0.05429413
6	0x3ba75580	0.005106628
7	0xbec15d19	-0.3776634
8	0xbd3c1d5e	-0.045926444
9	0xbe9dcdc6	-0.30821055
10	0xbe0ce545	-0.13759334
11	0xbd89f275	-0.06735698
12	0xbdd71015	-0.10501114
13	0x3cf179b3	0.029476976
14	0xbde4b567	-0.11167412
15	0x3cd2d53c	0.025736444
16	0xbe49d869	-0.1971146
17	0xbd5ec871	-0.054390375
18	0xbbd2387a	-0.006415424
19	0x3e1a72d7	0.1508287
20	0x3c9bd760	0.019023597
21	0x3dd09d64	0.1018627
22	0xbdcb3e51	-0.09923995
23	0xbd8c2c92	-0.068444386
24	0x3e6d1516	0.23152575
25	0x3bb600f0	0.005554311
26	0xbe08ef22	-0.13372472
27	0xbd53b51f	-0.051686402
28	0xbc6333fa	-0.013867373
29	0xbebd5ec2	-0.36986357
30	0xbdb39489	-0.08768565
31	0x3ca19704	0.01972533
32	0xbdd4c5ba	-0.10389276
33	0x3c61ea68	0.013788797
34	0xbd05e1c2	-0.032686003
35	0x3da539be	0.08067654
36	0x3db0fef9	0.08642382
37	0xbd37b480	-0.044849873
38	0xbd8f930e	-0.0701047
39	0xbd2fcbea	-0.042919077
40	0xbe30af86	-0.17254457
41	0xbcdfd6bc	-0.027324073
42	0xbdce333a	-0.100683644
43	0x3db0694a	0.08613832
44	0xbceebb87	-0.029142154
45	0xbe78fb8d	-0.24314709
46	0xbcd6f6ec	-0.026240788
47	0xbe3e9a5e	-0.18613574
48	0x3e0178a3	0.12643676
49	0x3e33d69e	0.17562339
50	0x3dc3ab9e	0.09554218
51	0xbe9030a5	-0.28162113
52	0xbc7f47b1	-0.015581057
53	0xbe1a2861	-0.15054466
54	0xbc96ffc5	-0.018432507
55	0xbd35689d	-0.04428922
56	0x3d1cd01f	0.038284417
57	0xbddc40f9	-0.1075458
58	0xbca61daa	-0.020277817
59	0x3dba5071	0.09097374
60	0xbd26b954	-0.040704086
61	0xbd159391	-0.036517683
62	0x3d9c9715	0.07646004
63	0x3da8203f	0.082092755

_actor_critic.actor.preprocess.model.model.2.weight f4 [64, 64]
0	0x3dcf8326	0.101324365
1	0xbe1fcad4	-0.15604717
2	0x3d88b159	0.066744514
3	0xbd9a17c3	-0.075240634
4	0xbe2e13c2	-0.16999725
5	0xbd92462e	-0.07142292
6	0xbe6e1bdb	-0.23252814
7	0xbdb316d5	-0.08744589
8	0xbcf45900	-0.029827595
9	0xbdddb03e	-0.10824631
10	0x3e4ea1b3	0.20178871
11	0x3de640e0	0.11242843
12	0x3dc015ca	0.09379156
13	0x3de6db99	0.11272354
14	0xbc998dbf	-0.018744348
15	0x3e36884f	0.17825435
16	0xbde63dea	-0.11242278
17	0x3dffe6d8	0.12495202
18	0x3eaf7156	0.34266156
19	0x3e221c15	0.15831025
20	0xbd9e3daf	-0.07726609
21	0x3dc523cd	0.09625969
22	0xbd60dc1f	-0.054897424
23	0xbe084e45	-0.13311107
24	0xbc7e03c5	-0.015503828
25	0xbd9e9ce5	-0.07744769
26	0xbdb107d2	-0.0864407
27	0xbcd388f7	-0.025822146
28	0xbd97156d	-0.073771335
29	0xbe0d6008	-0.13806164
30	0xbca5382d	-0.020168388
31	0x3e0b894b	0.13626592
32	0xbe9cf320	-0.3065424
33	0xbad4fd54	-0.0016249814
34	0x3d3455c8	0.04402712
35	0xbd671fe0	-0.056426883
36	0x3e0b9a21	0.13633014
37	0x3d128c19	0.03577814
38	0xbd4f2e74	-0.05058141
39	0xbe16e4dd	-0.14735742
40	0xbe84a036	-0.2590348
41	0x3d115beb	0.03548805
42	0xbeb12515	-0.34598604
43	0x3d988a9b	0.07448312
44	0xbd2d114f	-0.042252835
45	0xbe318c3d	-0.17338653
46	0x3e7ec93d	0.24881454
47	0xbc905877	-0.017620308
48	0x3dca2322	0.09869982
49	0x3e8de676	0.2771489
50	0x3cf44ea3	0.029822653
51	0xbe1169da	-0.14200535
52	0xbd7a7c30	-0.06115359
53	0xbe0823af	-0.13294862
54	0xbe28f01b	-0.16497843
55	0xbd8ed7b5	-0.069747366
56	0xbd30ccdb	-0.043164115
57	0x3e22106c	0.15826577
58	0x3e16e0d7	0.14734207
59	0xbc7c30b6	-0.015392473
60	0xbd2b0dc3	-0.04176117
61	0xbe4cfcb5	-0.20018275
62	0xbc5ee897	-0.013605258
63	0x3dcece83	0.10097983
64	0x3e800789	0.2500575
65	0x3e37954b	0.17928044
66	0x3e6b630b	0.22987
67	0x3d8d91aa	0.06912549
68	0x3d8b08df	0.067888014
69	0xbe09726b	-0.13422553
70	0x3dbb2ffb	0.09140011
71	0x3ddadae3	0.106862806
72	0x3e86e41c	0.2634591
73	0xbd85ad02	-0.06527139
74	0x3e1c8315	0.15284379
75	0x383ede2e	4.550645e-05
76	0x3cb70d3c	0.022345178
77	0xbe3b7876	-0.18307671
78	0xbe146fa7	-0.14495717
79	0xbda7de78	-0.081967294
80	0xbcdfafd5	-0.027305523
81	0xbde02fb9	-0.109466024
82	0x3df88346	0.121344134
83	0x3e197afd	0.14988323
84	0x3e96b77b	0.2943686
85	0xbd367e7d	-0.044554222
86	0xbdd16456	-0.10224216
87	0xbe15f793	-0.14645223
88	0x3d89ce9c	0.06728861
89	0x3e058a4d	0.13041039
90	0xbe5c42ce	-0.21509859
91	0x3d63f10d	0.055649806
92	0x3db5d66a	0.08878787
93	0x3df2951a	0.11844845
94	0x3d2f704d	0.042831708
95	0x3d4bdb24	0.049769536
96	0x3db90e25	0.09035901
97	0xbdd15726	-0.102217
98	0x3d98abce	0.07454644
99	0xbd527e50	-0.051389992
100	0xbd0673ee	-0.032825403
101	0xbccf84c9	-0.025331872
102	0x3e377d47	0.17918883
103	0xbcc3808c	-0.023865007
104	0xbe0d9b3f	-0.13828753
105	0xbd160e20	-0.036634564
106	0xbe99c2f7	-0.3003156
107	0xbda578b5	-0.08079664
108	0x3cb9f4ee	0.0226998
109	0x3e14521a	0.14484444
110	0xbd894db3	-0.06704273
111	0x3dd60136	0.1044945
112	0x3bb8a0fa	0.0056344243
113	0xbdd79388	-0.10526186
114	0x3d2b29c5	0.04178788
115	0x3c4399ff	0.011938571
116	0xbdb3641b	-0.08759328
117	0xbe1c0cd0	-0.15239263
118	0x3d63edd8	0.055646747
119	0x3d46d86c	0.04854624
120	0xbd6148b5	-0.05500098
121	0x3d1b9de1	0.037992362
122	0x3c959698	0.018260285
123	0x3c73ea0a	0.014887342
124	0x3e36e126	0.17859325
125	0x3e6dea0d	0.23233815
126	0x3dd70259	0.10498495
127	0x3dcce7fd	0.10005186
128	0x3dc64503	0.09681132
129	0x3d6f8f94	0.058486536
130	0xbd648805	-0.05579378
131	0x3e001530	0.12508082
132	0xbe65f8c3	-0.22458176
133	0xbd88753d	-0.066629864
134	0xbedafdb9	-0.427717
135	0x3b7fbab5	0.0039021198
136	0xbe05f904	-0.13083273
137	0xbe0f3d03	-0.13988118
138	0x3e30b79f	0.17257546
139	0x3d597015	0.053085405
140	0x3dc9f7a1	0.098616846
141	0x3e1778ad	0.14792128
142	0x3bec6b2e	0.0072149253
143	0xbb6d6367	-0.0036222578
144	0x3dc1322b	0.09433397
145	0xbe01529c	-0.12629169
146	0xbd89b927	-0.06724768
147	0x3e4dc1a8	0.20093405
148	0xbe29a9fc	-0.1656875
149	0x3b43e6ce	0.002989221
150	0xbd899fbd	-0.06719921
151	0x3cb8fa33	0.022580242
152	0x3e2bb7da	0.16769353
153	0x3dda53e0	0.10660529
154	0xbd95b3bc	-0.07309672
155	0x3df6b0a6	0.12045412
156	0xbc3d4ef9	-0.011554473
157	0xbbd5baf2	-0.0065225298
158	0x3e2a9eb6	0.16662106
159	0xbd1632e3	-0.036669623
160	0xbd12b7e3	-0.0358199
161	0x3db9a818	0.090652645
162	0xbe9efcef	-0.31052348
163	0xbe65b1a8	-0.22431052
164	0x3ccf2afd	0.025289053
165	0x3c800f3c	0.015632264
166	0xbd99253f	-0.07477807
167	0xbd1a5b85	-0.037684936
168	0xbd307f7b	-0.043090325
169	0x3d7f6220	0.06234944
170	0x3b32300f	0.002718929
171	0xbb99bb67	-0.0046915296
172	0xbdf36c4f	-0.118858926
173	0x3e015425	0.12629755
174	0xbe85963e	-0.26091188
175	0xbe0f2325	-0.1397825
176	0x3cde86ed	0.027163947
177	0xbdeed104	-0.1166096
178	0x3dd009fa	0.10158153
179	0x3cd7a468	0.026323512
180	0x3d39c8d5	0.045357544
181	0xbb429f59	-0.002969703
182	0x3e2b7821	0.16745044
183	0x3d1341c9	0.03595141
184	0x3e2b818e	0.1674864
185	0xbdcf88fa	-0.10133548
186	0xbe36f4a8	-0.17866766
187	0x3dd5b4b9	0.10434861
188	0xbd9e5904	-0.07731822
189	0x3d0fe592	0.035131045
190	0x3d97f45c	0.07419655
191	0x3d2365b5	0.039891917
192	0xbeb08e12	-0.3448339
193	0x3d45d1cc	0.04829578
194	0xbe457a3d	-0.19284911
195	0xbdf664c6	-0.1203094
196	0x3e71a3eb	0.23597686
197	0xbe07adb8	-0.13249862
198	0x3cf2730b	0.029595872
199	0xbd4f37cb	-0.050590318
200	0xbe41fd29	-0.18944229
201	0x3d73d8e0	0.059533
202	0xbdb53896	-0.088486835
203	0x3e012381	0.126112
204	0x3d543c81	0.051815514
205	0xbde746a7	-0.11292773
206	0xbd8a6cb0	-0.06759012
207	0x3e10b04f	0.14129756
208	0x3d424799	0.047431562
209	0x3d008ab9	0.031382296
210	0x3e1a407f	0.15063666
211	0x3daa276b	0.083083
212	0xbdb0e250	-0.08636916
213	0x3d612a2f	0.05497187
214	0xbd9a45c6	-0.075328395
215	0xbe106604	-0.14101416
216	0x3dcadbdb	0.09905215
217	0xbd72c5dd	-0.05927073
218	0x3dca4ee7	0.09878331
219	0x3d0a63e8	0.033786684
220	0xbd361201	-0.044450764
221	0x3cf92505	0.03041316
222	0x3e134dbc	0.14385122
223	0xbddccb3d	-0.10780952
224	0xbd80108c	-0.06253156
225	0xbe0dae7d	-0.13836093
226	0xbc9db02a	-0.01924904
227	0x3e1dbcd1	0.15404059
228	0xbdb398e1	-0.08769394
229	0x3d3099f2	0.043115564
230	0xbd944f31	-0.07241667
231	0xbe5f495f	-0.21805333
232	0xbdd9a934	-0.10627976
233	0x3e0a8af9	0.13529576
234	0x3b8f9192	0.004381367
235	0xbd256044	-0.04037501
236	0xbd9885d5	-0.074474014
237	0x3e7d64c5	0.24745472
238	0xbdc6aa7c	-0.09700486
239	0x3e186c7e	0.14885136
240	0xbd8f87e5	-0.07008342
241	0xbd36c1d7	-0.044618454
242	0x3e6a957d	0.22908588
243	0x3e4911db	0.19635718
244	0xbe3b6af5	-0.1830252
245	0xbdd02b92	-0.101645604
246	0x3c4ff287	0.0126921
247	0xbe359ff4	-0.17736799
248	0xbcf0831e	-0.029359397
249	0xbd82c32e	-0.06384884
250	0xbe0eaec7	-0.1393386
251	0xbe169e81	-0.14708902
252	0x3e655869	0.22397007
253	0x3d82cab7	0.06386321
254	0xbdaf97da	-0.08573885
255	0xbc284ae6	-0.010271763

_actor_critic.actor.preprocess.model.model.2.bias f4 [64]
0	0x3e8d2ed8	0.275748
1	0x3ad49327	0.0016218171
2	0xbb3dc2e2	-0.002895527
3	0x3bfc3ee3	0.0076979264
4	0x3ccfeaea	0.02538057
5	0x3e4640aa	0.19360605
6	0x3dfe6b28	0.12422782
7	0xbb41170b	-0.0029463198
8	0xbc793d80	-0.015212417
9	0xbe2513a7	-0.16120778
10	0xbe9e85fc	-0.30961597
11	0xbb840a11	-0.0040295203
12	0xbdac9296	-0.084263965
13	0x3b9a8c66	0.004716444
14	0x3a926c72	0.0011171235
15	0xbc8a6bda	-0.01689713
16	0xbcb43a03	-0.022000318
17	0x3c6d569b	0.01448598
18	0xb950f3c0	-0.0001992723
19	0x3a8708d8	0.0010302318
20	0x3c236ed1	0.009975151
21	0x3b0cc62e	0.002148043
22	0x3d1b2f3a	0.037886836
23	0xbd04fd58	-0.03246817
24	0x3c2280fe	0.009918449
25	0x3d3c6a8d	0.046000052
26	0xbbdd48e4	-0.006753074
27	0xbd0b5f55	-0.034026463
28	0xbca3ec3c	-0.020010106
29	0x3cbbdea2	0.022933308
30	0x38f0a98e	0.00011475674
31	0xbd98fc62	-0.07470013
32	0xbcc2d510	-0.023783237
33	0x3c747d05	0.014922385
34	0x3ca2cd3b	0.019873252
35	0x3bb9d8a9	0.00567158
36	0x3d04bb39	0.032405112
37	0x3911f2b0	0.00013918686
38	0xbcdfb1df	-0.027306495
39	0x3c7a990a	0.015295276
40	0xbb2f85a0	-0.0026782528
41	0x3db2f395	0.08737866
42	0x3c3c78d7	0.01150342
43	0xbba3ef81	-0.0050029163
44	0x3e8828e0	0.26593685
45	0xb93629a4	-0.00017372385
46	0xbc631b13	-0.013861435
47	0x3d8c5f19	0.06854076
48	0xbccb660d	-0.024828935
49	0x3d019807	0.031639125
50	0xbbe11bbe	-0.006869762
51	0xbd9dec07	-0.07711034
52	0x3c045358	0.008076511
53	0x3d199b66	0.037501715
54	0xbc68a21a	-0.014198804
55	0x3c5919c3	0.013250771
56	0xbdb6fe0c	-0.08935174
57	0x3e252ea0	0.16131067
58	0x3a5de0c8	0.0008463976
59	0xbd6c48c8	-0.057686597
60	0x3dc7cd35	0.09755937
61	0xb9c262f4	-0.0003707629
62	0xbdbb618e	-0.091494665
63	0x3a01a186	0.00049450283
