demo/tianshou/discrete/log/CartPole-v0/rainbow/policy.pth (torch, 733354 bytes, 41 tensors)

support f4 [51]
-10.0 -9.6 -9.2 -8.8 -8.4 -8.0 -7.6 -7.2
-6.8 -6.4 -6.0 -5.6000004 -5.2000003 -4.8 -4.4 -4.0
-3.6 -3.1999998 -2.8 -2.3999999 -1.9999999 -1.5999999 -1.1999998 -0.79999995
-0.39999962 3.874302e-07 0.4000004 0.8000004 1.2000004 1.6000004 2.0000005 2.4000003
2.7999997 3.1999998 3.5999997 3.9999998 4.3999996 4.7999997 5.2 5.5999994
6.0 6.4 6.8 7.2 7.6 8.0 8.4 8.8
9.2 9.6 10.0
00000000: 0000 20c1 9a99 19c1 3333 13c1 cdcc 0cc1
00000010: 6666 06c1 0000 00c1 3333 f3c0 6666 e6c0
00000020: 9a99 d9c0 cdcc ccc0 0000 c0c0 3433 b3c0
00000030: 6766 a6c0 9a99 99c0 cdcc 8cc0 0000 80c0
00000040: 6666 66c0 cccc 4cc0 3333 33c0 9999 19c0
00000050: ffff ffbf cccc ccbf 9899 99bf cccc 4cbf
00000060: c0cc ccbe 0000 d034 dacc cc3e d4cc 4c3f
00000070: 9d99 993f d0cc cc3f 0200 0040 9b99 1940
00000080: 3233 3340 cccc 4c40 6566 6640 ffff 7f40
00000090: cccc 8c40 9999 9940 6666 a640 3233 b340
000000a0: 0000 c040 cdcc cc40 9a99 d940 6666 e640
000000b0: 3333 f340 0000 0041 6666 0641 cdcc 0c41
000000c0: 3333 1341 9a99 1941 0000 2041

model.model.model.0.weight f4 [128, 4]
0.32831576 0.27469462 -0.63615155 -0.09922002 0.08902021 -0.3877674 0.5315001 -0.20672113
-0.25948176 -0.3959607 1.2301049 -0.09215903 0.06043218 0.018119063 -0.7242083 -0.27877757
-0.37878895 0.10398935 -0.6433826 -0.3378579 -0.2810439 -0.019246085 0.22890206 0.18751375
-0.19056275 -0.3481177 0.18832418 -0.3462251 0.44101435 0.36329252 0.4903394 -0.10858036
0.006976644 0.24933212 0.09498667 0.20595312 0.33194923 -0.4344604 1.1954058 -0.07377078
0.26180395 -0.18654469 -0.11381394 0.19663432 0.5775826 -0.2096692 -0.5173001 -0.45557904
-0.46874624 -0.22286706 0.36257762 0.28166756 -0.32837403 -0.14313374 -0.84899557 -0.4096995
-0.011081834 -0.5110298 -0.15679875 -0.20900661 0.36312765 0.005155475 -0.2101371 0.017545069
-0.39741182 0.054635953 -0.30527446 0.13128075 0.09884048 0.35816684 0.57416356 0.08041899
0.43811408 0.24402341 0.5257174 0.23214056 -0.4183887 -0.39653316 0.53795457 -0.21087816
-0.39930287 0.48930168 0.526496 0.44169277 0.10766346 -0.3683433 -0.91814196 -0.20129858
-0.2277382 -0.17126998 0.98205847 0.28219083 -0.39956334 -0.11437342 0.32312357 0.004448604
-0.28236744 -0.10400672 -0.5267121 0.030817559 -0.27588826 -0.07932158 0.56485987 0.2933073
0.11702199 -0.44393864 0.31856823 -0.13987508 -0.45958123 -0.17219077 0.25429288 -0.12826626
0.37242612 0.37118864 0.5286829 -0.017606037 -0.22635786 0.12364059 1.1891055 0.1667456
-0.44484788 -0.17621309 0.15308261 -0.05718408 0.46999365 0.036436856 -0.21619529 -0.015067637
0.03398584 -0.005820184 -0.048696395 0.46550578 0.488823 -0.35054457 0.7907208 -0.12314204
0.23536055 0.16080727 -0.24534479 -0.19402617 0.061699487 0.24779177 0.6327969 0.030907152
0.37525544 -0.36333048 -0.46059853 -0.2933902 -0.20323358 -0.5240115 -0.1097009 -0.36348188
-0.3301465 0.4740306 0.3447428 0.37571192 -0.46341026 -0.38044134 0.22410415 -0.014934292
-0.012283398 0.10491388 -0.1294829 -0.48893747 0.25229138 0.34129307 0.2912847 -0.28159133
-0.2274206 -0.21056588 0.09077883 -0.085285135 -0.24854885 -0.48762637 -0.23752947 -0.31781897
-0.043116983 0.07145795 -0.54945356 -0.19560334 -0.31295744 -0.19276693 0.18395525 0.2682211
-0.16839518 -0.26044515 -0.6878324 -0.4606319 0.10603811 0.41630885 0.31019965 -0.0833103
-0.123186596 -0.21319203 0.29106826 0.18051398 0.4384507 0.036268234 0.29005653 -0.052185833
0.5188874 -0.4259709 -0.3206941 -0.17996791 -0.45936754 0.3395985 -0.31749335 0.2935466
0.41096616 -0.3423442 0.2893796 -0.32903197 -0.21520588 -0.036986202 0.28954098 0.022769675
-0.033322614 0.20848043 0.4110938 0.3127124 -0.21962708 0.1471864 -0.3263237 0.1816252
-0.109612286 -0.37455538 0.042797055 -0.01833685 -0.1368306 -0.25993964 0.5473103 -0.01846252
-0.16760617 0.19295597 0.2466842 0.017480906 0.43520698 0.024017895 -0.6805049 0.3056503
-0.04482922 -0.23686853 -0.25342467 0.117078766 0.16644728 0.4918213 0.74393636 0.44646496
0.45137537 0.3198573 -0.86016655 0.07733732 0.13012362 -0.34311566 0.3575488 0.3381122
00000000: 0119 a83e c6a4 8c3e d4da 22bf de33 cbbd
00000010: 3a50 b63d 7389 c6be 6410 083f b4ae 53be
00000020: cbda 84be 5cbb cabe 1474 9d3f e0bd bcbd
00000030: bc87 773d 6e6e 943c b765 39bf efbb 8ebe
00000040: a0f0 c1be 5ef8 d43d b9b4 24bf b6fb acbe
00000050: fce4 8fbe f7a9 9dbc 4d65 6a3e 9b03 403e
00000060: e222 43be 7c3c b2be 0ed8 403e 6b44 b1be
00000070: a2cc e13e 7a01 ba3e c40d fb3e 615f debd
00000080: 559c e43b eb50 7f3e 5f88 c23d 60e5 523e
00000090: 40f5 a93e 9871 debe 0f03 993f 2215 97bd
000000a0: 2b0b 863e 9205 3fbe 4817 e9bd 825a 493e
000000b0: 74dc 133f 86b3 56be c86d 04bf a841 e9be
000000c0: 82ff efbe 4337 64be c6a3 b93e bb36 903e
000000d0: a420 a8be a791 12be c657 59bf 22c4 d1be
000000e0: 9590 35bc d9d2 02bf da8f 20be d405 56be
000000f0: deeb b93e 42ef a83b 2e2e 57be adba 8f3c
00000100: 9079 cbbe f3c9 5f3d ef4c 9cbe 766e 063e
00000110: e16c ca3d a561 b73e 62fc 123f b6b2 a43d
00000120: 7d50 e03e 46e1 793e 6a95 063f 41b6 6d3e
00000130: 0b37 d6be 6506 cbbe 64b7 093f 72f0 57be
00000140: 6d71 ccbe c085 fa3e 71c8 063f 8e25 e23e
00000150: a97e dc3d 7e97 bcbe 5a0b 6bbf 3721 4ebe
00000160: 3434 69be 6661 2fbe 2f68 7b3f 517b 903e
00000170: 9193 ccbe 9d3c eabd 7470 a53e 98c5 913b
00000180: 7792 90be 7a01 d5bd 9bd6 06bf 1b75 fc3c
00000190: 3a41 8dbe 5a73 a2bd a89a 103f 602c 963e
000001a0: 3aa9 ef3d ed4b e3be 601b a33e 6a3b 0fbe
000001b0: 3b4e ebbe c752 30be ad32 823e 3b58 03be
000001c0: a3ae be3e 700c be3e c357 073f 893a 90bc
000001d0: 5bca 67be 4737 fd3d 9c34 983f 5cbf 2a3e
000001e0: 1ac3 e3be 3471 34be b0c1 1c3e db39 6abd
000001f0: 02a3 f03e d03e 153d 4c62 5dbe 40de 76bc
00000200: bc34 0b3d 3eb7 bebb df75 47bd c656 ee3e
00000210: 0247 fa3e 947a b3be ae6c 4a3f e531 fcbd
00000220: 5b02 713e a9aa 243e aa3b 7bbe ccae 46be
00000230: 9ab8 7c3d 20bd 7d3e fafe 213f ff30 fd3c
00000240: 7b21 c03e 7406 babe 92d3 ebbe 3e37 96be
00000250: 771c 50be 9e25 06bf deaa e0bd 4c1a babe
00000260: f608 a9be 24b4 f23e 2182 b03e 505d c03e
00000270: 1c44 edbe 35c9 c2be 8f7b 653e f6ae 74bc
00000280: 4e40 49bc 17dd d63d 2a97 04be 0356 fabe
00000290: 562c 813e f7bd ae3e 4523 953e bd2c 90be
000002a0: f2e0 68be 959e 57be 40ea b93d f9a9 aebd
000002b0: 9783 7ebe 2aaa f9be ed3a 73be 2bb9 a2be
000002c0: 6f9b 30bd 8c58 923d fda8 0cbf 3e4c 48be
000002d0: f53b a0be b264 45be c45e 3c3e 4754 893e
000002e0: c96f 2cbe 1159 85be c915 30bf f2d7 ebbe
000002f0: 822a d93d 6f26 d53e 7dd2 9e3e 979e aabd
00000300: 4149 fcbd 034f 5abe e606 953e a8d8 383e
00000310: 9c7c e03e 008e 143d 4a82 943e d0c0 55bd
00000320: ced5 043f dc18 dabe 0432 a4be 8249 38be
00000330: 3932 ebbe dbdf ad3e 7d8e a2be bd4b 963e
00000340: 286a d23e bd47 afbe 9029 943e e176 a8be
00000350: ee5e 5cbe d87e 17bd b73e 943e 7887 ba3c
00000360: 4b7d 08bd e57b 553e e37a d23e d71b a03e
00000370: ece5 60be 08b8 163e e613 a7be f5fb 393e
00000380: 687c e0bd b9c5 bfbe f74b 2f3d 2937 96bc
00000390: 521d 0cbe cf16 85be 871c 0c3f b63e 97bc
000003a0: f4a0 2bbe 4096 453e c89a 7c3e 1e34 8f3c
000003b0: 73d3 de3e 2dc1 c43c 9235 2ebf 327e 9c3e
000003c0: d89e 37bd aa8d 72be e1c0 81be fec6 ef3d
000003d0: 2871 2a3e 00d0 fb3e 9d72 3e3f 0e97 e43e
000003e0: ac1a e73e 56c4 a33e e033 5cbf 0763 9e3d
000003f0: 203f 053e dbac afbe a310 b73e 0b1d ad3e

model.model.model.0.bias f4 [128]
-0.46473408 0.4162785 -0.54157066 0.17146648 -0.24436377 -0.54870445 -0.10920008 -0.47241202
0.45013756 -0.15474215 -0.37543872 -0.36910203 -0.6282802 -0.27446797 0.41762882 -0.15511039
-0.32702613 -0.08039275 -0.12532417 0.41723418 0.49785697 0.055940114 -0.36063397 -0.5244191
0.225324 -0.42113224 0.42633435 0.42955053 0.022549894 -0.14261281 0.0038995878 -0.4902516
0.26066124 0.36728734 0.20556283 0.2941474 0.27972844 0.2861229 -0.3991729 -0.24044748
-0.21708526 0.02601646 -0.375003 -0.43828392 -0.4031513 -0.3857634 -0.3888062 0.06494716
0.25330114 -0.38128322 -0.24780786 0.18823221 0.01426687 0.08825412 0.5371405 0.18937817
0.18217935 -0.41524613 0.47254536 0.54731464 0.16737787 0.52628535 -0.20357378 0.15968445
-0.32466698 0.30181578 0.33011803 -0.16020466 0.2573163 -0.15943973 0.5158386 0.22475883
0.464155 0.1859335 -0.033147525 -0.15991542 0.18015528 0.418795 -0.29885042 0.29480997
0.19071122 -0.38228357 0.18759353 0.24529266 -0.12268597 0.2710198 -0.11617901 -0.048033684
0.13438435 -0.23060067 -0.27413815 -0.15212047 0.36063257 0.38933215 0.0691408 0.22952169
0.15623572 -0.4629389 -0.3339661 0.29271787 0.28877652 -0.49846166 0.18354228 0.050287846
-0.28755638 0.44772318 0.046039134 0.115728915 0.52353925 -0.38095602 0.14350288 -0.3923763
0.3964522 -0.46280354 0.120841324 -0.47144267 0.10120429 0.22491962 0.47421348 -0.47752368
-0.082314275 -0.3259769 0.4757583 0.48438728 0.012546262 -0.049985245 -0.35174018 -0.44236588
00000000: a0f1 edbe 7522 d53e 60a4 0abf e994 2f3e
00000010: 7f3a 7abe e577 0cbf 4ba4 dfbd fddf f1be
00000020: 6e78 e63e ba74 1ebe 8139 c0be f1fa bcbe
00000030: f9d6 20bf 1187 8cbe 72d3 d53e 42d5 1ebe
00000040: f86f a7be f4a4 a4bd fb54 00be b89f d53e
00000050: 1ce7 fe3e 7621 653d 04a5 b8be 5540 06bf
00000060: 56bb 663e a59e d7be 7f48 da3e 0cee db3e
00000070: 8eba b83c 1809 12be 3a90 7f3b 4202 fbbe
00000080: 6475 853e 160d bc3e 107f 523e 7d9a 963e
00000090: 9138 8f3e b37e 923e 6460 ccbe dd37 76be
000000a0: 994b 5ebe 7920 d53c 6500 c0be c066 e0be
000000b0: d969 cebe c882 c5be 9b11 c7be 0403 853d
000000c0: b0b0 813e 8e37 c3be 58c1 7dbe f2bf 403e
000000d0: 97bf 693c 93be b43d 0a82 093f 5aec 413e
000000e0: 398d 3a3e 249b d4be 77f1 f13e d01c 0c3f
000000f0: 1b65 2b3e a3ba 063f a575 50be 5284 233e
00000100: c03a a6be 9987 9a3e 3b05 a93e b10c 24be
00000110: f6be 833e 2b44 23be 000e 043f 2e27 663e
00000120: b9a5 ed3e 5a65 3e3e b3c5 07bd dec0 23be
00000130: a07a 383e 4c6c d63e ec02 99be 55f1 963e
00000140: cd49 433e acba c3be 8518 403e 002e 7b3e
00000150: c842 fbbd 1bc3 8a3e 43ef edbd f8be 44bd
00000160: 0d9c 093e 9522 6cbe d65b 8cbe 78c5 1bbe
00000170: d5a4 b83e 8b56 c73e b199 8d3d bc07 6b3e
00000180: 42fc 1f3e 5406 edbe 9bfd aabe 1edf 953e
00000190: 84da 933e 5e36 ffbe 82f2 3b3e a1fa 4d3d
000001a0: 973a 93be f93b e53e 8893 3c3d 4803 ed3d
000001b0: ab06 063f ab0c c3be 6bf2 123e 8ce5 c8be
000001c0: c8fb ca3e 96f4 ecbe a87b f73d ef60 f1be
000001d0: 3244 cf3d 5451 663e 1ccc f23e fc7d f4be
000001e0: 6394 a8bd 72e6 a6be 9896 f33e 9c01 f83e
000001f0: d68e 4d3c 54bd 4cbd 4a17 b4be c87d e2be

model.model.model.2.weight f4 [128, 128]
0.028207213 0.021593878 -0.09682302 0.051889013 0.032327253 -0.13685235 0.03946334 -0.017879691
0.0751589 0.015025874 0.0009539354 0.055486087 0.035171796 -0.0043874453 -0.054343704 -0.028905155
0.26775262 0.011454045 0.087098904 -0.04835776 -0.008931909 0.14417902 -0.08633626 0.16509767
0.11937501 -0.056998406 0.026507758 0.023294576 0.047167186 -0.13724287 0.04995088 -0.058262303
-0.002385094 -0.081296265 -0.016736519 -0.089529924 -0.029893484 -0.073025525 -0.07810785 0.010876694
-0.01404575 0.068612725 0.15758221 0.09151007 0.087388396 0.10195007 0.047835197 -0.037355155
0.05756963 -0.0618835 -0.018819418 0.08845747 -0.07141456 -0.08444404 0.040937226 0.062050514
0.050588083 -0.01862479 -0.020409185 0.122174785 -0.013359431 0.039602496 0.06165097 -0.037687246
0.018742194 0.008090479 0.025527362 -0.04867518 -0.038500644 -0.056962665 -0.027489139 -0.015358283
-0.033441093 -0.07559301 0.11335208 -0.039461356 -0.043276314 -0.039163593 -0.020821484 -0.08017668
-0.0742529 -0.020598248 0.10061266 0.07980917 -0.15821825 0.020908931 0.018476741 -0.029529018
-0.0017968809 0.06544981 0.099445336 0.11028952 -0.023358472 -0.082375996 0.011414565 0.07109098
-0.018295472 0.024560707 0.09527592 0.004563251 0.0006767731 -0.072644725 -0.015195035 -0.039240737
-0.009527866 -0.064124316 0.0133671975 0.057530325 0.08137768 0.048656575 -0.02363668 0.050484754
-0.13401762 -0.009016804 -0.05468618 0.012875983 0.057710778 -0.08086759 0.03709707 0.0027813404
-0.062771596 -0.15449393 -0.041928675 0.063556865 0.07019773 0.07152227 0.031206045 0.078378424
0.18293919 0.039973363 -0.04089375 0.030996112 0.026237939 -0.08404773 -0.029139608 -0.106467694
0.012213836 -0.034564335 0.004142155 0.12583973 -0.034316383 0.1422616 0.027844012 0.0009969324
-0.079566725 -0.06700077 0.0526068 -0.11172794 -0.040997084 0.3538574 -0.029125359 -0.08123573
0.22805534 0.032477573 -0.052311536 -0.070547715 -0.003624669 -0.06098518 -0.074696824 -0.07866627
-0.02296583 -0.11049526 -0.032291733 0.038998667 0.0146624725 -0.013845523 -0.07642712 0.1185702
0.07956451 -0.019075148 -0.052159905 -0.1827985 0.21825166 0.038786482 0.119339295 -0.041933548
-0.04827029 -0.045948703 -0.17094399 0.13852909 -0.07970315 -0.037264697 -0.07442248 0.14331533
-0.08512113 0.06421658 0.046115104 0.07536931 -0.06284289 -0.15294588 0.2140873 -0.066427015
-0.071348526 0.09731337 -0.030066192 0.010895392 -0.030101968 0.17144023 0.019341458 0.12786037
0.04594093 -0.053373117 0.01850991 -0.2738431 -0.063445695 0.050503403 0.01418449 -0.10753878
-0.009213333 0.06427313 0.10199612 -0.06471237 0.24611264 -0.003678803 0.04652945 0.018123046
-0.023807818 -0.01370122 -0.0078064045 0.20537046 -0.04896575 -0.21287128 0.0236313 -0.015017998
0.07043821 0.08498598 -0.09874099 0.05846982 0.050644673 0.058723964 -0.1376408 -0.22924823
-0.10893663 -0.0068070246 -0.012054141 -0.03131099 0.00027968863 0.113223806 -0.23270427 0.11415953
-0.07451711 0.06531411 -0.10588879 -0.064166866 -0.25127226 -0.06994261 0.026243733 -0.07055319
0.009064602 0.064665 0.09218062 0.090183325 0.0023683317 0.024482159 0.10074154 0.03775906
00000000: d012 e73c a5e5 b03c 264b c6bd 9389 543d
00000010: 9569 043d 0623 0cbe 50a4 213d 6e78 92bc
00000020: e9ec 993d 152f 763c 8511 7a3a 6145 633d
00000030: 4d10 103d 8fc4 8fbb 8197 5ebd 81ca ecbc
00000040: df16 893e bfa9 3b3c e960 b23d c912 46bd
00000050: 2457 12bc aaa3 133e 11d1 b0bd 5d0f 293e
00000060: e37a f43d 2977 69bd cc26 d93c 44d4 be3c
00000070: 6132 413d 6589 0cbe 4b99 4c3d 74a4 6ebd
00000080: 3d4f 1cbb a87e a6bd 061b 89bc 775b b7bd
00000090: 2ee3 f4bc 688e 95bd 02f7 9fbd 2934 323c
000000a0: 2520 66bc d484 8c3d 3b5d 213e a269 bb3d
000000b0: b0f8 b23d 33cb d03d d7ee 433d b801 19bd
000000c0: 22ce 6b3d 8e79 7dbd 2e2b 9abc 3129 b53d
000000d0: cc41 92bd fff0 acbd cbad 273d ae28 7e3d
000000e0: 7335 4f3d 0493 98bc 2a31 a7bc c636 fa3d
000000f0: 84e1 5abc 3a36 223d ba85 7c3d f15d 1abd
00000100: 3b89 993c ee8d 043c c21e d13c a05f 47bd
00000110: dab2 1dbd af51 69bd e730 e1bc 4fa1 7bbc
00000120: 87f9 08bd 82d0 9abd 2325 e83d 3ba2 21bd
00000130: 8142 31bd 016a 20bd d191 aabc ac33 a4bd
00000140: e811 98bd a8bd a8bc 030e ce3d fd72 a33d
00000150: f703 22be 3549 ab3c 895c 973c d7e6 f1bc
00000160: 5185 ebba 8d0a 863d ffa9 cb3d 79df e13d
00000170: 445a bfbc bfb4 a8bd 2804 3b3c 2698 913d
00000180: 63e0 95bc 8933 c93c 0620 c33d 5387 953b
00000190: 7969 313a c2c6 94bd 99f4 78bc e5ba 20bd
000001a0: c41a 1cbc 9c53 83bd 1702 5b3c eba4 6b3d
000001b0: 57a9 a63d 1e4c 473d b6a1 c1bc 1ac9 4e3d
000001c0: ea3b 09be 38bb 13bc 9efe 5fbd c9f5 523c
000001d0: 2362 6c3d e89d a5bd 19f3 173d 2647 363b
000001e0: 658e 80bd a833 1ebe 67bd 2bbd 1a2a 823d
000001f0: d4c3 8f3d 457a 923d d2a3 ff3c de84 a03d
00000200: 6954 3b3e 1cbb 233d 3480 27bd 8feb fd3c
00000210: f2f0 d63c 3721 acbd 30b6 eebc bc0b dabd
00000220: 8b1c 483c 5593 0dbd eaba 873b 21dc 003e
00000230: 568f 0cbd 06ad 113e 2019 e43c 80ab 823a
00000240: e1f3 a2bd b337 89bd 3a7a 573d 9ed1 e4bd
00000250: 8fec 27bd cc2c b53e 4e98 eebc eb5e a6bd
00000260: 5787 693e 3407 053d 9f44 56bd 527b 90bd
00000270: db8b 6dbb 99cb 79bd a6fa 98bd c81b a1bd
00000280: d622 bcbc 574b e2bd 5644 04bd 11bd 1f3d
00000290: de3a 703c 55d8 62bc d285 9cbd efd4 f23d
000002a0: b8f2 a23d 7c43 9cbc a0a5 55bd 882f 3bbe
000002b0: 5d7d 5f3e 93de 1e3d 2968 f43d 83c2 2bbd
000002c0: 11b7 45bd b534 3cbd f10b 2fbe 92da 0d3e
000002d0: 683b a3bd dea2 18bd d06a 98bd 41c1 123e
000002e0: fd53 aebd fb83 833d 31e3 3c3d 3a5b 9a3d
000002f0: c6b3 80bd d89d 1cbe b339 5b3e e30a 88bd
00000300: 2d1f 92bd 3b4c c73d 604d f6bc 9682 323c
00000310: 6798 f6bc 078e 2f3e fa71 9e3c d4ed 023e
00000320: 8e2c 3c3d c59d 5abd 18a2 973c 2a35 8cbe
00000330: d1ef 81bd a8dc 4e3d 1066 683c 4b3d dcbd
00000340: 85f3 16bc a1a1 833d 57e3 d03d eb87 84bd
00000350: f404 7c3e 1318 71bb aa95 3e3d c876 943c
00000360: 9d08 c3bc 157b 60bc decc ffbb a24c 523e
00000370: 4f90 48bd eefa 59be 6e96 c13c 0d0e 76bc
00000380: e941 903d 210d ae3d b738 cabd 0d7e 6f3d
00000390: ca70 4f3d 8a88 703d b6f1 0cbe 0cc0 6abe
000003a0: 2b1a dfbd 760d dfbb bb7e 45bc f43f 00bd
000003b0: 2ca3 9239 e2e1 e73d 074a 6ebe 79cc e93d
000003c0: 6d9c 98bd 67c3 853d 39dc d8bd eb69 83bd
000003d0: c2a6 80be 123e 8fbd 19fd d63c 317e 90bd
000003e0: b283 143c 156f 843d 31c9 bc3d 09b2 b83d
000003f0: 0336 1b3b cf8e c83c 9551 ce3d 3ea9 1a3d

model.model.model.2.bias f4 [128]
0.039155707 -0.006835927 -0.0034606308 0.10473874 -0.029289352 -0.02214909 0.029455656 -0.029587228
0.036097758 0.0058650845 0.086345054 0.05370704 -0.038186546 0.027992027 0.030901967 -0.017724268
-0.111081205 -0.07100579 -0.056066528 0.03042794 0.0066499184 -0.072631344 -0.006116824 0.0061425474
0.035777412 -0.011168612 -0.09388716 0.024081724 0.092428 0.067626536 -0.08354321 0.07239615
-0.08346386 -0.0023335759 0.027112676 -0.04263596 0.009608574 0.053462718 -0.052479614 0.0007826152
-0.048352774 0.06965723 -0.094496064 -0.0305179 -0.09835108 -0.020043585 -0.05628758 -0.077344574
-0.056567922 0.008865135 -0.009602477 0.006049673 -0.07547889 0.05448542 -0.10692998 0.10070898
0.00056396757 0.125353 0.045429714 -0.07000515 0.09185223 0.042740792 -0.0370061 0.07586115
-0.10036091 0.021686308 0.07085275 0.051699933 0.011827998 0.022915425 0.021364808 0.010037005
0.068649255 -0.08018296 -0.07609525 0.06371493 0.0047172457 0.05012294 0.07344664 -0.010924414
-0.006818131 0.114130445 -0.02246215 0.009145107 -0.07220012 -0.009084379 -0.021811318 0.03282705
-0.08764305 -0.011912061 -0.055983067 -0.106646895 -0.039116245 0.061626762 -0.031392373 -0.009337267
0.05321809 0.006794851 -0.02508425 -0.0317004 -0.0024761732 -0.0067890356 0.07234212 -0.004754009
-0.0030120881 -0.084991 -0.06485077 0.061135367 0.036206257 -0.04239882 0.056190766 0.07802106
-0.04755949 -0.020149156 0.01046207 -0.039000705 0.09899677 -0.08051833 -0.01947141 0.023883788
0.025472682 -0.08187668 -0.09431956 0.024360705 -0.061161038 0.04927308 0.052243866 0.06719814
00000000: bc61 203d e9ff dfbb c0cb 62bb 4481 d63d
00000010: 39f0 efbc 0272 b5bc fd4c f13c ea60 f2bc
00000020: 3edb 133d e52f c03b add5 b03d eafb 5b3d
00000030: 7f69 1cbd 894f e53c 1f26 fd3c 7c32 91bc
00000040: 8b7e e3bd 7c6b 91bd 04a6 65bd 0444 f93c
00000050: 8fe7 d93b bebf 94bd a46f c8bb 6c47 c93b
00000060: 568b 123d 8efc 36bc e947 c0bd 0947 c53c
00000070: e44a bd3d c87f 8a3d b418 abbd 6f44 943d
00000080: 1aef aabd e8ee 18bb 671b de3c 0ba3 2ebd
00000090: 486d 1d3c b9fb 5a3d ddf4 56bd 6b28 4d3a
000000a0: 8f0d 46bd 73a8 8e3d 2787 c1bd ad00 fabc
000000b0: 4b6c c9bd 7232 a4bc ce8d 66bd d566 9ebd
000000c0: c4b3 67bd 123f 113c b553 1dbc 563c c63b
000000d0: ad94 9abd 1b2c 5f3d 1bfe dabd 8240 ce3d
000000e0: 39d7 133a 895c 003e 8214 3a3d dc5e 8fbd
000000f0: 061d bc3d f810 2f3d b593 17bd 175d 9b3d
00000100: 058a cdbd 7ca7 b13c 3f1b 913d 4fc3 533d
00000110: 38ca 413c 21b9 bb3c 4005 af3c 4072 243c
00000120: fb97 8c3d f736 a4bd d4d7 9bbd f97c 823d
00000130: 2093 9a3b b64d 4d3d 316b 963d 50fc 32bc
00000140: a16a dfbb 39bd e93d 8b02 b8bc 5cd5 153c
00000150: a8dd 93bd a6d6 14bc a6ad b2bc a875 063d
00000160: 337e b3bd ce2a 43bc 804e 65bd b069 dabd
00000170: 5b38 20bd 586c 7c3d 4a95 00bd 56fb 18bc
00000180: 36fb 593d 57a7 de3b 7c7d cdbc 47d8 01bd
00000190: 4b47 22bb 8f76 debb 1b28 943d 85c7 9bbb
000001a0: 7466 45bb c30f aebd 7bd0 84bd 1469 7a3d
000001b0: 034d 143d 63aa 2dbd 4a28 663d 81c9 9f3d
000001c0: bdcd 42bd d80f a5bc 1a69 2b3c 34bf 1fbd
000001d0: d2be ca3d cbe6 a4bd 8282 9fbc efa7 c33c
000001e0: 16ac d03c f6ae a7bd 9d2a c1bd 1a90 c73c
000001f0: ff83 7abd 92d2 493d aafd 553d 2e9f 893d

model.model.model.4.weight f4 [128, 128]
0.033670377 -0.2558539 -0.050514806 0.111650944 0.042241003 -0.060448177 -0.0038838557 -0.25014532
-0.12561654 -0.046443876 0.061773635 -0.12699096 -0.072307184 -0.118219934 -0.041254193 0.08159184
0.011885756 -0.014418734 -0.22611415 -0.013966243 0.06159434 -0.014531187 0.0692445 0.09947232
0.018220073 0.06445602 0.059732758 0.008188118 0.1380701 -0.008896403 -0.073635444 -0.080065586
-0.0139730275 0.07811833 0.005866558 -0.039980184 -0.035719797 -0.071492374 0.05088146 0.14727661
-0.091912046 -0.0072691087 -0.10617641 -0.0004488555 0.009837102 0.011325416 0.009769042 0.026887067
-0.11706467 -0.023633463 0.027758155 0.03283689 0.0007552281 0.16358711 0.06923651 0.058942303
0.07384121 0.159106 0.10046825 -0.059943143 0.04708769 -0.08073439 -0.062661186 0.05245189
-0.030293088 0.03165426 0.03777548 -0.025537146 -0.07553891 0.010273501 0.028648304 -0.03249129
-0.039671037 -0.18353343 -0.026622072 0.039345242 0.08672919 -0.29821163 -0.034827035 -0.22484568
0.059876204 0.0301314 -0.18050164 0.008170415 0.066850476 0.15851116 0.0224988 0.108387694
0.028827768 -0.0627384 -0.019398002 -0.25096047 -0.066411264 0.057499226 0.0971201 0.101246245
-0.07026729 -0.07266579 -0.049518965 0.08535769 0.019326221 -0.09981024 -0.074431315 -0.049294215
0.029307608 0.10025854 -0.13824733 -0.08199944 0.06172403 -0.018296205 0.037940122 0.067205265
-0.17259423 0.060668997 0.013243633 0.059798896 0.095278986 0.0073503703 -0.2510678 -0.3127001
0.0087578595 0.03391578 0.06630431 0.0005768613 0.08409949 0.03868638 -0.20269212 0.11568117
0.07346975 -0.068854064 -0.024502289 0.1276047 0.045081027 -0.01133694 0.02993749 -0.14480568
0.08540133 0.0045568445 0.1127132 0.02451697 -0.03745559 -0.08183272 -0.018255996 -0.023452032
0.0548446 -0.048055142 -0.07010276 0.04401448 0.06798356 -0.07839223 -0.02995145 0.038572002
-0.009939149 -0.090580165 -0.023142923 -0.06906129 0.17456417 0.039924823 0.047785945 -0.0727663
-0.003966617 0.048136845 0.071930006 -0.009095852 0.07662084 0.052664183 -0.07992118 0.03505979
0.022114508 0.030143648 -0.11518946 0.034225464 0.06538005 0.049857467 -0.056671802 0.015938029
-0.080768794 0.16909976 -0.145362 -0.057426512 0.038869426 0.07291561 -0.043048132 0.0653996
-0.06073647 0.14776061 0.07037984 -0.02850305 0.09130822 -0.07669189 -0.0015096333 0.045455024
-0.004633333 -0.047689818 0.04273688 -0.10465838 0.056912757 -0.019375823 0.07028921 0.03638857
-0.07281575 -0.10019603 -0.0014481364 0.0439331 0.052191205 -0.12761952 0.067429595 0.011506841
0.0018324968 0.022117717 -0.057774596 -0.038750414 -0.052569434 0.14148362 0.015126895 0.021256002
0.061706018 -0.029768527 -0.050762806 0.032472733 -0.072064325 0.04075523 -0.0025539622 0.008549089
0.0024516787 -0.07730381 0.086821064 -0.21116288 -0.04846812 0.05318078 -0.004303211 0.052058466
-0.015964251 -0.09583625 -0.067115486 0.065607995 -0.08027786 -0.01783485 -0.020865194 0.09561854
-0.07890915 -0.046887726 -0.08703417 -0.019257503 0.13855566 0.051305033 -0.15204136 -0.019011652
-0.044087287 0.039060403 0.0009884996 0.19720037 0.053645547 -0.0028220762 -0.13123994 0.117626786
00000000: f3e9 093d 48ff 82be 9de8 4ebd 40a9 e43d
00000010: e704 2d3d 8298 77bd 4988 7ebb 0c13 80be
00000020: 9fa1 00be ef3b 3ebd 5a06 7d3d eb09 02be
00000030: ca15 94bd 4b1d f2bd 28fa 28bd 9f19 a73d
00000040: 79bc 423c 8e3c 6cbc 788a 67be abd2 64bc
00000050: 594a 7c3d 3714 6ebc 0fd0 8d3d 25b8 cb3d
00000060: 4342 953c 8501 843d 56aa 743d 7527 063c
00000070: 4062 0d3e 38c2 11bc 2ece 96bd 6df9 a3bd
00000080: 20ef 64bc 81fc 9f3d 413c c03b 43c2 23bd
00000090: ec4e 12bd 986a 92bd 1469 503d aecf 163e
000000a0: 623c bcbd b431 eebb 0573 d9bd 5e54 ebb9
000000b0: cc2b 213c 3d8e 393c 550e 203c 4442 dc3c
000000c0: 9abf efbd f79a c1bc 1265 e33c fa7f 063d
000000d0: 80fa 453a 6183 273e dfcb 8d3d 7c6d 713d
000000e0: 0f3a 973d afec 223e 4cc2 cd3d f186 75bd
000000f0: 06df 403d 1258 a5bd 8254 80bd cbd7 563d
00000100: 3629 f8bc e6a7 013d 76ba 1a3d 4733 d1bc
00000110: 25b4 9abd 3052 283c d9af ea3c 9615 05bd
00000120: 197e 22bd 30f0 3bbe 8816 dabc 7a28 213d
00000130: 139f b13d 32af 98be cba6 0ebd f23d 66be
00000140: c040 753d 20d6 f63c 6cd5 38be 34dd 053c
00000150: e7e8 883d c050 223e 674f b83c 5efa dd3d
00000160: 3628 ec3c fe7c 80bd 8fe8 9ebc e47d 80be
00000170: a102 88bd 4f84 6b3d e7e6 c63d 315a cf3d
00000180: 4ce8 8fbd cdd1 94bd 66d4 4abd 03d0 ae3d
00000190: 0652 9e3c 5069 ccbd 726f 98bd bbe8 49bd
000001a0: 8216 f03c 5954 cd3d b590 0dbe 53ef a7bd
000001b0: 56d2 7c3d ece1 95bc 1a67 1b3d eaa2 893d
000001c0: 8bbc 30be 0e80 783d d3fb 583c b0ef 743d
000001d0: a121 c33d 60db f03b f58b 80be 3a1a a0be
000001e0: 207d 0f3c 46eb 0a3d 8eca 873d 8238 173a
000001f0: 5a3c ac3d 9c75 1e3d 868e 4fbe 40ea ec3d
00000200: 4f77 963d 5c03 8dbd 06b9 c8bc ceaa 023e
00000210: e2a6 383d 93be 39bc 783f f53c f147 14be
00000220: e4e6 ae3d 9551 953b 2ed6 e63d d0d7 c83c
00000230: 086b 19bd ea97 a7bd 998d 95bc 7a1e c0bc
00000240: bba4 603d 78d5 44bd 0992 8fbd 8748 343d
00000250: f73a 8b3d 1b8c a0bd be5c f5bc adfd 1d3d
00000260: d0d7 22bc 1882 b9bd 3a96 bdbc 0170 8dbd
00000270: f3c0 323e 3688 233d 32bb 433d 7f06 95bd
00000280: 65fa 81bb 242b 453d 0a50 933d c506 15bc
00000290: 63eb 9c3d 66b6 573d b7ad a3bd db9a 0f3d
000002a0: 7c29 b53c d0ef f63c 74e8 ebbd 0030 0c3d
000002b0: fae5 853d 5837 4c3d b120 68bd 7890 823c
000002c0: 1c6a a5bd 7d28 2d3e c7d9 14be 1038 6bbd
000002d0: 8c35 1f3d c854 953d 3d53 30bd 3af0 853d
000002e0: cec6 78bd 8f4e 173e 4e23 903d 3a7f e9bc
000002f0: ceff ba3d a310 9dbd e3de c5ba 0c2f 3a3d
00000300: 37d3 97bb 6656 43bd de0c 2f3d 2257 d6bd
00000310: 5a1d 693d 0cba 9ebc caf3 8f3d 2e0c 153d
00000320: 6d20 95bd 9433 cdbd 65cf bdba 32f3 333d
00000330: 72c6 553d b1ae 02be 8718 8a3d 3087 3c3c
00000340: 6430 f03a 3730 b53c 0ea5 6cbd c1b8 1ebd
00000350: 0c53 57bd 15e1 103e ccd6 773c 1121 ae3c
00000360: 73bf 7c3d 20dd f3bc a9ec 4fbd 2102 053d
00000370: 7696 93bd f5ee 263d 6060 27bb 7a11 0c3c
00000380: 58ac 203b 7651 9ebd 3ecf b13d 153b 58be
00000390: 8286 46bd 17d4 593d f301 8dbb 423b 553d
000003a0: 76c7 82bc cc45 c4bd d873 89bd 7c5d 863d
000003b0: b868 a4bd 641a 92bc 7ced aabc a7d3 c33d
000003c0: 1f9b a1bd 580d 40bd f93e b2bd e9c1 9dbc
000003d0: 89e1 0d3e 3a25 523d bbb0 1bbe 53be 9bbc
000003e0: df94 34bd cdfd 1f3d 8b90 813a e5ee 493e
000003f0: 6fbb 5b3d 95f2 38bb c363 06be 50e6 f03d

model.model.model.4.bias f4 [128]
-0.06495041 -0.010698714 0.15171432 0.022245545 0.09755138 0.046871867 0.07041416 0.03200096
-0.03828718 0.09214378 -0.026388615 -0.1008688 -0.03835629 -0.042113766 -0.047252797 0.05449271
-0.077142864 0.04015243 -0.04967858 0.13786279 0.015135123 0.085196525 0.11481434 -0.018032348
-0.01753355 0.0026314352 -0.09537685 0.03182224 0.012099769 -0.015907383 -0.026200075 0.05132629
0.12639005 -0.06848046 -0.0071587893 0.14228787 -0.04612471 0.053662237 -0.021437598 0.038424484
0.031685926 -0.0041594678 -0.036788937 0.061407976 -0.089536086 0.035942193 0.038455635 0.058799025
-0.048221644 -0.025040708 0.083324015 0.09178157 0.06827876 -0.0050347038 0.06888112 -0.029003972
0.054801397 0.08606161 0.039261036 -0.00525449 0.10274627 -0.0055133267 0.002737378 -0.11185231
-0.088299215 0.043441642 0.060852077 0.08510503 0.0368561 -0.020690415 -0.08283606 -0.03936201
0.07515373 0.002394898 -0.106691174 0.05907955 0.13867466 -0.0049503595 0.039984375 -5.10946e-05
-0.025228249 0.04800033 0.07479523 0.041106272 -0.120146066 0.099736564 -0.105468 0.052651864
0.04686683 0.15593147 0.06936991 -0.03360701 0.058823787 -0.11157212 -0.01435863 0.06751885
0.04891809 -0.09954129 -0.067224786 0.08968678 0.05338043 0.028570626 -0.08435068 -0.065311715
0.083813526 -0.06553889 -0.081977166 0.03836688 -0.08996716 0.15471056 -0.078957595 -0.04654859
-0.06589698 0.14319924 -0.026998524 0.0013779876 0.09486234 -0.05189923 0.05316687 -0.030117234
0.07404962 0.04020102 -0.059747566 0.08382483 0.043582845 -0.103316136 0.092416376 -0.083590955
00000000: b804 85bd a949 2fbc 005b 1b3e 4a3c b63c
00000010: 05c9 c73d b7fc 3f3d 4d35 903d 7013 033d
00000020: 05d3 1cbd e1b5 bc3d f02c d8bc 4d94 cebd
00000030: 7c1b 1dbd 7c7f 2cbd 268c 41bd bf33 5f3d
00000040: 14fd 9dbd e076 243d c47b 4bbd e72b 0d3e
00000050: 4ff9 773c 847b ae3d c823 eb3d 93b8 93bc
00000060: 85a2 8fbc 2874 2c3b f054 c3bd 0a58 023d
00000070: 1c3e 463c 3350 82bc 8aa1 d6bc 843b 523d
00000080: 656c 013e 7c3f 8cbd 4794 eabb e9b3 113e
00000090: 44ed 3cbd efcc 5b3d e79d afbc fe62 1d3d
000000a0: 1ac9 013d 254c 88bb ffaf 16bd ee86 7b3d
000000b0: b25e b7bd 1f38 133d a883 1d3d 3fd7 703d
000000c0: 0f84 45bd 2c22 cdbc c8a5 aa3d faf7 bb3d
000000d0: bcd5 8b3d 28fa a4bb 8b11 8d3d bd99 edbc
000000e0: 6e77 603d 1241 b03d 2ed0 203d db2d acbb
000000f0: a36c d23d 23a9 b4bb 9565 333b d312 e5bd
00000100: 38d6 b4bd ddef 313d 0740 793d 8c4b ae3d
00000110: 6cf6 163d f27e a9bc f4a5 a9bd 0f3a 21bd
00000120: 33ea 993d b9f3 1c3b e780 dabd 66fd 713d
00000130: bb00 0e3e a036 a2bb a8c6 233d 694e 56b8
00000140: 79ab cebc fe9b 443d 3e2e 993d 0d5f 283d
00000150: 240f f6bd af42 cc3d 9bff d7bd 7ba9 573d
00000160: 6ff7 3f3d 80ac 1f3e d011 8e3d 81a7 09bd
00000170: 36f1 703d ec7f e4bd 7640 6bbc 5347 8a3d
00000180: 565e 483d 4edc cbbd 26ad 89bd b4ad b73d
00000190: 70a5 5a3d f20c ea3c 0dc0 acbd 26c2 85bd
000001a0: 6da6 ab3d 4139 86bd a5e3 a7bd 9726 1d3d
000001b0: b440 b8bd 726c 1e3e 85b4 a1bd bca9 3ebd
000001c0: fff4 86bd d2a2 123e 022c ddbc 979d b43a
000001d0: 3047 c23d 4994 54bd 81c5 593d 6bb8 f6bc
000001e0: 54a7 973d d3a9 243d ddb9 74bd 5aac ab3d
000001f0: ed83 323d 6997 d3bd cc44 bd3d bc31 abbd

model.model.model.6.weight f4 [128, 128]
-0.09608644 -0.078493364 -0.0053149355 0.0608468 0.09524153 -0.01188047 -0.01298821 0.061625354
0.033353556 0.009057772 0.14550692 0.18464418 -0.088371955 0.040072106 -0.06017855 -0.06618447
0.0073935483 0.031638335 -0.017424537 0.034740068 0.069091514 0.014074442 -0.030121623 0.06462962
0.05174379 -0.08832385 -0.06221655 0.06188994 -0.01127925 0.05037551 -0.021935018 0.011139831
-0.025442837 0.04310739 0.09105303 -0.0252036 -0.024887823 -0.030173112 -0.06356041 -0.08128008
0.081782974 0.1343262 0.04233748 0.010029769 -0.045533758 0.033843167 0.039351556 -0.07326988
0.07348349 0.08465033 -0.01279094 0.084287845 0.08431394 0.09391784 0.028051347 -0.06267933
0.24856049 0.008759359 0.06910911 -0.09194429 0.06519742 -0.023237055 0.09166397 0.11441052
-0.048478417 -0.05685952 -0.044825464 -0.03545236 0.09257054 0.026278982 0.020715049 -0.03987848
0.048097715 0.03843592 0.019691592 0.0440278 -0.013763557 -0.08398895 0.010258376 -0.045099504
0.09626634 0.016147748 -0.05563983 0.048880246 0.040403944 0.030231114 -0.0685435 -0.07547892
0.113822535 0.13901202 0.0014920878 0.010158853 -0.005329616 0.023881346 0.08453337 0.041608468
0.034866136 -0.04574462 0.033472244 -0.023418114 -0.03635952 -0.021300038 -0.06430326 -0.0824818
0.052679285 0.112553805 0.04498723 0.031149052 0.025603015 -0.07411206 0.040548466 0.11448873
0.08883122 -0.033122513 -0.058391143 -0.04324033 0.07850287 0.042220246 -0.06686193 0.012612015
0.02308074 0.005850896 -0.06395188 -0.17232725 0.027123412 -0.034795813 -0.015978187 0.014568423
0.03208586 -0.03837384 -0.07213851 -0.014221571 -0.05286243 -0.0472612 -0.005523458 -0.08143185
-0.08191888 -0.04256272 -0.07113586 -0.011716589 0.06748628 0.08573406 0.052734725 -0.015375979
-0.07205257 -0.03425861 0.026787676 0.002420105 -0.021975711 -0.07386251 0.0671872 -0.004313506
0.020613529 -0.038526285 0.033551037 -0.07900894 0.022396699 -0.080291316 0.022252806 -0.0571058
0.02979467 -0.039067525 -0.022825457 0.08521085 -0.05170782 0.018670306 -0.0032009035 -0.0041938573
-0.066924155 -0.06524089 -0.036952186 0.06652548 -0.019323058 0.05977019 -0.018037133 -0.002504848
-0.026469454 -0.054244287 0.07809194 0.058893137 -0.0726807 -0.047946244 -0.08653505 0.046826296
-0.075491875 0.0059465393 -0.023321062 0.0060055554 0.012693696 -0.08435505 -0.017870337 -0.023717366
0.025119036 -0.049508847 0.05774636 0.0182603 0.04723694 0.001543954 0.049927868 -0.0044812188
-0.074016936 0.0857426 0.024192743 0.023024283 -0.045901407 -0.071352586 -0.08028709 0.07873898
-0.022655435 -0.06691048 -0.036982533 0.054588966 0.068498544 -0.0024320185 0.06620062 -0.008386537
0.08553303 -0.014101416 -0.06703819 0.053052478 -0.046064712 0.06604574 -0.009574138 0.035985403
-0.06332262 0.03111288 -0.006610535 -0.077473305 -0.05299607 0.026109204 0.0029626489 -0.031742983
-0.08759313 -0.04971245 -0.06616607 -0.063893825 0.023739308 -0.08669742 -0.080005415 5.9753656e-05
0.059586786 0.018130362 0.055281766 -0.01688549 -0.017309405 -0.031105384 -0.03614264 -0.04774629
0.026625536 -0.007855676 -0.084628075 -0.040897414 0.0412691 -0.018182933 -0.076126024 0.011247158
00000000: f8c8 c4bd 21c1 a0bd e928 aebb 7f3a 793d
00000010: fe0d c33d 4ea6 42bc 80cc 54bc de6a 7c3d
00000020: bd9d 083d 0d67 143c c4ff 143e 5d13 3d3e
00000030: 5bfc b4bd a622 243d c97d 76bd b98b 87bd
00000040: 9445 f23b 3397 013d e7bd 8ebc 9a4b 0e3d
00000050: da7f 8d3d 7d98 663c 9fc1 f6bc 895c 843d
00000060: 4cf1 533d 22e3 b4bd c8d6 7ebd 4e80 7d3d
00000070: 9acc 38bc 8d56 4e3d 11b1 b3bc d683 363c
00000080: 7f6d d0bc 6091 303d 037a ba3d c877 cebc
00000090: 8ce1 cbbc 9a2d f7bc f62b 82bd 2c76 a6bd
000000a0: d57d a73d cf8c 093e 116a 2d3d e653 243c
000000b0: 9b81 3abd 229f 0a3d 192f 213d 850e 96bd
000000c0: 837e 963d 275d ad3d 1791 51bc 1b9f ac3d
000000d0: c9ac ac3d ff57 c03d f0cb e53c 055e 80bd
000000e0: a486 7e3e 6a83 0f3c 1489 8d3d 4a4d bcbd
000000f0: 3a86 853d a35b bebc 52ba bb3d 1050 ea3d
00000100: 4e91 46bd 87e5 68bd e89a 37bd 7e36 11bd
00000110: a095 bd3d 0547 d73c 9bb2 a93c 9e57 23bd
00000120: 1c02 453d fc6e 1d3d 4350 a13c 7f56 343d
00000130: 8b80 61bc 6602 acbd bf12 283c 42ba 38bd
00000140: 4927 c53d 4848 843c 97e6 63bd a736 483d
00000150: 9b7e 253d 3ea7 f73c 8960 8cbd b194 9abd
00000160: ca1b e93d 2b59 0e3e 2992 c33a 5171 263c
00000170: 0fa4 aebb d0a2 c33c d51f ad3d a46d 2a3d
00000180: cbcf 0e3d b65e 3bbd 311a 093d 58d7 bfbc
00000190: b8ed 14bd 6b7d aebc 6db1 83bd 38ec a8bd
000001a0: 3cc6 573d 9c82 e63d 8844 383d 4c2c ff3c
000001b0: 6abd d13c 10c8 97bd 2616 263d 1179 ea3d
000001c0: 25ed b53d 79ab 07bd 8d2b 6fbd c61c 31bd
000001d0: 1dc6 a03d 23ef 2c3d e8ee 88bd a0a2 4e3c
000001e0: d213 bd3c dfb8 bf3b 34f9 82bd 8e76 30be
000001f0: eb31 de3c 0e86 0ebd b0e4 82bc 65b0 6e3c
00000200: 766c 033d e32d 1dbd 5bbd 93bd 9801 69bc
00000210: 4786 58bd f694 41bd 20fe b4bb bec5 a6bd
00000220: 16c5 a7bd 3f56 2ebd aeaf 91bd f0f6 3fbc
00000230: 3f36 8a3d 5795 af3d 5e00 583d 88eb 7bbc
00000240: 4c90 93bd c252 0cbd d471 db3c a09a 1e3b
00000250: 6806 b4bc 3a45 97bd 7199 893d 5058 8dbb
00000260: b4dd a83c bdcd 1dbd d06c 093d 70cf a1bd
00000270: 4879 b73c c66f a4bd 844b b63c c5e7 69bd
00000280: f413 f43c 4505 20bd 74fc babc 0783 ae3d
00000290: 94cb 53bd 78f2 983c 40c6 51bb a06c 89bb
000002a0: 880f 89bd 049d 85bd 2d5b 17bd 833e 883d
000002b0: 644b 9ebc 96d1 743d 9cc2 93bc 6028 24bb
000002c0: 78d6 d8bc 422f 5ebd abee 9f3d ee39 713d
000002d0: 9ed9 94bd 4863 44bd 4a39 b1bd eecc 3f3d
000002e0: 7c9b 9abd 30db c23b d00b bfbc 40ca c43b
000002f0: 38f9 4f3c 57c2 acbd d064 92bc ec4a c2bc
00000300: 70c6 cd3c cac9 4abd 7287 6c3d a096 953c
00000310: 867b 413d 805e ca3a 2a81 4c3d 30d7 92bb
00000320: 3196 97bd d199 af3d dc2f c63c 6c9d bc3c
00000330: 1d03 3cbd 4e21 92bd 8f6d a4bd e741 a13d
00000340: e497 b9bc 5d08 89bd ff7a 17bd ae98 5f3d
00000350: f748 8c3d 8062 1fbb 3194 873d b067 09bc
00000360: f12b af3d a009 67bc 524b 89bd 8e4d 593d
00000370: 5aae 3cbd fd42 873d d8dc 1cbc 6e65 133d
00000380: 4aaf 81bd 70e0 fe3c 309d d8bb 53aa 9ebd
00000390: 6812 59bd f8e2 d53c 0029 423b ee04 02bd
000003a0: 0764 b3bd 489f 4bbd 1482 87bd c4da 82bd
000003b0: f078 c23c 6b8e b1bd e1d9 a3bd 00a0 7a38
000003c0: 4611 743d 2086 943c 226f 623d 7053 8abc
000003d0: 74cc 8dbc b8d0 febc 4e0a 14bd 9d91 43bd
000003e0: cc1d da3c 18b5 00bc 7c51 adbd 0c84 27bd
000003f0: ca09 293d 60f4 94bc f6e7 9bbd 0046 383c

model.model.model.6.bias f4 [128]
0.06540309 -0.052034434 -0.056379464 0.015682776 0.061965726 0.0041565043 -0.06721343 0.1073351
0.12063405 -0.07798226 -0.06658436 0.09774323 0.01182188 -0.104925334 -0.12845525 0.0015143562
0.028905893 0.061281763 0.102250665 -0.0062775738 0.006341487 -0.049092658 -0.042478625 0.032600164
0.096814536 -0.026686274 -0.017906936 0.042742293 -0.101591796 -0.08400463 -0.09063871 0.039786786
0.080106355 0.023144843 0.07443989 -0.037349544 0.12815057 -0.09196156 0.12870075 -0.05810119
-0.112153314 0.060454484 -0.06783767 0.14778136 -0.121322304 0.0016616179 0.052949216 -0.001998662
-0.038868874 0.10791915 0.061911955 0.04528575 0.03922778 0.05544207 -0.06963261 0.016849065
-0.04115601 0.13122526 -0.007028738 0.03561775 0.09454032 0.110305026 0.049129676 -0.024725782
-0.013757488 -0.09925099 -0.0073797363 -0.08327477 0.093094625 0.021304192 0.057009995 -0.05692165
-0.05750984 0.12620997 -0.07365988 0.12231082 0.0705442 0.061941333 -0.10214163 0.042642713
0.17131369 -0.029624313 -0.03154333 0.072808065 -0.064425275 0.015254576 -0.018063415 0.04633698
-0.11439146 0.01922811 -0.011937874 -0.032631103 0.036229115 -0.09087199 0.16476268 -0.080000594
0.0008225798 0.051444706 -0.11401956 0.037738644 0.093163416 0.08599546 0.053659756 0.03289334
-0.011832571 0.018727839 0.06861013 -0.09726044 -0.00055620814 0.07100852 0.030456098 -0.084916994
-0.07996382 0.091035485 0.009126385 -0.09090543 0.14193735 0.018091459 -0.12987475 0.015740559
0.028268771 0.17559616 -0.09908976 -0.059922256 0.021664804 0.0024838767 -0.012580655 0.04887743
00000000: 0ef2 853d 0f22 55bd 27ee 66bd 2a79 803c
00000010: c6cf 7d3d 4933 883b 32a7 89bd 81d2 db3d
00000020: fc0e f73d 2ab5 9fbd 625d 88bd 9a2d c83d
00000030: 8fb0 413c 18e3 d6bd c689 03be 5d7d c63a
00000040: 0dcc ec3c 9602 7b3d cc68 d13d 1bb4 cdbb
00000050: 40cc cf3b 6215 49bd 11fe 2dbd c087 053d
00000060: b346 c63d 2c9d dabc 91b1 92bc 8b12 2f3d
00000070: 5c0f d0bd 9f0a acbd caa0 b9bd 78f7 223d
00000080: cd0e a43d 419a bd3c f173 983d d6fb 18bd
00000090: e739 033e 5856 bcbd 21ca 033e 83fb 6dbd
000000a0: a3b0 e5bd 1f9f 773d 7aee 8abd ff53 173e
000000b0: d477 f8bd a5ca d93a 47e1 583d fcfb 02bb
000000c0: f834 1fbd b704 dd3d 6497 7d3d 8d7d 393d
000000d0: 4fad 203d 3917 633d 8b9b 8ebd 0d07 8a3c
000000e0: 3493 28bd ea5f 063e 5451 e6bb ebe3 113d
000000f0: 5b9e c13d 9ae7 e13d 333c 493d b98d cabc
00000100: 1667 61bc 1a44 cbbd b7d1 f1bb f68b aabd
00000110: 65a8 be3d 2186 ae3c 5083 693d ad26 69bd
00000120: 708f 6bbd 303d 013e feda 96bd 187e fa3d
00000130: 7a79 903d 32b6 7d3d a22f d1bd 20aa 2e3d
00000140: db6c 2f3e b0ae f2bc 9433 01bd 651c 953d
00000150: 66f1 83bd 54ee 793c baf9 93bc d8cb 3d3d
00000160: 1246 eabd 4584 9d3c 1397 43bc 31a8 05bd
00000170: fb64 143d 181b babd 8cb7 283e 5ad7 a3bd
00000180: 65a2 573a afb7 523d 1683 e9bd d693 1a3d
00000190: 76cc be3d 631e b03d 55ca 5b3d 2bbb 063d
000001a0: 66dd 41bc 206b 993c 7883 8c3d 7b30 c7bd
000001b0: 7fce 11ba ea6c 913d 117f f93c f6e8 adbd
000001c0: 12c4 a3bd d070 ba3d d586 153c a02c babd
000001d0: 0658 113e 8a34 943c e3fd 04be 58f2 803c
000001e0: e993 e73c 7bcf 333e 92ef cabd 0a71 75bd
000001f0: 637a b13c 89c8 223b 171f 4ebc b333 483d

model.Q.model.0.mu_W f4 [102, 128]
0.054592557 -0.02957571 0.07990836 0.011863268 -0.02115656 0.0560188 0.08706448 -0.070108876
-0.07865865 0.03851642 0.05697627 -0.04623177 0.06549412 -0.04131587 -0.11216727 0.08595497
-0.1346702 0.007078559 -0.05468278 -0.0005403486 0.03996755 0.0034507853 -0.06315632 -0.04312181
0.07680369 0.021831961 -0.043513216 0.017430102 -0.06909994 -0.108108796 0.010570296 -0.063438036
-0.037829947 0.06698656 -0.022233462 -0.11482801 -0.01857097 -0.14865363 -0.09604101 -0.012906804
-0.03509572 -0.16601558 0.0052735484 -0.015846726 -0.007483414 0.061219603 -0.025406271 -0.08215447
-0.0033037933 -0.067496136 0.06492653 -0.046811953 0.08793506 -0.07739395 0.007587556 -0.048737023
0.043988578 0.048710097 0.04223217 0.11960652 -0.055878937 0.01159236 0.0954011 -0.08699532
-0.06099005 -0.10392167 0.0950547 -0.07898267 0.018384596 0.08305915 0.06436471 0.05651432
-0.03645157 0.0073181824 0.098380044 0.024770942 0.023845615 0.02587251 -0.3285294 -0.032195628
-0.075140625 -0.100276925 0.0054739793 -0.073928945 -0.03601714 0.011142897 -0.10419856 0.041895296
-0.0621415 0.092924796 0.081038885 -0.04148857 0.025062136 0.016242426 0.083886236 0.019879378
0.082066745 0.052749783 -0.09066235 -0.030435383 0.09671623 -0.05310718 0.017614545 -0.052985888
0.0010696545 0.0857574 -0.07434179 -0.005037333 0.034577783 0.08699367 0.06505342 0.044193055
0.08607403 -0.21790615 -0.033946794 -0.061404128 0.040121563 0.051532265 -0.071415454 -0.03456414
-0.031209573 -0.0039966237 0.07164081 -0.018812157 0.010645819 0.081498235 0.07375937 0.0654974
-0.038662534 0.0810061 0.01067264 -0.04667135 0.10383879 -0.035734724 -0.036442902 0.07355579
0.015037329 -0.054396313 0.05247654 -0.0517095 0.07873261 -0.06660284 -0.05365045 0.0054639517
-0.34473503 0.08051 0.104901604 0.094241574 -0.071701154 0.05282931 -0.03479076 0.021237073
0.020573357 0.017321384 -0.14217567 -0.01055968 -0.14036712 -0.03432136 0.027056908 0.063169815
-0.057328153 0.06311441 0.022494696 0.0037450918 0.008097882 -0.23214032 -0.07105427 0.08298986
-0.17099537 -0.260767 -0.0799593 -0.07117374 0.018265935 0.054635607 0.09879849 -0.07550917
0.03449864 0.005586133 0.072621785 -0.012128523 -0.047873378 0.051777504 -0.08661681 0.030134793
0.061497208 0.053955585 0.056147907 0.16347502 -7.700304e-05 0.008046513 0.062352598 -0.066439845
-0.11759661 0.040799964 -0.060690455 0.0009792378 -0.0012080938 0.054322127 -0.027468601 -0.019179393
0.02730236 0.029062409 0.055619024 -0.041141775 -0.008587927 -0.038112026 -0.32543895 0.028312812
-0.035331544 0.05159596 0.07628212 -0.026071738 0.05952131 -0.04992446 0.052153826 0.023686651
-0.0049393447 0.07612115 -0.06518113 -0.035839036 -0.009921561 0.027227692 0.007989478 0.026140505
-0.06757685 -0.002849243 0.017172098 -0.08765068 0.09732045 0.099018306 0.061769027 0.06622803
-0.080576785 0.082788035 0.0873467 0.08929945 -0.06061167 -0.0029067162 0.015667275 -0.08407
0.06279954 -0.3528148 -0.17880985 -0.051669754 0.030947667 0.07109735 0.07342668 -0.053352475
-0.19755015 0.08569195 -0.022847457 0.020669581 0.06529407 0.026703184 -0.026132654 -0.056482594
00000000: 729c 5f3d c248 f2bc ffa6 a33d 275e 423c
00000010: 8650 adbc f873 653d dd4e b23d 3e95 8fbd
00000020: c917 a1bd 65c3 1d3d f35f 693d 865d 3dbd
00000030: c821 863d d43a 29bd f4b7 e5bd 2909 b03d
00000040: fce6 09be 42f3 e73b 0dfb 5fbd 2ea6 0dba
00000050: 04b5 233d 9226 623b 1a58 81bd 7fa0 30bd
00000060: 414b 9d3d f1d8 b23c ea3a 32bd 93c9 8e3c
00000070: 4584 8dbd 2568 ddbd 092f 2d3c cdeb 81bd
00000080: 93f3 1abd 4030 893d f322 b6bc f32a ebbd
00000090: 2622 98bc a838 18be 26b1 c4bd 0f77 53bc
000000a0: 88c0 0fbd fdff 29be bbcd ac3b fed0 81bc
000000b0: 6d37 f5bb 68c1 7a3d d020 d0bc 9a40 a8bd
000000c0: 7484 58bb 6a3b 8abd 33f8 843d e4bd 3fbd
000000d0: 4c17 b43d b880 9ebd 08a1 f83b 79a0 47bd
000000e0: 5e2d 343d 3d84 473d a4fb 2c3d 43f4 f43d
000000f0: 50e1 64bd e2ed 3d3c a761 c33d 9a2a b2bd
00000100: b4d0 79bd e2d4 d4bd 0aac c23d abc1 a1bd
00000110: 4b9b 963c ea1a aa3d a5d1 833d 8f7b 673d
00000120: 3e4e 15bd 5dcd ef3b 7a7b c93d 6eec ca3c
00000130: e157 c33c 96f2 d33c 0135 a8be 90df 03bd
00000140: 54e3 99bd fd5d cdbd 115f b33b 0f68 97bd
00000150: b586 13bd b390 363c 0e66 d5bd 679a 2b3d
00000160: 1688 7ebd 5b4f be3d b7f7 a53d ebef 29bd
00000170: 1c4f cd3c d60e 853c 8ccc ab3d 14da a23c
00000180: 9c12 a83d 2810 583d 2fad b9bd a053 f9bc
00000190: 2913 c63d ea86 59bd 614c 903c bb07 59bd
000001a0: a633 8c3a 93a1 af3d 8240 98bd 3610 a5bb
000001b0: 6fa1 0d3d bd29 b23d ba3a 853d c703 353d
000001c0: 9547 b03d ca22 5fbe cb0b 0bbd e582 7bbd
000001d0: 8256 243d 7f13 533d 4442 92bd 2193 0dbd
000001e0: 38ab ffbc 1cf6 82bb 6bb8 923d f41b 9abc
000001f0: cd6b 2e3c 8ce8 a63d 270f 973d 8023 863d
00000200: 9b5c 1ebd 87e6 a53d 4cdc 2e3c 752a 3fbd
00000210: 6ea9 d43d 935e 12bd 2745 15bd 6ba4 963d
00000220: 215f 763c abce 5ebd a4f1 563d 57cd 53bd
00000230: 903e a13d 1267 88bd 93c0 5bbd f30a b33b
00000240: 1c81 b0be 6de2 a43d a7d6 d63d ba01 c13d
00000250: 0ed8 92bd 8c63 583d c280 0ebd 5ff9 ad3c
00000260: 7589 a83c 93e5 8d3c 8096 11be 8202 2dbc
00000270: 66bc 0fbe 8e94 0cbd 73a6 dd3c 2d5f 813d
00000280: edd0 6abd 2142 813d cc46 b83c 3770 753b
00000290: fbac 043c 31b6 6dbe e784 91bd 96f6 a93d
000002a0: 6919 2fbe 4183 85be b4c1 a3bd 8ac3 91bd
000002b0: 71a2 953c 96c9 5f3d dd56 ca3d 8da4 9abd
000002c0: 724e 0d3d e10b b73b bbba 943d b6b6 46bc
000002d0: e016 44bd a614 543d 2764 b1bd 3edd f63c
000002e0: 7fe4 7b3d 8800 5d3d 59fb 653d ff65 273e
000002f0: b17c a1b8 86d5 033c 7065 7f3d 9d11 88bd
00000300: 7ed6 f0bd dd1d 273d 8e96 78bd c559 803a
00000310: e758 9eba e180 5e3d d505 e1bc 1a1e 9dbc
00000320: 33a9 df3c 4a14 ee3c c6d0 633d 4784 28bd
00000330: 60b4 0cbc 5b1b 1cbd ef9f a6be 45f0 e73c
00000340: cfb7 10bd 4956 533d cd39 9c3d 6694 d5bc
00000350: 9ecc 733d 977d 4cbd 409f 553d 820a c23c
00000360: 3ada a1bb 68e5 9b3d af7d 85bd f4cb 12bd
00000370: 0b8e 22bc 9c0c df3c 4de6 023c 9d24 d63c
00000380: bb65 8abd 5eba 3abb 80ac 8c3c 3382 b3bd
00000390: f24f c73d 1cca ca3d 8501 7d3d 90a2 873d
000003a0: 7105 a5bd c68c a93d d4e2 b23d a1e2 b63d
000003b0: f143 78bd 9b7e 3ebb a858 803c e42c acbd
000003c0: 0c9d 803d 24a4 b4be ee19 37be aaa3 53bd
000003d0: f685 fd3c 7d9b 913d ba60 963d 2088 5abd
000003e0: 964a 4abe 437f af3d 972a bbbc 4153 a93c
000003f0: e6b8 853d a3c0 da3c 2614 d6bc 4b5a 67bd
