demo/tianshou/panda/log/KukaBulletEnv-v0/ppo/policy.pth (torch, 46526 bytes, 24 tensors)

actor.sigma_param f4 [3, 1]
0	0xbdb8cc4f	-0.09023344
1	0xbca2eb22	-0.01988751
2	0xbe23712b	-0.15961139

actor.preprocess.model.model.0.weight f4 [64, 9]
0	0x3ba6b86d	0.0050879032
1	0x3e008b62	0.1255317
2	0xbd450e59	-0.048109386
3	0xbe182406	-0.14857492
4	0xbe2d0d1f	-0.16899537
5	0x3e52667e	0.2054691
6	0x3dd6ddf9	0.10491557
7	0xbd3266d9	-0.043555114
8	0x3dc6e191	0.09710992
9	0xbd4816ca	-0.04884986
10	0xbe483fab	-0.19555537
11	0xbe0d333c	-0.13789076
12	0xbdda5d9b	-0.10662385
13	0x3deb7cef	0.114984386
14	0xbc7da705	-0.015481715
15	0x3d73a0cf	0.05947953
16	0xbbe3ecb4	-0.0069557074
17	0x3c2661b2	0.010155128
18	0x3d858109	0.06518752
19	0x3e04aff8	0.12957752
20	0x3d842ba7	0.064536385
21	0x3d254a7a	0.04035423
22	0x3e58dba2	0.21177533
23	0xbe536533	-0.20644073
24	0x3e0d1a6f	0.13779615
25	0xbdb904d2	-0.090341225
26	0xbdc3f0e4	-0.095674306
27	0xbd0d9008	-0.034561187
28	0xbd66b97e	-0.056329243
29	0xbe330c91	-0.17485262
30	0xbd56c25f	-0.05243146
31	0xbe4ea8e8	-0.2018162
32	0x3c1a27f3	0.009408939
33	0xb9841752	-0.00025194377
34	0x3e9cd1c6	0.30628794
35	0x3e5e443c	0.21705717
36	0xbdbc208d	-0.09185896
37	0x3d8e005d	0.06933663
38	0xbdaa89f7	-0.08327096
39	0xbdb5d089	-0.088776655
40	0xbc86cdcb	-0.016455552
41	0x3e58f852	0.21188477
42	0xbcffe5eb	-0.031237563
43	0xbd0d1123	-0.03444017
44	0xbd8a22eb	-0.06744941
45	0xbc5c0ee3	-0.013431284
46	0xbe27f846	-0.16403303
47	0x3d4d1471	0.050068323
48	0x3d876d3d	0.066126324
49	0xbd889bbf	-0.06670331
50	0x3e24307e	0.16034123
51	0xbe400b4f	-0.18754314
52	0x3e585738	0.21127021
53	0xbbb180a5	-0.005416947
54	0x3d173042	0.036911257
55	0x3e63d340	0.22248554
56	0x3d308e51	0.043104474
57	0xbe2cf018	-0.16888463
58	0x3be1f8a1	0.006896094
59	0xbd1e2192	-0.038606234
60	0xbde97017	-0.113983326
61	0x3ce386c3	0.02777422
62	0x3c78547a	0.0151568595
63	0x3daae193	0.08343806
64	0xbdc46e85	-0.095913924
65	0xbce7fa7f	-0.028317688
66	0x3d9def5b	0.07711669
67	0xbd2b5ba2	-0.041835435
68	0x3e14fa15	0.14548524
69	0x3d29c126	0.041443966
70	0x3c39ef2c	0.011348527
71	0x3e6fede7	0.23430596
72	0x3d85155a	0.06498213
73	0xbd485ec0	-0.048918486
74	0xbe501857	-0.20321785
75	0x3df3a942	0.11897518
76	0x3ead956d	0.33903065
77	0xbe02eda9	-0.12785973
78	0xbddc2964	-0.10750082
79	0x3d468d76	0.04847475
80	0xbcc40ff5	-0.02393339
81	0x3e2ae216	0.16687807
82	0xbd57cc02	-0.05268479
83	0xbdd3bc41	-0.10338641
84	0xbd3e4d09	-0.046460185
85	0xbd97f652	-0.07420029
86	0x3e2b1517	0.16707264
87	0xbe835a89	-0.2565501
88	0x3c1fbc8f	0.009749546
89	0x3e208e28	0.15679228
90	0x3de93b78	0.11388296
91	0x3d6243c6	0.055240415
92	0xbe36bc15	-0.17845185
93	0x3dc0d976	0.094164774
94	0xbdb7ddf9	-0.08977885
95	0xbdd605df	-0.104503386
96	0xbdd3daa0	-0.10344434
97	0xbd6e7314	-0.058215216
98	0x3a746602	0.00093230617
99	0xbd85120b	-0.06497582
100	0x3dd99a98	0.106251895
101	0xbdfacda6	-0.122462556
102	0x3d12a848	0.035805017
103	0x3e040bdc	0.12895149
104	0xbd8e0bec	-0.06935868
105	0x3da64c78	0.08120054
106	0xbe477ca2	-0.19481137
107	0x3dc9313f	0.09823846
108	0x3e08b189	0.13348974
109	0xbdc7520c	-0.09732446
110	0x3e427550	0.18990064
111	0x3da380a6	0.07983522
112	0x3e53a553	0.20668535
113	0x3e1cc62c	0.15309972
114	0x3e4173d9	0.18891849
115	0x3c289231	0.010288761
116	0x3c435546	0.011922186
117	0x3e1bee71	0.15227677
118	0x3dcbbfa7	0.09948664
119	0xbe610644	-0.21975046
120	0x3cffb8bd	0.03121602
121	0xbdc597ce	-0.09648095
122	0xbc9c9630	-0.019114584
123	0x3e263321	0.16230442
124	0x3dc77e4c	0.09740886
125	0xbe087b53	-0.13328294
126	0x3d167b60	0.036738753
127	0x3d8a8f49	0.06765611
128	0x3e9ada50	0.30244684
129	0xbe236b22	-0.15958837
130	0x3d5e3aeb	0.054255407
131	0x3da402be	0.080083355
132	0xbbbedd92	-0.005824753
133	0xbd9e723b	-0.077366315
134	0x3aa4e6ab	0.0012580951
135	0xbdd72f01	-0.10507012
136	0xbe2b6610	-0.16738153
137	0x3d30b857	0.04314455
138	0x3cb31045	0.021858344
139	0xbbad44c4	-0.0052877385
140	0xbd4d8d2b	-0.050183456
141	0x3cccad87	0.024985088
142	0xbccc2968	-0.024922088
143	0xbe09d23c	-0.13459104
144	0x3d383009	0.044967685
145	0x3ecbd8d4	0.39813864
146	0xbc85c3c5	-0.016328702
147	0xbba8e7bb	-0.0051545775
148	0x3d686462	0.056736358
149	0x3dfdf17a	0.123995736
150	0x3e1807fb	0.14846794
151	0x3e69f1c0	0.22846127
152	0xbd08d508	-0.033406287
153	0x3c07ebb8	0.008295946
154	0x3e1594d2	0.14607552
155	0xbe7c60b4	-0.24646264
156	0xbcb48325	-0.02203519
157	0x3d022861	0.03177679
158	0xbd3e5684	-0.046469226
159	0x3da29349	0.07938249
160	0xbe0aaf49	-0.13543428
161	0x3cdafcb4	0.026731826
162	0xbba6a1cd	-0.005085206
163	0xbcda19ea	-0.026623685
164	0x3d527170	0.051377714
165	0x3da5d98f	0.08098137
166	0x3c13222a	0.008980313
167	0x3d2ceb65	0.042216677
168	0x3e803c9e	0.25046247
169	0xbe005264	-0.1253143
170	0xbc6b2209	-0.014351376
171	0xbdb4ab21	-0.08821703
172	0x3e1daef0	0.15398765
173	0x3dca0fc8	0.09866291
174	0x3e02a0f8	0.12756717
175	0xbe0c94d1	-0.13728644
176	0xbd0f5595	-0.034993727
177	0xbe3795ab	-0.17928188
178	0xbda2822b	-0.07934984
179	0x3e54353c	0.20723432
180	0xbc4ba786	-0.012430077
181	0xbe2d3cb9	-0.16917695
182	0xbce35276	-0.027749281
183	0xbd196af3	-0.03745551
184	0x3eadc63d	0.33940306
185	0x3d9cab5b	0.07649871
186	0xbe6ba8ad	-0.23013563
187	0x3d240b79	0.040050004
188	0x3d61f645	0.0551665
189	0xbe676cef	-0.22600149
190	0x3ba3de6b	0.0050008795
191	0xbdb803f6	-0.089851305
192	0x3bcd6225	0.0062678033
193	0xbdceca9e	-0.1009724
194	0x3d7ff6d3	0.06249125
195	0x3e1a1ca6	0.15049991
196	0x3e0b4259	0.13599528
197	0x3dc863de	0.09784673
198	0xbd46492e	-0.048409633
199	0xbe6e1867	-0.23251496
200	0x3e3a6072	0.18200853
201	0x3cfdec8c	0.030996583
202	0xbe0456d8	-0.12923753
203	0x3d3bf0ec	0.045884058
204	0x3db81a3f	0.08989381
205	0x3cfa3540	0.03054297
206	0xbb618ad9	-0.0034415035
207	0x3cc74d9d	0.024329001
208	0xbe3615af	-0.17781709
209	0x3d0b3d4b	0.033994
210	0xbde290da	-0.110627845
211	0xbe504ed1	-0.20342566
212	0xbe2b2533	-0.16713409
213	0xbd97f62c	-0.074200004
214	0xbdadf7b6	-0.08494513
215	0x3e188749	0.14895357
216	0xbcd3842b	-0.025819859
217	0x3d97d7b8	0.07414192
218	0xbe3f6272	-0.18689898
219	0xbdb85e83	-0.09002402
220	0xbe34c739	-0.17654122
221	0x3df20d21	0.118189104
222	0xbdec23fd	-0.11530302
223	0xbc46d56e	-0.012135847
224	0xbdcf8b3c	-0.10133979
225	0xbd63f728	-0.05565563
226	0xbcf2a13e	-0.029617902
227	0x3d6edaa8	0.058313996
228	0xbe2774fe	-0.16353223
229	0x3e767846	0.24069318
230	0x3d251865	0.040306468
231	0xbe205177	-0.15656076
232	0x3d948b8f	0.07253181
233	0xbda93590	-0.08262169
234	0x3c659149	0.014011689
235	0x3c8b3877	0.016994698
236	0x3dc77a6d	0.09740148
237	0xbddc1696	-0.107464954
238	0xbe468ec4	-0.19390398
239	0xbdc824d0	-0.097726464
240	0x3d2c3884	0.042046085
241	0xbda1fe3a	-0.07909818
242	0x3c8da9be	0.017292853
243	0x3df527fa	0.119705155
244	0xbe413c95	-0.18870766
245	0xbe3ade1c	-0.1824879
246	0xbe27c9f6	-0.16385636
247	0x3deff3eb	0.117164455
248	0x3ddd200a	0.107971266
249	0xbe501dd2	-0.20323876
250	0xbe9460e4	-0.28980172
251	0x3b84e395	0.00405545
252	0x3e4ed5ec	0.20198792
253	0xbdfa4456	-0.12220065
254	0xbddb6278	-0.10712141
255	0xbd0d1514	-0.03444393

actor.preprocess.model.model.0.bias f4 [64]
0	0xbd5f2105	-0.05447485
1	0xbd1d57a3	-0.038413655
2	0xbd19c33e	-0.037539713
3	0xbcca9177	-0.024727566
4	0xbcc92f02	-0.024558548
5	0xbdadc27c	-0.084843606
6	0xbc90afc3	-0.017661935
7	0xbcd790e7	-0.026314212
8	0xbd7e951b	-0.062153917
9	0xbd53b8ef	-0.05169004
10	0xbd885706	-0.066572234
11	0xbd508505	-0.050908107
12	0xbb1d7736	-0.0024027354
13	0xbd48c370	-0.04901451
14	0xbd4d980b	-0.050193828
15	0xbd45a582	-0.048253544
16	0x3ceb7c9f	0.028745947
17	0xbd3ad7d7	-0.045615997
18	0xbd3c3120	-0.045945287
19	0xbd4c7cb7	-0.049923625
20	0xbd0c3f6b	-0.034240168
21	0xbcfbff80	-0.03076148
22	0xbd35b088	-0.044357806
23	0xbcb27651	-0.021784933
24	0xbc911e5d	-0.017714674
25	0xbceacfcc	-0.028663538
26	0xbbc0412b	-0.0058671436
27	0xbd4a58aa	-0.049400963
28	0x3adda03e	0.0016908718
29	0xbd22fbf4	-0.039791062
30	0xbd974b78	-0.073874414
31	0xbba8cecc	-0.0051516052
32	0xbd478744	-0.048712984
33	0xbcc4a331	-0.024003597
34	0xbd119030	-0.0355379
35	0xbd5a3948	-0.053277284
36	0xbce3bbd8	-0.027799532
37	0xbd488bfb	-0.04896162
38	0xbdb2a9e4	-0.0872381
39	0xbcb56bdb	-0.022146156
40	0xbcbc381c	-0.022975974
41	0xbd92362f	-0.07139241
42	0xbd5166a1	-0.051123265
43	0xbd872f4b	-0.06600817
44	0xbd68e09d	-0.056854833
45	0xbca755c2	-0.020426635
46	0xbc8eb7c3	-0.017421609
47	0xbcc1a5ad	-0.02363857
48	0xbd38afa6	-0.045089386
49	0xbc173767	-0.009229518
50	0xbd39f1df	-0.045396682
51	0xbc9e822f	-0.019349186
52	0xbd7abce3	-0.061215293
53	0xbd0e1638	-0.03468916
54	0xbd543ff2	-0.051818796
55	0xbcbf74da	-0.023371149
56	0xbd5806bf	-0.05274081
57	0x3cb9606a	0.022628982
58	0xbcbcdf8b	-0.023055812
59	0xbce33b8c	-0.027738355
60	0xbcf6cddc	-0.030127458
61	0xbde14ea2	-0.11001326
62	0xbcfb1558	-0.030649826
63	0xbcdb9b2f	-0.026807396

actor.preprocess.model.model.2.weight f4 [64, 64]
0	0xbdf4570a	-0.11930664
1	0x3d5fdd73	0.05465455
2	0x3da59e12	0.0808679
3	0x3e3e8d59	0.18608607
4	0xbc919cce	-0.017774966
5	0xbdb06488	-0.08612925
6	0x3c870050	0.016479641
7	0x39f333a5	0.0004638705
8	0x3da3ebe3	0.08003976
9	0xbe6ac8e1	-0.22928192
10	0xbe2c37f6	-0.16818222
11	0x3dd3d12f	0.10342633
12	0x3e286f07	0.16448604
13	0xbe10da52	-0.14145783
14	0x3dbed042	0.09317066
15	0xbdcc9bb5	-0.09990636
16	0x3e5aaed0	0.21355748
17	0xbcb54061	-0.022125425
18	0x3d08caa1	0.033396367
19	0xbe1d9b4b	-0.15391271
20	0x3e330833	0.17483597
21	0xbd86b544	-0.065775424
22	0x3e93878c	0.28814352
23	0xbd7d35bc	-0.061818823
24	0x3d71deac	0.059050247
25	0x3e0bd3e1	0.13655044
26	0xbd5f4b93	-0.054515433
27	0xbd50b900	-0.05095768
28	0x3e0259c8	0.12729561
29	0x3abf6f7c	0.0014605368
30	0x3e7ecb23	0.24882178
31	0xbcb6d162	-0.022316638
32	0xbe222ffe	-0.1583862
33	0xbe114bf5	-0.14189132
34	0x3de670bc	0.11251971
35	0xbe00a514	-0.12562972
36	0x3dc36898	0.09541434
37	0xbcbd1fac	-0.023086391
38	0x3d59c749	0.05316857
39	0xbe490a14	-0.19632751
40	0xba6c8360	-0.0009022262
41	0xbd316130	-0.043305576
42	0x3d91582b	0.07096895
43	0x3dbac887	0.09120279
44	0x3c2d16a6	0.010564482
45	0x3d8e1a90	0.0693866
46	0xbd4e7994	-0.050408915
47	0xbbacbb40	-0.0052713454
48	0xbe7ba31b	-0.24573939
49	0x3da6f527	0.08152228
50	0xbbe117dd	-0.0068693
51	0xbdb471ad	-0.088107444
52	0x3de0b85f	0.10972666
53	0x3dabc91f	0.0838797
54	0xbde12c80	-0.10994816
55	0x3ce16d55	0.027517954
56	0x3e3eeeea	0.18645826
57	0x3e83787b	0.25677857
58	0x3dbba747	0.09162765
59	0x3e280899	0.1640953
60	0x3e0a0b6e	0.13480923
61	0x3d37d60f	0.044881877
62	0x3d6d74c9	0.057972703
63	0x3ddfd0f9	0.1092853
64	0x3d99508d	0.07486067
65	0x3e36e117	0.17859302
66	0xbcb2e50d	-0.021837736
67	0xbd9c894b	-0.07643374
68	0x3c0ed517	0.008717797
69	0x3e477e4f	0.19481777
70	0x3e83079b	0.2559174
71	0xbd753a3c	-0.05986999
72	0xbd376601	-0.044775013
73	0x3b7f9bc7	0.0039002763
74	0xbd350d54	-0.044202164
75	0xbd9588db	-0.07301494
76	0x3e05b383	0.1305676
77	0xbc6fcb85	-0.014635925
78	0x3d432f44	0.047652498
79	0x3e542fe6	0.20721397
80	0xbd08a0d1	-0.03335649
81	0x3d8b126c	0.06790623
82	0xbe08d81d	-0.1336369
83	0xbe055bfb	-0.13023369
84	0xbe0873d3	-0.13325433
85	0xbd18e58d	-0.03732829
86	0x3dfa00a1	0.12207151
87	0xbd5b9f40	-0.05361867
88	0xbd8170b0	-0.063203216
89	0xbcd1ab9e	-0.025594529
90	0xbe8068dd	-0.25080004
91	0x3e121c00	0.14268494
92	0xbe7fdaed	-0.24985857
93	0xbccb25b3	-0.02479825
94	0x3d8a25ed	0.06745515
95	0x3de9e5fc	0.11420819
96	0xbe75db60	-0.24009466
97	0x3bfae6a3	0.0076568886
98	0xbce519e7	-0.027966453
99	0xbdf82b54	-0.12117639
100	0x3db99b0b	0.09062775
101	0x3da4e72e	0.080519065
102	0xbd2057a5	-0.039146084
103	0x3e6b1c0f	0.22959922
104	0x3dc1be52	0.09460129
105	0x3c28ec17	0.010310194
106	0xbe14cbdc	-0.14530891
107	0x3ea400af	0.32031772
108	0x3dcef4b2	0.10105266
109	0x3e1ab8a3	0.15109496
110	0x3c23b683	0.009992245
111	0x3c455c29	0.0120458985
112	0xbc0f1e1c	-0.008735206
113	0xbdaa8993	-0.083270214
114	0x3e03b261	0.12861015
115	0x3d238a89	0.03992704
116	0x3def6ad0	0.11690295
117	0x3da969b7	0.08272117
118	0x3e301eac	0.171992
119	0xbdd7948f	-0.10526382
120	0xbd5c0924	-0.053719655
121	0xbe04bc3c	-0.1296243
122	0xbd81f8c2	-0.06346275
123	0x3e0ec5c2	0.13942626
124	0x3df0f159	0.117647834
125	0x3d7582ed	0.059939314
126	0x3d5440a7	0.05181947
127	0xbd935441	-0.071938045
128	0x3d434ca9	0.04768053
129	0x3c3b2d93	0.01142444
130	0x3d19b417	0.037525263
131	0xbdea4351	-0.11438621
132	0xbd1fd568	-0.03902188
133	0xbcf0325b	-0.029320886
134	0x3da932dd	0.082616545
135	0x3e25bf67	0.16186295
136	0xbd96d557	-0.0736491
137	0x3d2a1383	0.041522514
138	0xbc327154	-0.010891277
139	0x3d0c2c9f	0.03422224
140	0xbd08d32e	-0.03340452
141	0xbd5d0250	-0.053957283
142	0xbdfdf87d	-0.12400911
143	0x3dfbf0ec	0.123018116
144	0xbbddb870	-0.0067663714
145	0x3da9963a	0.082806066
146	0x3e6e359e	0.23262641
147	0x3e27635a	0.16346493
148	0x3df5c909	0.12001235
149	0xbda4e96e	-0.08052336
150	0xbd382b0c	-0.044962928
151	0xbc82e420	-0.01597792
152	0x3e14513d	0.14484115
153	0xbe570737	-0.20998846
154	0xbeb66966	-0.35627288
155	0x3ca1389d	0.019680316
156	0xbe2a07e2	-0.1660457
157	0x3d040d93	0.032239508
158	0xbb9b5e73	-0.004741484
159	0x3e3807b2	0.17971686
160	0xbd81fb0e	-0.06346713
161	0xbc9d96f4	-0.01923702
162	0x3e425f9d	0.18981786
163	0x3c99904f	0.01874557
164	0xbd910fd9	-0.07083101
165	0x3d2af489	0.041737113
166	0x3e19a3ec	0.15003937
167	0xbdeaa729	-0.114576645
168	0x3dd6f2bf	0.10495519
169	0xbb89f479	-0.0042100516
170	0x3e1a7eb4	0.15087396
171	0x3c240171	0.010010109
172	0x3c69460e	0.014237894
173	0xbe5a7037	-0.21331869
174	0x3e342771	0.1759317
175	0x3d91ed64	0.07125357
176	0xbe0704fe	-0.13185498
177	0xbec63f28	-0.3872006
178	0x3e102de6	0.14080009
179	0xbbe16ed6	-0.0068796678
180	0xbd89b4e2	-0.06723954
181	0x3d70beaa	0.05877558
182	0x3da687e8	0.08131391
183	0x3e2f139e	0.17097327
184	0x3e36a7bd	0.17837425
185	0x3e5b60ca	0.21423641
186	0x3dafa6e1	0.085767515
187	0xbe3002e6	-0.17188606
188	0xbe13f41d	-0.1444859
189	0xbe10f930	-0.14157557
190	0xbddc27e1	-0.10749794
191	0xbc76d943	-0.015066448
192	0xbc10a93a	-0.008829409
193	0xbd944531	-0.0723976
194	0xbe4c7340	-0.1996584
195	0xbdd953e1	-0.10611702
196	0x3dcdf3a2	0.10056235
197	0xbbdf636c	-0.006817272
198	0x3dedd701	0.11613274
199	0x3df92563	0.12165334
200	0x3d728a4a	0.059213914
201	0x3c0fdb86	0.008780366
202	0xbdbb1cd2	-0.091363564
203	0x3d77b8bd	0.060478915
204	0xbe032896	-0.12808451
205	0x3cfd4b64	0.030919738
206	0xbe2da9a6	-0.16959247
207	0x3d4b647a	0.04965637
208	0x3d9e63b8	0.077338636
209	0x3bd75e6b	0.006572535
210	0xbe027eed	-0.12743731
211	0xbdac73a4	-0.08420494
212	0x3eb3abaa	0.35091907
213	0x3cfab8cd	0.030605698
214	0xbce0af45	-0.027427325
215	0x3c6fa06c	0.01462565
216	0xbca3aa97	-0.019978805
217	0x3ccb4b44	0.024816163
218	0xbd2d0bdb	-0.042247634
219	0xbe654d18	-0.2239269
220	0x3e164daa	0.14678064
221	0x3e1c2add	0.15250726
222	0xbe274495	-0.16334756
223	0x3e6597dc	0.22421211
224	0xbd57c801	-0.052680973
225	0xbc9a89cb	-0.018864533
226	0x3d328f03	0.043593418
227	0xbcf8fb3e	-0.03039324
228	0x3e31b531	0.17354275
229	0x3dc5c22d	0.09656177
230	0xbe69ef94	-0.22845298
231	0xbdc5ab00	-0.09651756
232	0xbdfe0f2d	-0.12405238
233	0xbda3b2df	-0.07993101
234	0x3d22e654	0.03977044
235	0x3dee4553	0.11634316
236	0xbe9bb8f4	-0.30414546
237	0x3e6d66ce	0.23183748
238	0x3dc45c20	0.09587884
239	0xbddd3e13	-0.10802855
240	0x3c0db2ba	0.008648569
241	0x3c8b3e11	0.016997369
242	0xbdf087d1	-0.11744655
243	0x3bdce3cc	0.0067410227
244	0xbe16acc3	-0.14714341
245	0x3dfbf26d	0.123020984
246	0x3d75e4e0	0.060032725
247	0xbde6faf9	-0.11278338
248	0x3cad37e9	0.021144824
249	0xbdc414ab	-0.095742546
250	0xbe7ac895	-0.24490578
251	0x3e029527	0.1275221
252	0xbe4b7e34	-0.19872361
253	0xbde53a4e	-0.11192761
254	0xbcf2c5c7	-0.029635323
255	0x3cb1df63	0.021712964

actor.preprocess.model.model.2.bias f4 [64]
0	0xbc214fa8	-0.009845652
1	0xbca550ad	-0.02018007
2	0x3c3cdc31	0.011527107
3	0xbc121999	-0.008917236
4	0xbd10421d	-0.0352193
5	0xbc685c6b	-0.01418219
6	0xbc7a723c	-0.015286025
7	0xbcd35286	-0.025796186
8	0xbcff85e9	-0.031191783
9	0x3d11a3b8	0.035556525
10	0xbb2b0243	-0.0026093877
11	0xbcf56ecf	-0.029960064
12	0x3bd38abf	0.006455749
13	0x3b997db6	0.0046841754
14	0xbc90d414	-0.017679252
15	0xbcdd26d7	-0.02699606
16	0xbcebc422	-0.028780047
17	0xbbba81e9	-0.005691756
18	0xbcab7edd	-0.020934517
19	0x00000000	0.0
20	0xbd0904fd	-0.033452023
21	0xbd19a717	-0.037512865
22	0xbccd3b91	-0.025052818
23	0xbcc86cfc	-0.02446603
24	0xbc3818f2	-0.011236416
25	0xbd750af5	-0.059824903
26	0xbd2d0cc7	-0.042248514
27	0xbd088107	-0.033326175
28	0xbca2fadb	-0.019895008
29	0xbc04dc2f	-0.0081091365
30	0xbd00f804	-0.031486526
31	0xbccb88b8	-0.024845466
32	0x3bc92a1f	0.0061390544
33	0xbd064267	-0.03277817
34	0xbd060981	-0.032723907
35	0xbc43b29c	-0.011944439
36	0xbd0aa02d	-0.03384416
37	0xbcb629d0	-0.022236735
38	0xbc45df37	-0.012077144
39	0xbaff75b0	-0.001949003
40	0x3cc797d1	0.024364384
41	0xbc633e9e	-0.01386991
42	0xbccb6825	-0.024829933
43	0xbcc61f94	-0.02418498
44	0xbd192f07	-0.037398364
45	0xbc7b703c	-0.015346583
46	0xbc8f98ca	-0.01752891
47	0xbc3f5ade	-0.011679379
48	0xbcee8e11	-0.029120477
49	0xbcb5713e	-0.022148725
50	0xbc33bc3f	-0.010970174
51	0x00000000	0.0
52	0xbd187f53	-0.0372308
53	0x3bd34b4e	0.006448186
54	0xbc2a4dbe	-0.010394512
55	0xbce0af8b	-0.027427455
56	0xbc9f1bbb	-0.019422403
57	0xbce81691	-0.028331073
58	0xbd1f24aa	-0.038853325
59	0xbc4df27c	-0.01257002
60	0xbca69362	-0.02033395
61	0xbd30b03f	-0.04313683
62	0xbc61d574	-0.013783801
63	0xbc57f286	-0.013180381

actor.mu.model.0.weight f4 [3, 64]
0	0x3d46440d	0.048404742
1	0xbdf150bd	-0.11782978
2	0x3d685c70	0.05672878
3	0x3b153923	0.0022769652
4	0x3df7b396	0.120948
5	0xbe27b275	-0.1637667
6	0x3dacd85f	0.08439707
7	0x3c089831	0.0083370665
8	0xbde52734	-0.11189118
9	0x3e1d922b	0.1538779
10	0x3da0c1aa	0.078494385
11	0xbdd7e22e	-0.10541187
12	0x3dac5890	0.084153295
13	0x3de8ae18	0.11361331
14	0xbdb67f73	-0.08911028
15	0xbdcfddf7	-0.10149758
16	0xbdba7b57	-0.091055565
17	0x3ddf9f74	0.10919085
18	0xbd85fa64	-0.06541899
19	0x3e02911b	0.12750666
20	0xbdb3f08d	-0.08786116
21	0xbd92cc65	-0.071678914
22	0x3d0db533	0.034596633
23	0x3dbb0f84	0.09133819
24	0x3deaae08	0.11458975
25	0x3d89abfb	0.06722256
26	0x3c41afb7	0.011821679
27	0x3d7165f0	0.058935106
28	0xbdb4e31b	-0.088323794
29	0xbe637bbd	-0.22215171
30	0xbd1e90f7	-0.038712468
31	0x3cf34080	0.029693842
32	0xbd5e79f4	-0.054315522
33	0xbc0b97e7	-0.008520103
34	0x3d9db873	0.077011965
35	0x3d89b4d2	0.06723942
36	0x3ce2a34d	0.027665759
37	0x3e12bd2a	0.14329973
38	0xbd9cbf2d	-0.076536514
39	0x3e6081b7	0.21924482
40	0x3e838328	0.25686002
41	0x3d403063	0.046921145
42	0x3be6234b	0.00702325
43	0xbca03e92	-0.019561086
44	0xbe0a84e3	-0.13527255
45	0x3df5ad63	0.119959615
46	0x3e00b162	0.12567666
47	0xbe15bdba	-0.14623156
48	0xbd26fa10	-0.040765822
49	0x3d9d593d	0.076830365
50	0xbe1e5f02	-0.1546593
51	0xbc61cd80	-0.013781905
52	0xbcde571a	-0.027141143
53	0x3ddd6bcf	0.108115785
54	0x3e5470a3	0.20746092
55	0xbe35e5da	-0.17763463
56	0x3e32e068	0.17468417
57	0x3d32c415	0.04364403
58	0x3c8807af	0.016605226
59	0xbdf3e4fb	-0.11908909
60	0x3dc57bf8	0.09642786
61	0xbbb69761	-0.005572245
62	0xbdb0cbe9	-0.08632643
63	0xbe576370	-0.21034026
64	0xbd41f1e2	-0.047349818
65	0x3bb77016	0.0055980785
66	0x3e16eb44	0.14738184
67	0x3b2b42ae	0.0026132273
68	0xbdcf6455	-0.10126559
69	0x3d4a8468	0.04944268
70	0x3e35e08e	0.17761442
71	0x3e909cdf	0.28244683
72	0xbccf913d	-0.02533781
73	0x3d96105a	0.073273376
74	0x3cb3e2af	0.021958677
75	0x3cf28a07	0.029606832
76	0x3b9a8bf0	0.004716389
77	0x3c44bfae	0.012008591
78	0xbd0086af	-0.031378444
79	0x3d951070	0.07278526
80	0xbea574fb	-0.32315812
81	0xbdaf3863	-0.08555677
82	0x3d9559e2	0.072925344
83	0xbd787435	-0.0606577
84	0x3cce01bd	0.025147313
85	0x3d7123db	0.058872085
86	0x3bd9e6ae	0.0066498136
87	0xbd2874bf	-0.041126963
88	0xbdb86e40	-0.090054035
89	0x3e43084e	0.19046137
90	0xbd1a4d27	-0.037671234
91	0x3cfbae2b	0.030722698
92	0xbd493a4e	-0.04912787
93	0xbcf674ef	-0.030085055
94	0x3d13a88e	0.03604942
95	0xbca1ea10	-0.01976493
96	0xbd698d9e	-0.057019822
97	0xbc7a6284	-0.015282277
98	0x3dab4387	0.08362489
99	0x3bc3bbae	0.005973301
100	0x3c950be7	0.018194152
101	0xbe1c1f7f	-0.1524639
102	0xbd66a502	-0.056309707
103	0xbd877b1c	-0.06615278
104	0x3deb6e4e	0.11495648
105	0xbd7aaf6e	-0.06120246
106	0x3ba14696	0.0049217446
107	0x3e072f53	0.13201647
108	0x3d990f21	0.07473589
109	0x3c525afa	0.012839073
110	0x3e3a9c3b	0.1822366
111	0xbd56d78c	-0.052451655
112	0x3e5e8313	0.21729688
113	0xbe49b8f9	-0.19699468
114	0xbd2ec53b	-0.042668562
115	0x3e3bdcc4	0.18345934
116	0xbccfabc5	-0.02535046
117	0x3b87cb5c	0.0041441154
118	0xbd033c55	-0.03203996
119	0xbe0c2a7b	-0.1368808
120	0xbe09e55c	-0.134664
121	0x3d55476c	0.052070066
122	0xbdb1417b	-0.086550675
123	0x3ddb41bd	0.10705898
124	0xbe7a75d6	-0.24459013
125	0x3df074d9	0.11741037
126	0x3cdb3dbe	0.02676284
127	0xbd0fb17f	-0.035081383
128	0x3d004e58	0.031324714
129	0xbcb4ad7f	-0.022055386
130	0x3c7cfeae	0.01544158
131	0x3b88a253	0.004169741
132	0xbcec9f97	-0.028884692
133	0x3dda664f	0.10664045
134	0x3b977224	0.004621761
135	0xbd5dab23	-0.054118287
136	0xbd3d078d	-0.04614978
137	0x3d87237c	0.06598565
138	0x3e436a5c	0.19083542
139	0xbd541670	-0.05177921
140	0xbdd07279	-0.10178084
141	0xbe493fac	-0.19653195
142	0x3d20cf9b	0.039260488
143	0x3c70d2b1	0.01469867
144	0x3d9be07b	0.076111756
145	0xbcc3abb6	-0.02388559
146	0xbd6f583f	-0.058433767
147	0xbe206611	-0.15663935
148	0x3c525286	0.012837058
149	0xbe1b6a5e	-0.15177295
150	0x3cd37af0	0.025815457
151	0x3d245a3a	0.04012511
152	0x3e5f630a	0.21815124
153	0x3e80ae16	0.25132817
154	0x3ddc239c	0.107489794
155	0xbc8a7e05	-0.016905794
156	0xbe553050	-0.20819211
157	0xbc0bccc3	-0.008532706
158	0x3bb6f1c2	0.005583019
159	0x3decaec2	0.1155677
160	0xbdff4850	-0.124649644
161	0xbccc09ca	-0.024907012
162	0xbdb396ff	-0.087690346
163	0xbd528fdc	-0.051406726
164	0x3d809ab8	0.0627951
165	0x3d1432e8	0.03618136
166	0xbde78c1b	-0.1130602
167	0xbdddb7e4	-0.1082609
168	0xbe6379ba	-0.22214404
169	0xbcc04038	-0.023468122
170	0x3d48abcd	0.048991967
171	0x3cfd11e2	0.030892316
172	0x3cf824a5	0.030290911
173	0xbddf25c3	-0.10895874
174	0x3e15e303	0.1463738
175	0x3db8cbb3	0.090232275
176	0xbd973de9	-0.07384855
177	0xbbb9ce8d	-0.0056703747
178	0xbde63223	-0.112400316
179	0xbdfd0599	-0.12354583
180	0xbc80a781	-0.015704872
181	0xbe08feb1	-0.13378407
182	0x3ca6401c	0.020294242
183	0xbdf9998c	-0.1218749
184	0x3d13dee8	0.03610125
185	0x3e08cb0f	0.1335871
186	0x3e151903	0.14560322
187	0x3d9d81e0	0.07690787
188	0xbca9295a	-0.0206496
189	0x3db27bff	0.08715057
190	0xbdbf8255	-0.09351031
191	0xbc886db1	-0.016653867

actor.mu.model.0.bias f4 [3]
0	0x3cecbd6c	0.028898917
1	0x3c42865c	0.011872854
2	0xbc6ccae6	-0.014452672

critic.preprocess.model.model.0.weight f4 [64, 9]
0	0xbeabce9c	-0.33556068
1	0x3e384641	0.1799555
2	0x3ea8b984	0.32954037
3	0xbe1bc21f	-0.1521077
4	0x3d03fe66	0.032225035
5	0x3d4b2392	0.04959447
6	0x3cc321ed	0.023819888
7	0xbcd06646	-0.025439393
8	0xbd998c74	-0.074974924
9	0x3ce9b16b	0.028526982
10	0x3c860b72	0.01636288
11	0x3de57dc2	0.11205627
12	0x3d9e894c	0.07741031
13	0xbda9d3ad	-0.08292327
14	0xbe5f5606	-0.21810159
15	0x3cdd70d9	0.027031349
16	0x3e29eb61	0.16593696
17	0x3da56ccc	0.08077392
18	0x3e14e370	0.14539886
19	0x3e16f7af	0.14742921
20	0x3e7d7a93	0.2475379
21	0xbbbb4624	-0.0057151485
22	0xbe280b48	-0.16410553
23	0x3e54994e	0.20761606
24	0x3e21acd5	0.15788586
25	0xbc71722d	-0.014736694
26	0x3e18f1c7	0.1493598
27	0xbdbf0b06	-0.093282744
28	0xbe0a35bc	-0.1349706
29	0x3d6a12e7	0.057146933
30	0x3ceaac21	0.02864653
31	0xbe0cedf0	-0.13762641
32	0xbd715ea7	-0.058928158
33	0xbe6561eb	-0.22400634
34	0x3d7a9e9d	0.06118642
35	0x3c57d661	0.0131736705
36	0xbcfb5783	-0.030681377
37	0x3cd2ba81	0.025723698
38	0xbd146e87	-0.03623822
39	0x3e869b20	0.26290226
40	0xbc8e7e74	-0.017394282
41	0xbd883a8f	-0.06651794
42	0x3dcecedd	0.1009805
43	0x3d6af925	0.05736651
44	0xbd38741b	-0.0450326
45	0x3c014645	0.007890289
46	0x3da13864	0.07872084
47	0xbe3a2541	-0.18178274
48	0xbd55b3b1	-0.05217332
49	0x3d33e486	0.04391911
50	0x3e5c36c0	0.2150526
51	0xbb0be4ff	-0.002134621
52	0xbe69ea2b	-0.22843234
53	0xbd9839bf	-0.07432889
54	0xbbff36fb	-0.0077885366
55	0xbe72e81d	-0.23721357
56	0x3e2b6bda	0.16740361
57	0x3e58fdcb	0.21190564
58	0xbe81d895	-0.2536055
59	0x3d342506	0.04398062
60	0x3d8c37ef	0.06846606
61	0x3b3542f3	0.0027658313
62	0xbde68ab5	-0.11256925
63	0x3dabc764	0.0838764
64	0x3e082f38	0.13299263
65	0x3e915aa0	0.28389454
66	0xbc875edf	-0.01652473
67	0xbdb0900b	-0.08621224
68	0xbe884e5e	-0.2662229
69	0xbe428fe3	-0.19000201
70	0x3d05b5f7	0.03264424
71	0x3ccaa285	0.024735698
72	0x3ce11111	0.027473958
73	0xbd53b382	-0.051684864
74	0x3e53da9f	0.20688866
75	0xbeaaffc6	-0.33398265
76	0x3e630085	0.22168167
77	0xbdb1a6ea	-0.086744145
78	0xbdf3d590	-0.11905968
79	0xbdc12d45	-0.094324626
80	0x3d8f207a	0.06988616
81	0x3cabceb4	0.020972587
82	0xbe219d12	-0.15782574
83	0x3e34e337	0.176648
84	0x3d13542f	0.035968956
85	0x3e551791	0.20809771
86	0xbd912b46	-0.07088332
87	0x3cec40f0	0.028839558
88	0x3da18e6c	0.07888493
89	0xbe0ce7ac	-0.13760251
90	0x3e1825fc	0.1485824
91	0xbd82f760	-0.06394839
92	0x3de49cae	0.11162697
93	0x3e117dc2	0.14208129
94	0x3b840b46	0.004029664
95	0x3cfd0a83	0.030888801
96	0x3e894410	0.2680974
97	0xbe86ae67	-0.26304933
98	0x3befa28d	0.0073130787
99	0xba7fa074	-0.00097513874
100	0xbeae4cba	-0.34042913
101	0x3e2f8ceb	0.171436
102	0xbe5d61a2	-0.21619275
103	0x3d9986e4	0.074964315
104	0xbafe6087	-0.001940743
105	0xbd9724aa	-0.0738004
106	0x3e480026	0.19531307
107	0x3e3c9979	0.1841792
108	0xbd8c105f	-0.0683906
109	0xbe05c4e6	-0.13063392
110	0x3e533b9b	0.20628206
111	0xbe96a14d	-0.29419938
112	0x3cbbebe0	0.022939622
113	0xbdc0bfee	-0.09411608
114	0x3dcd5861	0.100266226
115	0x3dec7d18	0.11547297
116	0x3c70f195	0.014706035
117	0x3e15d0e3	0.14630465
118	0xbe209a7d	-0.15683933
119	0x3e799914	0.24374801
120	0x3e80ab06	0.2513048
121	0xbe131177	-0.14362131
122	0xbd8f3413	-0.06992354
123	0x3e1623aa	0.14662042
124	0x3be3a51b	0.0069471723
125	0xbd82acb6	-0.06380598
126	0x3e37e6a6	0.17959079
127	0x3e091c60	0.1338973
128	0x3eec13a6	0.4610874
129	0xbe1f8811	-0.15579249
130	0xbca19cf9	-0.01972817
131	0xbe2a4ade	-0.16630122
132	0x3d1f68ec	0.03891842
133	0x3dc2c3cd	0.09510002
134	0xbd251759	-0.04030547
135	0x3ba59e0c	0.005054241
136	0xbe3b7eae	-0.18310043
137	0x3ec20ce7	0.3790047
138	0x3d8db5d1	0.06919444
139	0x3c622c19	0.013804459
140	0xba8df65c	-0.0010830867
141	0x3dc9d1fd	0.09854505
142	0xbd2cb272	-0.042162366
143	0x3dc97888	0.09837443
144	0x3e018a1d	0.12650342
145	0x3dae003e	0.0849614
146	0x3ef89e77	0.485584
147	0xbcba1d9e	-0.0227192
148	0x3d8be7a1	0.06831289
149	0x3e140324	0.14454323
150	0xbab61681	-0.0013892205
151	0x3e1f6bc2	0.1556845
152	0xbc62549e	-0.01381412
153	0x3dbab13a	0.091158345
154	0xbd4c9b87	-0.04995301
155	0x3de0a2d4	0.10968557
156	0xbe4706b5	-0.19436152
157	0x3e32b306	0.17451105
158	0xbc8febf1	-0.01756856
159	0xbdccdcf3	-0.1000308
160	0x3bea4046	0.0071487753
161	0xbd178b3c	-0.03699802
162	0x3e02993e	0.1275377
163	0xbe3e857b	-0.18605606
164	0x3ed6b2ce	0.41933292
165	0x3d92bcc4	0.071649104
166	0xbdb33338	-0.087500036
167	0xbdc1795b	-0.09446975
168	0xbc601562	-0.013676973
169	0xbe2bb03e	-0.1676645
170	0xbe102c7c	-0.1407947
171	0x3d64446e	0.055729322
172	0xbd2f5b9f	-0.042811986
173	0x3e8b3dc0	0.2719555
174	0xbbe33edb	-0.006934983
175	0xbe79e295	-0.2440284
176	0xbe7d0d45	-0.24712093
177	0x3d8fbdb8	0.07018608
178	0xbd83d028	-0.06436187
179	0xbdc0e19a	-0.0941803
180	0xbdef5d80	-0.116877556
181	0x3e13cb43	0.14433007
182	0x3cab65f9	0.020922648
183	0x3d839a72	0.064259425
184	0xbd2304b0	-0.039799392
185	0xbe05d22a	-0.13068452
186	0xbc260022	-0.010131868
187	0x3d872e27	0.066006
188	0xbd96f95c	-0.0737178
189	0xbd5a2729	-0.053260002
190	0x3e1ef0e7	0.15521584
191	0x3cfa6225	0.030564377
192	0xbcbb5797	-0.022868915
193	0xbdc06780	-0.09394741
194	0x3e59a936	0.21255955
195	0xbe4da37b	-0.20081894
196	0x3e2a84ea	0.16652265
197	0x3d9100d1	0.07080234
198	0x3e24669c	0.16054767
199	0xbd34f5dc	-0.044179782
200	0x3ee9a76e	0.4563555
201	0xbdf0866c	-0.11744389
202	0xbe55b186	-0.20868501
203	0xbd71f527	-0.059071686
204	0x3dd48679	0.10377211
205	0x3e432fda	0.19061223
206	0x3cd122fb	0.025529375
207	0x3e28cd44	0.16484553
208	0xbd7e6a5f	-0.062113162
209	0xbe5753f5	-0.21028121
210	0x3e0f3e22	0.13988546
211	0xbd9bbd7e	-0.07604502
212	0x3ecd2cf8	0.4007337
213	0x3d2eafac	0.042648003
214	0xbd877f72	-0.06616105
215	0x3e12a8b5	0.14322169
216	0xbd0f6651	-0.035009686
217	0xbe8a4ee9	-0.2701333
218	0x3e0c3672	0.13692644
219	0x3d91ac7c	0.07112977
220	0xbcc0bd0b	-0.023527643
221	0xbdc6ae21	-0.09701181
222	0x3e2bc9ed	0.16776247
223	0x3df8a30d	0.121404745
224	0xbb897e4a	-0.004195963
225	0x3cca4f3b	0.024695983
226	0x3c155636	0.009114793
227	0x3d930238	0.071781576
228	0x3d897c07	0.067131095
229	0x3e5adbd1	0.21372916
230	0xbd76b44a	-0.06023053
231	0x3e6dfe37	0.23241507
232	0xbc9ccdd3	-0.019141113
233	0xbe9a91b8	-0.301893
234	0x3d6a4a01	0.057199482
235	0xbe2177b9	-0.15768327
236	0x3e9eb76a	0.3099931
237	0xbdf6842b	-0.12036928
238	0x3d7a4e16	0.061109625
239	0x3dfb29d7	0.1226384
240	0xbdee2d0e	-0.11629687
241	0xbeaabc95	-0.33347002
242	0xbdeba9e6	-0.11507015
243	0xbd45b16f	-0.048264917
244	0xbddf415f	-0.109011404
245	0x3e59933b	0.2124757
246	0x3d3ab2c3	0.045580637
247	0xbc8d5308	-0.017251506
248	0x3c3b6b0b	0.011439095
249	0x3cff5aaa	0.031171162
250	0x3e239618	0.15975225
251	0xbeaf5fcc	-0.34252775
252	0xbcc6127c	-0.024178736
253	0xbccbb277	-0.024865372
254	0x3dd45461	0.103676565
255	0xbe2535b7	-0.16133772

critic.preprocess.model.model.0.bias f4 [64]
0	0xbd751a66	-0.05983963
1	0xbd59f54d	-0.053212453
2	0xbcf27ee6	-0.029601526
3	0xbd6d4750	-0.057929337
4	0x3d37404b	0.04473905
5	0x3d651187	0.05592492
6	0x3d661a1c	0.056177244
7	0xbd9ef7f9	-0.07762141
8	0x3d834eed	0.06411538
9	0x3c2632e9	0.010143974
10	0x3d070ca0	0.032971025
11	0xbd09a075	-0.03360029
12	0x3d38308f	0.044968184
13	0x3cf340ad	0.029693926
14	0x3d8088f9	0.062761255
15	0xbb4bfbb5	-0.003112537
16	0x3d1d7e1f	0.038450357
17	0x3cd22a93	0.025655067
18	0x3d86882e	0.06568943
19	0x3d5b1877	0.05349013
20	0xbdb4fcbc	-0.08837268
21	0x3d641a6c	0.05568926
22	0x3d8827d4	0.066482216
23	0x3c715f0c	0.014732134
24	0xbc83593e	-0.016033765
25	0x3ccbf18a	0.024895448
26	0xbc6f3100	-0.014599085
27	0xbd254e3d	-0.040357817
28	0xbc7d720d	-0.015469086
29	0x3cd1a868	0.025592998
30	0x3e19d0ba	0.15021029
31	0xbd2eec02	-0.042705543
32	0x3c0fbc56	0.00877293
33	0x3cd5fc9b	0.026121428
34	0xbdaa1539	-0.08304829
35	0x3d2ec22c	0.042665645
36	0xbd4b33b0	-0.04960984
37	0xbcce415d	-0.025177652
38	0x3c439c82	0.01193917
39	0xbd1cc3e5	-0.038272757
40	0x3d046df2	0.032331415
41	0x3d2a5d58	0.041592926
42	0x3c1f024b	0.0097051365
43	0x3ccd7cff	0.025084017
44	0x3d2c9fef	0.042144712
45	0x3d2eef1e	0.04270851
46	0x3c2888ea	0.010286549
47	0x3d0ef2ca	0.03489951
48	0x3b564c3e	0.0032699252
49	0x3da9465f	0.08265375
50	0x3d103938	0.035210818
51	0xbb02274a	-0.0019859844
52	0xbd770180	-0.060304165
53	0x3cfa4b08	0.030553356
54	0x3d2e4a0f	0.042551097
55	0x3cfed673	0.031108117
56	0xbc7636a6	-0.015027678
57	0x3d2cf0fe	0.042222016
58	0xbd0b3aff	-0.03399181
59	0x3d0f74dd	0.03502356
60	0x3bb44bb0	0.0055021867
61	0xba9222bb	-0.0011149267
62	0xbd8bddb9	-0.068293996
63	0xbcbcc810	-0.023044616

critic.preprocess.model.model.2.weight f4 [64, 64]
0	0x3dd5c761	0.10438419
1	0x3d8dacf2	0.06917752
2	0x3e540201	0.2070389
3	0xbdcbf134	-0.09958115
4	0x3de72bb4	0.112876326
5	0xbdb4d644	-0.088299304
6	0x3d53b2df	0.051684257
7	0x3da92d40	0.08260584
8	0x3d200ec6	0.03907659
9	0x3de829dc	0.11336109
10	0x3d353ae1	0.044245604
11	0x3daa8a13	0.08327117
12	0x3dd2072d	0.10255275
13	0xbe002d8f	-0.12517379
14	0x3e27388a	0.16330162
15	0xbe00395a	-0.12521878
16	0xbdf4d08e	-0.11953841
17	0xbe1f66d6	-0.15566573
18	0x3e1706fd	0.1474876
19	0x3d18956c	0.037251875
20	0x3e89625f	0.26832864
21	0x3e11cf90	0.14239335
22	0x3ea0420e	0.31300396
23	0x3e65a41d	0.22425885
24	0x3cc5f37c	0.024163954
25	0xbd7e11dd	-0.062028755
26	0x3e3b84fc	0.18312448
27	0xbe816b88	-0.25277352
28	0x3b5fa6be	0.0034126486
29	0x3daf6b76	0.085654184
30	0x3ee57f20	0.4482355
31	0x3d397ebc	0.04528688
32	0x3ad51721	0.0016257503
33	0x3e80fee5	0.2519447
34	0xbdd18ac7	-0.10231548
35	0x3d8040d7	0.06262367
36	0x3e80a3d9	0.25125006
37	0xbd9fe936	-0.07808153
38	0x3d276835	0.040870864
39	0x3e34f128	0.17670119
40	0x3e43051b	0.19044916
41	0x3c2681d9	0.010162794
42	0x3d195486	0.037434123
43	0x3c744e08	0.014911182
44	0x3e1f45ff	0.15554045
45	0x3bb5d2e3	0.0055488213
46	0x3e78d39e	0.24299476
47	0x3e74e61b	0.23915903
48	0x3ba4f83b	0.005034474
49	0x3e2a09fe	0.16605374
50	0x3cbcc924	0.02304513
51	0x3dc38bf2	0.09548177
52	0x3d0164e6	0.031590365
53	0x3ca3408f	0.019928245
54	0x3d7f4bb8	0.06232807
55	0xbdd4d9ae	-0.103930816
56	0x3e0a61cb	0.13513868
57	0x3e8606fa	0.26177198
58	0x3d119d46	0.03555038
59	0x3e113349	0.1417972
60	0xbd4d4e76	-0.050123654
61	0x3e00be7c	0.12572664
62	0x3e7db6ba	0.24776736
63	0xbc2b673a	-0.010461623
64	0xbe0866c6	-0.13320455
65	0xbad1ff9e	-0.0016021614
66	0x3d60721b	0.05479632
67	0x3e1532d9	0.14570178
68	0x3c6a1d78	0.014289252
69	0x3e377235	0.1791466
70	0xbd2bbaa1	-0.04192603
71	0xbd49e3d8	-0.049289554
72	0x3cf8ed20	0.030386508
73	0xbe0ba739	-0.13638009
74	0xbd291a45	-0.04128482
75	0xbdcff112	-0.101534024
76	0x3dae3541	0.08506251
77	0xbd00afc9	-0.03141764
78	0xbe2a9d4d	-0.16661568
79	0x3daae916	0.08345239
80	0xbd9b2e34	-0.07577172
81	0xbe0a544d	-0.1350872
82	0x3dd92312	0.10602392
83	0x3e8cd3e1	0.275054
84	0x3e3aed2a	0.18254533
85	0x3d17c623	0.037054192
86	0xbd0d5a69	-0.03451005
87	0xbdeee18f	-0.11664116
88	0x3d86ce83	0.06582358
89	0x3ea10f99	0.31457213
90	0x3e984ccd	0.29746094
91	0x3d02e853	0.031959843
92	0x3dae8108	0.085207045
93	0x3e0cc50a	0.1374704
94	0x3cc943f7	0.024568541
95	0x3ca0d395	0.01963214
96	0xbc4b9f21	-0.012428076
97	0xbdadd889	-0.084885664
98	0x3df2bf35	0.11852876
99	0x3cc637cf	0.024196533
100	0xbdb63681	-0.088971145
101	0xbd3cd0c1	-0.04609752
102	0xbd31c7d3	-0.043403458
103	0xbe0bbb90	-0.13645768
104	0x3e3901bb	0.18067066
105	0x3b7d8354	0.0038683014
106	0xbd84a85b	-0.06477424
107	0x3dfba180	0.12286663
108	0xbe2f42ac	-0.17115277
109	0x3e146f2e	0.14495537
110	0x3dca7f0f	0.09887516
111	0x3de7c3d9	0.11316652
112	0x3d8eb473	0.06968012
113	0xbcada07b	-0.021194687
114	0x3d9f29e9	0.077716656
115	0x3d893c2b	0.06700929
116	0x3dcade9c	0.099057406
117	0x3c5d0066	0.0134888645
118	0x3d6c2605	0.057653446
119	0xbe3c1a4f	-0.18369411
120	0x3e94f883	0.2909585
121	0xbdfcc7be	-0.12342785
122	0x3d8c2ed8	0.06844872
123	0xbd1ab8ae	-0.03777378
124	0xbe920a30	-0.28523397
125	0x3dae7cc5	0.08519892
126	0xbcc84181	-0.024445297
127	0x3db2a72d	0.087232925
128	0xbd924eab	-0.07143911
129	0xbddffa25	-0.10936383
130	0x3c535d3f	0.01290065
131	0xbe140c56	-0.14457831
132	0x3e329576	0.17439827
133	0xbde24905	-0.110490836
134	0x3e809c5b	0.2511929
135	0x3e070f6c	0.13189477
136	0xbe2b0ee9	-0.16704907
137	0x3dcc8d92	0.0998794
138	0x3dbd3672	0.092389
139	0x3cb72313	0.022355592
140	0xbe9d8293	-0.30763683
141	0x3d6ff7f3	0.058586072
142	0xbe05fde4	-0.13085133
143	0xbd01c7c9	-0.03168467
144	0x3d8e2c4e	0.06942044
145	0x3dfe259c	0.12409517
146	0xbcf865f9	-0.030322062
147	0xbe8cc14b	-0.2749122
148	0xbe9701fd	-0.29493704
149	0x3de5a6af	0.11213433
150	0xbe07f70e	-0.13277838
151	0xbd9a89de	-0.07545827
152	0x3ceb0630	0.028689474
153	0x3e84bd74	0.2592579
154	0x3d937976	0.07200901
155	0xbe36ce23	-0.17852072
156	0xbe46f7ee	-0.19430515
157	0xbd5d06fb	-0.053961735
158	0xbe0c453f	-0.1369829
159	0xbcc0576a	-0.023479182
160	0xbe13b89f	-0.14425896
161	0xbe04c0eb	-0.12964217
162	0xbe4dfc11	-0.20115687
163	0x3dae3770	0.085066676
164	0x3e1b4d87	0.15166293
165	0xbcc02ebd	-0.023459787
166	0xbcc2951c	-0.023752742
167	0xbd89fcb3	-0.06737652
168	0xbe13e1b3	-0.14441566
169	0x3d9cc5ee	0.076549396
170	0xbe9d6e7a	-0.3074835
171	0xbdf41513	-0.11918082
172	0xbdbd9574	-0.092570215
173	0x3d9ea890	0.077469945
174	0xbce139db	-0.027493408
175	0xbcebaa38	-0.02876769
176	0xbcf755f6	-0.030192357
177	0xbe8288ce	-0.25495
178	0x3cc352b2	0.023843143
179	0xbdcf868d	-0.101330854
180	0xbe0f2b7d	-0.13981433
181	0xbdff8f8d	-0.12478552
182	0xbd01ed55	-0.031720478
183	0xbd486fd9	-0.04893479
184	0x3e09971c	0.1343655
185	0x3dd62cfc	0.10457799
186	0xbe2facae	-0.17155716
187	0xbbeef4d1	-0.007292368
188	0xbd6c2f6b	-0.05766241
189	0x3e272ec8	0.1632644
190	0x3c40aeaf	0.011760398
191	0xbe17f927	-0.14841138
192	0x3e14f84e	0.14547846
193	0x3d4e917f	0.050431725
194	0xbe0a4a96	-0.13505015
195	0x3e102bb8	0.14079177
196	0x3e20a297	0.15687023
197	0x3e387db4	0.18016702
198	0xbd5b9c12	-0.053615637
199	0x3c69aa64	0.014261816
200	0x39c051c0	0.00036682002
201	0x3c268643	0.010163846
202	0x3cea2cbe	0.028585788
203	0x3e4a3e4d	0.19750328
204	0x3d0bb6c7	0.034109857
205	0xbe8a6596	-0.2703063
206	0x3adfbcf0	0.0017069858
207	0xbd40acf8	-0.047039956
208	0x3b7310d8	0.0037088897
209	0xbe17369d	-0.14766927
210	0xbe0c7334	-0.13715822
211	0xbddb9c76	-0.10723202
212	0xbdc8d898	-0.09806937
213	0x3d004b95	0.03132208
214	0xbdc9f71e	-0.09861587
215	0xbd4e1608	-0.05031398
216	0xbd6e1781	-0.058127884
217	0x3df6974c	0.12040576
218	0xbe192cef	-0.14958547
219	0x3c8cc1f6	0.017182332
220	0xbdf89a8b	-0.12138852
221	0xbdb2eee9	-0.08736975
222	0x3d92ef72	0.07174577
223	0xbd7819b1	-0.060571376
224	0xbe2581ff	-0.16162871
225	0x3d0104d7	0.031498756
226	0xbe614d39	-0.22002114
227	0x3d6590bb	0.05604623
228	0x3d8dcd08	0.06923872
229	0xbca9e21b	-0.020737698
230	0x3daf4f06	0.085599944
231	0xbea56880	-0.3230629
232	0xbe247aeb	-0.16062514
233	0x3d9d164d	0.07670269
234	0x3e6c9bf1	0.23106362
235	0xbe898a43	-0.26863298
236	0xbdf7183a	-0.12065168
237	0xbb924916	-0.004464279
238	0xbe5bd532	-0.21468046
239	0x3e420a7b	0.1894931
240	0x3da25fca	0.079284266
241	0x3cb5ae1e	0.022177752
242	0xbd93717a	-0.07199378
243	0xbdf429fb	-0.1192207
244	0x3c83c57c	0.016085379
245	0x3d4d7f31	0.050170127
246	0x3ba51636	0.005038048
247	0xbce7180d	-0.02820971
248	0xbe1cb89b	-0.15304796
249	0xbc206d08	-0.00979162
250	0xbdbd7fe8	-0.09252912
251	0x3e21b91e	0.15793273
252	0xbe5b1184	-0.213934
253	0xbccf5d45	-0.025313029
254	0xbe379ff0	-0.17932105
255	0x3c7bc1b2	0.015366005

critic.preprocess.model.model.2.bias f4 [64]
0	0x3db1c3d0	0.086799264
1	0x3ce46e5d	0.027884657
2	0xbc7dcf6a	-0.015491346
3	0x00000000	0.0
4	0xbd111322	-0.035418637
5	0xbd0d43de	-0.03448855
6	0x3d95799c	0.07298586
7	0xbd2e1481	-0.042500023
8	0xbc61a307	-0.013771779
9	0xbd3ed46b	-0.046589296
10	0x3d968f98	0.07351607
11	0xbbc33332	-0.0059570307
12	0x3d991d6e	0.074763164
13	0xbd2766fd	-0.0408697
14	0x3d9180c0	0.07104635
15	0x3d7e425d	0.062075008
16	0x3db009c0	0.0859561
17	0x3d36742b	0.04454438
18	0x3d6b3b46	0.057429574
19	0xbc97d4e8	-0.018534139
20	0x3d3805f7	0.044927564
21	0xbcdff5aa	-0.027338821
22	0x3d9dfedb	0.077146254
23	0x3d516126	0.05111804
24	0xbd61c3d8	-0.05511841
25	0x3cce6dce	0.025198843
26	0xbca601b8	-0.020264491
27	0x3dac7b44	0.084219486
28	0x3d539845	0.051658887
29	0xbc1d0d80	-0.009585738
30	0x3d89e66d	0.06733403
31	0xbc92a070	-0.017898768
32	0xbcf87385	-0.030328522
33	0x3d9720f2	0.07379331
34	0x3d2581ad	0.04040687
35	0xbba78c5b	-0.005113167
36	0xbc2df7b2	-0.010618137
37	0xbce4c2f4	-0.027924992
38	0xbd3506b2	-0.04419584
39	0x3d3f8870	0.046760976
40	0x3d9ec2b6	0.07751982
41	0x3d626a75	0.055277307
42	0x3ccb7bed	0.024839366
43	0xbc70a0ff	-0.014686822
44	0xbc80e7d3	-0.015735542
45	0x3d93164d	0.07181988
46	0xbcec609b	-0.028854659
47	0x3d76ff43	0.06030203
48	0x3da6ec44	0.08150533
49	0x3da03c69	0.07824022
50	0x3dad00d1	0.08447421
51	0x3da2ffc5	0.079589404
52	0xbcc57f50	-0.024108559
53	0x3d7b8319	0.06140432
54	0xbca91c9e	-0.020643529
55	0xbca23352	-0.019799862
56	0x3d9da361	0.07697178
57	0xbca2d2af	-0.019875852
58	0x3dafeb98	0.08589858
59	0x3d9fd792	0.07804789
60	0xbcc4cebf	-0.024024365
61	0xbd620424	-0.05517973
62	0xbd25bda2	-0.04046405
63	0xbd052081	-0.0325017

critic.last.model.0.weight f4 [1, 64]
0	0xbe306736	-0.17226872
1	0xbd83414d	-0.064089395
2	0xbc6ab979	-0.014326447
3	0xbc746bdb	-0.014918293
4	0x3d91030f	0.070806615
5	0x3d14d240	0.036333323
6	0xbe4d078a	-0.20022407
7	0x3d1282fd	0.03576945
8	0x3bf1989a	0.007372928
9	0x3d1e105a	0.038589813
10	0xbd90d485	-0.07071785
11	0x3b75202d	0.0037403211
12	0xbe8d1665	-0.27556148
13	0x3e235491	0.15950228
14	0xbd75bcf0	-0.059994638
15	0xbda17194	-0.078829914
16	0xbe086898	-0.1332115
17	0xbd8af649	-0.067852564
18	0xbe09e902	-0.13467792
19	0x3db2b2eb	0.08725532
20	0xbd7b5aea	-0.061366
21	0xbb1eb188	-0.0024214704
22	0xbec4deef	-0.38451335
23	0xbe8dc169	-0.27686623
24	0x3e0b2d34	0.13591462
25	0xbd264524	-0.04059328
26	0x3e72a27e	0.23694798
27	0xbe2eebc2	-0.17082122
28	0xbe821c13	-0.25412044
29	0xbdbc5b8c	-0.09197149
30	0xbd8c3cda	-0.06847544
31	0x3daf534c	0.085608095
32	0x3d92d6d7	0.07169884
33	0xbd9bdb41	-0.07610179
34	0xbe669f7c	-0.22521776
35	0x3e12ffd1	0.14355399
36	0x3e53e4f7	0.20692812
37	0x3d110314	0.035403326
38	0x3dc1ff9a	0.0947258
39	0xbe6acfec	-0.22930878
40	0xbdb4e739	-0.08833165
41	0xbe0ddd69	-0.13853993
42	0xbe22bb16	-0.1589168
43	0xbdb765ca	-0.089549616
44	0x3e45ab3d	0.19303603
45	0xbd8bd7be	-0.06828259
46	0x3d4e1ad9	0.050318573
47	0xbd866523	-0.06562259
48	0xbea94895	-0.33063188
49	0xbea0f24e	-0.31434864
50	0xbe1cb69a	-0.15304032
51	0xbddce2d0	-0.107854486
52	0x3e595b49	0.21226229
53	0xbe1ebebb	-0.15502445
54	0x3c6b0491	0.01434435
55	0x3c068dac	0.008212488
56	0xbe088d91	-0.13335253
57	0x3d360dbf	0.044446703
58	0xbdfea93c	-0.12434623
59	0xbe5a7fd6	-0.21337828
60	0x3da9d92c	0.082933754
61	0x3d6b6c52	0.05747635
62	0xbd749780	-0.059714794
63	0x3d4e398a	0.050347842

_actor_critic.actor.sigma_param f4 [3, 1]
0	0xbdb8cc4f	-0.09023344
1	0xbca2eb22	-0.01988751
2	0xbe23712b	-0.15961139

_actor_critic.actor.preprocess.model.model.0.weight f4 [64, 9]
0	0x3ba6b86d	0.0050879032
1	0x3e008b62	0.1255317
2	0xbd450e59	-0.048109386
3	0xbe182406	-0.14857492
4	0xbe2d0d1f	-0.16899537
5	0x3e52667e	0.2054691
6	0x3dd6ddf9	0.10491557
7	0xbd3266d9	-0.043555114
8	0x3dc6e191	0.09710992
9	0xbd4816ca	-0.04884986
10	0xbe483fab	-0.19555537
11	0xbe0d333c	-0.13789076
12	0xbdda5d9b	-0.10662385
13	0x3deb7cef	0.114984386
14	0xbc7da705	-0.015481715
15	0x3d73a0cf	0.05947953
16	0xbbe3ecb4	-0.0069557074
17	0x3c2661b2	0.010155128
18	0x3d858109	0.06518752
19	0x3e04aff8	0.12957752
20	0x3d842ba7	0.064536385
21	0x3d254a7a	0.04035423
22	0x3e58dba2	0.21177533
23	0xbe536533	-0.20644073
24	0x3e0d1a6f	0.13779615
25	0xbdb904d2	-0.090341225
26	0xbdc3f0e4	-0.095674306
27	0xbd0d9008	-0.034561187
28	0xbd66b97e	-0.056329243
29	0xbe330c91	-0.17485262
30	0xbd56c25f	-0.05243146
31	0xbe4ea8e8	-0.2018162
32	0x3c1a27f3	0.009408939
33	0xb9841752	-0.00025194377
34	0x3e9cd1c6	0.30628794
35	0x3e5e443c	0.21705717
36	0xbdbc208d	-0.09185896
37	0x3d8e005d	0.06933663
38	0xbdaa89f7	-0.08327096
39	0xbdb5d089	-0.088776655
40	0xbc86cdcb	-0.016455552
41	0x3e58f852	0.21188477
42	0xbcffe5eb	-0.031237563
43	0xbd0d1123	-0.03444017
44	0xbd8a22eb	-0.06744941
45	0xbc5c0ee3	-0.013431284
46	0xbe27f846	-0.16403303
47	0x3d4d1471	0.050068323
48	0x3d876d3d	0.066126324
49	0xbd889bbf	-0.06670331
50	0x3e24307e	0.16034123
51	0xbe400b4f	-0.18754314
52	0x3e585738	0.21127021
53	0xbbb180a5	-0.005416947
54	0x3d173042	0.036911257
55	0x3e63d340	0.22248554
56	0x3d308e51	0.043104474
57	0xbe2cf018	-0.16888463
58	0x3be1f8a1	0.006896094
59	0xbd1e2192	-0.038606234
60	0xbde97017	-0.113983326
61	0x3ce386c3	0.02777422
62	0x3c78547a	0.0151568595
63	0x3daae193	0.08343806
64	0xbdc46e85	-0.095913924
65	0xbce7fa7f	-0.028317688
66	0x3d9def5b	0.07711669
67	0xbd2b5ba2	-0.041835435
68	0x3e14fa15	0.14548524
69	0x3d29c126	0.041443966
70	0x3c39ef2c	0.011348527
71	0x3e6fede7	0.23430596
72	0x3d85155a	0.06498213
73	0xbd485ec0	-0.048918486
74	0xbe501857	-0.20321785
75	0x3df3a942	0.11897518
76	0x3ead956d	0.33903065
77	0xbe02eda9	-0.12785973
78	0xbddc2964	-0.10750082
79	0x3d468d76	0.04847475
80	0xbcc40ff5	-0.02393339
81	0x3e2ae216	0.16687807
82	0xbd57cc02	-0.05268479
83	0xbdd3bc41	-0.10338641
84	0xbd3e4d09	-0.046460185
85	0xbd97f652	-0.07420029
86	0x3e2b1517	0.16707264
87	0xbe835a89	-0.2565501
88	0x3c1fbc8f	0.009749546
89	0x3e208e28	0.15679228
90	0x3de93b78	0.11388296
91	0x3d6243c6	0.055240415
92	0xbe36bc15	-0.17845185
93	0x3dc0d976	0.094164774
94	0xbdb7ddf9	-0.08977885
95	0xbdd605df	-0.104503386
96	0xbdd3daa0	-0.10344434
97	0xbd6e7314	-0.058215216
98	0x3a746602	0.00093230617
99	0xbd85120b	-0.06497582
100	0x3dd99a98	0.106251895
101	0xbdfacda6	-0.122462556
102	0x3d12a848	0.035805017
103	0x3e040bdc	0.12895149
104	0xbd8e0bec	-0.06935868
105	0x3da64c78	0.08120054
106	0xbe477ca2	-0.19481137
107	0x3dc9313f	0.09823846
108	0x3e08b189	0.13348974
109	0xbdc7520c	-0.09732446
110	0x3e427550	0.18990064
111	0x3da380a6	0.07983522
112	0x3e53a553	0.20668535
113	0x3e1cc62c	0.15309972
114	0x3e4173d9	0.18891849
115	0x3c289231	0.010288761
116	0x3c435546	0.011922186
117	0x3e1bee71	0.15227677
118	0x3dcbbfa7	0.09948664
119	0xbe610644	-0.21975046
120	0x3cffb8bd	0.03121602
121	0xbdc597ce	-0.09648095
122	0xbc9c9630	-0.019114584
123	0x3e263321	0.16230442
124	0x3dc77e4c	0.09740886
125	0xbe087b53	-0.13328294
126	0x3d167b60	0.036738753
127	0x3d8a8f49	0.06765611
128	0x3e9ada50	0.30244684
129	0xbe236b22	-0.15958837
130	0x3d5e3aeb	0.054255407
131	0x3da402be	0.080083355
132	0xbbbedd92	-0.005824753
133	0xbd9e723b	-0.077366315
134	0x3aa4e6ab	0.0012580951
135	0xbdd72f01	-0.10507012
136	0xbe2b6610	-0.16738153
137	0x3d30b857	0.04314455
138	0x3cb31045	0.021858344
139	0xbbad44c4	-0.0052877385
140	0xbd4d8d2b	-0.050183456
141	0x3cccad87	0.024985088
142	0xbccc2968	-0.024922088
143	0xbe09d23c	-0.13459104
144	0x3d383009	0.044967685
145	0x3ecbd8d4	0.39813864
146	0xbc85c3c5	-0.016328702
147	0xbba8e7bb	-0.0051545775
148	0x3d686462	0.056736358
149	0x3dfdf17a	0.123995736
150	0x3e1807fb	0.14846794
151	0x3e69f1c0	0.22846127
152	0xbd08d508	-0.033406287
153	0x3c07ebb8	0.008295946
154	0x3e1594d2	0.14607552
155	0xbe7c60b4	-0.24646264
156	0xbcb48325	-0.02203519
157	0x3d022861	0.03177679
158	0xbd3e5684	-0.046469226
159	0x3da29349	0.07938249
160	0xbe0aaf49	-0.13543428
161	0x3cdafcb4	0.026731826
162	0xbba6a1cd	-0.005085206
163	0xbcda19ea	-0.026623685
164	0x3d527170	0.051377714
165	0x3da5d98f	0.08098137
166	0x3c13222a	0.008980313
167	0x3d2ceb65	0.042216677
168	0x3e803c9e	0.25046247
169	0xbe005264	-0.1253143
170	0xbc6b2209	-0.014351376
171	0xbdb4ab21	-0.08821703
172	0x3e1daef0	0.15398765
173	0x3dca0fc8	0.09866291
174	0x3e02a0f8	0.12756717
175	0xbe0c94d1	-0.13728644
176	0xbd0f5595	-0.034993727
177	0xbe3795ab	-0.17928188
178	0xbda2822b	-0.07934984
179	0x3e54353c	0.20723432
180	0xbc4ba786	-0.012430077
181	0xbe2d3cb9	-0.16917695
182	0xbce35276	-0.027749281
183	0xbd196af3	-0.03745551
184	0x3eadc63d	0.33940306
185	0x3d9cab5b	0.07649871
186	0xbe6ba8ad	-0.23013563
187	0x3d240b79	0.040050004
188	0x3d61f645	0.0551665
189	0xbe676cef	-0.22600149
190	0x3ba3de6b	0.0050008795
191	0xbdb803f6	-0.089851305
192	0x3bcd6225	0.0062678033
193	0xbdceca9e	-0.1009724
194	0x3d7ff6d3	0.06249125
195	0x3e1a1ca6	0.15049991
196	0x3e0b4259	0.13599528
197	0x3dc863de	0.09784673
198	0xbd46492e	-0.048409633
199	0xbe6e1867	-0.23251496
200	0x3e3a6072	0.18200853
201	0x3cfdec8c	0.030996583
202	0xbe0456d8	-0.12923753
203	0x3d3bf0ec	0.045884058
204	0x3db81a3f	0.08989381
205	0x3cfa3540	0.03054297
206	0xbb618ad9	-0.0034415035
207	0x3cc74d9d	0.024329001
208	0xbe3615af	-0.17781709
209	0x3d0b3d4b	0.033994
210	0xbde290da	-0.110627845
211	0xbe504ed1	-0.20342566
212	0xbe2b2533	-0.16713409
213	0xbd97f62c	-0.074200004
214	0xbdadf7b6	-0.08494513
215	0x3e188749	0.14895357
216	0xbcd3842b	-0.025819859
217	0x3d97d7b8	0.07414192
218	0xbe3f6272	-0.18689898
219	0xbdb85e83	-0.09002402
220	0xbe34c739	-0.17654122
221	0x3df20d21	0.118189104
222	0xbdec23fd	-0.11530302
223	0xbc46d56e	-0.012135847
224	0xbdcf8b3c	-0.10133979
225	0xbd63f728	-0.05565563
226	0xbcf2a13e	-0.029617902
227	0x3d6edaa8	0.058313996
228	0xbe2774fe	-0.16353223
229	0x3e767846	0.24069318
230	0x3d251865	0.040306468
231	0xbe205177	-0.15656076
232	0x3d948b8f	0.07253181
233	0xbda93590	-0.08262169
234	0x3c659149	0.014011689
235	0x3c8b3877	0.016994698
236	0x3dc77a6d	0.09740148
237	0xbddc1696	-0.107464954
238	0xbe468ec4	-0.19390398
239	0xbdc824d0	-0.097726464
240	0x3d2c3884	0.042046085
241	0xbda1fe3a	-0.07909818
242	0x3c8da9be	0.017292853
243	0x3df527fa	0.119705155
244	0xbe413c95	-0.18870766
245	0xbe3ade1c	-0.1824879
246	0xbe27c9f6	-0.16385636
247	0x3deff3eb	0.117164455
248	0x3ddd200a	0.107971266
249	0xbe501dd2	-0.20323876
250	0xbe9460e4	-0.28980172
251	0x3b84e395	0.00405545
252	0x3e4ed5ec	0.20198792
253	0xbdfa4456	-0.12220065
254	0xbddb6278	-0.10712141
255	0xbd0d1514	-0.03444393

_actor_critic.actor.preprocess.model.model.0.bias f4 [64]
0	0xbd5f2105	-0.05447485
1	0xbd1d57a3	-0.038413655
2	0xbd19c33e	-0.037539713
3	0xbcca9177	-0.024727566
4	0xbcc92f02	-0.024558548
5	0xbdadc27c	-0.084843606
6	0xbc90afc3	-0.017661935
7	0xbcd790e7	-0.026314212
8	0xbd7e951b	-0.062153917
9	0xbd53b8ef	-0.05169004
10	0xbd885706	-0.066572234
11	0xbd508505	-0.050908107
12	0xbb1d7736	-0.0024027354
13	0xbd48c370	-0.04901451
14	0xbd4d980b	-0.050193828
15	0xbd45a582	-0.048253544
16	0x3ceb7c9f	0.028745947
17	0xbd3ad7d7	-0.045615997
18	0xbd3c3120	-0.045945287
19	0xbd4c7cb7	-0.049923625
20	0xbd0c3f6b	-0.034240168
21	0xbcfbff80	-0.03076148
22	0xbd35b088	-0.044357806
23	0xbcb27651	-0.021784933
24	0xbc911e5d	-0.017714674
25	0xbceacfcc	-0.028663538
26	0xbbc0412b	-0.0058671436
27	0xbd4a58aa	-0.049400963
28	0x3adda03e	0.0016908718
29	0xbd22fbf4	-0.039791062
30	0xbd974b78	-0.073874414
31	0xbba8cecc	-0.0051516052
32	0xbd478744	-0.048712984
33	0xbcc4a331	-0.024003597
34	0xbd119030	-0.0355379
35	0xbd5a3948	-0.053277284
36	0xbce3bbd8	-0.027799532
37	0xbd488bfb	-0.04896162
38	0xbdb2a9e4	-0.0872381
39	0xbcb56bdb	-0.022146156
40	0xbcbc381c	-0.022975974
41	0xbd92362f	-0.07139241
42	0xbd5166a1	-0.051123265
43	0xbd872f4b	-0.06600817
44	0xbd68e09d	-0.056854833
45	0xbca755c2	-0.020426635
46	0xbc8eb7c3	-0.017421609
47	0xbcc1a5ad	-0.02363857
48	0xbd38afa6	-0.045089386
49	0xbc173767	-0.009229518
50	0xbd39f1df	-0.045396682
51	0xbc9e822f	-0.019349186
52	0xbd7abce3	-0.061215293
53	0xbd0e1638	-0.03468916
54	0xbd543ff2	-0.051818796
55	0xbcbf74da	-0.023371149
56	0xbd5806bf	-0.05274081
57	0x3cb9606a	0.022628982
58	0xbcbcdf8b	-0.023055812
59	0xbce33b8c	-0.027738355
60	0xbcf6cddc	-0.030127458
61	0xbde14ea2	-0.11001326
62	0xbcfb1558	-0.030649826
63	0xbcdb9b2f	-0.026807396
