demo/tianshou/panda/log/KukaBulletEnv-v0/ddpg/policy.pth (torch, 300573 bytes, 22 tensors)

actor.preprocess.model.model.0.weight f4 [128, 9]
0.031848002 0.20326538 -0.3448408 -0.25836104 -0.26552024 0.037875626 -0.20533583 0.38612527
-0.003873973 0.052038446 -0.2159743 -0.19157188 -0.33218542 -0.08804622 -0.117840044 0.12263277
-0.0401138 0.16933711 -0.20982459 -0.10041742 0.20368095 0.27464417 0.09239762 0.20338653
0.075131424 0.04409545 0.37678045 -0.24287133 -0.41810247 -0.1943865 -0.2008967 0.3495807
-0.2632016 -0.11303835 -0.3680125 -0.34228566 -0.19666487 0.14894949 0.14388855 0.16717614
0.007479299 -0.18452506 -0.043623786 -0.43409225 -0.22087182 -0.18606828 0.30613112 0.32207924
-0.11726651 -0.119396366 0.18296677 0.4813006 0.21421777 0.15276746 0.20691592 -0.22796054
0.20826161 -0.19363843 -0.33366123 -0.15232085 0.23252445 0.03769521 -0.24465813 0.11196419
0.122745626 -0.06976491 -0.02714491 0.10975119 0.25379613 0.35918713 -0.23373555 -0.09538433
0.1432408 0.1995859 0.34842777 0.21407427 0.11444712 -0.33188352 0.11865869 -0.15225278
-0.4043543 0.34995237 0.5089145 -0.260387 0.01096152 -0.118445486 -0.13820261 -0.23614325
0.46130347 -0.19680525 0.24810384 0.32751882 0.48599616 0.07440807 -0.39549267 -0.2851518
0.22984737 0.27952123 -0.19859178 -0.19004105 0.17369373 0.29041535 -0.16480039 -0.030172797
-0.3217862 0.05490445 -0.45935488 -0.25005826 0.0015066974 0.031233897 -0.10456142 0.15274012
-0.11890219 0.34379423 0.24459524 -0.2881637 -0.14459683 0.10265751 -0.13549893 0.03380648
0.061719578 0.020147493 -0.26013184 0.1554628 -0.49044204 -0.2571824 -0.112528495 -0.28714103
-0.28871012 -0.27010524 -0.30113557 0.11004346 -0.46973506 -0.13558389 0.23675552 0.009345656
0.16513288 -0.07365558 0.088116646 0.29316577 0.28287625 0.3985614 0.33872312 0.014176557
-0.23194106 -0.26324916 0.3028271 -0.060855348 -0.335457 -0.27402738 -0.6110746 -0.14611045
-0.064734176 0.19554688 0.33540735 -0.33665025 0.2067952 -0.18641655 -0.12595898 -0.2840735
0.04819727 -0.10331151 -0.24058887 -0.47816953 -0.16495687 -0.059923064 -0.20549242 0.036128003
-0.4266669 -0.11785724 0.3607441 -0.15832734 0.4269892 0.27825254 -0.27781326 0.19276468
-0.06768788 -0.014791336 0.36612943 -0.35540208 0.04509125 0.09007618 0.35229892 0.09496913
0.27254432 0.032633223 0.028846962 0.15138514 -0.31762922 0.12598346 0.1510685 0.29480928
-0.22828396 0.10729492 -0.23124275 0.002645911 -0.39098597 0.04180987 -0.10658366 0.06585677
0.2272558 0.18414591 -0.3424137 -0.2844821 -0.3225468 0.3956234 -0.12373195 0.30072096
0.3690514 0.100538604 0.026843643 -0.2456911 0.004588674 -0.2761604 0.20925158 0.05548291
-0.22444244 -0.15169455 0.40093404 -0.20920597 0.022821797 0.30196598 0.115718275 0.18058218
-0.39768946 0.16028263 -0.20511103 -0.06845532 -0.16982321 0.123106465 0.037105035 0.45470786
0.1789907 0.23853016 0.22077061 -0.035542954 0.1937764 -0.2149019 -0.26855835 0.07179945
-0.042054586 0.40322837 -0.1579287 -0.056081086 0.05773899 -0.35690302 0.24311054 -0.4397508
0.0020566576 -0.21245053 -0.30710724 0.005630042 0.29193494 -0.03375399 -0.14159831 -0.12961908
00000000: 0d73 023d cd24 503e f98e b0be e647 84be
00000010: 45f2 87be 7923 1b3d 8e43 52be 36b2 c53e
00000020: 7be2 7dbb 4426 553d 5e28 5dbe 6b2b 44be
00000030: 3514 aabe 9451 b4bd 1f56 f1bd e426 fb3d
00000040: 5e4e 24bd b566 2d3e 42dc 56be a6a7 cdbd
00000050: bd91 503e 299e 8c3e f73a bd3d 8f44 503e
00000060: 81de 993d 6e9d 343d 5ee9 c03e 43b3 78be
00000070: 8711 d6be 410d 47be ddb7 4dbe 3efc b23e
00000080: 5cc2 86be a780 e7bd 226c bcbe 1140 afbe
00000090: 8462 49be 3786 183e 8557 133e 3930 2b3e
000000a0: e814 f53b 23f4 3cbe dbae 32bd 5741 debe
000000b0: 392c 62be af88 3ebe 38bd 9c3e 92e7 a43e
000000c0: 6d29 f0bd 1586 f4bd a45b 3b3e 086d f63e
000000d0: e75b 5b3e 136f 1c3e c4e1 533e 7d6e 69be
000000e0: 8842 553e 2749 46be a5d5 aabe fff9 1bbe
000000f0: e41a 6e3e 4b66 1a3d a987 7abe 7b4d e53d
00000100: 0f62 fb3d e8e0 8ebd 015f debc 3bc5 e03d
00000110: 91f1 813e 60e7 b73e 5f58 6fbe dc58 c3bd
00000120: b7ad 123e 3f60 4c3e 2065 b23e 4936 5b3e
00000130: 4063 ea3d a3ec a9be 5403 f33d 27e8 1bbe
00000140: 8707 cfbe f52c b33e 3848 023f 7251 85be
00000150: f297 333c 8c93 f2bd fc84 0dbe 89cf 71be
00000160: f82f ec3e 5187 49be ef0e 7e3e 8cb0 a73e
00000170: 7dd4 f83e 4263 983d 047e cabe 6bff 91be
00000180: 1c5d 6b3e 681d 8f3e a55b 4bbe 1f9a 42be
00000190: c5dc 313e 52b1 943e 6fc1 28be f12c f7bc
000001a0: 29c1 a4be 7de3 603d 9030 ebbe a307 80be
000001b0: 607c c53a 3bde ff3c 4c24 d6bd e867 1c3e
000001c0: fe82 f3bd cc05 b03e 2d77 7a3e 318a 93be
000001d0: 3111 14be 1a3e d23d 3bc0 0abe aa78 0a3d
000001e0: abcd 7c3d 5b0c a53c 0030 85be a431 1f3e
000001f0: 381b fbbe 69ad 83be 5775 e6bd 2604 93be
00000200: d0d1 93be 3c4b 8abe 712e 9abe 775e e13d
00000210: 1d81 f0be 81d6 0abe 0a70 723e 861e 193c
00000220: 9818 293e bdd8 96bd 8076 b43d d319 963e
00000230: 28d5 903e 3d10 cc3e 1e6d ad3e ca44 683c
00000240: f581 6dbe 98c8 86be 270c 9b3e 7543 79bd
00000250: 05c1 abbe 514d 8cbe 636f 1cbf fa9d 15be
00000260: 5a93 84bd 713d 483e 83ba ab3e 6c5d acbe
00000270: 1fc2 533e fbe3 3ebe 64fb 00be 1572 91be
00000280: 806a 453d fc94 d3bd ee5c 76be a3d2 f4be
00000290: 74ea 28be e371 75bd 9b6c 52be f5fa 133d
000002a0: 1574 dabe 235f f1bd 73b3 b83e 9020 22be
000002b0: 549e da3e 1e77 8e3e 8a3d 8ebe 1b64 453e
000002c0: f19f 8abd 5c57 72bc 5175 bb3e 43f7 b5be
000002d0: 9ab1 383d dc79 b83d 8660 b43e 2d7f c23d
000002e0: ee8a 8b3e 6aaa 053d 7750 ec3c b504 1b3e
000002f0: 4ca0 a2be cf01 013e b3b1 1a3e 3ef1 963e
00000300: 45c3 69be 70bd db3d e6ca 6cbe 0567 2d3b
00000310: 502f c8be d440 2b3d 8948 dabd eadf 863d
00000320: bfb5 683e bf90 3c3e d950 afbe a3a7 91be
00000330: db24 a5be 268f ca3e 2d67 fdbd 19f8 993e
00000340: 4ef4 bc3e 2fe7 cd3d 33e7 db3c 7396 7bbe
00000350: 965c 963b e564 8dbe 0c46 563e 0c42 633d
00000360: 3dd4 65be d155 1bbe 3a47 cd3e 173a 56be
00000370: c7f4 ba3c 499b 9a3e b4fd ec3d 89ea 383e
00000380: f49d cbbe 2121 243e a008 52be 4e32 8cbd
00000390: 23e6 2dbe 3e1f fc3d 73fb 173d 78cf e83e
000003a0: 5749 373e 4041 743e b111 623e 7d95 11bd
000003b0: 526d 463e 3e0f 5cbe 7b80 89be 970b 933d
000003c0: 6e41 2cbd f373 ce3e 10b8 21be 48b5 65bd
000003d0: b87f 6c3d febb b6be f8f1 783e 0427 e1be
000003e0: fdc8 063b a28c 59be 293d 9dbe 377c b83b
000003f0: 7f78 953e a041 0abd 26ff 10be ddba 04be

actor.preprocess.model.model.0.bias f4 [128]
-0.24918887 -0.0041133976 0.23585893 -0.24506305 -0.1384873 0.29876453 -0.13182168 0.14326102
-0.3090681 -0.06959648 -0.072923765 0.2622402 0.10938499 -0.16010886 0.06561042 0.016579973
-0.08689143 -0.1900569 -0.014048974 0.21457388 -0.24007599 -0.276553 -0.043209333 0.024117315
0.08852507 0.00566717 -0.06733098 -0.18047217 -0.054044683 -0.088731855 0.2505892 -0.33435863
-0.12510085 -0.28705022 -0.023974206 0.24939911 0.2686551 -0.25535002 0.0019466708 0.17357603
0.14260827 0.23815572 0.0439923 -0.20731771 0.22545642 -0.07734635 0.18408148 -0.0835551
0.14108013 0.26116484 0.314174 -0.24946064 -0.22560823 -0.18696082 -0.20844524 0.3446397
0.035085 -0.17720337 -0.15755771 -0.20083356 0.12720363 -0.2806932 -0.2491976 -0.28288057
0.17542018 0.17865379 -0.17140874 0.070872724 0.23681492 0.06837789 -0.08239996 0.022612374
-0.057822336 0.21437404 -0.20753276 0.17480083 0.16978571 -0.22549708 0.3367683 0.36124104
-0.14155084 -0.09102618 0.19501498 -0.2557833 0.13652714 0.07081039 0.19411676 -0.26653603
-0.24912763 0.22471416 0.11773625 -0.30166814 -0.12995371 -0.25996566 -0.25630286 -0.15007436
0.2647133 -0.014584368 0.21433237 0.2827062 0.2023063 -0.3130371 0.17202938 0.15997896
0.23543565 -0.24821575 0.18775924 0.25236234 -0.26886848 0.03499471 0.2681017 -0.24555677
0.10045821 0.1553758 0.069446795 0.29749358 0.22906777 0.22425848 -0.039411094 0.2725295
-0.3440008 -0.16078213 -0.04286924 -0.11195214 0.27105063 0.160095 0.19183592 0.23245631
00000000: 5e2b 7fbe aec9 86bb 0185 713e cff1 7abe
00000010: 9dcf 0dbe aaf7 983e 43fc 06be 04b3 123e
00000020: 2d3e 9ebe 9988 8ebd 0e59 95bd 5944 863e
00000030: 3d05 e03d 94f3 23be c25e 863d b9d2 873c
00000040: 22f4 b1bd 479e 42be ab2d 66bc 41b9 5b3e
00000050: 7bd6 75be 5b98 8dbe 45fc 30bd ad91 c53c
00000060: a24c b53d abb3 b93b d3e4 89bd b2cd 38be
00000070: f55d 5dbd 0cb9 b5bd 3a4d 803e 0e31 abbe
00000080: 701a 00be 3ff8 92be 8e65 c4bc 7b62 7f3e
00000090: 298d 893e 3dbd 82be 6f27 ff3a eabd 313e
000000a0: e707 123e 18df 733e 4531 343d 184b 54be
000000b0: 0cde 663e c367 9ebd db7f 3c3e f01e abbd
000000c0: 4f77 103e 66b7 853e 6adb a03e 9c72 7fbe
000000d0: d805 67be a872 3fbe ab72 55be 9d74 b03e
000000e0: 4ab5 0f3d cd74 35be cf56 21be 50a7 4dbe
000000f0: ab41 023e 05b7 8fbe a82d 7fbe b9d5 90be
00000100: 59a1 333e 05f1 363e c685 2fbe b825 913d
00000110: 9c7f 723e b509 8c3d 4fc1 a8bd 963d b93c
00000120: 1dd7 6cbd de84 5b3e 7883 54be fdfe 323e
00000130: 4edc 2d3e b5e8 66be e56c ac3e 96f4 b83e
00000140: b4f2 10be ef6b babd 02b2 473e 07f6 82be
00000150: c5cd 0b3e 0a05 913d 8bc6 463e 6977 88be
00000160: 501b 7fbe 781b 663e b41f f13d 3f74 9abe
00000170: 9612 05be 381a 85be 213a 83be 18ad 19be
00000180: 8088 873e 46f3 6ebc f279 5b3e debe 903e
00000190: 6229 4f3e 6646 a0be 7828 303e 86d1 233e
000001a0: 0b16 713e 452c 7ebe f543 403e a335 813e
000001b0: 21a9 89be 9d56 0f3d a044 893e 3c73 7bbe
000001c0: 09bd cd3d d51a 1f3e 1f3a 8e3d 1451 983e
000001d0: be90 6a3e 04a4 653e 876d 21bd fd88 8b3e
000001e0: df20 b0be 12a4 24be a897 2fbd 2a47 e5bd
000001f0: 26c7 8a3e f2ef 233e a370 443e 0709 6e3e

actor.preprocess.model.model.2.weight f4 [128, 128]
-0.047263663 0.006728237 0.006328199 0.042829327 0.022076316 -0.023387231 -0.025873484 0.08048979
-0.0048849373 -0.0167976 0.065697014 0.040039476 -0.03116647 -0.033792954 -0.04514222 -0.047242377
-0.011993276 0.0075951 0.06038548 -0.053868845 0.03035778 0.009106866 0.05268873 0.048215132
0.07780977 0.07234462 -0.044072032 -0.06939539 -0.055505894 0.027946409 0.07892108 0.03171026
-0.04421978 -0.047222186 0.0021508408 0.057330273 -0.06875203 -0.062473632 0.0902598 0.050087184
-0.030292012 0.025549045 -0.011366009 -0.05734574 -0.0325847 0.10129781 0.0013435755 -0.019991424
-0.034713276 -0.048088677 -0.028790904 -0.06127506 0.07366769 0.04140988 -0.024208037 -0.00087561324
0.037133522 -0.03561381 0.06555123 0.03587241 -0.061195184 0.04816386 -0.006782529 0.09881066
-0.027102077 -0.022268487 0.08265584 -0.046327244 0.041148584 0.07724735 -0.020519748 0.1136395
0.06742116 0.063914575 -0.015981333 0.07740017 -0.015289522 -0.0276155 0.06009333 0.006089991
0.070261955 0.09745586 0.0011356638 0.054348096 0.045603428 0.049054895 0.05590411 0.034267932
-0.06648216 0.13135387 -0.0431486 0.10313274 -0.13571113 0.044955965 -0.036622252 0.009678258
0.007631924 0.059247877 0.01826289 0.038814574 0.11919528 -0.041633785 -0.004644008 -0.030837879
0.073555745 -0.024488442 0.00940664 -0.039751247 -0.057783507 0.06645897 0.016934158 0.11652695
0.08622499 0.09271763 0.09045321 -0.05483498 0.023112442 -0.04782872 0.06556465 0.005586705
-0.0060482994 -0.047847938 -0.06265452 0.023609832 0.021667078 0.026839232 0.073527455 -0.023666656
0.028532842 -0.042936824 0.03467204 -0.060729705 0.009948921 0.07532808 0.10623757 0.025258442
0.047633845 -0.1526845 -0.06706187 0.04310421 0.037636984 -0.100644484 -0.020404827 -0.062405728
-0.17899771 -0.044397708 0.05196333 0.026497714 -0.06012216 -0.07839606 -0.057369098 -0.01792344
0.082271 -0.055639084 -0.027255392 -0.086717576 0.042993307 -0.087541945 -0.0988876 0.07829117
0.02641953 -0.029888917 0.018130485 -0.06653356 -0.021893866 0.046866234 -0.038622286 -0.008738766
0.015997402 -0.116384186 0.051236026 0.092682846 0.044166945 -0.09417349 0.07900653 -0.08654023
-0.010783432 -0.0035819393 -0.00716785 0.067325555 -0.080406845 -0.02585532 -0.022582976 -0.052499156
0.001671653 -0.07796956 0.036723763 0.079089664 0.10709446 -0.02804113 -0.010110952 0.05282423
0.093760364 0.09570267 -0.036317863 -0.13956797 -0.06900745 0.005369812 0.04550625 0.06793047
0.09301528 0.08187227 0.026408952 0.0017256904 0.088733114 0.101161644 0.022198698 -0.020578803
0.10302213 -0.012464533 0.046962343 0.08004101 0.029722778 -0.07397242 -0.051906876 0.055380218
-0.03101322 -0.109812506 0.0864494 -0.03868673 0.021231668 -0.12574464 0.09225337 0.0013243896
-0.016118243 -0.023440145 -0.016330907 0.04177045 -0.0440419 0.07558693 0.047736444 0.006891728
-0.047603197 -0.08260901 -0.025165044 -0.05252865 0.0059110587 -0.010453057 -0.009411229 -0.09961457
0.070973955 0.012502161 0.0086354045 -0.02789272 0.074692495 0.10539061 -0.105050236 -0.016630854
0.026144342 -0.015323834 0.08341371 0.0419927 0.0630522 0.01257075 -0.02449469 -0.05738776
00000000: 8b97 41bd 8b78 dc3b c85c cf3b ce6d 2f3d
00000010: 64d9 b43c 9496 bfbc a1f4 d3bc d5d7 a43d
00000020: d311 a0bb 1f9b 89bc 288c 863d 6f00 243d
00000030: d350 ffbc 7b6a 0abd 0ce7 38bd 3981 41bd
00000040: 727f 44bc 51e0 f83b c456 773d 94a5 5cbd
00000050: e1b0 f83c f734 153c 23d0 573d 3b7d 453d
00000060: bb5a 9f3d 6b29 943d e084 34bd 2c1f 8ebd
00000070: 265a 63bd deef e43c 60a1 a13d 9ee2 013d
00000080: cd1f 35bd 0d6c 41bd 1ff5 0c3b 26d3 6a3d
00000090: ddcd 8cbd 5ae4 7fbd 21da b83d 3828 4d3d
000000a0: f426 f8bc 3b4c d13c 7f38 3abc 5ee3 6abd
000000b0: 8977 05bd 3a75 cf3d ea1a b03a 0ec5 a3bc
000000c0: 822f 0ebd a2f8 44bd e7da ebbc 8ffb 7abd
000000d0: 16df 963d 689d 293d ef4f c6bc 6989 65ba
000000e0: 5219 183d c9df 11bd b93f 863d f3ee 123d
000000f0: cda7 7abd 7847 453d fa3f debb 3e5d ca3d
00000100: 2d05 debc 676c b6bc 7747 a93d a3c1 3dbd
00000110: 6b8b 283d dc33 9e3d 0819 a8bc d4bb e83d
00000120: 1b14 8a3d a5e5 823d 49eb 82bc fb83 9e3d
00000130: e780 7abc e739 e2bc 6c24 763d 8c8e c73b
00000140: 80e5 8f3d f096 c73d 8eda 943a 1c9c 5e3d
00000150: a9ca 3a3d c9ed 483d b5fb 643d 885c 0c3d
00000160: cc27 88bd a181 063e 96bc 30bd 4237 d33d
00000170: dcf7 0abe bf23 383d 3701 16bd 8e91 1e3c
00000180: 3815 fa3b e7ad 723d 0e9c 953c 08fc 1e3d
00000190: a81c f43d 3088 2abd c32c 98bb b89f fcbc
000001a0: 65a4 963d fc9b c8bc 4f1e 1a3c 34d2 22bd
000001b0: 66ae 6cbd a41b 883d 81b9 8a3c aea5 ee3d
000001c0: ba96 b03d bee2 bd3d 883f b93d a59a 60bd
000001d0: 4e56 bd3c 0ce8 43bd c246 863d ae10 b73b
000001e0: d030 c6bb 33fc 43bd 0351 80bd 6869 c13c
000001f0: 287f b13c f3dd db3c 9095 963d 93e0 c1bc
00000200: b5bd e93c 86de 2fbd 4504 0e3d b6bf 78bd
00000210: cd00 233c 9c45 9a3d 1593 d93d cbea ce3c
00000220: b51b 433d 5359 1cbe bc57 89bd 0a8e 303d
00000230: 3d29 1a3d b21e cebd 0628 a7bc 269d 7fbd
00000240: 2d4b 37be 5fda 35bd 80d7 543d bc11 d93c
00000250: a742 76bd 1d8e a0bd dcfb 6abd 2ed4 92bc
00000260: b37d a83d cfe5 63bd b346 dfbc fc98 b1bd
00000270: c019 303d 3149 b3bd 9585 cabd 1f57 a03d
00000280: c56d d83c 9ad9 f4bc 6286 943c bf42 88bd
00000290: c45a b3bc cff6 3f3d 6732 1ebd 0b2d 0fbc
000002a0: fc0c 833c d55a eebd dedc 513d 81d0 bd3d
000002b0: 66e8 343d 08de c0bd 2dce a13d 013c b1bd
000002c0: feac 30bc f8be 6abb 49e0 eabb fbe1 893d
000002d0: 58ac a4bd 89ce d3bc efff b8bc 5b09 57bd
000002e0: 5e1b db3a 81ae 9fbd a86b 163d c3f9 a13d
000002f0: 5754 db3d 83b6 e5bc 68a8 25bc 385e 583d
00000300: 6f05 c03d c3ff c33d 0ac2 14bd e8ea 0ebe
00000310: c753 8dbd 3ff5 af3b c364 3a3d 211f 8b3d
00000320: cc7e be3d a6ac a73d 9657 d83c 9030 e23a
00000330: b5b9 b53d d62d cf3d 0bda b53c e194 a8bc
00000340: 44fd d23d 0a38 4cbc 965b 403d 8bec a33d
00000350: 2f7d f33c da7e 97bd 4e9c 54bd 5ed6 623d
00000360: 700f febc 61e5 e0bd 620c b13d fa75 1ebd
00000370: 09ee ad3c 34c3 00be 56ef bc3d 2497 ad3a
00000380: 680a 84bc 8c05 c0bc 65c8 85bc 7e17 2b3d
00000390: 4865 34bd 52cd 9a3d 4a87 433d 01d4 e13b
000003a0: 92fb 42bd ea2e a9bd ec26 cebc 4828 57bd
000003b0: 8eb1 c13b 4c43 2bbc 8e31 1abc b902 ccbd
000003c0: cb5a 913d ddd5 4c3c 837b 0d3c 467f e4bc
000003d0: 61f8 983d 08d7 d73d 9424 d7bd 6e3d 88bc
000003e0: a92c d63c d110 7bbc cfd4 aa3d 8a00 2c3d
000003f0: 8321 813d 8cf5 4d3c 17a9 c8bc 6e0f 6bbd

actor.preprocess.model.model.2.bias f4 [128]
0.06503713 0.048973773 0.04593128 -0.005830948 -0.08192448 0.06536754 0.023766112 0.019752134
0.0002715282 -0.07377558 -0.0019779396 -0.004224227 0.07429446 0.031530656 0.019042168 0.074146785
-0.022289412 0.05942031 0.021717623 -0.07147839 0.048607673 -0.0536933 0.0734981 0.06815827
0.004674406 0.0003994407 0.009533253 0.07863259 0.05586233 0.07192742 0.0061389883 -0.11019785
0.044665616 -0.009475749 0.03329273 0.07926851 -0.0121055 0.06951508 -0.036264326 -0.04654185
0.07224093 0.0694142 -0.03540726 0.014021206 0.010004199 0.028499557 -0.025195988 -0.07612211
0.044933505 -0.06897945 -0.07336039 -0.07485355 0.041007787 0.051492468 -0.0642398 0.08458751
-0.062083866 0.060989194 0.052437954 -0.025553053 0.058333512 0.079832 0.07589972 -0.061658062
-0.014903598 -0.052989386 0.0645357 0.016438806 -0.03434163 -0.002712754 0.05284259 0.08586923
-0.027236667 -0.09457405 -0.044411287 0.06734158 0.020146511 0.058716748 0.08284516 -0.0019304248
0.07593434 -0.0020488317 -0.03349737 -0.056210455 0.021446409 0.002377067 0.07303789 0.104074985
-0.07531811 -0.007370806 -0.034766696 0.05240768 0.03813037 0.06213485 0.065859 0.050542343
-0.08006905 -0.034642912 -0.053056724 -0.047518518 -0.040832225 0.0613259 -0.037251655 0.0844553
0.097304456 0.032356564 0.073979944 0.08114295 0.012724244 -0.06246572 0.06927868 0.08945815
0.04847418 -0.07520975 0.03775446 0.052355703 0.005886587 0.0035728074 -0.033828393 0.028738296
0.045282315 -0.016688729 0.0626788 -0.055142306 0.05120212 0.007123932 -0.014077278 -0.0014457752
00000000: 3032 853d b998 483d 7022 3c3d 8911 bfbb
00000010: 06c8 a7bd 6bdf 853d 26b1 c23c 3acf a13c
00000020: e65b 8e39 a717 97bd 52a0 01bb 626b 8abb
00000030: b227 983d 4a26 013d 52fe 9b3c 45da 973d
00000040: 4998 b6bc b662 733d 28e9 b13c 4363 92bd
00000050: d718 473d 81ed 5bbd 2c86 963d 9096 8b3d
00000060: c22b 993b 066c d139 5c31 1c3c 200a a13d
00000070: e6cf 643d af4e 933d 9129 c93b 69af e1bd
00000080: 4bf3 363d 2c40 1bbc f55d 083d 8757 a23d
00000090: 2656 46bc ec5d 8e3d e789 14bd aba2 3ebd
000000a0: 0df3 933d 0829 8e3d 3407 11bd 33b9 653c
000000b0: a7e8 233c e777 e93c d167 cebc e9e5 9bbd
000000c0: 320c 383d 1945 8dbd f93d 96bd d14c 99bd
000000d0: c8f7 273d c4e9 523d 2890 83bd 373c ad3d
000000e0: a74b 7ebd cecf 793d 2ec9 563d a354 d1bc
000000f0: 1fef 6e3d f67e a33d 5071 9b3d 2a8d 7cbd
00000100: 392e 74bc 660b 59bd 4b2b 843d adaa 863c
00000110: cfa9 0cbd 76c8 31bb 7971 583d 35dc af3d
00000120: 6e1f dfbc 0ab0 c1bd 9ce8 35bd 62ea 893d
00000130: 4c0a a53c f980 703d b9aa a93d 4f06 fdba
00000140: 7783 9b3d b145 06bb 8a34 09bd ef3c 66bd
00000150: 61b0 af3c 91c8 1b3b e494 953d 4425 d53d
00000160: 6240 9abd cd86 f1bb 8667 0ebd 6fa9 563d
00000170: 972e 1c3d 1d81 7e3d 15e1 863d 7d05 4f3d
00000180: 3efb a3bd bae5 0dbd 0252 59bd c7a2 42bd
00000190: b13f 27bd de30 7b3d 3195 18bd e6f6 ac3d
000001a0: 8f47 c73d 5188 043d cc82 973d 462e a63d
000001b0: 5979 503c 0edc 7fbd fbe1 8d3d d635 b73d
000001c0: dd8c 463d 9207 9abd 6ca4 1a3d ef72 563d
000001d0: 45e4 c03b c325 6a3b a48f 0abd 936c eb3c
000001e0: f379 393d cdb6 88bc be5d 803d e6dc 61bd
000001f0: 50b9 513d df6f e93b 62a4 66bc 2a80 bdba

actor.last.model.0.weight f4 [3, 128]
-0.094140515 0.09973768 -0.039332647 -0.14923064 -0.0052559543 0.07398618 0.043174688 0.08474392
-0.053417277 0.011210724 0.09301695 0.04931718 0.105910964 0.03839894 -0.18611327 0.016661739
-0.036381237 0.015806995 0.051338386 0.049684603 -0.074711435 -0.088063195 0.09276357 0.036539953
0.011132374 -0.0058321157 -0.011472584 -0.090226166 0.10177069 0.09089303 -0.0038542694 -0.07052278
0.03036868 -0.08509867 -0.007386178 0.15275471 -0.054485682 -0.07471956 0.056805026 0.01984971
-0.0036286758 0.027935745 -0.0046134912 -0.0013707746 0.007122499 0.040246416 0.07344747 -0.0064640273
0.114561364 -0.07211303 0.085768856 0.0418611 -0.073511586 0.08562273 0.02153898 -0.05974503
-0.039035797 -0.09076826 -0.02097222 0.046587195 -0.07717927 0.0077592507 0.09654684 0.09485477
0.062420685 -0.07719085 -0.035052028 -0.08386224 0.10753501 -0.011087068 -0.103634425 -0.015812512
0.016344974 0.018595405 -0.0114208795 -0.014939027 -0.12238252 -0.03218382 0.045315724 0.028336767
0.11314252 0.106181346 0.07367466 -0.046278656 0.08488149 0.0764827 -0.028067322 -0.04982606
-0.038477097 -0.082304224 0.050311837 -0.05529621 0.06707993 0.010104265 0.0003892946 0.03332037
0.09745142 0.047390968 -0.078672245 -0.16762836 0.09402993 0.11166538 -0.085702576 0.08876693
0.06696426 -0.119064964 -0.033672456 -0.21555702 0.060712017 0.073021494 0.038010594 -0.012614595
0.008530373 -0.06160147 -0.16825598 -0.04271533 0.04183978 -0.067007996 -0.03947289 -0.06278492
-0.061231717 -0.06998619 -0.04109069 0.085211016 -0.033111557 -0.034798723 -0.07510586 -0.08239373
-0.08723454 -0.055537403 -0.012934258 -0.06560247 -0.10095334 0.022671068 0.106214575 -0.0743131
0.06372948 -0.060611494 0.070487164 0.0047065527 -0.06977243 -0.060658243 -0.030741159 -0.11628775
-0.01047108 -0.070321344 0.13923664 0.063320786 -0.10002373 -0.039227583 0.1168581 0.007057806
0.06930944 0.109976046 -0.04016202 0.07947691 -0.06635037 -0.025721595 0.06457128 -0.1968915
-0.089443095 -0.05150745 0.048295118 -0.09203718 0.11999687 -0.10738508 0.020858735 0.09253445
-0.0017637615 0.025967315 -0.07770843 0.1889859 0.12867129 -0.015426346 -0.08684248 0.07810771
-0.17276023 0.09646524 0.17126192 -0.034039248 0.051217802 0.040960167 0.017224023 -0.03835902
-0.0141832335 0.008014966 0.042922653 -0.08266688 0.004407044 0.14700945 0.05211956 -0.08208566
-0.05231755 0.06323686 0.014530624 0.10525641 -0.07776273 0.079847045 0.0014715161 0.034555227
0.023690008 -0.07822975 0.03345061 0.040951792 -0.11346486 0.0075997896 0.03099715 0.14558524
0.17222579 -0.076464295 0.009069918 -0.026176915 -0.06847714 0.0759715 0.19357307 0.121625826
-0.07155676 -0.08168962 -0.01921319 -0.020055313 -0.045345195 -0.07057333 -0.14971079 -0.093834355
-0.12198338 -0.07759034 0.115596674 -0.099260055 0.10907777 -0.011749488 0.1934902 -0.085467696
-0.11752786 0.0059658065 0.073992476 -0.06761342 -0.040494323 -0.093845546 0.107152544 -0.07688714
-0.059236 -0.065037146 0.03699932 0.08003446 0.07090527 0.07396529 0.089940846 -0.008265468
0.028552268 0.14233693 -0.026169622 -0.077901766 0.024152637 0.065000445 0.032897223 0.059332933
00000000: becc c0bd 4543 cc3d 451b 21bd ebcf 18be
00000010: 243a acbb 1186 973d f1d7 303d 388e ad3d
00000020: 13cc 5abd 2fad 373c ac7f be3d d000 4a3d
00000030: d9e7 d83d 3548 1d3d 7a94 3ebe 337e 883c
00000040: 7e04 15bd ac7d 813c 3348 523d 1582 4b3d
00000050: 4f02 99bd 7a5a b4bd d4fa bd3d ebaa 153d
00000060: 9064 363c 551b bfbb 81f7 3bbc 7fc8 b8bd
00000070: 276d d03d 2026 ba3d e997 7cbb 3f6e 90bd
00000080: bdc7 f83c 3648 aebd c007 f2bb bb6b 1c3e
00000090: 612c 5fbd 9206 99bd 63ac 683d dc9b a23c
000000a0: 14cf 6dbb 81d9 e43c c52c 97bb 90ab b3ba
000000b0: da63 e93b 6dd9 243d a16b 963d 31d0 d3bb
000000c0: 269f ea3d ffaf 93bd 95a7 af3d 8b76 2b3d
000000d0: 3e8d 96bd f85a af3d 8472 b03c 34b7 74bd
000000e0: 00e4 1fbd b6e4 b9bd efcd abbc 37d2 3e3d
000000f0: 2a10 9ebd 5041 fe3b 5aba c53d 3843 c23d
00000100: d5ac 7f3d 3d16 9ebd b792 0fbd f7bf abbd
00000110: 513b dc3d 89a6 35bc 493e d4bd 3e89 81bc
00000120: e5e5 853c 6455 983c a41e 3bbc d2c2 74bc
00000130: b0a3 fabd 2ed3 03bd fb9c 393d 8222 e83c
00000140: 44b7 e73d 9b75 d93d bde2 963d b08e 3dbd
00000150: 59d6 ad3d f6a2 9c3d 71ed e5bc 6916 4cbd
00000160: 299a 1dbd 1e8f a8bd c913 4e3d 477e 62bd
00000170: 3461 893d 5c8c 253c 3d1a cc39 f17a 083d
00000180: 9c94 c73d 081d 423d ea1e a1bd c5a6 2bbe
00000190: c492 c03d d2b0 e43d d584 afbd 70cb b53d
000001a0: 8f24 893d 55d8 f3bd 21ec 09bd fbba 5cbe
000001b0: 2aad 783d 4b8c 953d ffb0 1b3d 72ad 4ebc
000001c0: fac2 0b3c d351 7cbd 4c4b 2cbe 45f6 2ebd
000001d0: 3060 2b3d 7d3b 89bd 53ae 21bd 6195 80bd
000001e0: 1cce 7abd eb54 8fbd b64e 28bd 1d83 ae3d
000001f0: fc9f 07bd 1b89 0ebd 1ad1 99bd 0bbe a8bd
00000200: 06a8 b2bd 307b 63bd 36ea 53bc 965a 86bd
00000210: a0c0 cebd adb8 b93c 0787 d93d 7731 98bd
00000220: 9a84 823d c243 78bd 935b 903d 6d39 9a3b
00000230: d9e4 8ebd c774 78bd e2d4 fbbc 4628 eebd
00000240: e58e 2bbc a304 90bd 0d94 0e3e 54ae 813d
00000250: 3ed9 ccbd 1aad 20bd 4d53 ef3d 2b45 e73b
00000260: 1cf2 8d3d 1f3b e13d ee80 24bd cac4 a23d
00000270: b4e2 87bd 18b6 d2bc f23d 843d ed9d 49be
00000280: f12d b7bd 7af9 52bd 1ad1 453d fd7d bcbd
00000290: ebc0 f53d b5ec dbbd f0df aa3c b482 bd3d
000002a0: 042e e7ba 68b9 d43c 9925 9fbd 8585 413e
000002b0: 68c2 033e c9be 7cbc 78da b1bd eff6 9f3d
000002c0: 0fe8 30be 918f c53d 495f 2f3e bd6c 0bbd
000002d0: c2c9 513d d9c5 273d 6519 8d3c 591e 1dbd
000002e0: cb60 68bc 3451 033c aacf 2f3d 414d a9bd
000002f0: f768 903b a589 163e 527b 553d 871c a8bd
00000300: ed4a 56bd 5482 813d db11 6e3c ac90 d73d
00000310: 1142 9fbd d986 a33d e3df c03a c889 0d3d
00000320: 8c11 c23c eb36 a0bd 8203 093d 11bd 273d
00000330: 4460 e8bd a807 f93b bced fd3c 4c14 153e
00000340: f55b 303e 5099 9cbd fe99 143c f870 d6bc
00000350: be3d 8cbd f296 9b3d 0538 463e f616 f93d
00000360: 5a8c 92bd e34c a7bd fb64 9dbc 0a4b a4bc
00000370: e2bb 39bd c088 90bd c94d 19be 3a2c c0bd
00000380: 6cd2 f9bd afe7 9ebd f3bd ec3d db48 cbbd
00000390: 2a64 df3d ed80 40bc 4c22 463e b009 afbd
000003a0: 72b2 f0bd d07c c33b 5e89 973d e878 8abd
000003b0: 60dd 25bd 1832 c0bd cb72 db3d 0177 9dbd
000003c0: 73a1 72bd 3232 85bd 998c 173d 1be9 a33d
000003d0: c836 913d 1d7b 973d e832 b83d e36b 07bc
000003e0: 72e6 e93c c6c0 113e ad61 d6bc f68a 9fbd
000003f0: c0db c53c f41e 853d 3dbf 063d 1707 733d

actor.last.model.0.bias f4 [3]
0.052743133 0.012584037 -0.082405336
00000000: 2f09 583d 472d 4e3c 21c4 a8bd

actor_old.preprocess.model.model.0.weight f4 [128, 9]
0.034657843 0.2052773 -0.34660497 -0.261253 -0.2555299 0.03900482 -0.20094924 0.38800317
-0.0041095554 0.052092414 -0.230525 -0.17868917 -0.3321637 -0.09916598 -0.1124045 0.109435864
-0.050138883 0.1660106 -0.20568123 -0.102764994 0.19868034 0.27325952 0.09005534 0.20154239
0.064909756 0.049156535 0.3773917 -0.24396203 -0.42414856 -0.18614456 -0.2021012 0.34093028
-0.2573155 -0.12755412 -0.3687252 -0.34366575 -0.19628146 0.16101587 0.1430246 0.16659081
0.010517294 -0.18604201 -0.035186686 -0.4333247 -0.22236863 -0.18663046 0.29260066 0.31745115
-0.11591213 -0.10735167 0.18901001 0.48178768 0.20843019 0.14511943 0.20194434 -0.21928084
0.19140738 -0.19345286 -0.33167142 -0.14751849 0.23498888 0.046776637 -0.25034368 0.11261958
0.11481066 -0.058868006 -0.024879534 0.10716798 0.25219736 0.35328943 -0.24041595 -0.092600115
0.14824098 0.19547282 0.35425138 0.21370672 0.112808146 -0.3337921 0.11655699 -0.1567109
-0.40544176 0.35615295 0.51058346 -0.25771594 0.005127201 -0.115371384 -0.13317037 -0.23440275
0.46417803 -0.19663428 0.2482854 0.3187185 0.4836479 0.0745939 -0.39258793 -0.2861985
0.22836827 0.279793 -0.20042732 -0.19150312 0.18294738 0.28891504 -0.1624742 -0.03201315
-0.31849125 0.058388956 -0.4540743 -0.25209022 -0.0015009729 0.028719915 -0.11019919 0.15221536
-0.12125395 0.34145772 0.24213392 -0.2777014 -0.14036326 0.09737557 -0.13449943 0.034502145
0.06136293 0.020595936 -0.25689542 0.15435007 -0.486185 -0.25666267 -0.11087601 -0.29350165
-0.280872 -0.27268246 -0.2928763 0.10628342 -0.4635174 -0.13860849 0.23815762 0.009007732
0.15427518 -0.07270111 0.08673539 0.30023503 0.28407887 0.40080005 0.34912658 0.013820327
-0.23747721 -0.26297727 0.29208857 -0.054960098 -0.3397905 -0.27192324 -0.61094236 -0.14612527
-0.060694538 0.19463822 0.33057368 -0.3350832 0.20801209 -0.18099102 -0.12806198 -0.2719949
0.04520157 -0.10204132 -0.2451023 -0.48914596 -0.17420638 -0.059285447 -0.18830743 0.028271494
-0.4113632 -0.110173196 0.35884705 -0.15515126 0.43083927 0.26600152 -0.28054014 0.2060082
-0.07079074 -0.008649128 0.3743972 -0.3518299 0.04872613 0.0708057 0.35384104 0.085620455
0.26586857 0.035771452 0.019494873 0.15105042 -0.31978792 0.12632096 0.14488174 0.29848886
-0.2268971 0.10585793 -0.2293672 -0.0034878908 -0.3958186 0.041808743 -0.108325556 0.05460258
0.22832647 0.18396355 -0.34546602 -0.2830065 -0.3289629 0.3933005 -0.12579666 0.3023173
0.3703591 0.092222154 0.026963983 -0.24063003 0.004350075 -0.27197245 0.2165553 0.057416435
-0.22474688 -0.15575889 0.40105498 -0.21286207 0.017821701 0.2974838 0.1105233 0.1785537
-0.39389247 0.1622168 -0.2155051 -0.05912545 -0.16939336 0.12734984 0.038720522 0.44909137
0.17619938 0.23586616 0.22259553 -0.03166015 0.18507856 -0.21611255 -0.2631551 0.0744236
-0.036809377 0.408972 -0.15832725 -0.056864627 0.066009365 -0.36458266 0.24283487 -0.43400404
0.0036727483 -0.20447178 -0.30786067 0.0072382432 0.29093808 -0.028335452 -0.14808927 -0.12606044
00000000: 62f5 0d3d 3634 523e 3576 b1be f4c2 85be
00000010: d1d4 82be 85c3 1f3d a3c5 4dbe 5aa8 c63e
00000020: 73a9 86bb db5e 553d bf0e 6cbe 4bfa 36be
00000030: 5c11 aabe 8917 cbbd 5534 e6bd e91f e03d
00000040: 6e5e 4dbd affe 293e 1a9e 52be 7476 d2bd
00000050: dc72 4b3e ace8 8b3e ef6e b83d 2161 4e3e
00000060: 68ef 843d 5d58 493d 7c39 c13e 2fd1 79be
00000070: 002a d9be ae9c 3ebe 9ef3 4ebe 6a8e ae3e
00000080: dbbe 83be 8c9d 02be 8dc9 bcbe f5f4 afbe
00000090: 02fe 48be 58e1 243e 0a75 123e c896 2a3e
000000a0: ba50 2c3c cc81 3ebe ea1f 10bd bcdc ddbe
000000b0: 9ab4 63be 0e1c 3fbe c1cf 953e f588 a23e
000000c0: 5763 edbd 31db dbbd d78b 413e e0ac f63e
000000d0: b96e 553e 309a 143e 7fca 4e3e 288b 60be
000000e0: 4c00 443e 8218 46be d6d0 a9be 160f 17be
000000f0: eda0 703e dc98 3f3d 0c2d 80be 18a5 e63d
00000100: da21 eb3d 941f 71bd 2ad0 cbbc e37a db3d
00000110: 0320 813e 5ae2 b43e 992f 76be 21a5 bdbd
00000120: 7ccc 173e 072a 483e 7060 b53e efd5 5a3e
00000130: f507 e73d cce6 aabe 6eb5 ee3d d278 20be
00000140: 1096 cfbe ae59 b63e 99b5 023f 58f3 83be
00000150: 1402 a83b d547 ecbd d05d 08be 4607 70be
00000160: bea8 ed3e 7f5a 49be 873e 7e3e 122f a33e
00000170: b3a0 f73e b0c4 983d 4901 c9be 9c88 92be
00000180: 5fd9 693e 0741 8f3e d23c 4dbe 6519 44be
00000190: 8f56 3b3e acec 933e a35f 26be 3920 03bd
000001a0: 4911 a3be 4229 6f3d 6d7c e8be f811 81be
000001b0: 4bbc c4ba 0746 eb3c 1db0 e1bd 58de 1b3e
000001c0: fe53 f8bd 8cd3 ae3e f4f1 773e e12e 8ebe
000001d0: 63bb 0fbe d86c c73d 38ba 09be 1f52 0d3d
000001e0: b257 7b3d cfb8 a83c cc87 83be f20d 1e3e
000001f0: 3eed f8be 4a69 83be f612 e3bd d945 96be
00000200: 74ce 8fbe 099d 8bbe e2f3 95be 1fab d93d
00000210: 2752 edbe 62ef 0dbe 97df 733e 2b95 133c
00000220: 50fa 1d3e 52e4 94bd 53a2 b13d 68b8 993e
00000230: c972 913e aa35 cd3e b8c0 b23e a76e 623c
00000240: 3a2d 73be f5a4 86be a28c 953e d71d 61bd
00000250: 05f9 adbe 8639 8bbe b866 1cbf dda1 15be
00000260: d69a 78bd 3e4f 473e f440 a93e 0690 abbe
00000270: 1f01 553e b655 39be ae22 03be ea42 8bbe
00000280: 4825 393d 0afb d0bd 19fc 7abe 5771 fabe
00000290: 2863 32be 4cd5 72bd aad3 40be 9f99 e73c
000002a0: 339e d2be 7ca2 e1bd cdba b73e f9df 1ebe
000002b0: f796 dc3e 5a31 883e f5a2 8fbe d0f3 523e
000002c0: bcfa 90bd 12b5 0dbc fdb0 bf3e 0c23 b4be
000002d0: 0d95 473d 9402 913d a72a b53e c759 af3d
000002e0: ed1f 883e 1685 123d b6b3 9f3c f6ac 1a3e
000002f0: 3ebb a3be 485a 013e e15b 143e 88d3 983e
00000300: b757 68be 0bcc d83d 3cdf 6abe 1995 64bb
00000310: bca8 cabe a53f 2b3d cad9 ddbd f4a6 5f3d
00000320: 6ace 693e f160 3c3e ece0 b0be 3ae6 90be
00000330: d36d a8be af5e c93e d7d0 00be 55c9 9a3e
00000340: b59f bd3e f8de bc3d 92e3 dc3c b867 76be
00000350: 138b 8e3b f93f 8bbe acc0 5d3e 7f2d 6b3d
00000360: 0c24 66be 427f 1fbe 1457 cd3e 84f8 59be
00000370: d1fe 913c cc4f 983e 0a5a e23d c8d6 363e
00000380: 46ac c9be 291c 263e 5ead 5cbe 872d 72bd
00000390: 7475 2dbe ff67 023e 6999 1e3d 4eef e53e
000003a0: 9c6d 343e e686 713e 15f0 633e 13ae 01bd
000003b0: 3c85 3d3e 9c4c 5dbe 44bc 86be 676b 983d
000003c0: 6ec5 16bd c764 d13e 8a20 22be e2ea 68bd
000003d0: eb2f 873d 94aa babe b4a9 783e c735 debe
000003e0: 7eb2 703b 0d61 51be ea9f 9dbe c92e ed3b
000003f0: d6f5 943e c01f e8bc b7a4 17be fd15 01be

actor_old.preprocess.model.model.0.bias f4 [128]
-0.2464588 -0.007094714 0.2389864 -0.24364398 -0.13961191 0.29414257 -0.13238063 0.13860321
-0.30370206 -0.060815036 -0.07480029 0.26348987 0.108063534 -0.16436143 0.06420868 0.016855668
-0.09249728 -0.19179401 -0.024391295 0.2194855 -0.23906276 -0.2768196 -0.04550482 0.025498146
0.08835964 0.0053841984 -0.0639205 -0.18152358 -0.053744666 -0.08902176 0.24779367 -0.3355623
-0.12794589 -0.28456336 -0.025921563 0.24663599 0.26972714 -0.2571419 0.0030843515 0.17798305
0.14400023 0.24273652 0.044605788 -0.20726626 0.22671394 -0.07970267 0.1828472 -0.086150214
0.14152578 0.2613493 0.31629586 -0.24913993 -0.22440672 -0.18185133 -0.21011576 0.34023723
0.04010724 -0.17405216 -0.15723236 -0.20247498 0.12984404 -0.28129643 -0.24520028 -0.28454602
0.17213376 0.17671612 -0.17170869 0.07043668 0.23814987 0.0635934 -0.08083425 0.02240171
-0.06081347 0.21545668 -0.20750949 0.17476402 0.16720843 -0.22550476 0.33565682 0.3623986
-0.14339504 -0.088102624 0.19582622 -0.257797 0.13855378 0.07314085 0.19741325 -0.26818705
-0.25346166 0.22403763 0.11752257 -0.3022338 -0.12971373 -0.25663528 -0.26323703 -0.15338144
0.2632175 -0.0155767035 0.21666946 0.2826635 0.20634528 -0.31343147 0.17020543 0.1605973
0.2390004 -0.25068256 0.18429843 0.25162968 -0.26753253 0.03931083 0.2672589 -0.24229997
0.09753923 0.15305671 0.07144876 0.3028785 0.2314494 0.22479089 -0.04567317 0.27464977
-0.34231874 -0.15960144 -0.0416878 -0.111618884 0.276517 0.1606192 0.19486232 0.23488005
00000000: b25f 7cbe c67a e8bb dab8 743e cf7d 79be
00000010: 6df6 0ebe db99 963e ca8e 07be 00ee 0d3e
00000020: d67e 9bbe 3019 79bd e530 99bd 25e8 863e
00000030: 6a50 dd3d 5d4e 28be d77f 833d e614 8a3c
00000040: 376f bdbd a665 44be 41d0 c7bc cfc0 603e
00000050: decc 74be 4cbb 8dbe 4363 3abd 7de1 d03c
00000060: e6f5 b43d ee6d b03b c0e8 82bd 51e1 39be
00000070: 5e23 5cbd 0a51 b6bd a0bd 7d3e d2ce abbe
00000080: 3f04 03be 4ab2 91be 7559 d4bc 258e 7c3e
00000090: ad19 8a3e 1aa8 83be d522 4a3b 3041 363e
000000a0: cc74 133e ec8f 783e 8fb4 363d 9b3d 54be
000000b0: b327 683e 273b a3bd 4c3c 3b3e 866f b0bd
000000c0: 22ec 103e 93cf 853e 88f1 a13e 8a1e 7fbe
000000d0: e0ca 65be 3c37 3abe 9628 57be 9333 ae3e
000000e0: 7d47 243d bb3a 32be 8501 21be 9a55 4fbe
000000f0: d6f5 043e 1606 90be c815 7bbe 04b0 91be
00000100: d543 303e 12f5 343e 67d4 2fbe 1b41 903d
00000110: 8fdd 733e 423d 823d 6d8c a5bd ca83 b73c
00000120: 8c17 79bd ada0 5c3e 5e7d 54be 57f5 323e
00000130: b038 2b3e b8ea 66be 36db ab3e 4f8c b93e
00000140: 26d6 12be 266f b4bd ab86 483e f8fd 83be
00000150: 0be1 0d3e dfca 953d b326 4a3e d04f 89be
00000160: bac5 81be 1f6a 653e acaf f03d 63be 9abe
00000170: add3 04be b365 83be 01c7 86be 0610 1dbe
00000180: 72c4 863e 6e35 7fbc 99de 5d3e 45b9 903e
00000190: 2d4c 533e 177a a0be 554a 2e3e 9e73 243e
000001a0: 85bc 743e 7759 80be bab8 3c3e 9bd5 803e
000001b0: 06fa 88be 6504 213d 29d6 883e 7c1d 78be
000001c0: a6c2 c73d e6ba 1c3e ba53 923d e412 9b3e
000001d0: 1201 6d3e 952f 663e ca13 3bbd e59e 8c3e
000001e0: 6744 afbe 8f6e 23be d4c0 2abd 7198 e4bd
000001f0: a393 8d3e 5c79 243e fd89 473e 6584 703e

actor_old.preprocess.model.model.2.weight f4 [128, 128]
-0.049958073 0.0069155614 0.007166428 0.04833149 0.021424796 -0.023495732 -0.023061922 0.08018132
-0.005923701 -0.022033436 0.06456726 0.04262097 -0.032511827 -0.03389782 -0.0451649 -0.048557494
-0.0077387504 0.0054270052 0.058378264 -0.054059763 0.028462756 0.010927844 0.052336555 0.046139248
0.079901576 0.07315173 -0.042815514 -0.07033336 -0.054656804 0.025846668 0.079696506 0.033267725
-0.04531342 -0.045374546 0.0054874327 0.06011115 -0.06843925 -0.06187208 0.08797922 0.050617237
-0.031016223 0.025234358 -0.011282502 -0.056166172 -0.03484427 0.09734043 0.001373124 -0.022032144
-0.033480912 -0.045589913 -0.028292818 -0.06184971 0.073722094 0.040970493 -0.023619864 -0.00083407084
0.040228847 -0.03514203 0.065936394 0.03791107 -0.05994616 0.047731083 -0.008328696 0.097837955
-0.026217135 -0.02200821 0.08048178 -0.046359375 0.04057455 0.07804817 -0.021944668 0.1141577
0.072191596 0.06476114 -0.016615488 0.07870843 -0.014502767 -0.02877133 0.057942517 0.0052282824
0.071924716 0.09543364 0.0008648139 0.0556628 0.04299362 0.04897075 0.057342313 0.027668688
-0.066465035 0.12714891 -0.0426509 0.099709526 -0.13267048 0.042419232 -0.038142115 0.006934913
0.009589499 0.05804912 0.016723655 0.039315965 0.119223386 -0.04257702 -0.0026118993 -0.03258935
0.076006465 -0.02122921 0.009789692 -0.039025724 -0.057739563 0.065222934 0.016788295 0.12014853
0.085903294 0.09323628 0.08754867 -0.05242889 0.02345816 -0.046225764 0.06429327 0.0037029318
-0.0024810117 -0.045067746 -0.061315123 0.027081305 0.024006538 0.025426414 0.07410972 -0.026636979
0.026214523 -0.04292989 0.03329055 -0.06961196 0.011595207 0.07327612 0.10338929 0.022241576
0.039382685 -0.15473172 -0.07134795 0.040744726 0.0369737 -0.09838021 -0.023198934 -0.06310158
-0.16729909 -0.039022546 0.051827203 0.02361882 -0.06608554 -0.077902555 -0.054906406 -0.01661383
0.0771322 -0.05591282 -0.031133851 -0.07880884 0.03782338 -0.090849146 -0.093774386 0.07734618
0.026429819 -0.037530493 0.016661355 -0.06865026 -0.021426471 0.044616573 -0.03679562 -0.014047607
0.017048758 -0.11308935 0.049307752 0.09427028 0.0422889 -0.09287072 0.07568967 -0.08159747
-0.016524702 -0.006688451 -0.009903631 0.064124264 -0.08168678 -0.021452507 -0.024160873 -0.05679942
-0.0012967973 -0.081718475 0.03791984 0.07590489 0.102886625 -0.026960341 -0.013412639 0.049526688
0.093646675 0.09507589 -0.034332726 -0.14146183 -0.07461611 0.0014894761 0.0390433 0.06536046
0.09748763 0.08025025 0.028216323 0.00054381933 0.08696441 0.10086136 0.020496849 -0.02130592
0.0994494 -0.02009676 0.045069646 0.07496849 0.027340472 -0.07672685 -0.05222797 0.050877668
-0.02699035 -0.10997052 0.08266254 -0.038618818 0.026538856 -0.12967691 0.0897067 0.0009250085
-0.021235175 -0.031277925 -0.024459213 0.040803626 -0.045186963 0.07501142 0.04450729 0.0053779236
-0.049768645 -0.07388166 -0.02594606 -0.054048464 0.0027467466 -0.0065668714 -0.012869208 -0.10297919
0.069429986 0.0057140635 0.0066887746 -0.029916804 0.07358968 0.10321354 -0.10240464 -0.016239101
0.021986572 -0.021368235 0.07863343 0.037464783 0.06007203 0.012887858 -0.029596899 -0.057806477
00000000: d6a0 4cbd ef9b e23b 5bd4 ea3b 3ef7 453d
00000010: 0e83 af3c 1f7a c0bc 5bec bcbc 1b36 a43d
00000020: 9b1b c2bb 777f b4bc d73b 843d 5493 2e3d
00000030: 1f2b 05bd 71d8 0abd d5fe 38bd 39e4 46bd
00000040: 5895 fdbb 05d5 b13b 0c1e 6f3d c56d 5dbd
00000050: ba2a e93c b30a 333c db5e 563d 82fc 3c3d
00000060: 70a3 a33d 93d0 953d 525f 2fbd f00a 90bd
00000070: d0df 5fbd 64bc d33c ec37 a33d bd43 083d
00000080: 919a 39bd a9da 39bd eccf b33b 1c37 763d
00000090: e129 8cbd 946d 7dbd 732e b43d 0554 4f3d
000000a0: bc15 febc 49b8 ce3c 3eda 38bc 800e 66bd
000000b0: deb8 0ebd 6b5a c73d 65fa b33a c17c b4bc
000000c0: 4823 09bd 7dbc 3abd 57c6 e7bc 1f56 7dbd
000000d0: 9cfb 963d add0 273d 727e c1bc 8ca5 5aba
000000e0: 01c7 243d 17f1 0fbd a909 873d a348 1b3d
000000f0: 1b8a 75bd ab81 433d 1575 08bc 445f c83d
00000100: 51c5 d6bc 904a b4bc a2d3 a43d 54e3 3dbd
00000110: 8031 263d b8d7 9f3d 4ec5 b3bc 83cb e93d
00000120: 30d9 933d 7da1 843d 341d 88bc e331 a13d
00000130: 039d 6dbc dab1 ebbc 2255 6d3d 0352 ab3b
00000140: 444d 933d b672 c33d aeb4 623a adfe 633d
00000150: 141a 303d 8e95 483d c6df 6a3d 72a9 e23c
00000160: d21e 88bd 5333 023e b6b2 2ebd 8234 cc3d
00000170: c5da 07be cabf 2d3d e83a 1cbd 443e e33b
00000180: 461d 1d3c eac4 6d3d 0c00 893c c709 213d
00000190: 642b f43d 3e65 2ebd 662c 2bbb 697c 05bd
000001a0: 47a9 9b3d e1e8 adbc f264 203c 70d9 1fbd
000001b0: 5280 6cbd 9a93 853d 9b87 893c 6f10 f63d
000001c0: 11ee af3d aaf2 be3d b84c b33d adbf 56bd
000001d0: 542b c03c 3a57 3dbd 31ac 833d e3ac 723b
000001e0: 7898 22bb f598 38bd 9125 7bbd 9dd9 dd3c
000001f0: 5ca9 c43c 0e4b d03c d6c6 973d cb35 dabc
00000200: d7bf d63c 41d7 2fbd ac5b 083d b790 8ebd
00000210: d3f9 3d3c ca11 963d c4bd d33d f733 b63c
00000220: bd4f 213d fe71 1ebe e01e 92bd f1e3 263d
00000230: bc71 173d 907b c9bd b10b bebc 673b 81bd
00000240: 7450 2bbe 1bd6 1fbd c348 543d 417c c13c
00000250: db57 87bd 608b 9fbd 8ae5 60bd ba19 88bc
00000260: 7df7 9d3d d704 65bd 6b0c ffbc 8766 a1bd
00000270: b0ec 1a3d 1e0f babd c90c c0bd ad67 9e3d
00000280: 5983 d83c 93b9 19bd 657d 883c 8298 8cbd
00000290: 9186 afbc debf 363d 01b7 16bd ef27 66bc
000002a0: d6a9 8b3c 649b e7bd edf6 493d c710 c13d
000002b0: 2037 2d3d 0133 bebd 3003 9b3d 931c a7bd
000002c0: d05e 87bc cb2a dbbb d742 22bc 9553 833d
000002d0: 664b a7bd 2bbd afbc 06ed c5bc 82a6 68bd
000002e0: 4cf9 a9ba 045c a7bd d651 1b3d 0674 9b3d
000002f0: 39b6 d23d efdb dcbc afc0 5bbc 7fdc 4a3d
00000300: d4c9 bf3d 26b7 c23d 79a0 0cbd 5fdb 10be
00000310: 55d0 98bd 863a c33a deeb 1f3d b4db 853d
00000320: 98a7 c73d 3e5a a43d eb25 e73c 198f 0e3a
00000330: 661a b23d 6790 ce3d 02e9 a73c c189 aebc
00000340: 21ac cb3d f6a1 a4bc f39a 383d 1489 993d
00000350: 20f9 df3c f722 9dbd ffec 55bd 1a65 503d
00000360: de1a ddbc 3938 e1bd fa4a a93d c42e 1ebd
00000370: 0468 d93c 06ca 04be 25b8 b73d 457c 723a
00000380: 64f5 adbc 481d 00bd b05e c8bc b421 273d
00000390: f715 39bd 969f 993d 474d 363d 4b39 b03b
000003a0: 35da 4bbd 454f 97bd d58c d4bc ec61 5dbd
000003b0: c302 343b e92e d7bb 5fd9 52bc c1e6 d2bd
000003c0: 4f31 8e3d 0a3d bb3b 822d db3b 1614 f5bc
000003d0: 30b6 963d 9f61 d33d 86b9 d1bd dd07 85bc
000003e0: 2f1d b43c 700c afbc 900a a13d ac74 193d
000003f0: 170e 763d 9827 533c 3275 f2bc 7cc6 6cbd

actor_old.preprocess.model.model.2.bias f4 [128]
0.06531329 0.04766005 0.047751565 -0.0055944696 -0.08421316 0.06470141 0.025029683 0.018697327
0.0024517758 -0.07371889 -0.0015351688 -0.0052658557 0.07430051 0.0295834 0.020088283 0.072307825
-0.023603108 0.05942031 0.021586578 -0.069179505 0.046379384 -0.051921558 0.075254865 0.066948675
0.0068537337 0.0029254905 0.009533306 0.08024667 0.05546662 0.070837215 0.00851427 -0.11122031
0.04149136 -0.0094696935 0.036382295 0.07720491 -0.010226168 0.06785385 -0.035067957 -0.045665547
0.073345385 0.06924494 -0.037751142 0.016069585 0.012735459 0.029491669 -0.024720095 -0.07388393
0.043389436 -0.06940689 -0.07049886 -0.07447031 0.04242181 0.051548492 -0.06423972 0.08642573
-0.06006352 0.061059777 0.054383013 -0.026826229 0.0590105 0.078785785 0.07523818 -0.062567234
-0.01736124 -0.05100508 0.06463699 0.017829387 -0.03486393 -0.0014194737 0.05392459 0.08819729
-0.02486395 -0.09442133 -0.044411093 0.069855355 0.017908746 0.06067529 0.08181591 -0.0011180252
0.07451432 -0.0044676834 -0.034773733 -0.05483398 0.019203817 0.0042596296 0.07601816 0.106121
-0.07531725 -0.0103693055 -0.033905774 0.053392127 0.039630055 0.061534446 0.06471717 0.047935314
-0.07752938 -0.036971252 -0.050502766 -0.04733796 -0.04018626 0.05946169 -0.03760479 0.08371349
0.0946305 0.033781964 0.076130174 0.08006041 0.011608942 -0.06487385 0.07009823 0.08761427
0.048404958 -0.075197615 0.03778015 0.05320642 0.0069481353 0.0050796047 -0.03166174 0.03037356
0.047527257 -0.014007762 0.06400063 -0.055130363 0.05361727 0.009219669 -0.01286211 0.0013942213
00000000: f9c2 853d 2f37 433d 2597 433d d051 b7bb
00000010: f377 acbd 2c82 843d 0d0b cd3c 232b 993c
00000020: f9ad 203b eef9 96bd b837 c9ba 338d acbb
00000030: de2a 983d e358 f23c 2f90 a43c 2016 943d
00000040: 4e5b c1bc b662 733d 56d6 b03c fcad 8dbd
00000050: 4ff8 3d3d b3ab 54bd 391f 9a3d 631c 893d
00000060: 4995 e03b 96b9 3f3b 9531 1c3c 5e58 a43d
00000070: f730 633d 1a13 913d 707f 0b3c 79c7 e3bd
00000080: d8f2 293d c626 1bbc 9a05 153d 9c1d 9e3d
00000090: a88b 27bc f6f6 8a3d 6ba3 0fbd cc0b 3bbd
000000a0: 1b36 963d 4bd0 8d3d f1a0 1abd 5da4 833c
000000b0: 63a8 503c 8398 f13c cc81 cabc 7550 97bd
000000c0: 1fb9 313d 3325 8ebd b561 90bd e483 98bd
000000d0: 7ec2 2d3d 8324 533d 1d90 83bd f9ff b03d
000000e0: 2a05 76bd d119 7a3d b9c0 5e3d aec2 dbbc
000000f0: feb4 713d 715a a13d 7a16 9a3d 4023 80bd
00000100: 2939 8ebc b4ea 50bd 6660 843d ef0e 923c
00000110: 7bcd 0ebd a20d baba 08e0 5c3d c8a0 b43d
00000120: 7caf cbbc f85f c1bd 68e8 35bd 5310 8f3d
00000130: 5db5 923c a786 783d 1a8f a73d b38a 92ba
00000140: f79a 983d a565 92bb e76e 0ebd 9899 60bd
00000150: 5351 9d3c 5d94 8b3b 69af 9b3d f855 d93d
00000160: ee3f 9abd 05e4 29bc c8e0 0abd b4b1 5a3d
00000170: 2053 223d 8b0b 7c3d 708a 843d d257 443d
00000180: b9c7 9ebd 2b6f 17bd fddb 4ebd 73e5 41bd
00000190: 599a 24bd 1a8e 733d 7b07 1abd fa71 ab3d
000001a0: a3cd c13d f55e 0a3d 23ea 9b3d b6f6 a33d
000001b0: 6f33 3e3c 95dc 84bd a98f 8f3d 1c6f b33d
000001c0: 4744 463d 3501 9abd 5cbf 1a3d faee 593d
000001d0: 2fad e33b d072 a63b beaf 01bd f9d1 f83c
000001e0: f1ab 423d d080 65bc c312 833d 60d0 61bd
000001f0: c89d 5b3d 180e 173c 99bb 52bc 4ebe b63a

actor_old.last.model.0.weight f4 [3, 128]
-0.094728015 0.094690464 -0.038702205 -0.14781721 -0.007687354 0.07374127 0.04206003 0.08243974
-0.05245179 0.011245959 0.09389437 0.047170967 0.10439198 0.034354102 -0.18513528 0.013671141
-0.03768559 0.015806995 0.05040132 0.049662184 -0.07415729 -0.087357596 0.09184846 0.03386935
0.011328817 -0.0046068914 -0.011472694 -0.09026153 0.09949365 0.08777835 -0.005167919 -0.07258687
0.027061906 -0.08509986 -0.00691777 0.1498933 -0.052528102 -0.07274861 0.055167243 0.019099262
-0.00062063267 0.024773 -0.0066201477 2.3438406e-06 0.0054541244 0.03929527 0.07055217 -0.007075295
0.11132466 -0.06891104 0.085439116 0.0402991 -0.07366609 0.08424229 0.02153909 -0.06061535
-0.0391868 -0.08862334 -0.021613428 0.044495884 -0.074763924 0.005352391 0.09498773 0.09429452
0.060252972 -0.076916315 -0.035054784 -0.085541666 0.10573878 -0.010961122 -0.1012464 -0.016761886
0.012223195 0.018596044 -0.011420912 -0.014387696 -0.12283917 -0.032771103 0.042476494 0.029180342
0.11108319 0.10316332 0.06951179 -0.04795173 0.08101734 0.07381117 -0.028069634 -0.04862565
-0.03847744 -0.08379735 0.0488695 -0.055550966 0.06601994 0.011904867 0.0004286766 0.029317586
0.09209035 0.04295882 -0.07816219 -0.1652785 0.093679495 0.10937357 -0.08336206 0.086508006
0.06422421 -0.113726795 -0.033693973 -0.20522669 0.058388144 0.067870975 0.03674903 -0.013534764
0.008150536 -0.06160183 -0.16519938 -0.040512785 0.040312212 -0.065271616 -0.04010166 -0.06288978
-0.060851235 -0.0681325 -0.04025067 0.08520061 -0.03272023 -0.03450306 -0.076082684 -0.081012376
-0.08575835 -0.057076115 -0.010845931 -0.06396541 -0.09731692 0.023950057 0.10452482 -0.07419897
0.06627629 -0.060605276 0.068295196 0.0063752667 -0.068491705 -0.060338225 -0.032266397 -0.116260424
-0.0066846577 -0.070321344 0.13872403 0.064790286 -0.09569742 -0.036491048 0.11748529 0.008155082
0.07024504 0.1113308 -0.040162764 0.082137205 -0.065043665 -0.02633871 0.06508995 -0.19525062
-0.08912508 -0.051507775 0.048515737 -0.08904981 0.120638296 -0.10393896 0.021314051 0.09409078
-0.00061482366 0.026292186 -0.07709559 0.18145828 0.12484162 -0.0148859285 -0.08607822 0.07970426
-0.1719258 0.09620768 0.17113754 -0.033496972 0.05421783 0.039641626 0.01722371 -0.037930097
-0.011227636 0.0122854 0.044577733 -0.08272765 0.008330926 0.14435908 0.05176013 -0.08055156
-0.05056435 0.065511234 0.014527124 0.1047143 -0.07772815 0.080086485 0.0018039792 0.035956174
0.018614026 -0.078233376 0.033451274 0.042561665 -0.110367544 0.008652747 0.030603718 0.14395802
0.17019494 -0.07370076 0.0067794276 -0.024541583 -0.06835369 0.07435465 0.1901312 0.12518221
-0.07155768 -0.0780061 -0.017276308 -0.018762777 -0.044123344 -0.06928903 -0.14725845 -0.09126691
-0.11584826 -0.07476499 0.11826784 -0.09813286 0.1078239 -0.0107067665 0.1920519 -0.08589423
-0.11571209 0.0070357956 0.0762093 -0.058660004 -0.03887299 -0.096228465 0.105089515 -0.075205445
-0.058121994 -0.06503841 0.041627336 0.08043221 0.0700669 0.07466606 0.09180971 -0.0063349907
0.031047797 0.13614616 -0.024266792 -0.07791395 0.026836323 0.0673596 0.034493517 0.06308469
00000000: c300 c2bd 13ed c13d 3486 1ebd 655d 17be
00000010: 33e6 fbbb aa05 973d 2347 2c3d 2bd6 a83d
00000020: b0d7 56bd f940 383c b14b c03d 5836 413d
00000030: 76cb d53d e3b6 0c3d 1a94 3dbe ecfc 5f3c
00000040: 355c 1abd ac7d 813c 9d71 4e3d 936a 4b3d
00000050: c7df 97bd 8ae8 b2bd 0c1b bc3d 96ba 0a3d
00000060: 819c 393c 68f5 96bb f7f7 3bbc 09db b8bd
00000070: 54c3 cb3d 23c5 b33d a657 a9bb 6da8 94bd
00000080: eeb0 dd3c d648 aebd 76ae e2bb a17d 193e
00000090: b527 57bd 39fd 94bd 0cf7 613d 0e76 9c3c
000000a0: f4b1 22ba bff0 ca3c d3ed d8bb e04a 1d36
000000b0: 83b8 b23b 14f4 203d a87d 903d e0d7 e7bb
000000c0: 2ffe e33d 3b21 8dbd b4fa ae3d ab10 253d
000000d0: 3fde 96bd 3987 ac3d bf72 b03c cd47 78bd
000000e0: 5782 20bd 2780 b5bd a50e b1bc 5141 363d
000000f0: d41d 99bd 1c63 af3b ed88 c23d 7c1d c13d
00000100: d2cb 763d 4d86 9dbd 9b95 0fbd 7830 afbd
00000110: 938d d83d 4796 33bc 465a cfbd 3950 89bc
00000120: cc43 483c bb56 983c c71e 3bbc 5fba 6bbc
00000130: 1a93 fbbd fe3a 06bd d5fb 2d3d 9d0b ef3c
00000140: 957f e33d 4a47 d33d 335c 8e3d 0969 44bd
00000150: 6bec a53d 502a 973d 4af2 e5bc b12b 47bd
00000160: 859a 1dbd f29d abbd 632b 483d 6989 63bd
00000170: 7635 873d a20c 433c 00c0 e039 6f2b f03c
00000180: de99 bc3d 96f5 2f3d 8013 a0bd c43e 29be
00000190: 09db bf3d 40ff df3d bab9 aabd 1c2b b13d
000001a0: fc87 833d 98e9 e8bd b102 0abd f226 52be
000001b0: 6828 6f3d f0ff 8a3d 2786 163d eac0 5dbc
000001c0: d389 053c 3352 7cbd 072a 29be bcf0 25bd
000001d0: 6b1e 253d 20ad 85bd a341 24bd 5bcc 80bd
000001e0: 253f 79bd 0d89 8bbd e3dd 24bd a87d ae3d
000001f0: a605 06bd 1553 0dbd 3dd1 9bbd d1e9 a5bd
00000200: 13a2 afbd a5c8 69bd 22b3 31bc 4c00 83bd
00000210: 184e c7bd e932 c43c 1c11 d63d a1f5 97bd
00000220: ddbb 873d 3d3d 78bd 5ade 8b3d 9de7 d03b
00000230: 6145 8cbd 3725 77bd c529 04bd f219 eebd
00000240: f90a dbbb a304 90bd ac0d 0e3e c5b0 843d
00000250: 02fd c3bd a377 15bd 219c f03d e59c 053c
00000260: a2dc 8f3d 6701 e43d b681 24bd 8d37 a83d
00000270: 9d35 85bd 47c4 d7bc e14d 853d c7ef 47be
00000280: 3687 b6bd d1f9 52bd 70b8 463d bf5f b6bd
00000290: 3611 f73d f3dd d4bd ce9a ae3c abb2 c03d
000002a0: 1e2c 21ba b662 d73c 4be4 9dbd 33d0 393e
000002b0: f7ac ff3d 1ce4 73bc c749 b0bd fd3b a33d
000002c0: 510d 30be 8808 c53d ae3e 2f3e 1f34 09bd
000002d0: 8413 5e3d 425f 223d bd18 8d3c 975c 1bbd
000002e0: 1ef4 37bc b448 493c 2497 363d 1d6d a9bd
000002f0: 707e 083c ded2 133e 6e02 543d 37f8 a4bd
00000300: 901c 4fbd c12a 863d 2d03 6e3c 7374 d63d
00000310: f02f 9fbd 6204 a43d 7f73 ec3a c846 133d
00000320: 717c 983c d238 a0bd 3404 093d 2455 2e3d
00000330: 6108 e2bd 40c4 0d3c a6b4 fa3c bb69 133e
00000340: 9547 2e3e 6df0 96bd f625 de3b 6e0b c9bc
00000350: 05fd 8bbd 4047 983d c1b1 423e c42f 003e
00000360: d58c 92bd aac1 9fbd 0b87 8dbc 65b4 99bc
00000370: aeba 34bd 68e7 8dbd ebca 16be 25ea babd
00000380: da41 edbd 631e 99bd 6936 f23d e2f9 c8bd
00000390: c7d2 dc3d 6f6b 2fbc 41a9 443e 50e9 afbd
000003a0: 76fa ecbd 888c e63b 9f13 9c3d 7945 70bd
000003b0: 4939 1fbd 6e13 c5bd 2c39 d73d 5005 9abd
000003c0: 5411 6ebd dc32 85bd 6d81 2a3d a4b9 a43d
000003d0: 3c7f 8f3d 85ea 983d bb06 bc3d c195 cfbb
000003e0: f357 fe3c e669 0b3e 27cb c6bc 5991 9fbd
000003f0: d9d7 db3c d4f3 893d 1349 0d3d 8c32 813d

actor_old.last.model.0.bias f4 [3]
0.052145023 0.014239186 -0.08085271
00000000: 0596 553d 7a4b 693c 1b96 a5bd
