demo/tianshou/continuous/log/Pendulum-v1/ddpg/policy.pth (torch, 284189 bytes, 20 tensors)

actor.preprocess.model.model.0.weight f4 [128, 3]
-0.044807374 0.27065712 -0.52736104 -0.5214069 -0.1693352 0.17754664 0.024360396 0.54967564
-0.112989165 0.16321822 -0.24449764 -0.06046192 -0.5208055 -0.45106244 -0.26134804 -0.046356037
0.35482332 0.32830608 -0.5363998 -0.13898136 0.1803057 0.40973097 -0.11871716 0.47963902
-0.22311151 0.040502705 0.58063763 -0.69921213 -0.20780481 -0.13203341 -0.23630452 0.38893235
-0.43720767 -0.2649842 -0.5260409 -0.5373527 -0.35265064 0.6411132 0.1768752 0.28074676
-0.016210906 -0.30110815 0.14059791 -0.5833001 -0.42972293 -0.2752306 0.48919454 0.28592512
-0.37197748 0.10386866 0.34757403 0.65491587 0.2085107 0.12251872 0.24180648 -0.45826542
0.16068268 -0.5622912 -0.40088788 -0.28537738 0.3196924 0.24394342 -0.34235114 0.12874721
0.3964951 -0.1306156 -0.03927643 0.23200962 0.40571266 0.5221329 -0.51411444 -0.16045466
0.30300087 0.5763132 0.5287677 0.6041891 0.082166426 -0.49642986 0.015686855 -0.46574926
-0.5535691 0.5227534 0.37237868 -0.60611707 0.07223457 -0.15121187 -0.121464215 -0.26295188
0.19512013 -0.3664434 0.17498924 0.33629596 0.44846007 0.24968642 -0.5935097 -0.38918796
0.3013031 0.04632508 -0.480968 -0.37689528 0.6528812 0.30130103 -0.26607156 -0.21195154
-0.59669137 -0.005504075 -0.5563572 -0.4992036 -0.0523857 0.008019937 -0.26835743 0.21760727
-0.38939303 0.5901431 0.3071068 -0.61440647 -0.11896834 0.008807938 0.17169935 0.06712026
0.33627635 0.009231293 -0.28087342 0.34241793 -0.586044 -0.3258426 -0.16111055 -0.4175856
-0.19341561 -0.58626705 0.059719093 0.14894532 -0.51799816 0.18683438 0.39250565 -0.079074524
0.09407356 -0.12354486 0.14820276 0.44751856 0.5717675 0.39245003 0.60887307 -0.07488176
-0.57929957 -0.21531916 0.38997188 0.077239454 -0.38540113 -0.44243398 -0.6225297 -0.43922693
-0.07388741 0.33116361 0.26247895 -0.56924427 0.33451542 -0.5565243 -0.13675667 -0.2561822
-0.13428238 -0.13898987 -0.5733955 -0.50403374 -0.092875406 -0.12908629 -0.27136913 0.27193254
-0.6324468 -0.07555331 0.5290661 -0.28227407 0.5476524 0.24573033 -0.4938615 0.37489885
-0.17138909 -0.20793757 0.48118287 -0.49986053 0.00054057897 -0.09531822 0.4496783 0.14593899
0.38737106 0.14337769 -0.089026995 -0.2324693 -0.5009562 0.34250882 0.5744058 0.40036356
-0.39266726 -0.000106742606 -0.43107438 -0.4525813 -0.38661498 0.2936654 -0.4030338 0.08930274
-0.0058989846 0.3746138 -0.576874 -0.39163718 -0.2714392 0.4799598 -0.28907147 0.55122364
0.29004157 0.058719277 -0.15577841 -0.08383342 0.14980675 -0.19861813 0.12987581 0.07056678
-0.53996426 -0.15745334 0.52853584 -0.52439755 0.08282782 0.5854755 0.18901452 -0.055388287
-0.5293257 0.25788066 -0.4934563 -0.16639459 -0.19371045 -0.0854983 0.0063152313 0.39102674
0.117106475 0.57969487 0.20792559 -0.44814518 0.34658977 -0.49557662 -0.21911313 0.25546026
0.21502739 0.4750372 -0.18139707 -0.009977942 0.24791676 -0.6167237 0.29146686 -0.58854526
0.06899944 -0.16948766 -0.3933666 0.14692643 0.4763515 -0.20183228 -0.34760055 -0.24612857
00000000: f087 37bd 9293 8a3e 2201 07bf ec7a 05bf
00000010: 3566 2dbe c9ce 353e 748f c73c 8bb7 0c3f
00000020: dd66 e7bd ad22 273e 975d 7abe eba6 77bd
00000030: 8253 05bf a8f1 e6be 69cf 85be d4df 3dbd
00000040: 67ab b53e bc17 a83e 7f51 09bf 2151 0ebe
00000050: 0fa2 383e 42c8 d13e fb21 f3bd 3f93 f53e
00000060: 5877 64be 2ae6 253d aba4 143f 91ff 32bf
00000070: c9ca 54be c433 07be d0f9 71be 2422 c73e
00000080: afd9 dfbe 02ac 87be 9eaa 06bf f28f 09bf
00000090: a08e b4be ff1f 243f c61e 353e 0abe 8f3e
000000a0: bccc 84bc d92a 9abe e6f8 0f3e 2853 15bf
000000b0: a504 dcbe 06eb 8cbe b577 fa3e c764 923e
000000c0: d573 bebe 18b9 d43d 39f5 b13e 91a8 273f
000000d0: d483 553e 18eb fa3d 1e9c 773e c4a1 eabe
000000e0: 008a 243e 51f2 0fbf 2d41 cdbe fc1c 92be
000000f0: b9ae a33e 4ecc 793e a648 afbe 4fd6 033e
00000100: 6801 cb3e 19c0 05be 52e0 20bd ee93 6d3e
00000110: 92b9 cf3e 80aa 053f 019d 03bf 3a4e 24be
00000120: ee22 9b3e 4389 133f 525d 073f 23ac 1a3f
00000130: df46 a83d 0e2c febe b881 803c b076 eebe
00000140: b4b6 0dbf 2bd3 053f 6ba8 be3e 7d2a 1bbf
00000150: b8ef 933d 49d7 1abe 3bc2 f8bd a1a1 86be
00000160: 92cd 473e 789e bbbe 6130 333e fc2e ac3e
00000170: 8f9c e53e ccad 7f3e 40f0 17bf a543 c7be
00000180: 6644 9a3e 5ebf 3d3d 7041 f6be 6bf8 c0be
00000190: 3923 273f 2144 9a3e 883a 88be d309 59be
000001a0: c4c0 18bf 875b b4bb 6d6d 0ebf 9d97 ffbe
000001b0: 6392 56bd 0e66 033c 2566 89be 71d4 5e3e
000001c0: 865e c7be 9e13 173f 1a3d 9d3e be49 1dbf
000001d0: aca5 f3bd 2b4f 103c f4d1 2f3e 5976 893d
000001e0: 6a2c ac3e d93e 173c a4ce 8fbe 6751 af3e
000001f0: fb06 16bf d7d4 a6be 2afa 24be c8cd d5be
00000200: be0e 46be 9915 16bf 029c 743d 1f85 183e
00000210: 879b 04bf 8351 3f3e 80f6 c83e d3f1 a1bd
00000220: a3a9 c03d 1605 fdbd 77c2 173e 2721 e53e
00000230: 5b5f 123f 36ef c83e 1bdf 1b3f 9c5b 99bd
00000240: fa4c 14bf a07c 5cbe 65aa c73e b82f 9e3d
00000250: 4c53 c5be b586 e2be 1b5e 1fbf 5ae2 e0be
00000260: 4852 97bd 478e a93e a463 863e feb9 11bf
00000270: 9b45 ab3e 6078 0ebf f109 0cbe 502a 83be
00000280: 5281 09be 5c53 0ebe 0cca 12bf 5b08 01bf
00000290: 7635 bebd 322f 04be e5f0 8abe be3a 8b3e
000002a0: 09e8 21bf b2bb 9abd e070 073f 3a86 90be
000002b0: f332 0c3f bba0 7b3e 6adb fcbe bef2 bf3e
000002c0: 9f80 2fbe 96ed 54be 9a5d f63e b8ed ffbe
000002d0: a4b5 0d3a 3336 c3bd 3c3c e63e 0871 153e
000002e0: 8055 c63e 9ad1 123e c953 b6bd 6f0c 6ebe
000002f0: aa3e 00bf 515d af3e 420c 133f 74fc cc3e
00000300: af0b c9be 00db dfb8 c8b5 dcbe bcb8 e7be
00000310: 66f2 c5be 505b 963e 725a cebe 5be4 b63d
00000320: 454c c1bb 61cd bf3e 04ae 13bf ab84 c8be
00000330: 14fa 8abe 4abd f53e 2d01 94be fe1c 0d3f
00000340: 5480 943e a083 703d 6084 1fbe dbb0 abbd
00000350: f166 193e 8d62 4bbe 2afe 043e 5185 903d
00000360: 193b 0abf 733b 21be 204e 073f eb3e 06bf
00000370: a2a1 a93d b9e1 153f 068d 413e d4de 62bd
00000380: e481 07bf ef08 843e 4ea6 fcbe 5863 2abe
00000390: 085c 46be bc19 afbd 00f0 ce3b a834 c83e
000003a0: 85d5 ef3d e266 143f 72ea 543e 4973 e5be
000003b0: 3774 b13e 38bc fdbe 315f 60be b0cb 823e
000003c0: 2430 5c3e 1338 f33e 27c0 39be 867a 23bc
000003d0: e4dd 7d3e 9be1 1dbf 253b 953e e7aa 16bf
000003e0: 944f 8d3d 2c8e 2dbe 5967 c9be e273 163e
000003f0: 58e4 f33e 1fad 4ebe b3f8 b1be 2109 7cbe

actor.preprocess.model.model.0.bias f4 [128]
0.23094341 0.636508 0.2734401 0.37990087 -0.22929633 0.3396636 0.14857864 -0.10371783
-0.2205253 -0.18271339 -0.42119154 0.39367494 0.43786934 -0.085838996 -0.34364077 0.43323353
0.42248654 0.067718655 -0.2244776 0.6123055 0.22348247 -0.34592384 0.6149811 0.5141515
-0.21115379 0.28793108 -0.28834805 -0.07063628 0.49246594 0.009146043 -0.37715745 -0.19559439
-0.17553939 -0.1011422 0.06581296 0.51168025 0.037398674 -0.3021493 0.13045412 0.302913
0.22050436 -0.5491598 -0.058319494 -0.31706202 -0.1415813 0.2085374 -0.4135139 0.25073645
0.50872177 0.0030714704 -0.32692346 -0.22458042 0.16464268 -0.41480225 0.3382009 -0.45425534
-0.46887538 -0.5279006 -0.168522 0.35012752 -0.5157511 0.5070499 -0.26935986 0.18300249
0.0058057387 -0.41110924 0.5230064 0.28875047 0.5261601 0.31934705 -0.27116516 0.53214747
0.08167978 0.27426216 -0.44079572 -0.19166698 -0.56688726 -0.14810915 0.23706603 -0.383724
0.17638725 0.33166406 0.20049311 -0.30669832 -0.4633711 -0.15397587 0.35483646 0.65590805
0.3371137 -0.059801128 0.20111872 -0.60090184 -0.4385784 0.27239797 -0.33605844 0.4073037
-0.44027695 -0.29348135 -0.31958926 0.2817367 -0.0747285 0.41342697 0.40098506 0.37596935
0.11475342 -0.12651822 0.021851983 0.1218483 0.26812133 -0.38073066 0.5189997 0.14294332
-0.45000932 -0.25654024 0.49521953 0.5556713 -0.5110493 0.4953803 0.28235134 0.33387515
0.42649606 -0.28938118 0.26041847 0.2846524 -0.17265847 0.23892467 -0.15667666 0.40380788
00000000: 6e7c 6c3e 30f2 223f 5700 8c3e 5e82 c23e
00000010: a8cc 6abe 63e8 ad3e 0025 183e 036a d4bd
00000020: 62d1 61be 3819 3bbe 6ba6 d7be c38f c93e
00000030: 6930 e03e 5bcc afbd aff1 afbe c9d0 dd3e
00000040: 2850 d83e 14b0 8a3d 75dd 65be 0ec0 1c3f
00000050: 97d8 643e ee1c b1be 676f 1d3f 6f9f 033f
00000060: b338 58be b46b 933e 5ba2 93be c1a9 90bd
00000070: 7f24 fc3e 49d9 153c c81a c1be e549 48be
00000080: 99c0 33be a423 cfbd f2c8 863d 7afd 023f
00000090: 5a2f 193d 50b3 9abe c495 053e 6a17 9b3e
000000a0: e5cb 613e bd95 0cbf 6ce0 6ebd f455 a2be
000000b0: b0fa 10be d48a 553e 18b8 d3be 8760 803e
000000c0: 973b 023f b94a 493b 8362 a7be 69f8 65be
000000d0: 1798 283e f660 d4be ab28 ad3e 2894 e8be
000000e0: 6f10 f0be 7e24 07bf 0891 2cbe ea43 b33e
000000f0: 4408 04bf 06ce 013f 89e9 89be 0165 3b3e
00000100: 113e be3b e97c d2be bfe3 053f 1ad7 933e
00000110: 6eb2 063f 7581 a33e 29d6 8abe d13a 083f
00000120: ba47 a73d 176c 8c3e faaf e1be 5944 44be
00000130: 861f 11bf eda9 17be 70c1 723e 7977 c4be
00000140: dc9e 343e dfcf a93e 114e 4d3e 9007 9dbe
00000150: fa3e edbe daab 1dbe 20ad b53e 97e9 273f
00000160: 2b9a ac3e 07f2 74bd 11f2 4d3e b4d4 19bf
00000170: 598d e0be bf77 8b3e da0f acbe 1c8a d03e
00000180: fb6b e1be 3043 96be 34a1 a3be cb3f 903e
00000190: 410b 99bd b3ac d33e ea4d cd3e 0e7f c03e
000001a0: d703 eb3d fe8d 01be ee02 b33c 9a8b f93d
000001b0: 3347 893e 21ef c2be 2add 043f bc5f 123e
000001c0: 9f67 e6be 3e59 83be 6a8d fd3e 7940 0e3f
000001d0: 20d4 02bf 7da2 fd3e 5b90 903e aff1 aa3e
000001e0: b15d da3e c529 94be 9255 853e f6bd 913e
000001f0: 62cd 30be aba8 743e d96f 20be e8bf ce3e

actor.preprocess.model.model.2.weight f4 [128, 128]
-0.024172839 -0.0067875027 0.011275683 0.063954964 -0.031159053 -0.046004526 0.08439424 -0.016909095
0.03888715 -0.008028077 0.034896817 -0.03870681 -0.056026325 -0.05632666 0.07050796 -0.05836152
-0.004536476 -0.10188131 0.108636715 0.119763926 -0.06870717 -0.10314788 -0.093012825 0.022058683
-0.04404175 -0.057331443 -0.036421034 0.011139684 -0.020408155 0.019658644 -0.030798718 -0.04332331
0.0046049333 0.012086109 -0.052636683 0.032841284 -0.029865157 0.09186588 -0.054452468 -0.09216022
0.091976605 -0.07895616 0.04445823 -0.038746778 -0.02627974 -0.008664656 0.04815908 -0.017852034
-0.06604179 -0.03727172 0.008082349 0.037877757 -0.03455791 0.058862623 0.034545414 0.0079789385
0.092547335 0.040224854 0.0798886 0.04998371 -0.019611055 -0.0969444 -0.0045727747 0.031172682
-0.026194043 -0.041458506 0.06190364 0.111608125 -0.024699999 -0.10609096 -0.05582867 0.041705985
0.0032447618 -0.05598896 0.0027693524 0.05140881 0.07029692 0.054702245 0.015683332 -0.043878052
-0.085563704 0.084098674 0.084840216 0.08623316 -0.09898955 0.12734592 0.11949155 0.027683767
-0.042725544 -0.07918483 -0.046863597 0.061249994 0.05339521 -0.029582784 0.005171734 -0.021284617
-0.054808047 -0.00773146 0.016123561 -0.06610307 0.07554787 -0.02883225 -0.01712839 0.13944922
0.0625684 0.027306588 0.03614253 0.060997453 -0.09593866 0.07746949 0.037356913 -0.06478738
-0.047022205 -0.08242012 0.075792715 -0.0437516 -0.07739235 0.007168488 0.05189685 0.056431405
0.058938894 -0.011248137 0.05712147 -0.002137646 -0.026649075 -0.13313548 -0.097816 -0.0012482475
-0.059547152 0.037888795 0.002745757 0.019175367 -0.062297482 0.09751556 -0.016408186 0.053137336
-0.06154152 0.008783466 0.058586247 -0.043300252 0.06700906 -0.04120716 -0.05509256 -0.031298734
0.037192684 0.09337135 -0.0585725 0.0537932 -0.017255856 -0.024384608 0.081797086 -0.06579301
-0.014586869 0.0926947 0.00039997252 0.0844974 -0.009641456 0.05786075 -0.112750776 0.0038449445
0.0018436789 0.032247636 0.026844926 0.062961645 -0.021351876 -0.016143931 0.06497685 -0.021157326
0.07934451 -0.04867939 -0.02328327 0.052454006 0.06871017 0.06423499 -0.033651236 -0.09078496
0.07083107 0.023058519 0.04562846 -0.038253754 0.07436504 0.10741504 0.032895826 -0.1275
0.08961406 -0.07726435 0.02287133 -0.0004322075 -0.063826986 0.027550824 -0.075609624 -0.00048824534
-0.06738662 0.032661665 0.023172585 0.07896115 -0.04343848 0.047308482 -0.081032254 -0.03076025
-0.038330987 -0.052298788 0.10788804 -0.02407283 0.0044148937 0.003553509 0.0895993 0.1252564
0.07336967 -0.074431315 -0.021167915 -0.124452055 -0.032272987 0.07602865 0.08996388 -0.0666023
0.053993143 -0.08788693 -0.025408119 0.09441236 0.009723242 0.0035187113 -0.07817078 0.09074711
0.0057310173 -0.064728506 0.0497276 -0.053265966 -0.08302415 -0.0034946792 0.07535181 0.011228506
0.062355336 0.12419347 0.031698592 0.014587523 -0.032777704 -0.0071342923 -0.036937013 -0.012971208
0.03578395 0.09534406 0.011545111 0.011305138 -0.025820533 0.083534524 -0.059246663 -0.011104331
0.010216891 0.028671738 -0.0716335 0.11797683 0.02280278 -0.04848068 -0.04231958 0.09631578
00000000: 1e06 c6bc b369 debb a4bd 383c d2fa 823d
00000010: 4541 ffbc 3e6f 3cbd e3d6 ac3d f184 8abc
00000020: 2248 1f3d 3288 03bc f7ef 0e3d 088b 1ebd
00000030: dc7b 65bd c9b6 66bd 7a66 903d 7d0c 6fbd
00000040: b8a6 94bb 26a7 d0bd ed7c de3d ca46 f53d
00000050: 58b6 8cbd 323f d3bd 827d bebd 69b4 b43c
00000060: 1f65 34bd 60d4 6abd 392e 15bd 3983 363c
00000070: 012f a7bc 2a0b a13c 984d fcbc c873 31bd
00000080: fbe4 963b d104 463c 9099 57bd 9584 063d
00000090: c6a7 f4bc 2e24 bc3d 8d09 5fbd 7fbe bcbd
000000a0: 3b5e bc3d c4b3 a1bd d519 363d f1b4 1ebd
000000b0: 9c48 d7bc 34f6 0dbc 7542 453d 6e3e 92bc
000000c0: eb40 87bd 3baa 18bd d46b 043c b525 1b3d
000000d0: 988c 0dbd ef19 713d 7e7f 0d3d 18ba 023c
000000e0: 7589 bd3d d1c2 243d a29c a33d b8bb 4c3d
000000f0: 5da7 a0bc c98a c6bd 37d7 95bb da5d ff3c
00000100: e494 d6bc 65d0 29bd ac8e 7d3d cd92 e43d
00000110: a757 cabc 3846 d9bd 9aac 64bd e5d3 2a3d
00000120: 12a6 543b ae54 65bd 067e 353b 0b92 523d
00000130: d5f7 8f3d 760f 603d 557a 803c 79b9 33bd
00000140: 063c afbd ed3b ac3d b5c0 ad3d 039b b03d
00000150: 08bb cabd f866 023e fcb7 f43d 11c9 e23c
00000160: fb00 2fbd a82b a2bd 0bf4 3fbd 46e1 7a3d
00000170: f0b4 5a3d 9857 f2bc a677 a93b 145d aebc
00000180: 677e 60bd 3058 fdbb 8f15 843c 0c61 87bd
00000190: d7b8 9a3d 9c31 ecbc d650 8cbc c7cb 0e3e
000001a0: dc23 803d 11b2 df3c 310a 143d 77d8 793d
000001b0: 7d7b c4bd 53a8 9e3d 9003 193d 3faf 84bd
000001c0: 5b9a 40bd e1cb a8bd 3639 9b3d e134 33bd
000001d0: e17f 9ebd a3e5 ea3b cb91 543d 9e24 673d
000001e0: e969 713d 1b4a 38bc 34f8 693d c017 0cbb
000001f0: 294f dabc ab54 08be c153 c8bd 3c9c a3ba
00000200: b7e7 73bd 4831 1b3d 29f2 333b a915 9d3c
00000210: a52b 7fbd 3db6 c73d 766a 86bc 89a6 593d
00000220: f612 7cbd 87e8 0f3c 22f8 6f3d 9b5b 31bd
00000230: 0c3c 893d d7c8 28bd bca8 61bd 1a33 00bd
00000240: 5b57 183d 7a39 bf3d b8e9 6fbd 4256 5c3d
00000250: 275c 8dbc 3bc2 c7bc 3b85 a73d 7cbe 86bd
00000260: c3fd 6ebc b8d6 bd3d 67b3 d139 f90c ad3d
00000270: 33f7 1dbc 65ff 6c3d e1e9 e6bd 77fb 7b3b
00000280: 99a7 f13a 1916 043d e4e9 db3c 09f2 803d
00000290: 21ea aebc 4740 84bc 9512 853d 2152 adbc
000002a0: 607f a23d 0a64 47bd 8ebc bebc 03da 563d
000002b0: ebb7 8c3d a28d 833d e1d5 09bd 77ed b9bd
000002c0: e10f 913d 38e5 bc3c e8e4 3a3d f8af 1cbd
000002d0: b34c 983d 6bfc db3d c6bd 063d 5c8f 02be
000002e0: 9487 b73d c63c 9ebd a85c bb3c e999 e2b9
000002f0: b9b7 82bd 44b2 e13c 38d9 9abd 2efb ffb9
00000300: ff01 8abd 3dc8 053d 6fd4 bd3c 62b6 a13d
00000310: 8cec 31bd 8ac6 413d 3df4 a5bd ebfc fbbc
00000320: f400 1dbd 4137 56bd 68f4 dc3d 6234 c5bc
00000330: d0aa 903b fde1 683b d67f b73d 3743 003e
00000340: d642 963d 726f 98bd 5668 adbc b8e0 febd
00000350: ae30 04bd e9b4 9b3d fc3e b83d c966 88bd
00000360: ea27 5d3d 10fe b3bd b024 d0bc 445b c13d
00000370: 3c4e 1f3c 2e9a 663b 0018 a0bd 9fd9 b93d
00000380: 42cb bb3b 6190 84bd 2baf 4b3d 6a2d 5abd
00000390: 9108 aabd fd06 65bb 0d52 9a3d c5f7 373c
000003a0: 4f68 7f3d 2559 fe3d 62d6 013d 8200 6f3c
000003b0: ea41 06bd c8c6 e9bb 444b 17bd 3185 54bc
000003c0: 3192 123d bf43 c33d b527 3d3c 2f39 393c
000003d0: 9585 d3bc 2614 ab3d a1ac 72bd f1ee 35bc
000003e0: bf64 273c fee0 ea3c 96b4 92bd d69d f13d
000003f0: e5cc ba3c ad93 46bd 4c57 2dbd 3541 c53d

actor.preprocess.model.model.2.bias f4 [128]
-0.01861203 -0.061700314 -0.047846314 -0.04138578 -0.05240693 -0.079254925 0.08644062 -0.089238
-0.041760217 0.06544841 -0.039191283 0.05252628 -0.023115605 0.009915962 0.029469538 0.0061309272
-0.06431697 0.026683278 -0.004062082 0.06991767 0.0014106776 0.07399807 0.0013332102 -0.034441013
-0.020855961 0.06853163 0.0868653 0.03710306 -0.039206225 0.013607658 0.06720744 0.089588486
0.08251351 0.02203557 -0.010889351 0.0794257 0.021325175 -0.08749521 0.07443244 -0.0038212487
0.110294044 0.043334004 -0.0076436764 -0.07124889 -0.086637944 -0.031852882 0.041766282 -0.009881719
0.010408759 -0.023569955 0.08219026 -0.021593835 0.04014331 -0.08357601 -0.00232243 0.045163073
0.04446505 -0.08222253 0.08129304 -0.03680249 -0.06591591 -0.06623944 -0.09035587 0.029960262
0.06368267 0.050925344 0.03893478 -0.01923616 0.0375654 0.06307341 -0.095196046 -0.012996726
0.022082627 0.08889913 0.059835557 -0.08508278 0.026203187 0.07289053 0.103195705 -0.046257854
0.09024408 -0.009051441 -0.037730314 -0.011282179 0.07501371 -0.053479586 0.010749168 -0.026873708
0.022574736 0.06274308 -0.040725887 -0.02676265 0.020473976 0.06782442 0.002921313 -0.00884945
0.00037843827 0.041533362 0.09757962 0.037942573 0.061332848 0.038516972 0.02631264 0.003167741
-0.058563657 -0.011159718 0.032200046 0.03214982 -0.044960614 0.0071097855 0.04406868 -0.0079976525
0.051361695 0.049491614 0.0022970731 0.02745599 -0.027417473 0.046193447 0.000854506 -0.011009663
-0.063694656 0.014403569 -0.041210152 -0.019331202 -0.033878073 0.08208238 0.054109115 0.0782707
00000000: 4278 98bc 78b9 7cbd 7ffa 43bd 2384 29bd
00000010: a6a8 56bd 6850 a2bd c807 b13d 6ac2 b6bd
00000020: c30c 2bbd d109 863d 0a87 20bd cc25 573d
00000030: f05c bdbc 8f76 223c 1a6a f13c f2e5 c83b
00000040: 9eb8 83bd e496 da3c 371b 85bb ff30 8f3d
00000050: 7ce6 b83a 4d8c 973d 1cbf ae3a 0512 0dbd
00000060: 1fda aabc 505a 8c3d 6fe6 b13d 61f9 173d
00000070: b596 20bd a8f2 5e3c 0ea4 893d 2b7a b73d
00000080: d8fc a83d f183 b43c 4069 32bc f1a9 a23d
00000090: 22b2 ae3c b030 b3bd 0970 983d ea6d 7abb
000000a0: d8e1 e13d ff7e 313d ce77 fabb f0ea 91bd
000000b0: 3c6f b1bd 2b78 02bd 1f13 2b3d efe6 21bc
000000c0: 8089 2a3c c715 c1bc 5e53 a83d 8ee5 b0bc
000000d0: 506d 243d e629 abbd e933 18bb eafc 383d
000000e0: fc20 363d 4964 a8bd f77c a63d 35be 16bd
000000f0: ecfe 86bd 8ba8 87bd 800c b9bd 396f f53c
00000100: 0f6c 823d 1897 503d 137a 1f3d 2795 9dbc
00000110: 2dde 193d a22c 813d 25f6 c2bd 38f0 54bc
00000120: a0e6 b43c bf10 b63d 2116 753d e13f aebd
00000130: 11a8 d63c a147 953d 4558 d33d e078 3dbd
00000140: e3d1 b83d 7f4c 14bc 1a8b 1abd e3d8 38bc
00000150: caa0 993d 690d 5bbd 471d 303c 4026 dcbc
00000160: a7ee b83c 727f 803d 30d0 26bd 583d dbbc
00000170: 0ab9 a73c 88e7 8a3d 8073 3f3b 49fd 10bc
00000180: 2069 c639 e31e 2a3d d3d7 c73d ac69 1b3d
00000190: 2738 7b3d f9c3 1d3d 9b8d d73c e099 4f3b
000001a0: 72e0 6fbd 40d7 36bc 32e4 033d 88af 033d
000001b0: 9f28 38bd 34f9 e83b 5c81 343d 9608 03bc
000001c0: a460 523d b8b7 4a3d 7e8a 163b 62eb e03c
000001d0: 9c9a e0bc 5735 3d3d ed00 603a e061 34bc
000001e0: 5872 82bd f2fc 6b3c facb 28bd 785c 9ebc
000001f0: bcc3 0abd cf1a a83d 85a1 5d3d 644c a03d

actor.last.model.0.weight f4 [1, 128]
-0.08438953 0.12762216 -0.09181516 0.06857404 0.023435913 -0.13494267 0.082743615 0.060769066
0.105936155 0.12574483 0.051483925 -0.09356154 0.13574077 -0.12202771 0.026895039 -0.16635959
-0.048988156 -0.13444696 -0.12135908 -0.08760226 -0.10049584 -0.11171566 -0.13349399 -0.08189962
0.10020801 0.090145 -0.03005817 0.044446435 0.056029353 -0.120477565 -0.08371091 0.1412002
0.15667254 -0.047493037 -0.013279453 0.096741155 -0.115559384 0.008583185 -0.11778954 0.06379964
-0.054140486 -0.13910139 -0.049048275 -0.06727538 0.004569228 0.09127065 -0.066287845 -0.0639538
-0.16519815 0.1271203 0.13556212 -0.13071133 -0.05181663 0.123294495 0.091583416 -0.11226718
-0.16168286 0.11828282 -0.03982032 0.1579555 -0.18178365 0.06774778 -0.035636056 -0.022746203
-0.09097494 0.059980426 -0.06501419 -0.09845539 -0.1425787 0.15960383 -0.050710548 -0.09726162
0.01741653 0.12984017 -0.2525604 0.17587878 0.15998872 0.065529145 -0.08759664 -0.20654692
-0.10254408 0.118482485 -0.065684944 -0.10256494 -0.030751925 0.033461068 -0.14655842 -0.10008623
0.04603305 -0.07237477 -0.11528879 -0.06435289 -0.050536405 0.06851419 -0.12753399 0.06038888
-0.08580675 0.096133865 -0.069248036 0.05374469 0.11246197 0.04749331 -0.16080463 -0.054656617
-0.1839051 0.13601467 -0.1291728 0.060647853 -0.075640894 0.17616157 -0.029841412 -0.1321181
0.0035031696 -0.17218983 0.060557447 0.19011447 -0.06426233 -0.12591904 0.31698513 0.10470485
0.005369149 0.07194114 -0.12062806 -0.076975964 0.021034133 0.060765397 -0.087721564 -0.16471091
00000000: 6bd4 acbd 62af 023e 9609 bcbd 8c70 8c3d
00000010: acfc bf3c 692e 0abe 7c75 a93d fce8 783d
00000020: 0ef5 d83d 41c3 003e cfe0 523d 319d bfbd
00000030: a1ff 0a3e aae9 f9bd fc52 dc3c 2b5a 2abe
00000040: cea7 48bd 77ac 09be 1c8b f8bd d068 b3bd
00000050: c3d0 cdbd 2ecb e4bd a6b2 08be fdba a7bd
00000060: db39 cd3d f19d b83d 8d3c f6bc 770d 363d
00000070: 097f 653d f1bc f6bd a070 abbd c996 103e
00000080: c46e 203e 0f88 42bd 1092 59bc 3a20 c63d
00000090: 66aa ecbd 7da0 0c3c a43b f1bd 63a9 823d
000000a0: 6ac2 5dbd 9870 0ebe d8e6 48bd adc7 89bd
000000b0: 76b9 953b 1bec ba3d ecc1 87bd 36fa 82bd
000000c0: b429 29be d32b 023e ccd0 0a3e 31d9 05be
000000d0: ad3d 54bd d381 fc3d 1690 bb3d 56ec e5bd
000000e0: 3190 25be 433e f23d a21a 23bd 16bf 213e
000000f0: 7e25 3abe 59bf 8a3d 1df7 11bd 3f56 babc
00000100: 1251 babd 09ae 753d 2926 85bd fba2 c9bd
00000110: 2700 12be 306f 233e ddb5 4fbd 1a31 c7bd
00000120: 1cad 8e3c d2f4 043e 994f 81be 9119 343e
00000130: 15d4 233e 2534 863d de65 b3bd 0981 53be
00000140: a102 d2bd f2a6 f23d d485 86bd 910d d2bd
00000150: 76eb fbbc 790e 093d 6913 16be 02fa ccbd
00000160: 278d 3c3d 3939 94bd 871c ecbd 73cb 83bd
00000170: 43ff 4ebd 2b51 8c3d 4598 02be 555a 773d
00000180: 73bb afbd d5e1 c43d ead1 8dbd 6423 5c3d
00000190: 7652 e63d 5888 423d f8a9 24be 9edf 5fbd
000001a0: 9e51 3cbe 6e47 0b3e e045 04be e269 783d
000001b0: 9de9 9abd b363 343e fa75 f4bc f849 07be
000001c0: 6f95 653b 8852 30be 160b 783d 5ead 423e
000001d0: f89b 83bd ecf0 00be e04b a23e 7f6f d63d
000001e0: b0ef af3b e055 933d d80b f7bd 93a5 9dbd
000001f0: c64f ac3c 23e5 783d 5da7 b3bd faa9 28be

actor_old.preprocess.model.model.0.weight f4 [128, 3]
-0.04700554 0.2770785 -0.5254035 -0.51877576 -0.1748635 0.17629093 0.025538435 0.55219084
-0.109622695 0.1598506 -0.24187073 -0.061985943 -0.52381885 -0.43704203 -0.26058364 -0.04661194
0.34655923 0.32796475 -0.53022146 -0.14859752 0.18182696 0.41711313 -0.12060546 0.47824368
-0.21902737 0.035425857 0.57978934 -0.6967355 -0.22638968 -0.124114186 -0.24449953 0.39636803
-0.43563357 -0.26422477 -0.5193413 -0.53607905 -0.35606474 0.62664276 0.17943285 0.279856
-0.0008484216 -0.29770756 0.12857942 -0.5769571 -0.428922 -0.28224567 0.4781524 0.28169036
-0.37084728 0.09746348 0.34755486 0.6495008 0.21003489 0.11754726 0.23985712 -0.45340472
0.16419804 -0.56940025 -0.40048409 -0.27093297 0.31168398 0.24924438 -0.3426116 0.12531564
0.39493656 -0.12990738 -0.038915705 0.21746868 0.40392542 0.524183 -0.5077517 -0.16734502
0.30540356 0.5604932 0.5255446 0.5942369 0.09041614 -0.49717894 0.033501677 -0.44730568
-0.5491455 0.5178125 0.38519526 -0.6046609 0.07160067 -0.14572163 -0.11311486 -0.2640821
0.19942868 -0.36564258 0.17812613 0.32815096 0.4472195 0.23970906 -0.5884223 -0.38898253
0.2918109 0.06090313 -0.48080838 -0.36034355 0.63252705 0.31104085 -0.26858354 -0.19895649
-0.5943613 -0.0041478407 -0.5453492 -0.49525446 -0.05475358 0.018544381 -0.2668172 0.22717774
-0.39057118 0.5894604 0.31049207 -0.61066234 -0.11759888 0.011409527 0.16302349 0.06896689
0.33147955 0.021964269 -0.28112608 0.3403158 -0.58864254 -0.3176064 -0.15907252 -0.39776212
-0.19004434 -0.587898 0.042120002 0.13888732 -0.5043056 0.16968526 0.40453264 -0.08195956
0.09691984 -0.11601517 0.14958529 0.433971 0.5686022 0.3891751 0.6029808 -0.07608127
-0.57656646 -0.2226696 0.38911727 0.07473773 -0.37049636 -0.44098863 -0.6171201 -0.4457208
-0.07436203 0.32419363 0.2688041 -0.56854707 0.33087835 -0.5418445 -0.13300478 -0.2582084
-0.13474922 -0.13480559 -0.5801293 -0.4999241 -0.09081397 -0.1259878 -0.26922795 0.27151012
-0.62855875 -0.08049498 0.53083515 -0.27037328 0.5374398 0.24611379 -0.49941435 0.3813215
-0.16313867 -0.20985319 0.4822234 -0.49969688 0.0058755185 -0.09599775 0.4486909 0.14712518
0.37501776 0.1468922 -0.0883274 -0.21228443 -0.4980706 0.34672683 0.55869836 0.3972984
-0.39483535 0.006759122 -0.43006128 -0.45120823 -0.39464465 0.29348582 -0.4012542 0.08047056
-0.002949937 0.38621607 -0.5677032 -0.3873389 -0.27491674 0.48156834 -0.28254095 0.5513024
0.2797818 0.06008724 -0.15422475 -0.08056304 0.14919369 -0.19850223 0.11837797 0.0686375
-0.5343488 -0.17378932 0.52909166 -0.5229484 0.073304616 0.5842422 0.18408826 -0.045319267
-0.5281631 0.27045423 -0.4909429 -0.15923928 -0.19371045 -0.0854983 0.0063152313 0.39665505
0.11242355 0.5778935 0.20657478 -0.4478058 0.34706178 -0.49381167 -0.22770593 0.25369516
0.21710485 0.4724571 -0.1813387 -0.012578305 0.25444612 -0.615799 0.29495156 -0.58283365
0.066503696 -0.16604783 -0.38927814 0.14751858 0.48273033 -0.1876486 -0.34597063 -0.24874023
00000000: e288 40bd 3cdd 8d3e d880 06bf 7dce 04bf
00000010: 6b0f 33be 9c85 343e fb35 d13c 615c 0d3f
00000020: dd81 e0bd e0af 233e f6ac 77be f9e4 7dbd
00000030: fe18 06bf f9c3 dfbe 386b 85be 29ec 3ebd
00000040: 3670 b13e ffea a73e 98bc 07bf f329 18be
00000050: d930 3a3e da8f d53e ffff f6bd 5bdc f43e
00000060: b648 60be b41a 113d 136d 143f 425d 32bf
00000070: b2d2 67be 942f febd 165e 7abe c0f0 ca3e
00000080: 5d0b dfbe 7848 87be 8df3 04bf 7a3c 09bf
00000090: 1e4e b6be a96b 203f 3fbd 373e 4949 8f3e
000000a0: 9c68 5eba 206d 98be 53aa 033e 76b3 13bf
000000b0: aa9b dbbe 8182 90be 64d0 f43e b839 903e
000000c0: b2df bdbe ef9a c73d b6f2 b13e af45 263f
000000d0: 6313 573e 9ebc f03d 1b9d 753e aa24 e8be
000000e0: 8823 283e 37c4 11bf 400c cdbe bab7 8abe
000000f0: 0b95 9f3e eb39 7f3e ca6a afbe be52 003e
00000100: 2035 ca3e 7106 05be 1366 1fbd 1cb0 5e3e
00000110: 50cf ce3e db30 063f 04fc 01bf 7e5c 2bbe
00000120: db5d 9c3e 7b7c 0f3f 178a 063f e91f 183f
00000130: 192c b93d 3d8e febe 0e39 093d 4005 e5be
00000140: cd94 0cbf 5c8f 043f 5038 c53e 0fcb 1abf
00000150: 5fa3 923d 0d38 15be c4a8 e7bd c535 87be
00000160: 0837 4c3e 8135 bbbe b266 363e 6703 a83e
00000170: f4f9 e43e 4b76 753e d8a2 16bf b828 c7be
00000180: 3d68 953e 8f75 793d 842c f6be f37e b8be
00000190: 4bed 213f bf40 9f3e c883 89be 40bb 4bbe
000001a0: 1028 18bf 9cea 87bb 019c 0bbf fe91 fdbe
000001b0: 4a45 60bd 63ea 973c 449c 88be 48a1 683e
000001c0: f2f8 c7be e0e6 163f d1f8 9e3e 5e54 1cbf
000001d0: aed7 f0bd 06ef 3a3c a1ef 263e 833e 8d3d
000001e0: b0b7 a93e 69ee b33c c2ef 8fbe df3d ae3e
000001f0: 47b1 16bf 4e9d a2be e8e3 22be 7aa7 cbbe
00000200: fc9a 42be 7c80 16bf 0686 2c3d 7a38 0e3e
00000210: 2c1a 01bf f9c1 2d3e e71e cf3e 6ada a7bd
00000220: e97d c63d 5d99 edbd e32c 193e 7231 de3e
00000230: ea8f 113f f541 c73e f35c 1a3f 7fd0 9bbd
00000240: dc99 13bf 8003 64be 613a c73e 1810 993d
00000250: b3b1 bdbe 43c9 e1be 95fb 1dbf 8435 e4be
00000260: 1f4b 98bd b5fc a53e b1a0 893e 4d8c 11bf
00000270: e368 a93e 52b6 0abf 6832 08be e433 84be
00000280: b3fb 09be 7a0a 0abe 5b83 14bf 0df6 ffbe
00000290: adfc b9bd f202 01be 3fd8 89be 6003 8b3e
000002a0: 3ae9 20bf 8dda a4bd d0e4 073f 5e6e 8abe
000002b0: a895 093f 4105 7c3e 3db3 ffbe 923c c33e
000002c0: d30d 27be c1e3 56be fce5 f63e 45d8 ffbe
000002d0: 6c87 c03b 789a c4bd d0ba e53e fca7 163e
000002e0: 5402 c03e e96a 163e ffe4 b4bd 1761 59be
000002f0: 1c03 ffbe 2e86 b13e db06 0f3f b26a cb3e
00000300: dc27 cabe a07b dd3b fe30 dcbe c404 e7be
00000310: dd0e cabe c643 963e 3171 cdbe c0cd a43d
00000320: bb53 41bb 1dbe c53e ff54 11bf 4951 c6be
00000330: e3c1 8cbe 2090 f63e 35a9 90be 2722 0d3f
00000340: 8f3f 8f3e 0a1e 763d 18ed 1dbe 3cfe a4bd
00000350: 3bc6 183e 2b44 4bbe 2670 f23d d191 8c3d
00000360: 15cb 08bf d4f5 31be 8d72 073f f2df 05bf
00000370: bb20 963d e690 153f a281 3c3e b2a0 39bd
00000380: b235 07bf fa78 8a3e de5c fbbe 9f0f 23be
00000390: 085c 46be bc19 afbd 00f0 ce3b 5f16 cb3e
000003a0: 513e e63d d4f0 133f 5788 533e cd46 e5be
000003b0: 15b2 b13e e2d4 fcbe be2b 69be 55e4 813e
000003c0: bc50 5e3e e6e5 f13e dab0 39be 3c15 4ebc
000003d0: c346 823e 01a5 1dbf e403 973e 9634 15bf
000003e0: 1733 883d 7108 2abe 774f c7be 1c0f 173e
000003f0: 6e28 f73e f426 40be 1023 b1be c2b5 7ebe

actor_old.preprocess.model.model.0.bias f4 [128]
0.23082896 0.6381189 0.2731722 0.37839267 -0.22632548 0.33742067 0.14836873 -0.110256426
-0.22208826 -0.18437208 -0.4170583 0.39173153 0.43866077 -0.08161681 -0.33773568 0.43876255
0.42401618 0.06462802 -0.22346917 0.62274927 0.22528863 -0.35027015 0.61530733 0.5052299
-0.22167452 0.29063874 -0.2993518 -0.068248406 0.4985749 0.010423746 -0.3843153 -0.19028896
-0.16497916 -0.10675981 0.067394376 0.51505864 0.039403476 -0.30641428 0.12203472 0.30091062
0.22243753 -0.55394214 -0.06558605 -0.31848374 -0.15284738 0.21440116 -0.42303973 0.24780829
0.51035756 0.0018718874 -0.3282694 -0.2207366 0.17108929 -0.4152073 0.34099394 -0.45860606
-0.4678299 -0.5369462 -0.15786703 0.35055014 -0.52016115 0.5038587 -0.2682337 0.18041691
0.0070600407 -0.4077006 0.52344674 0.29412875 0.5319641 0.3121081 -0.2771389 0.5344575
0.07832893 0.27708107 -0.43897533 -0.18516733 -0.56688726 -0.15563406 0.23707457 -0.38308418
0.17813298 0.33118397 0.19631605 -0.31013197 -0.4568218 -0.15008783 0.357497 0.64131874
0.33277482 -0.06468998 0.20249853 -0.5956932 -0.45347658 0.27418613 -0.33748224 0.4071393
-0.43106127 -0.29347867 -0.31976268 0.29032782 -0.07331619 0.41569352 0.40622163 0.37793505
0.11592329 -0.12972607 0.015297558 0.12269181 0.26726258 -0.37876794 0.52053076 0.13687922
-0.45604163 -0.2648798 0.49507502 0.54894954 -0.5119301 0.49268216 0.2819433 0.3342157
0.4273528 -0.2957951 0.25267348 0.28361407 -0.16987346 0.23928352 -0.16576715 0.40354234
00000000: 6d5e 6c3e c35b 233f 3add 8b3e afbc c13e
00000010: dec1 67be 67c2 ac3e f9ed 173e 1fce e1bd
00000020: 1b6b 63be 09cc 3cbe aa88 d5be 0991 c83e
00000030: 2598 e03e b726 a7bd b1eb acbe 7ca5 e03e
00000040: a618 d93e b25b 843d 1ad5 64be 7f6c 1f3f
00000050: 10b2 663e 9c56 b3be c884 1d3f bf56 013f
00000060: a5fe 62be 9ace 943e a444 99be d2c5 8bbd
00000070: 3645 ff3e 5cc8 2a3c fac4 c4be 1cdb 42be
00000080: 4cf0 28be e3a4 dabd 1006 8a3d e2da 033f
00000090: 8a65 213d 55e2 9cbe 57ed f93d f510 9a3e
000000a0: aac6 633e 27cf 0dbf fb51 86bd 4d10 a3be
000000b0: 0684 1cbe fa8b 5b3e aa98 d8be 75c1 7d3e
000000c0: cba6 023f 1e5a f53a ed12 a8be c608 62be
000000d0: 0832 2f3e 0d96 d4be c296 ae3e 6ace eabe
000000e0: 6787 efbe 4e75 09bf e5a7 21be 4f7b b33e
000000f0: 4829 05bf e2fc 003f ed55 89be 36bf 383e
00000100: ea57 e73b 22be d0be 9b00 063f 0b98 963e
00000110: cd2e 083f a2cc 9f3e 26e5 8dbe 35d2 083f
00000120: eb6a a03d 92dd 8d3e 60c1 e0be 819c 3dbe
00000130: 861f 11bf 895e 1fbe adc3 723e 9c23 c4be
00000140: 7e68 363e f290 a93e 1307 493e 9ec9 9ebe
00000150: 8ce4 e9be a0b0 19be d909 b73e 772d 243f
00000160: 7661 aa3e 2e7c 84bd c65b 4f3e 597f 18bf
00000170: 152e e8be 2062 8c3e 79ca acbe 9074 d03e
00000180: 10b4 dcbe d642 96be efb7 a3be d9a5 943e
00000190: cc26 96bd c8d5 d43e 48fc cf3e b480 c13e
000001a0: 3169 ed3d e9d6 04be 9ca2 7a3c d845 fb3d
000001b0: a4d6 883e dfed c1be 8141 053f 112a 0c3e
000001c0: 4a7e e9be 539e 87be 797a fd3e f587 0c3f
000001d0: da0d 03bf d640 fc3e df5a 903e 521e ab3e
000001e0: fccd da3e 7572 97be 6b5e 813e dd35 913e
000001f0: 4ff3 2dbe bd06 753e ddbe 29be 1a9d ce3e

actor_old.preprocess.model.model.2.weight f4 [128, 128]
-0.024111753 -0.014982356 0.0151772015 0.061549347 -0.034740753 -0.03362184 0.07060007 -0.013641951
0.03347879 -0.014091576 0.034735788 -0.042260163 -0.061910596 -0.053794578 0.072685204 -0.054307625
-0.007672974 -0.087185346 0.10775766 0.11341754 -0.06724749 -0.09630303 -0.08617723 0.022005761
-0.039565716 -0.055907637 -0.03664662 0.01294724 -0.022524893 0.019112363 -0.029798193 -0.041582953
0.0062807817 0.027476352 -0.054364905 0.029672807 -0.030540293 0.090851486 -0.055210732 -0.091061525
0.09309049 -0.07636664 0.0388384 -0.03573013 -0.02726328 -0.0095109595 0.048355963 -0.011012862
-0.07444389 -0.0393799 -0.004972114 0.03947362 -0.03374721 0.06334308 0.023723232 -0.00070015114
0.08318298 0.040474903 0.07959777 0.050190523 -0.023756912 -0.08741684 -0.005652031 0.043248076
-0.027697846 -0.055176776 0.055880293 0.11001775 -0.024603168 -0.09719314 -0.0648144 0.037387855
-0.0033574342 -0.057275746 0.0051745498 0.05135491 0.07029692 0.058497038 0.013081896 -0.056542553
-0.08249212 0.083994925 0.08384551 0.072039485 -0.095608495 0.11636051 0.11325397 0.043456994
-0.044505037 -0.07018423 -0.049242985 0.06450772 0.039263055 -0.030273335 0.013031427 -0.019473203
-0.052976537 -0.00773146 0.007966887 -0.06732507 0.074495524 -0.029150173 -0.005329416 0.12985806
0.0602648 0.03156592 0.047396816 0.05479693 -0.079243466 0.0792394 0.03091692 -0.066791646
-0.042825975 -0.0790527 0.078752324 -0.032767244 -0.077609435 0.010033739 0.05367181 0.056322757
0.054346815 -0.006631172 0.05529984 -0.007078072 -0.02915702 -0.12377086 -0.09009869 0.006454571
-0.059806153 0.039344467 0.0034024331 0.01836208 -0.06074626 0.09739492 -0.014711861 0.05198957
-0.0614949 0.009471442 0.058569364 -0.042381793 0.070766725 -0.04254841 -0.05655782 -0.030431304
0.037673414 0.09071145 -0.05960289 0.055705134 -0.01735821 -0.02759775 0.08180178 -0.066837676
-0.014225368 0.09217155 0.0005295326 0.084102534 -0.0100257285 0.057632267 -0.113360286 0.002198621
0.001044513 0.030703414 0.027352355 0.06342073 -0.021308038 -0.017377362 0.058885608 -0.019187504
0.078855835 -0.050038762 -0.01988362 0.050305955 0.06819454 0.064931236 -0.033905547 -0.09014876
0.071592174 0.024093114 0.05263372 -0.03884595 0.068747565 0.104717284 0.036661617 -0.12897539
0.08922625 -0.083093405 0.021582473 -0.0006922835 -0.06506602 0.028402353 -0.07486011 0.00054737646
-0.06735072 0.032168612 0.026540015 0.078038335 -0.042396948 0.04771734 -0.08326457 -0.028242119
-0.038246635 -0.05240256 0.10675383 -0.025690017 0.0044148937 0.002858291 0.08929604 0.12432495
0.07387637 -0.07458916 -0.022355275 -0.12501289 -0.034603428 0.07628783 0.09141912 -0.066798285
0.053333677 -0.0839113 -0.024836423 0.09263637 0.009049365 0.003621187 -0.08080664 0.0904851
0.0046671075 -0.064728335 0.04951306 -0.05269047 -0.082913004 -0.003531035 0.07574643 0.009390603
0.062188655 0.12361504 0.031680163 0.014465591 -0.03197107 -0.0077493046 -0.036727194 -0.013352555
0.035485227 0.09162962 0.010758565 0.011683312 -0.025994249 0.08360127 -0.059157323 -0.01209628
0.011507625 0.028051756 -0.0724058 0.11814991 0.02404594 -0.048726402 -0.042299476 0.09612225
00000000: 0386 c5bc 8e78 75bc cca9 783c 2b1b 7c3d
00000010: 524c 0ebd 0eb7 09bd c596 903d 7d82 5fbc
00000020: 0e21 093d 5be0 66bc 1d47 0e3d fe18 2dbd
00000030: f795 7dbd b457 5cbd fbdb 943d ac71 5ebd
00000040: 926d fbbb 3b8e b2bd 0cb0 dc3d 7547 e83d
00000050: 0db9 89bd 863a c5bd b07d b0bd 6d45 b43c
00000060: a90f 22bd 68ff 64bd c41a 16bd a920 543c
00000070: 2086 b8bc 8891 9c3c 571b f4bc e352 2abd
00000080: 04cf cd3b 1616 e13c bcad 5ebd 6314 f33c
00000090: a32f fabc 5810 ba3d a624 62bd 777e babd
000000a0: 3aa6 be3d 1d66 9cbd 0415 1f3d c259 12bd
000000b0: 3e57 dfbc dbd3 1bbc e710 463d 4b6f 34bc
000000c0: 0a76 98bd d14c 21bd 1eed a2bb 17af 213d
000000d0: 843a 0abd 04ba 813d 3957 c23c 598a 37ba
000000e0: d75b aa3d 03c9 253d 2804 a33d 9494 4d3d
000000f0: db9d c2bc 9a07 b3bd ac34 b9bb e524 313d
00000100: 98e6 e2bc 0b01 62bd bce2 643d fc50 e13d
00000110: 958c c9bc 320d c7bd 6abd 84bd 0224 193d
00000120: 6608 5cbb f999 6abd 458f a93b 8759 523d
00000130: d5f7 8f3d 979a 6f3d 7355 563c 2a99 67bd
00000140: a1f1 a8bd 8805 ac3d 32b7 ab3d 7089 933d
00000150: 63ce c3bd 6b4e ee3d b3f1 e73d f6ff 313d
00000160: ea4a 36bd c0bc 8fbd 03b3 49bd a01c 843d
00000170: 4cd2 203d c9ff f7bc c481 553c 4486 9fbc
00000180: edfd 58bd 3058 fdbb 8c87 023c bae1 89bd
00000190: 1c91 983d 58cc eebc 62a2 aebb 83f9 043e
000001a0: 39d8 763d 444b 013d 2a23 423d bf72 603d
000001b0: 664a a2bd 4448 a23d 7b45 fd3c 0fca 88bd
000001c0: 4a6a 2fbd 62e6 a1bd e648 a13d f236 06bd
000001d0: b2f1 9ebd 8d64 243c f9d6 5b3d b1b2 663d
000001e0: c49a 5e3d 4d4a d9bb 1682 623d 2cef e7bb
000001f0: b4da eebc 947b fdbd a985 b8bd de80 d33b
00000200: 4cf7 74bd aa27 213d 5bfb 5e3b 136c 963c
00000210: 12d1 78bd fd76 c73d 040a 71bc 04f3 543d
00000220: 14e2 7bbd 1b2e 1b3c 6ee6 6f3d 8898 2dbd
00000230: 25ee 903d 3e47 2ebd 2ca9 67bd 124b f9bc
00000240: 704f 1a3d edc6 b93d 2922 74bd 112b 643d
00000250: ce32 8ebc ad14 e2bc b187 a73d 31e2 88bd
00000260: 8511 69bc 70c4 bc3d 55d0 0a3a f33d ac3d
00000270: f442 24bc d00f 6c3d 7029 e8bd bd16 103b
00000280: 0ae8 883a ba85 fb3c 0c12 e03c bae2 813d
00000290: 328e aebc f85a 8ebc 0932 713d 1d2f 9dbc
000002a0: 2b7f a13d 72f5 4cbd f9e2 a2bc 9e0d 4e3d
000002b0: 94a9 8b3d abfa 843d 8be0 0abd ea9f b8bd
000002c0: eb9e 923d ec5e c53c 7596 573d ee1c 1fbd
000002d0: 86cb 8c3d 0476 d63d 7e2a 163d 2012 04be
000002e0: 41bc b63d e02c aabd bacd b03c 5c7a 35ba
000002f0: 5541 85bd 0dac e83c 4250 99bd d07d 0f3a
00000300: 2def 89bd 3cc3 033d 726a d93c 90d2 9f3d
00000310: 6ca8 2dbd 4273 433d 9d86 aabd 045c e7bc
00000320: 81a8 1cbd 11a4 56bd c1a1 da3d df73 d2bc
00000330: d0aa 903b 2a52 3b3b d8e0 b63d 149e fe3d
00000340: 7f4c 973d 34c2 98bd 6922 b7bc 6103 00be
00000350: 53bc 0dbd cb3c 9c3d f339 bb3d 8acd 88bd
00000360: 6a74 5a3d b0d9 abbd c175 cbbc 23b8 bd3d
00000370: ca43 143c 7051 6d3b f47d a5bd 4150 b93d
00000380: 89ee 983b 4a90 84bd 35ce 4a3d f6d1 57bd
00000390: 4bce a9bd f068 67bb f220 9b3d 0bdb 193c
000003a0: 88b9 7e3d e229 fd3d 0fc3 013d 1601 6d3c
000003b0: 19f4 02bd e1ed fdbb 416f 16bd adc4 5abc
000003c0: f558 113d 4fa8 bb3d b144 303c 5d6b 3f3c
000003d0: e4f1 d4bc 2537 ab3d f34e 72bd 7a2f 46bc
000003e0: 7a8a 3c3c cccc e53c 7e49 94bd 94f8 f13d
000003f0: fefb c43c 5695 47bd 3742 2dbd bedb c43d

actor_old.preprocess.model.model.2.bias f4 [128]
-0.02035694 -0.059908338 -0.051372595 -0.041021824 -0.05240693 -0.08043506 0.08854602 -0.08923454
-0.042228147 0.065204136 -0.037616935 0.051032674 -0.021827843 0.00952401 0.029469868 0.0035280834
-0.06317651 0.023154672 -0.0087236 0.070278645 0.0006449953 0.07531664 -0.00083032914 -0.034441013
-0.017878057 0.07010942 0.084899634 0.037103552 -0.037892528 0.013512315 0.0654137 0.09200392
0.085066624 0.021366907 -0.010889351 0.08131349 0.021385608 -0.08749449 0.07475981 -0.0022260346
0.107735366 0.04327663 -0.0076436047 -0.07237616 -0.086637676 -0.030295316 0.042735722 -0.010997044
0.010839777 -0.020670857 0.084328905 -0.024215583 0.03976584 -0.08483012 -0.005304353 0.04110287
0.04198158 -0.08061475 0.07959467 -0.034579612 -0.07089222 -0.068514936 -0.09159115 0.027176937
0.0632196 0.051458493 0.035700176 -0.02489208 0.032693494 0.064783804 -0.09538699 -0.013655493
0.022082627 0.0907651 0.057973865 -0.07993763 0.028792491 0.07453539 0.10047795 -0.047026187
0.089337856 -0.0070480597 -0.03930736 -0.01052869 0.07298949 -0.0516653 0.009388988 -0.029310802
0.02329541 0.064297855 -0.039992627 -0.026611013 0.02077041 0.06951722 0.0009470707 -0.007143267
0.0007849739 0.042288702 0.093112566 0.03952243 0.06183505 0.04012355 0.024728563 0.0016844998
-0.061515376 -0.01014811 0.027512388 0.033678535 -0.044960614 0.0081452625 0.044135373 -0.008868349
0.051362485 0.044948682 -0.00023453293 0.027247276 -0.02783595 0.0433467 0.005152256 -0.009488923
-0.063694656 0.01601171 -0.043376952 -0.021080632 -0.03387745 0.08218375 0.05554616 0.07838834
00000000: 99c3 a6bc 7262 75bd 126c 52bd 8006 28bd
00000010: a6a8 56bd 23bb a4bd 9e57 b53d 99c0 b6bd
00000020: 6cf7 2cbd bf89 853d 3714 1abd a307 513d
00000030: 4ed0 b2bc 980a 1c3c cb6a f13c 6b37 673b
00000040: b062 81bd deae bd3c 6eed 0ebc 40ee 8f3d
00000050: e714 293a 9c3f 9a3d 72aa 59ba 0512 0dbd
00000060: 0175 92bc 8795 8f3d dcdf ad3d e5f9 173d
00000070: 3235 1bbd c262 5d3c 9ef7 853d 8d6c bc3d
00000080: 6937 ae3d a709 af3c 4069 32bc b087 a63d
00000090: df30 af3c 5030 b3bd ac1b 993d aae2 11bb
000000a0: 5ca4 dc3d d642 313d 3477 fabb f439 94bd
000000b0: 186f b1bd e22d f8bc a70b 2f3d f22c 34bc
000000c0: 5299 313c ee55 a9bc a2b4 ac3d c25f c6bc
000000d0: 81e1 223d 6abb adbd 23d0 adbb 7c5b 283d
000000e0: e1f4 2b3d 5919 a5bd 8802 a33d 5aa3 0dbd
000000f0: f12f 91bd 8f51 8cbd 2494 bbbd 2ba2 de3c
00000100: 4779 813d 24c6 523d 593a 123d 7aea cbbc
00000110: 9de9 053d 5fad 843d 415a c3bd 4abb 5fbc
00000120: a0e6 b43c 0ee3 b93d 0176 6d3d 57b6 a3bd
00000130: 3bde eb3c 03a6 983d 62c7 cd3d 889e 40bd
00000140: c4f6 b63d 69f3 e6bb c100 21bd 8780 2cbc
00000150: 847b 953d fe9e 53bd 45d4 193c 351d f0bc
00000160: 04d6 be3c 98ae 833d 4fcf 23bd 57ff d9bc
00000170: b526 aa3c 0b5f 8e3d d744 783a 1112 eabb
00000180: b5c6 4d3a eb36 2d3d cdb1 be3d 46e2 213d
00000190: c046 7d3d 9758 243d 8e93 ca3c 6fca dc3a
000001a0: 8cf7 7bbd 4244 26bc a961 e13c 81f2 093d
000001b0: 9f28 38bd b573 053c 4bc7 343d 8d4c 11bc
000001c0: 7861 523d 1c1c 383d f4ec 75b9 ae35 df3c
000001d0: 3808 e4bc 4f8c 313d 42d4 a83b 6d77 1bbc
000001e0: 5872 82bd fd2a 833c 08ac 31bd 4ab1 acbc
000001f0: 15c3 0abd f44f a83d 5f84 633d 118a a03d

actor_old.last.model.0.weight f4 [1, 128]
-0.07126417 0.1276046 -0.091497645 0.06838693 0.023435913 -0.12572826 0.082514316 0.060767874
0.09826569 0.118834734 0.052082837 -0.09240292 0.13536043 -0.11715126 0.026895316 -0.16645609
-0.048119746 -0.13371825 -0.114440106 -0.08677916 -0.094598986 -0.10600336 -0.13334095 -0.08189962
0.09846031 0.090219915 -0.029035255 0.044446852 0.054959938 -0.115411945 -0.07782502 0.13643941
0.14368734 -0.03813897 -0.013279462 0.09643333 -0.11266671 0.008583356 -0.11474472 0.06358779
-0.05418624 -0.12732174 -0.049048334 -0.06389744 0.0045693056 0.09159662 -0.063762 -0.062116317
-0.15806578 0.12638862 0.13435607 -0.123973705 -0.050227966 0.11791809 0.087862596 -0.105533816
-0.15597302 0.117376305 -0.040360402 0.14807177 -0.1773017 0.06487011 -0.03333401 -0.020546434
-0.08807923 0.05753211 -0.0652203 -0.08838255 -0.14228119 0.15806887 -0.048992235 -0.09299155
0.01741653 0.12956099 -0.23904926 0.1566751 0.15526655 0.06627539 -0.08316326 -0.19484314
-0.09674546 0.11760959 -0.065769136 -0.09952378 -0.031110747 0.0350026 -0.14524361 -0.097443365
0.044737536 -0.06823572 -0.111313835 -0.06263113 -0.048174262 0.06708453 -0.12565884 0.057468418
-0.08039862 0.09621323 -0.068708204 0.05478615 0.11073126 0.0475104 -0.15695624 -0.05339079
-0.17312291 0.13544753 -0.11892212 0.061988566 -0.075640894 0.17596239 -0.02984477 -0.12882183
0.0035031964 -0.17135449 0.05801658 0.18953866 -0.062432423 -0.12578717 0.30705205 0.10367357
0.005369149 0.072635464 -0.11658556 -0.07647145 0.021034312 0.060010456 -0.08443675 -0.14925502
00000000: f3f2 91bd c8aa 023e 1e63 bbbd 720e 8c3d
00000010: acfc bf3c e9be 00be 44fd a83d bce7 783d
00000020: 863f c93d a05f f33d d054 553d be3d bdbd
00000030: ed9b 0a3e 00ed efbd 9153 dc3c 7773 2abe
00000040: 3619 45bd 70ed 08be 935f eabd 46b9 b1bd
00000050: 1dbd c1bd 4a18 d9bd 888a 08be fdba a7bd
00000060: 8fa5 c93d 38c5 b83d 58db edbc e70d 363d
00000070: ac1d 613d 195d ecbd b962 9fbd c6b6 0b3e
00000080: c622 133e 9c37 1cbd 1a92 59bc d67e c53d
00000090: cebd e6bd 34a1 0c3c 48ff eabd 513a 823d
000000a0: 64f2 5dbd a160 02be e8e6 48bd a9dc 82bd
000000b0: 1dba 953b 0297 bb3d a795 82bd ae6d 7ebd
000000c0: ffdb 21be 056c 013e a394 093e ede5 fdbd
000000d0: d7bb 4dbd 0a7f f13d 4ef1 b33d 1d22 d8bd
000000e0: 64b7 1fbe fd62 f03d f350 25bd 20a0 173e
000000f0: 948e 35be 9fda 843d 3e89 08bd ff50 a8bc
00000100: e262 b4bd caa6 6b3d 3892 85bd e901 b5bd
00000110: 29b2 11be cedc 213e 15ac 48bd 5b72 bebd
00000120: 1cad 8e3c a3ab 043e 54c9 74be 706f 203e
00000130: 32fe 1e3e 64bb 873d 8051 aabd f684 47be
00000140: 7c22 c6bd 4cdd f03d f8b1 86bd 20d3 cbbd
00000150: f7db febc e35e 0f3d beba 14be 6390 c7bd
00000160: b53e 373d 2bbf 8bbd 82f8 e3bd c044 80bd
00000170: 6052 45bd 9d63 893d b6ac 00be 0164 6b3d
00000180: 08a8 a4bd 710b c53d e3b6 8cbd 7167 603d
00000190: 12c7 e23d 449a 423d 23b9 20be 4db0 5abd
000001a0: 2247 31be c2b2 0a3e 718d f3bd b9e7 7d3d
000001b0: 9de9 9abd 7c2f 343e 057d f4bc dfe9 03be
000001c0: e295 653b 8d77 2fbe cba2 6d3d 6c16 423e
000001d0: 24b9 7fbd 5ace 00be ed35 9d3e cf52 d43d
000001e0: b0ef af3b e7c1 943d 69c4 eebd 109d 9cbd
000001f0: 2650 ac3c 86cd 753d 2ded acbd 4fd6 18be

critic.preprocess.model.model.0.weight f4 [128, 4]
-0.5984935 0.3613762 0.1773554 0.18224157 -0.5195061 -0.5780622 -0.1981722 -0.04836132
-0.21476491 1.5219764 0.52813715 0.2992264 -0.12878227 0.2777724 -0.40703762 0.43829456
-0.58244544 0.34205317 0.24376456 -0.21505274 -0.091125555 0.13992764 -0.31239405 -0.2918631
-0.36401647 -0.11210599 -0.1155678 -0.03536587 -0.025833815 1.325084 0.32635015 -0.17313662
0.44405317 1.1658852 0.27144197 0.19698341 0.5403829 -1.444602 -0.3041726 -0.31257978
0.8874204 0.35128492 0.15583967 0.7380559 -0.6123672 0.66594416 0.21352072 0.17019312
-0.43434766 -0.883861 -0.22764455 -0.11005536 0.04091795 -0.9678717 -0.104218505 0.007909275
-0.559319 0.086839385 0.17056464 0.16887914 -0.24611612 -0.6698962 -0.432898 0.08708719
-0.426637 0.42405438 0.04420176 -0.26734975 -0.13936453 -1.4296844 -0.3386388 0.0967578
-0.5959828 -0.33234027 -0.40223813 0.08311191 0.19977851 0.4178671 0.022913868 0.032855682
-0.70043045 1.3048332 0.45675448 0.1535289 -0.52954113 0.6670665 0.2433222 -0.10767915
-0.57871836 -0.44161254 -0.20155813 -0.25433117 -0.1640697 -1.3337644 -0.3122404 0.018123977
-0.165072 1.3717319 0.27435386 0.24580051 -0.43009582 -0.5099857 -0.16943395 -0.09616206
-0.7333188 0.99659866 0.29373455 0.107039146 -0.6595301 0.9657492 0.24152368 0.37468496
-0.67186576 -0.9842468 -0.28144246 -0.24990155 -0.10258525 0.591436 -0.18784451 -0.59351546
0.49966085 0.7859545 0.30624986 -0.3610976 -0.6433608 0.27872768 0.2006669 0.04726682
-0.408869 -0.51560575 -0.15606044 -0.16903573 -0.6016653 0.4323191 0.18246685 0.25058207
-0.5578796 0.00060542946 0.13576871 0.33829442 -0.609897 0.14864928 0.057071794 0.15265837
-0.7135751 -0.63429785 -0.25030583 -0.21414724 -0.097394876 1.9398446 0.3776071 0.35579714
-0.20111597 -0.9642976 -0.21294156 -0.078946196 -0.46072343 -0.24778078 -0.15530051 -0.24334034
-0.3665341 0.11726182 0.12253824 0.40425995 -0.43305403 0.8027449 0.18364656 0.21429881
-0.0867245 -0.6972488 -0.34141463 0.3170575 -0.21886429 0.89284384 0.20985244 0.041212916
-0.5540435 -0.24644557 0.07348938 0.45132422 -0.42523843 0.9295709 0.24422124 0.14003137
-0.559313 1.438818 0.50703615 0.20503373 -0.410079 0.56719446 -0.055644885 -0.59311455
-0.34413025 -0.16960442 0.42146873 0.7942471 -0.5827857 0.86842495 -0.07691551 0.03492815
0.65017885 -0.5185226 0.038919743 -0.7406592 0.22438349 0.32504725 0.5506247 -0.08482146
-0.4871564 0.74589705 0.08769133 0.26445562 -0.26801684 -1.3061574 -0.40457544 -0.11974735
-0.20252538 -0.42764977 -0.09581769 0.021567356 -0.26453504 0.02567939 -0.2501993 -0.2647018
-0.6254135 -0.64127374 -0.22443065 -0.2585589 0.18910576 -0.60522634 -0.15456349 0.5579806
-0.43384942 -0.018765721 -0.21475713 -0.60590917 0.486633 -0.032860585 0.6730402 0.2730851
0.1632737 -0.117918454 0.03906288 0.11034841 -0.3147317 0.599867 0.21909058 0.13443847
0.9713256 -0.22757073 -0.2572549 -0.03302473 -0.45825166 -0.82689774 -0.28756782 0.13085805
00000000: df36 19bf 4d06 b93e a79c 353e 899d 3a3e
00000010: 5afe 04bf e2fb 13bf a7ed 4abe 8516 46bd
00000020: 55eb 5bbe 1fd0 c23f ff33 073f 3434 993e
00000030: 80df 03be 2f38 8e3e 3c67 d0be 2568 e03e
00000040: 251b 15bf 9821 af3e 6b9d 793e c936 5cbe
00000050: 09a0 babd 3149 0f3e 1df2 9fbe 156f 95be
00000060: 5e60 babe d397 e5bd d0ae ecbd cddb 10bd
00000070: 70a1 d3bc 5a9c a93f 5e17 a73e ba4a 31be
00000080: f05a e33e ba3b 953f 71fa 8a3e 05b6 493e
00000090: 8956 0a3f b8e8 b8bf 83bc 9bbe 750a a0be
000000a0: fc2d 633f 9edb b33e 6f94 1f3e 3bf1 3c3f
000000b0: 19c4 1cbf 517b 2a3f 2da5 5a3e 1b47 2e3e
000000c0: d162 debe b744 62bf a71b 69be b464 e1bd
000000d0: 9599 273d 71c6 77bf 8370 d5bd e795 013c
000000e0: 882f 0fbf d9d8 b13d 7fa8 2e3e a7ee 2c3e
000000f0: dd05 7cbe 517e 2bbf cfa4 ddbe c55a b23d
00000100: 2a70 dabe a81d d93e e80c 353d 11e2 88be
00000110: 93b5 0ebe e6ff b6bf 1162 adbe f428 c63d
00000120: 5492 18bf 8128 aabe 28f2 cdbe 9436 aa3d
00000130: bd92 4c3e adf2 d53e ddb5 bb3c ae93 063d
00000140: 694f 33bf c604 a73f b9db e93e ae36 1d3e
00000150: 0290 07bf dfc4 2a3f 7429 793e e386 dcbd
00000160: e326 14bf 0a1b e2be 4165 4ebe b237 82be
00000170: e301 28be cbb8 aabf f9dd 9fbe bc78 943c
00000180: a208 29be e994 af3f 1c78 8c3e 21b3 7b3e
00000190: 8535 dcbe 6c8e 02bf 1880 2dbe 9df0 c4bd
000001a0: c8ba 3bbf 1721 7f3f 6064 963e 5737 db3d
000001b0: f7d6 28bf 573b 773f fc51 773e b5d6 bf3e
000001c0: 65ff 2bbf 99f7 7bbf 3a19 90be 31e6 7fbe
000001d0: 3718 d2bd 5a68 173f 505a 40be a1f0 17bf
000001e0: 8cd3 ff3e 5034 493f c8cc 9c3e c9e1 b8be
000001f0: 4bb3 24bf 65b5 8e3e a07b 4d3e da9a 413d
00000200: 4757 d1be bdfe 03bf 4fce 1fbe b417 2dbe
00000210: bd06 1abf ee58 dd3e 97d8 3a3e 4b4c 803e
00000220: 33d1 0ebf afb5 1e3a f406 0b3e ed34 ad3e
00000230: 3622 1cbf 8437 183e 1dc4 693d 7a52 1c3e
00000240: dcac 36bf 5861 22bf 1628 80be 6a49 5bbe
00000250: f776 c7bd d44c f83f b855 c13e 0b2b b63e
00000260: 58f1 4dbe 35dc 76bf 5a0d 5abe 8bae a1bd
00000270: f1e3 ebbe 3fba 7dbe 1907 1fbe 362e 79be
00000280: 5caa bbbe f726 f03d 54f5 fa3d 29fb ce3e
00000290: 42b9 ddbe b180 4d3f d80d 3c3e 2671 5b3e
000002a0: 9d9c b1bd e67e 32bf e6cd aebe 5c55 a23e
000002b0: f61d 60be 6a91 643f 8fe3 563e e0ce 283d
000002c0: cbd5 0dbf 3a5c 7cbe 9a81 963d f813 e73e
000002d0: dab8 d9be 5cf8 6d3f 2215 7a3e 6264 0f3e
000002e0: 232f 0fbf 302b b83f 1fcd 013f 5df4 513e
000002f0: e0f5 d1be a833 113f e4eb 63bd 5bd6 17bf
00000300: d731 b0be c8ac 2dbe c0ca d73e c753 4b3f
00000310: 7231 15bf 1951 5e3f e185 9dbd d210 0f3d
00000320: 1f72 263f e6bd 04bf 4f6a 1f3d d79b 3dbf
00000330: c9c4 653e 986c a63e bef5 0c3f e0b6 adbd
00000340: 906c f9be 1cf3 3e3f 8397 b33d ba66 873e
00000350: 8139 89be 2a30 a7bf 8324 cfbe 193e f5bd
00000360: d062 4fbe e9f4 dabe 113c c4bd 06ae b03c
00000370: 2371 87be 965d d23c 1f1a 80be ff86 87be
00000380: 191b 20bf 842a 24bf 26d1 65be d561 84be
00000390: f1a4 413e 1df0 1abf e445 1ebe d1d7 0e3f
000003a0: 8321 debe 92ba 99bc 4be9 5bbe dd1c 1bbf
000003b0: f627 f93e d298 06bd 5d4c 2c3f cfd1 8b3e
000003c0: 3931 273e 3b7f f1bd 6600 203d 59fe e13d
000003d0: 8324 a1be e290 193f 4859 603e 3daa 093e
000003e0: cba8 783f 4d08 69be eab6 83be f044 07bd
000003f0: f69f eabe 92af 53bf 173c 93be a7ff 053e
