demo/tianshou/discrete/log/CartPole-v0/ppo/policy.pth (torch, 24655 bytes, 22 tensors)

actor.preprocess.model.model.0.weight f4 [64, 4]
-0.045244336 0.023995727 -0.03978204 0.11708183 -0.12778021 0.13562866 -0.13190682 -0.29060212
0.037614614 0.015527507 0.024459057 0.16953819 -0.056870338 0.013966649 0.080897816 -0.035171
-0.18763545 -0.22816029 -0.23336323 0.1175945 0.09781869 -0.04522424 0.34401724 0.060021453
-0.11051619 0.054451838 0.05782859 -0.09100681 0.1126261 -0.1303379 -0.06262119 -0.054656368
-0.2020559 0.1108212 0.03385942 -0.04700347 0.1065006 -0.14171712 -0.13733873 -0.040079672
-0.07807717 0.038851395 0.053148933 -0.06246634 -0.088083856 -0.0036904903 0.078187704 0.0851034
-0.048307046 0.064079925 -0.2757738 -0.15182965 0.0053440593 -0.12833732 -0.2021305 0.25706235
0.033693176 0.091155425 -0.019101989 0.022074852 -0.056282412 0.057328608 -0.05128417 -0.06552801
0.0039471835 0.064704135 -0.010772362 0.09581012 -0.010010208 -0.104855865 -0.008486119 -0.23278552
-0.098761365 0.012242499 0.11310111 0.24927819 -0.0065905997 0.012892865 -0.11597156 0.028245583
-0.31243417 -0.18857759 0.08864622 0.032200918 -0.04940509 0.16415842 0.06382494 0.036732882
0.007831268 0.046659436 -0.015118204 -0.01323417 -0.14142321 -0.024596026 -0.026424516 0.075092606
0.14773081 0.23442411 -0.09598954 -0.11211524 0.04310843 0.021310726 0.04486551 -0.07783981
-0.20538945 0.21972711 0.16506875 0.06867643 -0.052107595 0.005265687 -0.10329318 0.011562763
0.10115481 -0.04405334 -0.13664913 0.035328995 0.14006072 0.01953841 -0.19800048 -0.047845416
0.18201838 0.11517663 -0.06461452 0.12294409 0.015885063 -0.0002449557 0.06966883 0.21296346
-0.11553023 -0.11541485 0.33858913 -0.13162883 -0.1454027 0.086306795 0.022104813 0.0031086467
0.03220038 -0.07955661 0.021315033 -0.08412113 0.0833529 0.065146886 -0.0076058516 0.025346274
-0.12038738 -0.1512409 -0.18998383 -0.11063487 -0.16111857 0.077010795 0.022218943 -0.11206567
-0.16773278 0.012674585 0.10950513 0.033126943 0.0032459183 0.027721658 0.12171438 -0.014469382
-0.14200383 0.1203217 -0.089760005 0.16247681 -0.22262295 0.09339601 -0.07804811 0.1913451
0.041480646 -0.11039423 -0.010506607 0.21567667 0.10634499 -0.22944605 0.09413192 -0.07640481
0.35665548 0.17592594 -0.0059913425 0.13408586 0.0439398 -0.3439747 -0.07153725 -0.06980517
-0.21638913 0.001565381 -0.04331816 0.032438178 0.04361828 0.18437946 0.10612529 -0.09222955
-0.1334043 0.15855037 -0.29589668 0.24135737 -0.04176771 0.13845702 -0.23691192 -0.11961321
-0.072331496 0.03217258 -0.07458704 -0.0845079 0.06380031 -0.083638966 0.10148388 -0.086013116
0.047528833 0.22956212 0.08973529 0.23308578 -0.016317489 0.06310887 -0.14861152 -0.056513086
0.08459692 0.018290494 0.011850138 -0.078321874 0.12467316 -0.22901665 -0.018483207 0.15680233
0.18536015 0.073062 -0.10861598 0.021826802 0.14148727 -0.06571273 -0.055610906 0.00046736933
0.1994963 0.061465677 0.116811156 0.123559594 0.027646322 0.056744706 -0.14362346 -0.24761344
0.0031941095 0.036908727 -0.020016097 0.0101787895 -0.10548203 0.12970373 0.1359201 -0.17706189
-0.09981139 0.17599098 -0.08893409 0.08671232 0.17598765 0.2835336 0.055284265 -0.14827338
00000000: 2052 39bd b092 c43c 7ef2 22bd 99c8 ef3d
00000010: d1d8 02be 3de2 0a3e 9512 07be cdc9 94be
00000020: c811 1a3d 1667 7e3c 5c5e c83c 6b9b 2d3e
00000030: dff0 68bd 5fd4 643c c1ad a53d 770f 10bd
00000040: 8223 40be daa2 69be c5f6 6ebe 63d5 f03d
00000050: 2a55 c83d 0d3d 39bd 0723 b03e 0ed9 753d
00000060: 5056 e2bd e408 5f3d acdd 6c3d c761 babd
00000070: 83a8 e63d 4c77 05be 8a3f 80bd 5bdf 5fbd
00000080: bee7 4ebe 3af6 e23d 2db0 0a3d b686 40bd
00000090: fd1c da3d 4b1e 11be 86a2 0cbe 952a 24bd
000000a0: ece6 9fbd a422 1f3d b2b2 593d b4dc 7fbd
000000b0: 4f65 b4bd 27dc 71bb e020 a03d b14a ae3d
000000c0: 9cdd 45bd 563c 833d 3932 8dbe 3b79 1bbe
000000d0: 381d af3b dc6a 03be 4cfb 4ebe ad9d 833e
000000e0: db01 0a3d b2af ba3d c67b 9cbc 52d6 b43c
000000f0: 6388 66bd 67d1 6a3d 5a0f 52bd 8d33 86bd
00000100: 6057 813b 9a83 843d 907e 30bc 1938 c43d
00000110: db01 24bc acbe d6bd 5d09 0bbc 545f 6ebe
00000120: 6643 cabd c394 483c 8ea1 e73d c842 7f3e
00000130: f5f5 d7bb 983c 533c 7f82 edbd 4863 e73c
00000140: 5ff7 9fbe 7c1a 41be 268c b53d 1ce5 033d
00000150: fe5c 4abd 2519 283e a6b6 823d 3875 163d
00000160: b84e 003c f71d 3f3d 58b2 77bc 22d4 58bc
00000170: 3fd1 10be 9b7d c9bc 3a78 d8bc 27ca 993d
00000180: bf46 173e e00c 703e 2a96 c4bd ad9c e5bd
00000190: 7792 303d d593 ae3c e6c4 373d 7a6a 9fbd
000001a0: 9d51 52be 2500 613e c807 293e 3aa6 8c3d
000001b0: c66e 55bd c98b ac3b 608b d3bd be71 3d3c
000001c0: 412a cf3d 4671 34bd c0ed 0bbe 23b5 103d
000001d0: 146c 0f3e 040f a03c a3c0 4abe 8ef9 43bd
000001e0: 0763 3a3e bae1 eb3d 9e54 84bd 1cca fb3d
000001f0: 6421 823c 666d 80b9 88ae 8e3d 1813 5a3e
00000200: 1d9b ecbd 9f5e ecbd 8e5b ad3e b5c9 06be
00000210: 72e4 14be 9ec1 b03d 2715 b53c 70ba 4b3b
00000220: 8ce4 033d 93ee a2bd dd9c ae3c b347 acbd
00000230: edb4 aa3d bb6b 853d 823a f9bb fda2 cf3c
00000240: a98d f6bd e5de 1abe 1f8b 42be 8994 e2bd
00000250: 44fc 24be d6b7 9d3d 8004 b63c b082 e5bd
00000260: 24c2 2bbe 10a9 4f3c 3a44 e03d 1eb0 073d
00000270: 79b9 543b 8818 e33c 6445 f93d fd10 6dbc
00000280: 7469 11be 396b f63d 18d4 b7bd 5260 263e
00000290: 45f7 63be 6846 bf3d b0d7 9fbd f8ef 433e
000002a0: 9ce7 293d 5f16 e2bd e723 2cbc 58da 5c3e
000002b0: 67cb d93d e8f3 6abe 3cc8 c03d 207a 9cbd
000002c0: 8c9b b63e ee25 343e 0653 c4bb ce4d 093e
000002d0: 38fa 333d 741d b0be 1f82 92bd 03f6 8ebd
000002e0: 1d95 5dbe 782d cd3a 626e 31bd e5dd 043d
000002f0: 15a9 323d f8cd 3c3e 3758 d93d d9e2 bcbd
00000300: 239b 08be 075b 223e c57f 97be 6326 773e
00000310: 9e14 2bbd adc7 0d3e 0a99 72be c5f7 f4bd
00000320: 8922 94bd 65c7 033d 17c1 98bd 7a12 adbd
00000330: bda9 823d e84a abbd c8d6 cf3d a527 b0bd
00000340: 98ad 423d 5512 6b3e 23c7 b73d 0aae 6e3e
00000350: 41ac 85bc 393f 813d 9e2d 18be 447a 67bd
00000360: 2641 ad3d f2d5 953c 1527 423c 3867 a0bd
00000370: a454 ff3d 5783 6abe 186a 97bc ca90 203e
00000380: 0dcf 3d3e 88a1 953d 0e72 debd 1fce b23c
00000390: 0ae2 103e 6594 86bd 43c8 63bd 4009 f539
000003a0: c248 4c3e 6fc3 7b3d b03a ef3d d00c fd3d
000003b0: 8a7a e23c 236d 683d 0712 13be 618e 7dbe
000003c0: 4454 513b 9b2d 173d ccf8 a3bc f0c4 263c
000003d0: f606 d8bd 0ed1 043e a42e 0b3e b64f 35be
000003e0: ea69 ccbd fb36 343e 1423 b6bd 3b96 b13d
000003f0: 1b36 343e 512b 913e c171 623d fad4 17be

actor.preprocess.model.model.0.bias f4 [64]
0.0 0.0 0.0 0.0 0.0 0.0 0.0 0.0
0.0 0.0 0.0 0.0 0.0 0.0 0.0 0.0
0.0 0.0 0.0 0.0 0.0 0.0 0.0 0.0
0.0 0.0 0.0 0.0 0.0 0.0 0.0 0.0
0.0 0.0 0.0 0.0 0.0 0.0 0.0 0.0
0.0 0.0 0.0 0.0 0.0 0.0 0.0 0.0
0.0 0.0 0.0 0.0 0.0 0.0 0.0 0.0
0.0 0.0 0.0 0.0 0.0 0.0 0.0 0.0
00000000: 0000 0000 0000 0000 0000 0000 0000 0000
00000010: 0000 0000 0000 0000 0000 0000 0000 0000
00000020: 0000 0000 0000 0000 0000 0000 0000 0000
00000030: 0000 0000 0000 0000 0000 0000 0000 0000
00000040: 0000 0000 0000 0000 0000 0000 0000 0000
00000050: 0000 0000 0000 0000 0000 0000 0000 0000
00000060: 0000 0000 0000 0000 0000 0000 0000 0000
00000070: 0000 0000 0000 0000 0000 0000 0000 0000
00000080: 0000 0000 0000 0000 0000 0000 0000 0000
00000090: 0000 0000 0000 0000 0000 0000 0000 0000
000000a0: 0000 0000 0000 0000 0000 0000 0000 0000
000000b0: 0000 0000 0000 0000 0000 0000 0000 0000
000000c0: 0000 0000 0000 0000 0000 0000 0000 0000
000000d0: 0000 0000 0000 0000 0000 0000 0000 0000
000000e0: 0000 0000 0000 0000 0000 0000 0000 0000
000000f0: 0000 0000 0000 0000 0000 0000 0000 0000

actor.preprocess.model.model.2.weight f4 [64, 64]
-0.03375101 0.018897876 -0.015591688 -0.11947879 -0.019075556 0.02726172 0.08764744 -0.13207836
0.15880041 0.21885373 -0.24773967 -0.04604125 0.07660028 0.17109066 -0.1831766 0.042756643
0.018693399 -0.018856566 -0.023314476 0.18253544 0.10724986 -0.011946961 -0.063656054 -0.1592015
0.20352834 0.112941995 -0.23815581 -0.1887951 0.32961658 -0.15648374 -0.027127389 -0.01774288
-0.041499786 -0.024123251 0.0020148326 0.03666888 -0.1697323 -0.050212465 -0.1478201 0.12740903
-0.20352024 -0.06732484 -0.03825833 -0.046582393 0.0114024095 -0.029040396 -0.012893662 -0.25455165
-0.17726427 0.0796227 0.105132736 -0.10115733 -0.048055775 -0.058316786 0.0048360527 -0.047772653
-0.041446764 0.07764302 0.16505098 -0.0664466 0.021346316 0.17041878 -0.11330737 0.23851644
-0.02322068 -0.109617114 0.16606925 0.12232701 -0.02201938 0.25249806 0.19394268 0.11692051
0.11734312 -0.15328681 0.040322643 0.05322806 0.1689134 -0.063156925 -0.02645439 0.0748066
0.17391971 0.029544214 0.032507025 0.14708665 0.11563819 0.08173589 -0.07296621 0.018394427
-0.036543235 -0.13417032 -0.025471805 0.067813724 0.06277973 -0.22088672 -0.123494714 -0.0530774
0.1327294 -0.10804665 -0.00094901194 0.057334527 -0.13036509 -0.17367849 0.17343026 -0.11503941
-0.16517363 -0.13115025 -0.03785678 0.153833 -0.0532514 0.03266699 -0.058179453 0.12499189
0.19512545 -0.028854383 -0.14543174 0.029478278 -0.19966419 -0.14728776 -0.1305435 0.23134823
-0.1566019 -0.15699372 0.13372922 -0.04005436 -0.21460746 -0.19424398 -0.08131397 0.07921256
0.14414044 0.2483431 0.07200885 -0.09655875 -0.17783721 -0.061975956 -0.11840553 -0.17781003
-0.011945592 0.0788915 0.15607513 0.061968967 -0.14529485 -0.04370713 0.03861664 -0.10242489
-0.05282995 -0.111402504 0.14855945 0.105195716 -0.039849676 0.16301006 -0.075561576 0.12806085
0.04201255 0.0027265754 -0.17988895 0.062439527 -0.09270199 -0.014596781 0.18365954 0.06955258
-0.09902245 -0.2620952 -0.12030447 -0.15774477 -0.14244813 -0.10758662 -0.043387704 0.059950538
-0.18607074 0.0073170653 -0.06874413 -0.25785613 -0.06996482 0.07338249 -0.23725641 0.20129839
0.033012044 0.110454634 -0.18499105 -0.23984337 -0.08499404 0.17778723 -0.011184986 0.020128231
0.10281426 -0.13393024 0.020698339 0.0666318 -0.04083138 -0.049009763 -0.13048166 -0.036092646
0.03743806 -0.1577953 0.02120932 -0.15821493 0.16998163 -0.0107434625 -0.061447233 0.13597076
0.067080244 0.12030763 0.30725774 0.08267178 0.13900325 0.30838272 -0.07578877 -0.11126025
-0.013254279 0.074809775 0.030236177 -0.12936926 0.07841063 0.17546782 0.09280735 0.0077226516
0.00010091113 -0.15176615 -0.16778778 -0.056406077 0.06314228 0.007900362 0.06106158 -0.017527742
0.20441018 0.06097953 -0.08746005 -0.051762655 0.014024643 -0.16498697 -0.20281886 -0.05228307
0.0699797 -0.13447046 -0.23542647 -0.01843959 -0.048284557 -0.047127873 -0.08881099 -0.13184902
0.15498929 -0.036274135 -0.021432841 0.09887701 0.31666967 -0.011255443 -0.07483063 -0.15020813
-0.040532183 -0.20220286 -0.19186914 -0.030914335 -0.020076457 0.029876793 -0.13974705 -0.108384386
00000000: 803e 0abd b8cf 9a3c 4874 7fbc 4cb1 f4bd
00000010: 5744 9cbc f853 df3c 8080 b33d 8d3f 07be
00000020: 939c 223e 311b 603e 78af 7dbe c095 3cbd
00000030: 9ce0 9c3d 6432 2f3e a692 3bbe 9721 2f3d
00000040: e622 993c 1679 9abc 00fe bebc 92ea 3a3e
00000050: d1a5 db3d 30bd 43bc 1b5e 82bd b805 23be
00000060: bc69 503e 224e e73d 1edf 73be 8153 41be
00000070: 81c3 a83e 463d 20be 423a debc 8459 91bc
00000080: aefb 29bd 209e c5bc 480b 043b 1c32 163d
00000090: 4ece 2dbe 96ab 4dbd 275e 17be 8377 023e
000000a0: 9c67 50be 9be1 89bd c4b4 1cbd 2ecd 3ebd
000000b0: 2cd1 3a3c 20e6 edbc f03f 53bc 9854 82be
000000c0: c484 35be 3a11 a33d d54f d73d 932b cfbd
000000d0: 22d6 44bd 95dd 6ebd c077 9e3b 42ad 43bd
000000e0: 15c4 29bd 4e03 9f3d 2003 293e 2815 88bd
000000f0: 78de ae3c 4382 2e3e b20d e8bd a73d 743e
00000100: 4c39 bebc f07e e0bd 0f0e 2a3e 9586 fa3d
00000110: fd61 b4bc 6d47 813e e998 463e 0574 ef3d
00000120: 9751 f03d 38f7 1cbe 5b29 253d ab05 5a3d
00000130: a2f7 2c3e 6b58 81bd e0b6 d8bc 3434 993d
00000140: 0218 323e b506 f23c 1626 053d e29d 163e
00000150: b7d3 ec3d 2565 a73d 4f6f 95bd e9af 963c
00000160: 5cae 15bd f263 09be 3faa d0bc ece1 8a3d
00000170: a992 803d 2130 62be ccea fcbd b067 59bd
00000180: 37ea 073e 9047 ddbd 1dc7 78ba 9cd7 6a3d
00000190: 6d7e 05be c6d8 31be b497 313e c899 ebbd
000001a0: 4723 29be 404c 06be b60f 1bbd 6686 1d3e
000001b0: 241e 5abd d2cd 053d 944d 6ebd bffb ff3d
000001c0: f7ce 473e 0760 ecbc 0fec 14be 6e7c f13c
000001d0: c574 4cbe 9ad2 16be 32ad 05be 8de6 6c3e
000001e0: 405c 20be f6c2 20be 50f0 083e 0a10 24bd
000001f0: 0fc2 5bbe e5e7 46be f087 a6bd 323a a23d
00000200: 8d99 133e a74d 7e3e 6079 933d 98c0 c5bd
00000210: f51a 36be 80da 7dbd 997e f2bd d513 36be
00000220: 72b7 43bc de91 a13d 29d2 1f3e 2cd3 7d3d
00000230: 2cc8 14be 3f06 33bd 7b2c 1e3d 24c4 d1bd
00000240: 3864 58bd ff26 e4bd f81f 183e da70 d73d
00000250: 6a39 23bd 1cec 263e 07c0 9abd 6222 033e
00000260: 5a15 2c3d 58b0 323b cf34 38be 97c0 7f3d
00000270: 8ada bdbd 5627 6fbc 3f11 3c3e 9571 8e3d
00000280: 48cc cabd 5831 86be 3162 f6bd d887 21be
00000290: ecdd 11be 6056 dcbd 4eb7 31bd b28e 753d
000002a0: 5489 3ebe fec3 ef3b b9c9 8cbd b805 84be
000002b0: b749 8fbd 8f49 963d 58f3 72be 2a21 4e3e
000002c0: a337 073d 0a36 e23d 4b6e 3dbe 8099 75be
000002d0: 5b11 aebd db0d 363e 3b41 37bc f6e3 a43c
000002e0: 4890 d23d 0225 09be 908f a93c 4176 883d
000002f0: ce3e 27bd 76be 48bd fc9c 05be e2d5 13bd
00000300: a758 193d 1795 21be 2bbf ad3c 1803 22be
00000310: aa0f 2e3e 5905 30bc 18b0 7bbd eb3b 0b3e
00000320: 5e61 893d d963 f63d e350 9d3e d24f a93d
00000330: de56 0e3e 57e4 9d3e 2537 9bbd 6adc e3bd
00000340: 7a28 59bc de35 993d dcb1 f73c 6079 04be
00000350: c195 a03d d6ad 333e c811 be3d 4c0e fd3b
00000360: 40a0 d338 9668 1bbe 8fd0 2bbe 0f0a 67bd
00000370: bd50 813d 8570 013c b51b 7a3d 5796 8fbc
00000380: e750 513e acc5 793d 411e b3bd 1405 54bd
00000390: 9ec7 653c 58f2 28be bfaf 4fbe c626 56bd
000003a0: 8451 8f3d a0b2 09be a313 71be a00e 97bc
000003b0: 07c6 45bd 2809 41bd 89e2 b5bd 6e03 07be
000003c0: 83b5 1e3e 3094 14bd ed93 afbc 0880 ca3d
000003d0: 8722 a23e c068 38bc cd40 99bd 29d0 19be
000003e0: 1305 26bd 440e 4fbe 5879 44be 0f40 fdbc
000003f0: 6277 a4bc 2dc0 f43c da19 0fbe a2f8 ddbd

actor.preprocess.model.model.2.bias f4 [64]
0.0 0.0 0.0 0.0 0.0 0.0 0.0 0.0
0.0 0.0 0.0 0.0 0.0 0.0 0.0 0.0
0.0 0.0 0.0 0.0 0.0 0.0 0.0 0.0
0.0 0.0 0.0 0.0 0.0 0.0 0.0 0.0
0.0 0.0 0.0 0.0 0.0 0.0 0.0 0.0
0.0 0.0 0.0 0.0 0.0 0.0 0.0 0.0
0.0 0.0 0.0 0.0 0.0 0.0 0.0 0.0
0.0 0.0 0.0 0.0 0.0 0.0 0.0 0.0
00000000: 0000 0000 0000 0000 0000 0000 0000 0000
00000010: 0000 0000 0000 0000 0000 0000 0000 0000
00000020: 0000 0000 0000 0000 0000 0000 0000 0000
00000030: 0000 0000 0000 0000 0000 0000 0000 0000
00000040: 0000 0000 0000 0000 0000 0000 0000 0000
00000050: 0000 0000 0000 0000 0000 0000 0000 0000
00000060: 0000 0000 0000 0000 0000 0000 0000 0000
00000070: 0000 0000 0000 0000 0000 0000 0000 0000
00000080: 0000 0000 0000 0000 0000 0000 0000 0000
00000090: 0000 0000 0000 0000 0000 0000 0000 0000
000000a0: 0000 0000 0000 0000 0000 0000 0000 0000
000000b0: 0000 0000 0000 0000 0000 0000 0000 0000
000000c0: 0000 0000 0000 0000 0000 0000 0000 0000
000000d0: 0000 0000 0000 0000 0000 0000 0000 0000
000000e0: 0000 0000 0000 0000 0000 0000 0000 0000
000000f0: 0000 0000 0000 0000 0000 0000 0000 0000

actor.last.model.0.weight f4 [2, 64]
-0.042223692 -0.08722063 0.062169973 0.065958396 -0.068720326 -0.06803113 0.10615041 -0.027081875
-0.14023478 -0.03993241 -0.024818687 0.049873833 0.13071 -0.030902069 -0.22541161 0.1293405
-0.1751897 -0.18573456 0.16602048 0.19359511 0.04471447 0.032927606 -0.026534842 -0.0015139522
0.14359662 -0.0618505 -0.17589593 -0.14620002 -0.04370855 0.08743239 -0.11692884 -0.12596065
0.19455552 0.16793373 0.15157332 0.17127825 -0.075639166 0.1246744 0.01332958 -0.048541546
0.119123034 0.14883763 -0.03381932 0.11918943 -0.023054386 0.019143652 -0.041093074 0.054502983
-0.15491797 0.22115676 0.080093585 -0.20092978 0.139982 -0.007332347 -0.20608306 -0.25584993
-0.3147537 -0.0065368526 0.03834239 0.14484762 0.053845614 0.043244503 0.16026987 -0.050175253
-0.07643156 -0.2440645 -0.034445472 0.14708738 -0.055569157 0.05235384 0.14915349 0.08576712
0.18687584 -0.0027352325 -0.20068488 -0.1545304 0.08177386 -0.29680493 0.16740537 -0.23982894
-0.03839711 0.033059355 0.34465423 -0.034385998 0.047007598 -0.06035585 -0.08748493 -0.10140186
0.039597414 -0.21044879 -0.068419635 -0.0927101 -0.056509987 -0.07628398 0.04223626 -0.0018232679
0.16431299 -0.030930158 -0.014614278 -0.12188568 -0.032354064 -0.12861723 0.11919381 -0.050937723
0.03302128 -0.047169123 -0.11803235 -0.014647808 0.079689026 -0.15124726 0.061880108 0.055580836
0.28173187 0.04771199 0.15825626 -0.07919049 0.047495116 -0.14666726 0.022430668 0.014111593
0.12612808 -0.10963268 -0.2084712 -0.11997755 -0.051485136 0.07407058 0.1249408 -0.05183607
00000000: c0f2 2cbd bba0 b2bd f1a5 7e3d 3215 873d
00000010: 3ebd 8cbd e853 8bbd 6365 d93d cfda ddbc
00000020: b599 0fbe 2b90 23bd 8f50 cbbc 8148 4c3d
00000030: d8d8 053e 5626 fdbc 4dd2 66be d671 043e
00000040: ee64 33be 3331 3ebe 4601 2a3e cc3d 463e
00000050: 8526 373d 19df 063d 995f d9bc ce6f c6ba
00000060: fe0a 133e f356 7dbd 101e 34be 75b5 15be
00000070: bd07 33bd c10f b33d 6378 efbd d4fb 00be
00000080: 9039 473e d2f6 2b3e 0936 1b3e 9163 2f3e
00000090: b5e8 9abd 4b55 ff3d 5064 5a3c 80d3 46bd
000000a0: c7f6 f33d e468 183e 2186 0abd 9619 f43d
000000b0: 8ddc bcbc 26d3 9c3c 3651 28bd 853e 5f3d
000000c0: d1a2 1ebe eb76 623e 1b08 a43d 89c0 4dbe
000000d0: 7157 0f3e 2f44 f0bb 7007 53be c3fe 82be
000000e0: 6627 a1be 1833 d6bb e90c 1d3d ef52 143e
000000f0: 388d 5c3d 2621 313d c91d 243e 9184 4dbd
00000100: 2688 9cbd 0bec 79be b216 0dbd 139e 163e
00000110: 7c9c 63bd fb70 563d b1bb 183e aca6 af3d
00000120: 615c 3f3e 9641 33bb 5680 4dbe 383d 1ebe
00000130: 0e79 a73d d1f6 97be 506c 2b3e b895 75be
00000140: 4a46 1dbd 3f69 073d 8576 b03e 55d8 0cbd
00000150: 0a8b 403d b237 77bd 4d2b b3bd c7ab cfbd
00000160: e630 223d e37f 57be 981f 8cbd cbde bdbd
00000170: 0477 67bd c63a 9cbd eeff 2c3d b8fa eeba
00000180: aa41 283e 3e61 fdbc ba70 6fbc 339f f9bd
00000190: b285 04bd 3cb4 03be e21b f43d 13a4 50bd
000001a0: 5241 073d 6934 41bd f2ba f1bd 5cfd 6fbc
000001b0: 0034 a33d 90e0 1abe ff75 7d3d bba8 633d
000001c0: 293f 903e a66d 433d ee0d 223e a02e a2bd
000001d0: 3d8a 423d f12f 16be 85c0 b73c 5034 673c
000001e0: b827 013e 1987 e0bd 7979 55be cab6 f5bd
000001f0: 14e2 52bd 51b2 973d f6e0 ff3d 0f52 54bd

actor.last.model.0.bias f4 [2]
0.0 0.0
00000000: 0000 0000 0000 0000

critic.preprocess.model.model.0.weight f4 [64, 4]
-0.045244336 0.023995727 -0.03978204 0.11708183 -0.12778021 0.13562866 -0.13190682 -0.29060212
0.037614614 0.015527507 0.024459057 0.16953819 -0.056870338 0.013966649 0.080897816 -0.035171
-0.18763545 -0.22816029 -0.23336323 0.1175945 0.09781869 -0.04522424 0.34401724 0.060021453
-0.11051619 0.054451838 0.05782859 -0.09100681 0.1126261 -0.1303379 -0.06262119 -0.054656368
-0.2020559 0.1108212 0.03385942 -0.04700347 0.1065006 -0.14171712 -0.13733873 -0.040079672
-0.07807717 0.038851395 0.053148933 -0.06246634 -0.088083856 -0.0036904903 0.078187704 0.0851034
-0.048307046 0.064079925 -0.2757738 -0.15182965 0.0053440593 -0.12833732 -0.2021305 0.25706235
0.033693176 0.091155425 -0.019101989 0.022074852 -0.056282412 0.057328608 -0.05128417 -0.06552801
0.0039471835 0.064704135 -0.010772362 0.09581012 -0.010010208 -0.104855865 -0.008486119 -0.23278552
-0.098761365 0.012242499 0.11310111 0.24927819 -0.0065905997 0.012892865 -0.11597156 0.028245583
-0.31243417 -0.18857759 0.08864622 0.032200918 -0.04940509 0.16415842 0.06382494 0.036732882
0.007831268 0.046659436 -0.015118204 -0.01323417 -0.14142321 -0.024596026 -0.026424516 0.075092606
0.14773081 0.23442411 -0.09598954 -0.11211524 0.04310843 0.021310726 0.04486551 -0.07783981
-0.20538945 0.21972711 0.16506875 0.06867643 -0.052107595 0.005265687 -0.10329318 0.011562763
0.10115481 -0.04405334 -0.13664913 0.035328995 0.14006072 0.01953841 -0.19800048 -0.047845416
0.18201838 0.11517663 -0.06461452 0.12294409 0.015885063 -0.0002449557 0.06966883 0.21296346
-0.11553023 -0.11541485 0.33858913 -0.13162883 -0.1454027 0.086306795 0.022104813 0.0031086467
0.03220038 -0.07955661 0.021315033 -0.08412113 0.0833529 0.065146886 -0.0076058516 0.025346274
-0.12038738 -0.1512409 -0.18998383 -0.11063487 -0.16111857 0.077010795 0.022218943 -0.11206567
-0.16773278 0.012674585 0.10950513 0.033126943 0.0032459183 0.027721658 0.12171438 -0.014469382
-0.14200383 0.1203217 -0.089760005 0.16247681 -0.22262295 0.09339601 -0.07804811 0.1913451
0.041480646 -0.11039423 -0.010506607 0.21567667 0.10634499 -0.22944605 0.09413192 -0.07640481
0.35665548 0.17592594 -0.0059913425 0.13408586 0.0439398 -0.3439747 -0.07153725 -0.06980517
-0.21638913 0.001565381 -0.04331816 0.032438178 0.04361828 0.18437946 0.10612529 -0.09222955
-0.1334043 0.15855037 -0.29589668 0.24135737 -0.04176771 0.13845702 -0.23691192 -0.11961321
-0.072331496 0.03217258 -0.07458704 -0.0845079 0.06380031 -0.083638966 0.10148388 -0.086013116
0.047528833 0.22956212 0.08973529 0.23308578 -0.016317489 0.06310887 -0.14861152 -0.056513086
0.08459692 0.018290494 0.011850138 -0.078321874 0.12467316 -0.22901665 -0.018483207 0.15680233
0.18536015 0.073062 -0.10861598 0.021826802 0.14148727 -0.06571273 -0.055610906 0.00046736933
0.1994963 0.061465677 0.116811156 0.123559594 0.027646322 0.056744706 -0.14362346 -0.24761344
0.0031941095 0.036908727 -0.020016097 0.0101787895 -0.10548203 0.12970373 0.1359201 -0.17706189
-0.09981139 0.17599098 -0.08893409 0.08671232 0.17598765 0.2835336 0.055284265 -0.14827338
00000000: 2052 39bd b092 c43c 7ef2 22bd 99c8 ef3d
00000010: d1d8 02be 3de2 0a3e 9512 07be cdc9 94be
00000020: c811 1a3d 1667 7e3c 5c5e c83c 6b9b 2d3e
00000030: dff0 68bd 5fd4 643c c1ad a53d 770f 10bd
00000040: 8223 40be daa2 69be c5f6 6ebe 63d5 f03d
00000050: 2a55 c83d 0d3d 39bd 0723 b03e 0ed9 753d
00000060: 5056 e2bd e408 5f3d acdd 6c3d c761 babd
00000070: 83a8 e63d 4c77 05be 8a3f 80bd 5bdf 5fbd
00000080: bee7 4ebe 3af6 e23d 2db0 0a3d b686 40bd
00000090: fd1c da3d 4b1e 11be 86a2 0cbe 952a 24bd
000000a0: ece6 9fbd a422 1f3d b2b2 593d b4dc 7fbd
000000b0: 4f65 b4bd 27dc 71bb e020 a03d b14a ae3d
000000c0: 9cdd 45bd 563c 833d 3932 8dbe 3b79 1bbe
000000d0: 381d af3b dc6a 03be 4cfb 4ebe ad9d 833e
000000e0: db01 0a3d b2af ba3d c67b 9cbc 52d6 b43c
000000f0: 6388 66bd 67d1 6a3d 5a0f 52bd 8d33 86bd
00000100: 6057 813b 9a83 843d 907e 30bc 1938 c43d
00000110: db01 24bc acbe d6bd 5d09 0bbc 545f 6ebe
00000120: 6643 cabd c394 483c 8ea1 e73d c842 7f3e
00000130: f5f5 d7bb 983c 533c 7f82 edbd 4863 e73c
00000140: 5ff7 9fbe 7c1a 41be 268c b53d 1ce5 033d
00000150: fe5c 4abd 2519 283e a6b6 823d 3875 163d
00000160: b84e 003c f71d 3f3d 58b2 77bc 22d4 58bc
00000170: 3fd1 10be 9b7d c9bc 3a78 d8bc 27ca 993d
00000180: bf46 173e e00c 703e 2a96 c4bd ad9c e5bd
00000190: 7792 303d d593 ae3c e6c4 373d 7a6a 9fbd
000001a0: 9d51 52be 2500 613e c807 293e 3aa6 8c3d
000001b0: c66e 55bd c98b ac3b 608b d3bd be71 3d3c
000001c0: 412a cf3d 4671 34bd c0ed 0bbe 23b5 103d
000001d0: 146c 0f3e 040f a03c a3c0 4abe 8ef9 43bd
000001e0: 0763 3a3e bae1 eb3d 9e54 84bd 1cca fb3d
000001f0: 6421 823c 666d 80b9 88ae 8e3d 1813 5a3e
00000200: 1d9b ecbd 9f5e ecbd 8e5b ad3e b5c9 06be
00000210: 72e4 14be 9ec1 b03d 2715 b53c 70ba 4b3b
00000220: 8ce4 033d 93ee a2bd dd9c ae3c b347 acbd
00000230: edb4 aa3d bb6b 853d 823a f9bb fda2 cf3c
00000240: a98d f6bd e5de 1abe 1f8b 42be 8994 e2bd
00000250: 44fc 24be d6b7 9d3d 8004 b63c b082 e5bd
00000260: 24c2 2bbe 10a9 4f3c 3a44 e03d 1eb0 073d
00000270: 79b9 543b 8818 e33c 6445 f93d fd10 6dbc
00000280: 7469 11be 396b f63d 18d4 b7bd 5260 263e
00000290: 45f7 63be 6846 bf3d b0d7 9fbd f8ef 433e
000002a0: 9ce7 293d 5f16 e2bd e723 2cbc 58da 5c3e
000002b0: 67cb d93d e8f3 6abe 3cc8 c03d 207a 9cbd
000002c0: 8c9b b63e ee25 343e 0653 c4bb ce4d 093e
000002d0: 38fa 333d 741d b0be 1f82 92bd 03f6 8ebd
000002e0: 1d95 5dbe 782d cd3a 626e 31bd e5dd 043d
000002f0: 15a9 323d f8cd 3c3e 3758 d93d d9e2 bcbd
00000300: 239b 08be 075b 223e c57f 97be 6326 773e
00000310: 9e14 2bbd adc7 0d3e 0a99 72be c5f7 f4bd
00000320: 8922 94bd 65c7 033d 17c1 98bd 7a12 adbd
00000330: bda9 823d e84a abbd c8d6 cf3d a527 b0bd
00000340: 98ad 423d 5512 6b3e 23c7 b73d 0aae 6e3e
00000350: 41ac 85bc 393f 813d 9e2d 18be 447a 67bd
00000360: 2641 ad3d f2d5 953c 1527 423c 3867 a0bd
00000370: a454 ff3d 5783 6abe 186a 97bc ca90 203e
00000380: 0dcf 3d3e 88a1 953d 0e72 debd 1fce b23c
00000390: 0ae2 103e 6594 86bd 43c8 63bd 4009 f539
000003a0: c248 4c3e 6fc3 7b3d b03a ef3d d00c fd3d
000003b0: 8a7a e23c 236d 683d 0712 13be 618e 7dbe
000003c0: 4454 513b 9b2d 173d ccf8 a3bc f0c4 263c
000003d0: f606 d8bd 0ed1 043e a42e 0b3e b64f 35be
000003e0: ea69 ccbd fb36 343e 1423 b6bd 3b96 b13d
000003f0: 1b36 343e 512b 913e c171 623d fad4 17be

critic.preprocess.model.model.0.bias f4 [64]
0.0 0.0 0.0 0.0 0.0 0.0 0.0 0.0
0.0 0.0 0.0 0.0 0.0 0.0 0.0 0.0
0.0 0.0 0.0 0.0 0.0 0.0 0.0 0.0
0.0 0.0 0.0 0.0 0.0 0.0 0.0 0.0
0.0 0.0 0.0 0.0 0.0 0.0 0.0 0.0
0.0 0.0 0.0 0.0 0.0 0.0 0.0 0.0
0.0 0.0 0.0 0.0 0.0 0.0 0.0 0.0
0.0 0.0 0.0 0.0 0.0 0.0 0.0 0.0
00000000: 0000 0000 0000 0000 0000 0000 0000 0000
00000010: 0000 0000 0000 0000 0000 0000 0000 0000
00000020: 0000 0000 0000 0000 0000 0000 0000 0000
00000030: 0000 0000 0000 0000 0000 0000 0000 0000
00000040: 0000 0000 0000 0000 0000 0000 0000 0000
00000050: 0000 0000 0000 0000 0000 0000 0000 0000
00000060: 0000 0000 0000 0000 0000 0000 0000 0000
00000070: 0000 0000 0000 0000 0000 0000 0000 0000
00000080: 0000 0000 0000 0000 0000 0000 0000 0000
00000090: 0000 0000 0000 0000 0000 0000 0000 0000
000000a0: 0000 0000 0000 0000 0000 0000 0000 0000
000000b0: 0000 0000 0000 0000 0000 0000 0000 0000
000000c0: 0000 0000 0000 0000 0000 0000 0000 0000
000000d0: 0000 0000 0000 0000 0000 0000 0000 0000
000000e0: 0000 0000 0000 0000 0000 0000 0000 0000
000000f0: 0000 0000 0000 0000 0000 0000 0000 0000

critic.preprocess.model.model.2.weight f4 [64, 64]
-0.03375101 0.018897876 -0.015591688 -0.11947879 -0.019075556 0.02726172 0.08764744 -0.13207836
0.15880041 0.21885373 -0.24773967 -0.04604125 0.07660028 0.17109066 -0.1831766 0.042756643
0.018693399 -0.018856566 -0.023314476 0.18253544 0.10724986 -0.011946961 -0.063656054 -0.1592015
0.20352834 0.112941995 -0.23815581 -0.1887951 0.32961658 -0.15648374 -0.027127389 -0.01774288
-0.041499786 -0.024123251 0.0020148326 0.03666888 -0.1697323 -0.050212465 -0.1478201 0.12740903
-0.20352024 -0.06732484 -0.03825833 -0.046582393 0.0114024095 -0.029040396 -0.012893662 -0.25455165
-0.17726427 0.0796227 0.105132736 -0.10115733 -0.048055775 -0.058316786 0.0048360527 -0.047772653
-0.041446764 0.07764302 0.16505098 -0.0664466 0.021346316 0.17041878 -0.11330737 0.23851644
-0.02322068 -0.109617114 0.16606925 0.12232701 -0.02201938 0.25249806 0.19394268 0.11692051
0.11734312 -0.15328681 0.040322643 0.05322806 0.1689134 -0.063156925 -0.02645439 0.0748066
0.17391971 0.029544214 0.032507025 0.14708665 0.11563819 0.08173589 -0.07296621 0.018394427
-0.036543235 -0.13417032 -0.025471805 0.067813724 0.06277973 -0.22088672 -0.123494714 -0.0530774
0.1327294 -0.10804665 -0.00094901194 0.057334527 -0.13036509 -0.17367849 0.17343026 -0.11503941
-0.16517363 -0.13115025 -0.03785678 0.153833 -0.0532514 0.03266699 -0.058179453 0.12499189
0.19512545 -0.028854383 -0.14543174 0.029478278 -0.19966419 -0.14728776 -0.1305435 0.23134823
-0.1566019 -0.15699372 0.13372922 -0.04005436 -0.21460746 -0.19424398 -0.08131397 0.07921256
0.14414044 0.2483431 0.07200885 -0.09655875 -0.17783721 -0.061975956 -0.11840553 -0.17781003
-0.011945592 0.0788915 0.15607513 0.061968967 -0.14529485 -0.04370713 0.03861664 -0.10242489
-0.05282995 -0.111402504 0.14855945 0.105195716 -0.039849676 0.16301006 -0.075561576 0.12806085
0.04201255 0.0027265754 -0.17988895 0.062439527 -0.09270199 -0.014596781 0.18365954 0.06955258
-0.09902245 -0.2620952 -0.12030447 -0.15774477 -0.14244813 -0.10758662 -0.043387704 0.059950538
-0.18607074 0.0073170653 -0.06874413 -0.25785613 -0.06996482 0.07338249 -0.23725641 0.20129839
0.033012044 0.110454634 -0.18499105 -0.23984337 -0.08499404 0.17778723 -0.011184986 0.020128231
0.10281426 -0.13393024 0.020698339 0.0666318 -0.04083138 -0.049009763 -0.13048166 -0.036092646
0.03743806 -0.1577953 0.02120932 -0.15821493 0.16998163 -0.0107434625 -0.061447233 0.13597076
0.067080244 0.12030763 0.30725774 0.08267178 0.13900325 0.30838272 -0.07578877 -0.11126025
-0.013254279 0.074809775 0.030236177 -0.12936926 0.07841063 0.17546782 0.09280735 0.0077226516
0.00010091113 -0.15176615 -0.16778778 -0.056406077 0.06314228 0.007900362 0.06106158 -0.017527742
0.20441018 0.06097953 -0.08746005 -0.051762655 0.014024643 -0.16498697 -0.20281886 -0.05228307
0.0699797 -0.13447046 -0.23542647 -0.01843959 -0.048284557 -0.047127873 -0.08881099 -0.13184902
0.15498929 -0.036274135 -0.021432841 0.09887701 0.31666967 -0.011255443 -0.07483063 -0.15020813
-0.040532183 -0.20220286 -0.19186914 -0.030914335 -0.020076457 0.029876793 -0.13974705 -0.108384386
00000000: 803e 0abd b8cf 9a3c 4874 7fbc 4cb1 f4bd
00000010: 5744 9cbc f853 df3c 8080 b33d 8d3f 07be
00000020: 939c 223e 311b 603e 78af 7dbe c095 3cbd
00000030: 9ce0 9c3d 6432 2f3e a692 3bbe 9721 2f3d
00000040: e622 993c 1679 9abc 00fe bebc 92ea 3a3e
00000050: d1a5 db3d 30bd 43bc 1b5e 82bd b805 23be
00000060: bc69 503e 224e e73d 1edf 73be 8153 41be
00000070: 81c3 a83e 463d 20be 423a debc 8459 91bc
00000080: aefb 29bd 209e c5bc 480b 043b 1c32 163d
00000090: 4ece 2dbe 96ab 4dbd 275e 17be 8377 023e
000000a0: 9c67 50be 9be1 89bd c4b4 1cbd 2ecd 3ebd
000000b0: 2cd1 3a3c 20e6 edbc f03f 53bc 9854 82be
000000c0: c484 35be 3a11 a33d d54f d73d 932b cfbd
000000d0: 22d6 44bd 95dd 6ebd c077 9e3b 42ad 43bd
000000e0: 15c4 29bd 4e03 9f3d 2003 293e 2815 88bd
000000f0: 78de ae3c 4382 2e3e b20d e8bd a73d 743e
00000100: 4c39 bebc f07e e0bd 0f0e 2a3e 9586 fa3d
00000110: fd61 b4bc 6d47 813e e998 463e 0574 ef3d
00000120: 9751 f03d 38f7 1cbe 5b29 253d ab05 5a3d
00000130: a2f7 2c3e 6b58 81bd e0b6 d8bc 3434 993d
00000140: 0218 323e b506 f23c 1626 053d e29d 163e
00000150: b7d3 ec3d 2565 a73d 4f6f 95bd e9af 963c
00000160: 5cae 15bd f263 09be 3faa d0bc ece1 8a3d
00000170: a992 803d 2130 62be ccea fcbd b067 59bd
00000180: 37ea 073e 9047 ddbd 1dc7 78ba 9cd7 6a3d
00000190: 6d7e 05be c6d8 31be b497 313e c899 ebbd
000001a0: 4723 29be 404c 06be b60f 1bbd 6686 1d3e
000001b0: 241e 5abd d2cd 053d 944d 6ebd bffb ff3d
000001c0: f7ce 473e 0760 ecbc 0fec 14be 6e7c f13c
000001d0: c574 4cbe 9ad2 16be 32ad 05be 8de6 6c3e
000001e0: 405c 20be f6c2 20be 50f0 083e 0a10 24bd
000001f0: 0fc2 5bbe e5e7 46be f087 a6bd 323a a23d
00000200: 8d99 133e a74d 7e3e 6079 933d 98c0 c5bd
00000210: f51a 36be 80da 7dbd 997e f2bd d513 36be
00000220: 72b7 43bc de91 a13d 29d2 1f3e 2cd3 7d3d
00000230: 2cc8 14be 3f06 33bd 7b2c 1e3d 24c4 d1bd
00000240: 3864 58bd ff26 e4bd f81f 183e da70 d73d
00000250: 6a39 23bd 1cec 263e 07c0 9abd 6222 033e
00000260: 5a15 2c3d 58b0 323b cf34 38be 97c0 7f3d
00000270: 8ada bdbd 5627 6fbc 3f11 3c3e 9571 8e3d
00000280: 48cc cabd 5831 86be 3162 f6bd d887 21be
00000290: ecdd 11be 6056 dcbd 4eb7 31bd b28e 753d
000002a0: 5489 3ebe fec3 ef3b b9c9 8cbd b805 84be
000002b0: b749 8fbd 8f49 963d 58f3 72be 2a21 4e3e
000002c0: a337 073d 0a36 e23d 4b6e 3dbe 8099 75be
000002d0: 5b11 aebd db0d 363e 3b41 37bc f6e3 a43c
000002e0: 4890 d23d 0225 09be 908f a93c 4176 883d
000002f0: ce3e 27bd 76be 48bd fc9c 05be e2d5 13bd
00000300: a758 193d 1795 21be 2bbf ad3c 1803 22be
00000310: aa0f 2e3e 5905 30bc 18b0 7bbd eb3b 0b3e
00000320: 5e61 893d d963 f63d e350 9d3e d24f a93d
00000330: de56 0e3e 57e4 9d3e 2537 9bbd 6adc e3bd
00000340: 7a28 59bc de35 993d dcb1 f73c 6079 04be
00000350: c195 a03d d6ad 333e c811 be3d 4c0e fd3b
00000360: 40a0 d338 9668 1bbe 8fd0 2bbe 0f0a 67bd
00000370: bd50 813d 8570 013c b51b 7a3d 5796 8fbc
00000380: e750 513e acc5 793d 411e b3bd 1405 54bd
00000390: 9ec7 653c 58f2 28be bfaf 4fbe c626 56bd
000003a0: 8451 8f3d a0b2 09be a313 71be a00e 97bc
000003b0: 07c6 45bd 2809 41bd 89e2 b5bd 6e03 07be
000003c0: 83b5 1e3e 3094 14bd ed93 afbc 0880 ca3d
000003d0: 8722 a23e c068 38bc cd40 99bd 29d0 19be
000003e0: 1305 26bd 440e 4fbe 5879 44be 0f40 fdbc
000003f0: 6277 a4bc 2dc0 f43c da19 0fbe a2f8 ddbd

critic.preprocess.model.model.2.bias f4 [64]
0.0 0.0 0.0 0.0 0.0 0.0 0.0 0.0
0.0 0.0 0.0 0.0 0.0 0.0 0.0 0.0
0.0 0.0 0.0 0.0 0.0 0.0 0.0 0.0
0.0 0.0 0.0 0.0 0.0 0.0 0.0 0.0
0.0 0.0 0.0 0.0 0.0 0.0 0.0 0.0
0.0 0.0 0.0 0.0 0.0 0.0 0.0 0.0
0.0 0.0 0.0 0.0 0.0 0.0 0.0 0.0
0.0 0.0 0.0 0.0 0.0 0.0 0.0 0.0
00000000: 0000 0000 0000 0000 0000 0000 0000 0000
00000010: 0000 0000 0000 0000 0000 0000 0000 0000
00000020: 0000 0000 0000 0000 0000 0000 0000 0000
00000030: 0000 0000 0000 0000 0000 0000 0000 0000
00000040: 0000 0000 0000 0000 0000 0000 0000 0000
00000050: 0000 0000 0000 0000 0000 0000 0000 0000
00000060: 0000 0000 0000 0000 0000 0000 0000 0000
00000070: 0000 0000 0000 0000 0000 0000 0000 0000
00000080: 0000 0000 0000 0000 0000 0000 0000 0000
00000090: 0000 0000 0000 0000 0000 0000 0000 0000
000000a0: 0000 0000 0000 0000 0000 0000 0000 0000
000000b0: 0000 0000 0000 0000 0000 0000 0000 0000
000000c0: 0000 0000 0000 0000 0000 0000 0000 0000
000000d0: 0000 0000 0000 0000 0000 0000 0000 0000
000000e0: 0000 0000 0000 0000 0000 0000 0000 0000
000000f0: 0000 0000 0000 0000 0000 0000 0000 0000

critic.last.model.0.weight f4 [1, 64]
0.18068993 0.051827557 -0.22031981 -0.08223597 0.12776735 -0.08026305 0.15380636 0.113617115
0.077583954 0.059566095 -0.07364758 0.07599318 0.20090456 0.15191096 0.021357093 -0.05407594
-0.048111457 -0.0765852 -0.139819 -0.01983453 -0.018626088 0.09518366 0.2811342 -0.1198671
-0.04602293 0.08110382 0.10371297 0.0029954566 -0.12269428 0.05048116 0.22849075 0.1934436
0.12552954 -0.02491113 -0.28361964 -0.064776085 -0.03254696 -0.13081838 -0.27424434 -0.15380588
0.07279932 0.075789206 0.015598953 -0.19104935 0.10818113 -0.09020439 -0.15083157 0.2612769
-0.06334112 -0.16913006 -0.0031425636 0.058874074 -0.018104684 -0.160638 0.062187932 0.04373087
0.09330353 0.028358327 -0.031939056 0.083224595 0.12481537 0.007924549 0.09850598 0.13158458
00000000: c806 393e 2249 543d 849b 61be 556b a8bd
00000010: 72d5 023e f460 a4bd 6a7f 1d3e 17b0 e83d
00000020: 56e4 9e3d 94fb 733d 8bd4 96bd 50a2 9b3d
00000030: edb9 4d3e 8c8e 1b3e 12f5 ae3c bc7e 5dbd
00000040: 8510 45bd b4d8 9cbd b62c 0fbe 067c a2bc
00000050: bd95 98bc a7ef c23d d2f0 8f3e e27c f5bd
00000060: 8a82 3cbd c219 a63d 7767 d43d 6c4f 443b
00000070: 2447 fbbd 55c5 4e3d 7bf9 693e 1416 463e
00000080: d18a 003e 6d12 ccbc 9836 91be 53a9 84bd
00000090: f64f 05bd 41f5 05be c169 8cbe 4a7f 1dbe
000000a0: cf17 953d 5f37 9b3d c092 7f3c 71a2 43be
000000b0: 118e dd3d 14bd b8bd 9773 1abe 16c6 853e
000000c0: fdb8 81bd 6e30 2dbe 78f3 4dbb f125 713d
000000d0: 4650 94bc 4a7e 24be c6b8 7e3d 241f 333d
000000e0: ec15 bf3d b94f e83c 87d2 02bd a871 aa3d
000000f0: 339f ff3d f8d5 013c 81bd c93d 1cbe 063e

_actor_critic.actor.preprocess.model.model.0.weight f4 [64, 4]
-0.045244336 0.023995727 -0.03978204 0.11708183 -0.12778021 0.13562866 -0.13190682 -0.29060212
0.037614614 0.015527507 0.024459057 0.16953819 -0.056870338 0.013966649 0.080897816 -0.035171
-0.18763545 -0.22816029 -0.23336323 0.1175945 0.09781869 -0.04522424 0.34401724 0.060021453
-0.11051619 0.054451838 0.05782859 -0.09100681 0.1126261 -0.1303379 -0.06262119 -0.054656368
-0.2020559 0.1108212 0.03385942 -0.04700347 0.1065006 -0.14171712 -0.13733873 -0.040079672
-0.07807717 0.038851395 0.053148933 -0.06246634 -0.088083856 -0.0036904903 0.078187704 0.0851034
-0.048307046 0.064079925 -0.2757738 -0.15182965 0.0053440593 -0.12833732 -0.2021305 0.25706235
0.033693176 0.091155425 -0.019101989 0.022074852 -0.056282412 0.057328608 -0.05128417 -0.06552801
0.0039471835 0.064704135 -0.010772362 0.09581012 -0.010010208 -0.104855865 -0.008486119 -0.23278552
-0.098761365 0.012242499 0.11310111 0.24927819 -0.0065905997 0.012892865 -0.11597156 0.028245583
-0.31243417 -0.18857759 0.08864622 0.032200918 -0.04940509 0.16415842 0.06382494 0.036732882
0.007831268 0.046659436 -0.015118204 -0.01323417 -0.14142321 -0.024596026 -0.026424516 0.075092606
0.14773081 0.23442411 -0.09598954 -0.11211524 0.04310843 0.021310726 0.04486551 -0.07783981
-0.20538945 0.21972711 0.16506875 0.06867643 -0.052107595 0.005265687 -0.10329318 0.011562763
0.10115481 -0.04405334 -0.13664913 0.035328995 0.14006072 0.01953841 -0.19800048 -0.047845416
0.18201838 0.11517663 -0.06461452 0.12294409 0.015885063 -0.0002449557 0.06966883 0.21296346
-0.11553023 -0.11541485 0.33858913 -0.13162883 -0.1454027 0.086306795 0.022104813 0.0031086467
0.03220038 -0.07955661 0.021315033 -0.08412113 0.0833529 0.065146886 -0.0076058516 0.025346274
-0.12038738 -0.1512409 -0.18998383 -0.11063487 -0.16111857 0.077010795 0.022218943 -0.11206567
-0.16773278 0.012674585 0.10950513 0.033126943 0.0032459183 0.027721658 0.12171438 -0.014469382
-0.14200383 0.1203217 -0.089760005 0.16247681 -0.22262295 0.09339601 -0.07804811 0.1913451
0.041480646 -0.11039423 -0.010506607 0.21567667 0.10634499 -0.22944605 0.09413192 -0.07640481
0.35665548 0.17592594 -0.0059913425 0.13408586 0.0439398 -0.3439747 -0.07153725 -0.06980517
-0.21638913 0.001565381 -0.04331816 0.032438178 0.04361828 0.18437946 0.10612529 -0.09222955
-0.1334043 0.15855037 -0.29589668 0.24135737 -0.04176771 0.13845702 -0.23691192 -0.11961321
-0.072331496 0.03217258 -0.07458704 -0.0845079 0.06380031 -0.083638966 0.10148388 -0.086013116
0.047528833 0.22956212 0.08973529 0.23308578 -0.016317489 0.06310887 -0.14861152 -0.056513086
0.08459692 0.018290494 0.011850138 -0.078321874 0.12467316 -0.22901665 -0.018483207 0.15680233
0.18536015 0.073062 -0.10861598 0.021826802 0.14148727 -0.06571273 -0.055610906 0.00046736933
0.1994963 0.061465677 0.116811156 0.123559594 0.027646322 0.056744706 -0.14362346 -0.24761344
0.0031941095 0.036908727 -0.020016097 0.0101787895 -0.10548203 0.12970373 0.1359201 -0.17706189
-0.09981139 0.17599098 -0.08893409 0.08671232 0.17598765 0.2835336 0.055284265 -0.14827338
00000000: 2052 39bd b092 c43c 7ef2 22bd 99c8 ef3d
00000010: d1d8 02be 3de2 0a3e 9512 07be cdc9 94be
00000020: c811 1a3d 1667 7e3c 5c5e c83c 6b9b 2d3e
00000030: dff0 68bd 5fd4 643c c1ad a53d 770f 10bd
00000040: 8223 40be daa2 69be c5f6 6ebe 63d5 f03d
00000050: 2a55 c83d 0d3d 39bd 0723 b03e 0ed9 753d
00000060: 5056 e2bd e408 5f3d acdd 6c3d c761 babd
00000070: 83a8 e63d 4c77 05be 8a3f 80bd 5bdf 5fbd
00000080: bee7 4ebe 3af6 e23d 2db0 0a3d b686 40bd
00000090: fd1c da3d 4b1e 11be 86a2 0cbe 952a 24bd
000000a0: ece6 9fbd a422 1f3d b2b2 593d b4dc 7fbd
000000b0: 4f65 b4bd 27dc 71bb e020 a03d b14a ae3d
000000c0: 9cdd 45bd 563c 833d 3932 8dbe 3b79 1bbe
000000d0: 381d af3b dc6a 03be 4cfb 4ebe ad9d 833e
000000e0: db01 0a3d b2af ba3d c67b 9cbc 52d6 b43c
000000f0: 6388 66bd 67d1 6a3d 5a0f 52bd 8d33 86bd
00000100: 6057 813b 9a83 843d 907e 30bc 1938 c43d
00000110: db01 24bc acbe d6bd 5d09 0bbc 545f 6ebe
00000120: 6643 cabd c394 483c 8ea1 e73d c842 7f3e
00000130: f5f5 d7bb 983c 533c 7f82 edbd 4863 e73c
00000140: 5ff7 9fbe 7c1a 41be 268c b53d 1ce5 033d
00000150: fe5c 4abd 2519 283e a6b6 823d 3875 163d
00000160: b84e 003c f71d 3f3d 58b2 77bc 22d4 58bc
00000170: 3fd1 10be 9b7d c9bc 3a78 d8bc 27ca 993d
00000180: bf46 173e e00c 703e 2a96 c4bd ad9c e5bd
00000190: 7792 303d d593 ae3c e6c4 373d 7a6a 9fbd
000001a0: 9d51 52be 2500 613e c807 293e 3aa6 8c3d
000001b0: c66e 55bd c98b ac3b 608b d3bd be71 3d3c
000001c0: 412a cf3d 4671 34bd c0ed 0bbe 23b5 103d
000001d0: 146c 0f3e 040f a03c a3c0 4abe 8ef9 43bd
000001e0: 0763 3a3e bae1 eb3d 9e54 84bd 1cca fb3d
000001f0: 6421 823c 666d 80b9 88ae 8e3d 1813 5a3e
00000200: 1d9b ecbd 9f5e ecbd 8e5b ad3e b5c9 06be
00000210: 72e4 14be 9ec1 b03d 2715 b53c 70ba 4b3b
00000220: 8ce4 033d 93ee a2bd dd9c ae3c b347 acbd
00000230: edb4 aa3d bb6b 853d 823a f9bb fda2 cf3c
00000240: a98d f6bd e5de 1abe 1f8b 42be 8994 e2bd
00000250: 44fc 24be d6b7 9d3d 8004 b63c b082 e5bd
00000260: 24c2 2bbe 10a9 4f3c 3a44 e03d 1eb0 073d
00000270: 79b9 543b 8818 e33c 6445 f93d fd10 6dbc
00000280: 7469 11be 396b f63d 18d4 b7bd 5260 263e
00000290: 45f7 63be 6846 bf3d b0d7 9fbd f8ef 433e
000002a0: 9ce7 293d 5f16 e2bd e723 2cbc 58da 5c3e
000002b0: 67cb d93d e8f3 6abe 3cc8 c03d 207a 9cbd
000002c0: 8c9b b63e ee25 343e 0653 c4bb ce4d 093e
000002d0: 38fa 333d 741d b0be 1f82 92bd 03f6 8ebd
000002e0: 1d95 5dbe 782d cd3a 626e 31bd e5dd 043d
000002f0: 15a9 323d f8cd 3c3e 3758 d93d d9e2 bcbd
00000300: 239b 08be 075b 223e c57f 97be 6326 773e
00000310: 9e14 2bbd adc7 0d3e 0a99 72be c5f7 f4bd
00000320: 8922 94bd 65c7 033d 17c1 98bd 7a12 adbd
00000330: bda9 823d e84a abbd c8d6 cf3d a527 b0bd
00000340: 98ad 423d 5512 6b3e 23c7 b73d 0aae 6e3e
00000350: 41ac 85bc 393f 813d 9e2d 18be 447a 67bd
00000360: 2641 ad3d f2d5 953c 1527 423c 3867 a0bd
00000370: a454 ff3d 5783 6abe 186a 97bc ca90 203e
00000380: 0dcf 3d3e 88a1 953d 0e72 debd 1fce b23c
00000390: 0ae2 103e 6594 86bd 43c8 63bd 4009 f539
000003a0: c248 4c3e 6fc3 7b3d b03a ef3d d00c fd3d
000003b0: 8a7a e23c 236d 683d 0712 13be 618e 7dbe
000003c0: 4454 513b 9b2d 173d ccf8 a3bc f0c4 263c
000003d0: f606 d8bd 0ed1 043e a42e 0b3e b64f 35be
000003e0: ea69 ccbd fb36 343e 1423 b6bd 3b96 b13d
000003f0: 1b36 343e 512b 913e c171 623d fad4 17be

_actor_critic.actor.preprocess.model.model.0.bias f4 [64]
0.0 0.0 0.0 0.0 0.0 0.0 0.0 0.0
0.0 0.0 0.0 0.0 0.0 0.0 0.0 0.0
0.0 0.0 0.0 0.0 0.0 0.0 0.0 0.0
0.0 0.0 0.0 0.0 0.0 0.0 0.0 0.0
0.0 0.0 0.0 0.0 0.0 0.0 0.0 0.0
0.0 0.0 0.0 0.0 0.0 0.0 0.0 0.0
0.0 0.0 0.0 0.0 0.0 0.0 0.0 0.0
0.0 0.0 0.0 0.0 0.0 0.0 0.0 0.0
00000000: 0000 0000 0000 0000 0000 0000 0000 0000
00000010: 0000 0000 0000 0000 0000 0000 0000 0000
00000020: 0000 0000 0000 0000 0000 0000 0000 0000
00000030: 0000 0000 0000 0000 0000 0000 0000 0000
00000040: 0000 0000 0000 0000 0000 0000 0000 0000
00000050: 0000 0000 0000 0000 0000 0000 0000 0000
00000060: 0000 0000 0000 0000 0000 0000 0000 0000
00000070: 0000 0000 0000 0000 0000 0000 0000 0000
00000080: 0000 0000 0000 0000 0000 0000 0000 0000
00000090: 0000 0000 0000 0000 0000 0000 0000 0000
000000a0: 0000 0000 0000 0000 0000 0000 0000 0000
000000b0: 0000 0000 0000 0000 0000 0000 0000 0000
000000c0: 0000 0000 0000 0000 0000 0000 0000 0000
000000d0: 0000 0000 0000 0000 0000 0000 0000 0000
000000e0: 0000 0000 0000 0000 0000 0000 0000 0000
000000f0: 0000 0000 0000 0000 0000 0000 0000 0000

_actor_critic.actor.preprocess.model.model.2.weight f4 [64, 64]
-0.03375101 0.018897876 -0.015591688 -0.11947879 -0.019075556 0.02726172 0.08764744 -0.13207836
0.15880041 0.21885373 -0.24773967 -0.04604125 0.07660028 0.17109066 -0.1831766 0.042756643
0.018693399 -0.018856566 -0.023314476 0.18253544 0.10724986 -0.011946961 -0.063656054 -0.1592015
0.20352834 0.112941995 -0.23815581 -0.1887951 0.32961658 -0.15648374 -0.027127389 -0.01774288
-0.041499786 -0.024123251 0.0020148326 0.03666888 -0.1697323 -0.050212465 -0.1478201 0.12740903
-0.20352024 -0.06732484 -0.03825833 -0.046582393 0.0114024095 -0.029040396 -0.012893662 -0.25455165
-0.17726427 0.0796227 0.105132736 -0.10115733 -0.048055775 -0.058316786 0.0048360527 -0.047772653
-0.041446764 0.07764302 0.16505098 -0.0664466 0.021346316 0.17041878 -0.11330737 0.23851644
-0.02322068 -0.109617114 0.16606925 0.12232701 -0.02201938 0.25249806 0.19394268 0.11692051
0.11734312 -0.15328681 0.040322643 0.05322806 0.1689134 -0.063156925 -0.02645439 0.0748066
0.17391971 0.029544214 0.032507025 0.14708665 0.11563819 0.08173589 -0.07296621 0.018394427
-0.036543235 -0.13417032 -0.025471805 0.067813724 0.06277973 -0.22088672 -0.123494714 -0.0530774
0.1327294 -0.10804665 -0.00094901194 0.057334527 -0.13036509 -0.17367849 0.17343026 -0.11503941
-0.16517363 -0.13115025 -0.03785678 0.153833 -0.0532514 0.03266699 -0.058179453 0.12499189
0.19512545 -0.028854383 -0.14543174 0.029478278 -0.19966419 -0.14728776 -0.1305435 0.23134823
-0.1566019 -0.15699372 0.13372922 -0.04005436 -0.21460746 -0.19424398 -0.08131397 0.07921256
0.14414044 0.2483431 0.07200885 -0.09655875 -0.17783721 -0.061975956 -0.11840553 -0.17781003
-0.011945592 0.0788915 0.15607513 0.061968967 -0.14529485 -0.04370713 0.03861664 -0.10242489
-0.05282995 -0.111402504 0.14855945 0.105195716 -0.039849676 0.16301006 -0.075561576 0.12806085
0.04201255 0.0027265754 -0.17988895 0.062439527 -0.09270199 -0.014596781 0.18365954 0.06955258
-0.09902245 -0.2620952 -0.12030447 -0.15774477 -0.14244813 -0.10758662 -0.043387704 0.059950538
-0.18607074 0.0073170653 -0.06874413 -0.25785613 -0.06996482 0.07338249 -0.23725641 0.20129839
0.033012044 0.110454634 -0.18499105 -0.23984337 -0.08499404 0.17778723 -0.011184986 0.020128231
0.10281426 -0.13393024 0.020698339 0.0666318 -0.04083138 -0.049009763 -0.13048166 -0.036092646
0.03743806 -0.1577953 0.02120932 -0.15821493 0.16998163 -0.0107434625 -0.061447233 0.13597076
0.067080244 0.12030763 0.30725774 0.08267178 0.13900325 0.30838272 -0.07578877 -0.11126025
-0.013254279 0.074809775 0.030236177 -0.12936926 0.07841063 0.17546782 0.09280735 0.0077226516
0.00010091113 -0.15176615 -0.16778778 -0.056406077 0.06314228 0.007900362 0.06106158 -0.017527742
0.20441018 0.06097953 -0.08746005 -0.051762655 0.014024643 -0.16498697 -0.20281886 -0.05228307
0.0699797 -0.13447046 -0.23542647 -0.01843959 -0.048284557 -0.047127873 -0.08881099 -0.13184902
0.15498929 -0.036274135 -0.021432841 0.09887701 0.31666967 -0.011255443 -0.07483063 -0.15020813
-0.040532183 -0.20220286 -0.19186914 -0.030914335 -0.020076457 0.029876793 -0.13974705 -0.108384386
00000000: 803e 0abd b8cf 9a3c 4874 7fbc 4cb1 f4bd
00000010: 5744 9cbc f853 df3c 8080 b33d 8d3f 07be
00000020: 939c 223e 311b 603e 78af 7dbe c095 3cbd
00000030: 9ce0 9c3d 6432 2f3e a692 3bbe 9721 2f3d
00000040: e622 993c 1679 9abc 00fe bebc 92ea 3a3e
00000050: d1a5 db3d 30bd 43bc 1b5e 82bd b805 23be
00000060: bc69 503e 224e e73d 1edf 73be 8153 41be
00000070: 81c3 a83e 463d 20be 423a debc 8459 91bc
00000080: aefb 29bd 209e c5bc 480b 043b 1c32 163d
00000090: 4ece 2dbe 96ab 4dbd 275e 17be 8377 023e
000000a0: 9c67 50be 9be1 89bd c4b4 1cbd 2ecd 3ebd
000000b0: 2cd1 3a3c 20e6 edbc f03f 53bc 9854 82be
000000c0: c484 35be 3a11 a33d d54f d73d 932b cfbd
000000d0: 22d6 44bd 95dd 6ebd c077 9e3b 42ad 43bd
000000e0: 15c4 29bd 4e03 9f3d 2003 293e 2815 88bd
000000f0: 78de ae3c 4382 2e3e b20d e8bd a73d 743e
00000100: 4c39 bebc f07e e0bd 0f0e 2a3e 9586 fa3d
00000110: fd61 b4bc 6d47 813e e998 463e 0574 ef3d
00000120: 9751 f03d 38f7 1cbe 5b29 253d ab05 5a3d
00000130: a2f7 2c3e 6b58 81bd e0b6 d8bc 3434 993d
00000140: 0218 323e b506 f23c 1626 053d e29d 163e
00000150: b7d3 ec3d 2565 a73d 4f6f 95bd e9af 963c
00000160: 5cae 15bd f263 09be 3faa d0bc ece1 8a3d
00000170: a992 803d 2130 62be ccea fcbd b067 59bd
00000180: 37ea 073e 9047 ddbd 1dc7 78ba 9cd7 6a3d
00000190: 6d7e 05be c6d8 31be b497 313e c899 ebbd
000001a0: 4723 29be 404c 06be b60f 1bbd 6686 1d3e
000001b0: 241e 5abd d2cd 053d 944d 6ebd bffb ff3d
000001c0: f7ce 473e 0760 ecbc 0fec 14be 6e7c f13c
000001d0: c574 4cbe 9ad2 16be 32ad 05be 8de6 6c3e
000001e0: 405c 20be f6c2 20be 50f0 083e 0a10 24bd
000001f0: 0fc2 5bbe e5e7 46be f087 a6bd 323a a23d
00000200: 8d99 133e a74d 7e3e 6079 933d 98c0 c5bd
00000210: f51a 36be 80da 7dbd 997e f2bd d513 36be
00000220: 72b7 43bc de91 a13d 29d2 1f3e 2cd3 7d3d
00000230: 2cc8 14be 3f06 33bd 7b2c 1e3d 24c4 d1bd
00000240: 3864 58bd ff26 e4bd f81f 183e da70 d73d
00000250: 6a39 23bd 1cec 263e 07c0 9abd 6222 033e
00000260: 5a15 2c3d 58b0 323b cf34 38be 97c0 7f3d
00000270: 8ada bdbd 5627 6fbc 3f11 3c3e 9571 8e3d
00000280: 48cc cabd 5831 86be 3162 f6bd d887 21be
00000290: ecdd 11be 6056 dcbd 4eb7 31bd b28e 753d
000002a0: 5489 3ebe fec3 ef3b b9c9 8cbd b805 84be
000002b0: b749 8fbd 8f49 963d 58f3 72be 2a21 4e3e
000002c0: a337 073d 0a36 e23d 4b6e 3dbe 8099 75be
000002d0: 5b11 aebd db0d 363e 3b41 37bc f6e3 a43c
000002e0: 4890 d23d 0225 09be 908f a93c 4176 883d
000002f0: ce3e 27bd 76be 48bd fc9c 05be e2d5 13bd
00000300: a758 193d 1795 21be 2bbf ad3c 1803 22be
00000310: aa0f 2e3e 5905 30bc 18b0 7bbd eb3b 0b3e
00000320: 5e61 893d d963 f63d e350 9d3e d24f a93d
00000330: de56 0e3e 57e4 9d3e 2537 9bbd 6adc e3bd
00000340: 7a28 59bc de35 993d dcb1 f73c 6079 04be
00000350: c195 a03d d6ad 333e c811 be3d 4c0e fd3b
00000360: 40a0 d338 9668 1bbe 8fd0 2bbe 0f0a 67bd
00000370: bd50 813d 8570 013c b51b 7a3d 5796 8fbc
00000380: e750 513e acc5 793d 411e b3bd 1405 54bd
00000390: 9ec7 653c 58f2 28be bfaf 4fbe c626 56bd
000003a0: 8451 8f3d a0b2 09be a313 71be a00e 97bc
000003b0: 07c6 45bd 2809 41bd 89e2 b5bd 6e03 07be
000003c0: 83b5 1e3e 3094 14bd ed93 afbc 0880 ca3d
000003d0: 8722 a23e c068 38bc cd40 99bd 29d0 19be
000003e0: 1305 26bd 440e 4fbe 5879 44be 0f40 fdbc
000003f0: 6277 a4bc 2dc0 f43c da19 0fbe a2f8 ddbd

_actor_critic.actor.preprocess.model.model.2.bias f4 [64]
0.0 0.0 0.0 0.0 0.0 0.0 0.0 0.0
0.0 0.0 0.0 0.0 0.0 0.0 0.0 0.0
0.0 0.0 0.0 0.0 0.0 0.0 0.0 0.0
0.0 0.0 0.0 0.0 0.0 0.0 0.0 0.0
0.0 0.0 0.0 0.0 0.0 0.0 0.0 0.0
0.0 0.0 0.0 0.0 0.0 0.0 0.0 0.0
0.0 0.0 0.0 0.0 0.0 0.0 0.0 0.0
0.0 0.0 0.0 0.0 0.0 0.0 0.0 0.0
00000000: 0000 0000 0000 0000 0000 0000 0000 0000
00000010: 0000 0000 0000 0000 0000 0000 0000 0000
00000020: 0000 0000 0000 0000 0000 0000 0000 0000
00000030: 0000 0000 0000 0000 0000 0000 0000 0000
00000040: 0000 0000 0000 0000 0000 0000 0000 0000
00000050: 0000 0000 0000 0000 0000 0000 0000 0000
00000060: 0000 0000 0000 0000 0000 0000 0000 0000
00000070: 0000 0000 0000 0000 0000 0000 0000 0000
00000080: 0000 0000 0000 0000 0000 0000 0000 0000
00000090: 0000 0000 0000 0000 0000 0000 0000 0000
000000a0: 0000 0000 0000 0000 0000 0000 0000 0000
000000b0: 0000 0000 0000 0000 0000 0000 0000 0000
000000c0: 0000 0000 0000 0000 0000 0000 0000 0000
000000d0: 0000 0000 0000 0000 0000 0000 0000 0000
000000e0: 0000 0000 0000 0000 0000 0000 0000 0000
000000f0: 0000 0000 0000 0000 0000 0000 0000 0000
